BRIOS/models/model_file/biros_base/base_brios.pt (torch, 628066 bytes, 26 tensors)

rios_f.RIOS_H.rnn_cell0.weight_ih f4 [384, 2]
0	0x3daf13fa	0.08548732
1	0xbc259d2e	-0.010108275
2	0xb5ff8e8b	-1.9040466e-06
3	0xb534ddd0	-6.7378005e-07
4	0xb6eb060c	-7.0042497e-06
5	0xb6bcea74	-5.6301305e-06
6	0xb8e214bf	-0.00010780384
7	0xb9181bfb	-0.00014506273
8	0xb81621e7	-3.579436e-05
9	0xb75004c0	-1.2398872e-05
10	0xb80df4b3	-3.3844914e-05
11	0xb82f87c0	-4.184968e-05
12	0x35cabfbf	1.5105978e-06
13	0x35af15c3	1.304485e-06
14	0x3d224e35	0.039625365
15	0x3d685b87	0.056727912
16	0xb770a75e	-1.4344083e-05
17	0xb7a43fbe	-1.9580006e-05
18	0x3a8a4964	0.0010550437
19	0x3bfdb104	0.007742049
20	0x360acb9f	2.0682126e-06
21	0x35b13871	1.3203954e-06
22	0xb65294c5	-3.1379034e-06
23	0xb68306b3	-3.904884e-06
24	0x3d3fd114	0.04683025
25	0x3dd779c9	0.105212756
26	0x35acd405	1.2876704e-06
27	0x35df56db	1.6640073e-06
28	0x34fc6a05	4.7015797e-07
29	0x34abdbaa	3.201106e-07
30	0xb69b1cf8	-4.6227324e-06
31	0x37b90e3f	2.2060352e-05
32	0xb65092dc	-3.1079899e-06
33	0x3697b2ba	4.520957e-06
34	0xb6f28a4c	-7.228262e-06
35	0xb6ca2988	-6.024904e-06
36	0xb81828ee	-3.6277743e-05
37	0xb8951901	-7.109531e-05
38	0xb45102c3	-1.9465647e-07
39	0xb4c8bba6	-3.7389435e-07
40	0x37291ef1	1.0080389e-05
41	0x36bd8bd2	5.648916e-06
42	0xb6d90cf8	-6.4686137e-06
43	0xb6aaa397	-5.085439e-06
44	0xb50fb19e	-5.353012e-07
45	0xb47cbb1b	-2.3537397e-07
46	0xb69e931b	-4.7258923e-06
47	0x37ba70c3	2.2225437e-05
48	0xb6a25e68	-4.8389666e-06
49	0x37bba502	2.2368975e-05
50	0xb50cf883	-5.2515696e-07
51	0xb5929955	-1.0922473e-06
52	0xbdca72df	-0.09885191
53	0x3d52d805	0.051475544
54	0x35bf8bde	1.4271316e-06
55	0x35ebfc24	1.7582247e-06
56	0xb7601370	-1.3355966e-05
57	0x36e5545c	6.8345526e-06
58	0x3646b2fc	2.9608482e-06
59	0x3639ab49	2.766685e-06
60	0xb69e3a34	-4.7155427e-06
61	0x37ba3908	2.2199485e-05
62	0x39d41bce	0.00040456507
63	0x3a30f341	0.0006750115
64	0xb69e54c2	-4.718634e-06
65	0x37ba283b	2.2191662e-05
66	0xb7869cf0	-1.6047125e-05
67	0xb5f86a4a	-1.8508374e-06
68	0x3601d9cc	1.9349272e-06
69	0x361cb3a3	2.3350374e-06
70	0xb69b3a58	-4.626152e-06
71	0x37b8dbf0	2.2036926e-05
72	0x3b4ae2ab	0.0030957859
73	0x3b863264	0.0040953625
74	0xb7304d9a	-1.05084855e-05
75	0x3703cee1	7.856376e-06
76	0xb7758902	-1.4635038e-05
77	0xb80e7dcc	-3.3972596e-05
78	0x3992c6d2	0.00027995423
79	0x399c8784	0.00029855606
80	0xb4d1c186	-3.907009e-07
81	0x345e4748	2.0701293e-07
82	0xb8023af1	-3.104931e-05
83	0xb8441a1e	-4.6754365e-05
84	0xb61d1670	-2.3407883e-06
85	0xb68a7138	-4.125901e-06
86	0xb5b8120d	-1.3714322e-06
87	0x34f67a2c	4.5909962e-07
88	0xb61e723b	-2.3610326e-06
89	0xb60b9181	-2.0797308e-06
90	0x3d145462	0.036213286
91	0x3e42ce30	0.19023967
92	0xba5ea9a5	-0.0008493907
93	0xb88efdbe	-6.818351e-05
94	0xb9a72f6c	-0.00031888054
95	0xb99bc913	-0.00029713716
96	0xb7435e2f	-1.1644835e-05
97	0xb86534b2	-5.464693e-05
98	0x3bef4cfe	0.0073028794
99	0xbc98127a	-0.018563498
100	0xb74f2470	-1.2346645e-05
101	0xb79ae8d2	-1.8466646e-05
102	0xbc1161e3	-0.008873436
103	0x3d005c9f	0.03133833
104	0xb987e1e3	-0.00025917505
105	0xb9148f35	-0.00014167729
106	0xb7ca09ab	-2.4084778e-05
107	0xb83361e6	-4.27681e-05
108	0x38b16812	8.459402e-05
109	0x392867e1	0.00016060426
110	0x39be7183	0.00036324197
111	0x39be6b62	0.0003631963
112	0xb46c34be	-2.19984e-07
113	0xb4a3c7bc	-3.0506442e-07
114	0x3d8496a4	0.06474045
115	0x3e1eca88	0.15506947
116	0xb5371873	-6.820839e-07
117	0xb57bdc6c	-9.382554e-07
118	0x3db2136f	0.08695113
119	0x3d4ff868	0.050774008
120	0xb6a20820	-4.828922e-06
121	0x37bbf1df	2.2404767e-05
122	0xb792530e	-1.7443232e-05
123	0xb800908a	-3.065219e-05
124	0x364695f9	2.9591595e-06
125	0x35b8980b	1.3753319e-06
126	0xb425a0a5	-1.5425265e-07
127	0xb54d643f	-7.651433e-07
128	0xb69f72fc	-4.751955e-06
129	0x37bac5a2	2.2264958e-05
130	0xb805b85b	-3.1881365e-05
131	0xb7b45555	-2.1497408e-05
132	0xbdcb29a8	-0.09920055
133	0xbdd20ce2	-0.102563635
134	0x36bd8a11	5.648712e-06
135	0x36f7b392	7.3820784e-06
136	0x36f0265f	7.1570244e-06
137	0x365f3f67	3.3266494e-06
138	0xbd8a2703	-0.06745722
139	0x3d70f84a	0.058830537
140	0xb49629e9	-2.797017e-07
141	0x34b95622	3.4521605e-07
142	0xb7f17eb5	-2.8788441e-05
143	0xb7e730d8	-2.756009e-05
144	0x363c8b4a	2.809526e-06
145	0xb589ba83	-1.0261577e-06
146	0xb952825a	-0.0002007572
147	0xb8d6331a	-0.000102138336
148	0xb6f9ca99	-7.4443637e-06
149	0xb7b17bc3	-2.1157675e-05
150	0xb9b16b12	-0.00033839844
151	0x39bfe350	0.0003659972
152	0xba1fafd5	-0.00060915697
153	0xbcdd62e5	-0.027024696
154	0xb686e7f7	-4.0205155e-06
155	0xb5d64d96	-1.5966823e-06
156	0x39361c29	0.00017367363
157	0xb8978c66	-7.226392e-05
158	0x3be3e86f	0.0069551985
159	0x3a11c59d	0.00055607577
160	0x3484dc65	2.4747274e-07
161	0x360ee60e	2.1293558e-06
162	0xb73244ab	-1.0625615e-05
163	0x361cd59d	2.337015e-06
164	0x3d394dad	0.045240093
165	0xbe384c23	-0.17997794
166	0xb6a8ddf2	-5.032628e-06
167	0x37bdb5a5	2.261514e-05
168	0xb78e743d	-1.6981847e-05
169	0xb80bff1d	-3.3377775e-05
170	0x346565a5	2.1364265e-07
171	0xb6251888	-2.4601195e-06
172	0x36d7fced	6.4369437e-06
173	0x3712b734	8.744933e-06
174	0xb6a18587	-4.8137185e-06
175	0x37bb6ac4	2.2341854e-05
176	0xbab17554	-0.0013538995
177	0x3a28a6ff	0.0006433576
178	0xb7023b32	-7.762386e-06
179	0xb701f388	-7.745701e-06
180	0xb60686e0	-2.0046064e-06
181	0xb528391b	-6.2667976e-07
182	0xb8a0c3aa	-7.66584e-05
183	0xb8490828	-4.792973e-05
184	0x37be167c	2.2660235e-05
185	0x37ea0c5e	2.7900733e-05
186	0xb52ef294	-6.517305e-07
187	0xb534ceb8	-6.735604e-07
188	0xb761103a	-1.3414823e-05
189	0xb7f24fbc	-2.8885777e-05
190	0x3d0ee974	0.034890607
191	0x3d239d6e	0.03994506
192	0x3d4ea3dd	0.05044924
193	0xbe07ccfb	-0.13261788
194	0xb9347038	-0.00017207942
195	0xb905419c	-0.0001270831
196	0xb8617a8f	-5.3758322e-05
197	0xb87bfe72	-6.0080034e-05
198	0xba04a102	-0.00050593924
199	0x3967ab45	0.0002209368
200	0xba85c252	-0.0010205007
201	0x3adfcbd1	0.0017074292
202	0xb9c2b179	-0.0003713479
203	0x3a208791	0.00061237166
204	0xb932f25d	-0.0001706569
205	0xb91208c4	-0.0001392691
206	0xbd78cdbc	-0.06074308
207	0x3d29b1fe	0.041429512
208	0xba0bf162	-0.0005338398
209	0xb9838ce9	-0.00025091253
210	0xbb23b3b7	-0.0024978945
211	0x3cc19677	0.023631318
212	0xb641364d	-2.8790848e-06
213	0xb62581b9	-2.4662424e-06
214	0xb9043f25	-0.00012612024
215	0xb73b29e7	-1.1155825e-05
216	0xbdf38968	-0.118914425
217	0xbe0878e2	-0.13327363
218	0xb93fdad0	-0.00018296693
219	0xb91f6d39	-0.0001520411
220	0xb872bc7b	-5.7872832e-05
221	0xb8b2f199	-8.5327025e-05
222	0xb9682860	-0.00022140285
223	0xb9362e55	-0.00017374133
224	0xb9162c97	-0.00014321726
225	0x38916eb2	6.9347574e-05
226	0xb8256881	-3.9436392e-05
227	0x38add1e4	8.288378e-05
228	0xba44907f	-0.0007498338
229	0xbb14872b	-0.0022663574
230	0xb91fe2c5	-0.000152479
231	0xb91c569d	-0.00014909585
232	0xb93bc233	-0.00017906055
233	0xb897c741	-7.237355e-05
234	0xb8a5d851	-7.908105e-05
235	0xb82cb4f5	-4.1176525e-05
236	0xb58a80c4	-1.0319277e-06
237	0xb4ed55fa	-4.4207246e-07
238	0xb9693b6c	-0.00022242748
239	0xb93634d0	-0.00017376547
240	0xb96a51a8	-0.00022346398
241	0xb9365933	-0.00017390102
242	0xb851fe87	-5.006653e-05
243	0xb89bbda2	-7.426298e-05
244	0x3c02ce20	0.007983714
245	0x3c737371	0.014859066
246	0xb91d1212	-0.00014979418
247	0xb91b4e60	-0.00014811149
248	0xbab32757	-0.001366834
249	0x39b46dda	0.0003441412
250	0xb8511ee1	-4.985824e-05
251	0xb883f0c1	-6.291411e-05
252	0xb9690d05	-0.00022225462
253	0xb9361cf6	-0.00017367661
254	0xbaedae1d	-0.0018133555
255	0xbacd0876	-0.001564278

rios_f.RIOS_H.rnn_cell0.weight_hh f4 [384, 96]
0	0xbd5e06f5	-0.054205853
1	0xbd427635	-0.047476012
2	0x3d91394f	0.07091009
3	0x3b89b2a2	0.004202203
4	0x3db18a70	0.08668983
5	0x3d5cffff	0.053955074
6	0x3d3addbe	0.045621626
7	0xbafe1d50	-0.0019387398
8	0xbdbcddf4	-0.09222022
9	0x3cc3e7bf	0.023914216
10	0x37fa3aa6	2.9829633e-05
11	0x3cf1617b	0.029465428
12	0x3d070fe5	0.032974143
13	0x3d3a372e	0.04546278
14	0x3d67d0c6	0.056595586
15	0xbdb8babc	-0.09019992
16	0x3d32805c	0.043579444
17	0xbce73151	-0.028221758
18	0xbc7ec9c4	-0.015551034
19	0x3d2301cb	0.03979663
20	0x3d8b4a52	0.06801285
21	0x3d0a09d6	0.033700787
22	0x3895e9ef	7.148447e-05
23	0xbdb8d441	-0.09024859
24	0xbdb8dcf4	-0.090265185
25	0xbcf84d72	-0.030310366
26	0x3cf44145	0.02981628
27	0x3d81ebeb	0.06343826
28	0x3d9657d4	0.07340971
29	0x3d748a14	0.059701994
30	0x3db8c265	0.09021453
31	0xbdb9f15d	-0.090792395
32	0xbdb8d911	-0.09025777
33	0x3d6f3dda	0.058408596
34	0xb9954509	-0.0002847093
35	0x3db8c84c	0.090225786
36	0xbaf07780	-0.0018346161
37	0x3c76e80b	0.015069972
38	0x3b8e5ea7	0.0043447795
39	0xbd775d4e	-0.060391717
40	0xb8912e55	-6.922769e-05
41	0x3d88c0f6	0.066774294
42	0x3cbb9318	0.022897288
43	0xbd085433	-0.033283424
44	0xb930ade0	-0.00016849441
45	0x3c37d1fe	0.0112195
46	0xbd01072e	-0.031500988
47	0xbd2cbf9e	-0.042174928
48	0xbd8103e4	-0.0629957
49	0xbd7964e9	-0.06088725
50	0x3cfa282d	0.030536735
51	0xbb2ce501	-0.0026381614
52	0xbd6d6b34	-0.057963565
53	0xbd326634	-0.0435545
54	0xbc37fbc9	-0.011229464
55	0x3ce6e447	0.028185023
56	0x3d41ea7f	0.047342774
57	0xbc9e463c	-0.0193206
58	0xbce3bb27	-0.027799202
59	0x3d4ce76e	0.050025396
60	0xbdb8c2c8	-0.090215266
61	0xbdea0bed	-0.11428056
62	0xbb83e5fd	-0.0040252195
63	0xb982a5ff	-0.0002491921
64	0xbdb8cf77	-0.09023946
65	0x3c599e26	0.013282334
66	0x3d496a8d	0.04917388
67	0xbb4251a5	-0.0029650715
68	0x3b3d6965	0.0028901931
69	0x3d305ef3	0.0430593
70	0x3bea1fd3	0.007144907
71	0xbd2162d3	-0.039400887
72	0x3d8e1803	0.069381736
73	0xbc7ef39b	-0.01556101
74	0x3ce2c6a8	0.027682617
75	0xbb568c39	-0.0032737388
76	0xbdacce07	-0.08437734
77	0xbd864e68	-0.065579236
78	0x3d1a229d	0.037630666
79	0xbd2ce70e	-0.04221254
80	0xbdbd7b0d	-0.09251986
81	0xbd988e20	-0.07448983
82	0x3cbba711	0.022906812
83	0xbdb8c77c	-0.090224236
84	0xbd0ee974	-0.034890607
85	0x3c1e1c50	0.009650305
86	0xbd15a959	-0.036538456
87	0xbdb8c34c	-0.09021625
88	0xbca5cb98	-0.020238683
89	0xbc3a1747	-0.011358089
90	0x3d81a5a0	0.063304186
91	0xbd04b67b	-0.03240059
92	0xbd95702c	-0.07296786
93	0x369ba866	4.638964e-06
94	0xbb7d0f16	-0.0038613728
95	0x3dda6fc7	0.10665851
96	0x35a07798	1.1955735e-06
97	0x35da683d	1.6272603e-06
98	0x355b2caf	8.164888e-07
99	0xb60d95b5	-2.1097778e-06
100	0xb5a1808a	-1.2032845e-06
101	0xb4c5a4c7	-3.6814e-07
102	0xb528267a	-6.264087e-07
103	0x35957fcb	1.1138558e-06
104	0x3591dc38	1.0867434e-06
105	0xb52d837a	-6.4638846e-07
106	0x32a4a38e	1.9166489e-08
107	0xb60bf184	-2.0853195e-06
108	0xb5e4a071	-1.7034018e-06
109	0xb601b097	-1.9325287e-06
110	0xb5a35902	-1.2170351e-06
111	0x3609e41b	2.0547366e-06
112	0xb5b94ac5	-1.3805335e-06
113	0xb538e6f2	-6.888141e-07
114	0xb5a48e3c	-1.2260348e-06
115	0xb5fd4b82	-1.8871945e-06
116	0xb6424905	-2.8950756e-06
117	0x3552db91	7.855061e-07
118	0x31089789	1.9876742e-09
119	0x3609d991	2.0541231e-06
120	0x3609c896	2.0531347e-06
121	0x352564e2	6.1614094e-07
122	0xb5551c8b	-7.939022e-07
123	0xb637a75c	-2.736654e-06
124	0xb6031542	-1.9532895e-06
125	0xb61a6b96	-2.3010411e-06
126	0xb609dd76	-2.0543498e-06
127	0x35be0dc8	1.4160114e-06
128	0x3609e74e	2.0549228e-06
129	0xb53e83b7	-7.0972186e-07
130	0x32a7b08e	1.9521647e-08
131	0xb609dd57	-2.0543428e-06
132	0x35595f45	8.0977435e-07
133	0x3631bbdc	2.6484404e-06
134	0xb56b3058	-8.761467e-07
135	0x35937355	1.098592e-06
136	0x31d33fc2	6.1481567e-09
137	0xb601bce6	-1.9332451e-06
138	0xb6326a45	-2.6585924e-06
139	0x35691dc6	8.684259e-07
140	0x311a4763	2.2450528e-09
141	0xb5fc4e99	-1.8798338e-06
142	0x353108a0	6.595019e-07
143	0xb55b1df3	-8.162744e-07
144	0x3618a59d	2.2746165e-06
145	0x35960317	1.117677e-06
146	0xb5ee718d	-1.776543e-06
147	0x3518136d	5.665268e-07
148	0x363370e7	2.6738796e-06
149	0x35a16ddd	1.2027409e-06
150	0x3406097f	1.2483177e-07
151	0xb6077730	-2.0185944e-06
152	0xb615ca33	-2.2320426e-06
153	0xb48b7283	-2.5974086e-07
154	0x35da6bbc	1.627362e-06
155	0xb5265d53	-6.1975624e-07
156	0x3609f335	2.0556156e-06
157	0x35f83549	1.8492948e-06
158	0xb6262c31	-2.476165e-06
159	0x31fa1400	7.2782314e-09
160	0x3609e0bf	2.054541e-06
161	0xb5dec622	-1.6597953e-06
162	0xb58cc2db	-1.0487523e-06
163	0x35a4df5c	1.2283958e-06
164	0xb5b6d7ef	-1.3622902e-06
165	0xb5ed3a75	-1.7674889e-06
166	0xb5e919a9	-1.7367321e-06
167	0xb63626d7	-2.7142721e-06
168	0x35930ae6	1.0955525e-06
169	0x35394448	6.901723e-07
170	0x350b91ec	5.199388e-07
171	0x3618685f	2.2710517e-06
172	0x352fbe11	6.5469163e-07
173	0x360791aa	2.0201355e-06
174	0x32485698	1.1661221e-08
175	0x34eab11d	4.3714763e-07
176	0x36156f1b	2.2267402e-06
177	0x35c1a264	1.4426882e-06
178	0xb559e4d7	-8.1171805e-07
179	0x3609af97	2.0516798e-06
180	0x35c95998	1.5001742e-06
181	0x3548eb14	7.484789e-07
182	0x359f7e29	1.1883141e-06
183	0x3609dcce	2.0543116e-06
184	0xb55fbfb2	-8.3352927e-07
185	0xb5b5a7ac	-1.353435e-06
186	0xb61f5fa8	-2.3748526e-06
187	0x36478ef6	2.9736525e-06
188	0x36391adb	2.758278e-06
189	0x3159271b	3.1599885e-09
190	0x3654c7fd	3.170687e-06
191	0xb5f681b9	-1.8366183e-06
192	0xb67d976d	-3.778808e-06
193	0x37660896	1.3711067e-05
194	0xb59f0417	-1.1847613e-06
195	0xb5da520b	-1.6266143e-06
196	0xb78c0d6c	-1.669555e-05
197	0xb7082e93	-8.117076e-06
198	0xb70ba735	-8.3239765e-06
199	0xb5e2afd6	-1.6889487e-06
200	0x36ffa9e6	7.619371e-06
201	0x366a8794	3.4947634e-06
202	0xb3703b17	-5.5933096e-08
203	0x367fb73d	3.810462e-06
204	0xb69602a1	-4.4706544e-06
205	0xb725f519	-9.891833e-06
206	0x3667684c	3.448239e-06
207	0x372994c3	1.0107821e-05
208	0xb75266e1	-1.2540929e-05
209	0x3772f953	1.4482374e-05
210	0xb6410748	-2.876348e-06
211	0xb637e8ec	-2.7404703e-06
212	0xb70378f9	-7.836375e-06
213	0x35e9400d	1.7378494e-06
214	0x31a0dfce	4.6820565e-09
215	0x372992b1	1.0107339e-05
216	0x37298eff	1.0106479e-05
217	0xb4a1bf65	-3.0127845e-07
218	0x361dcf72	2.3515572e-06
219	0xb6ffa5bb	-7.618886e-06
220	0xb6f234ea	-7.218322e-06
221	0xb6a601d7	-4.9473997e-06
222	0xb72994ba	-1.0107813e-05
223	0x37676cd1	1.3794009e-05
224	0x372992b7	1.0107345e-05
225	0xb76389ed	-1.3562368e-05
226	0xb2b78e9c	-2.1368855e-08
227	0xb729941c	-1.0107669e-05
228	0xb706b33c	-8.028754e-06
229	0x35b9ab1b	1.3833372e-06
230	0xb510458a	-5.3745373e-07
231	0x37861465	1.5983542e-05
232	0xb1ac89dc	-5.0215316e-09
233	0xb789e00b	-1.6436e-05
234	0xb58ce308	-1.0496888e-06
235	0x375c1f43	1.31203005e-05
236	0x327009a0	1.3972027e-08
237	0x36114542	2.1646997e-06
238	0x33c4cfd7	9.164767e-08
239	0x36ebbb5c	7.0253573e-06
240	0x370e647c	8.487255e-06
241	0x359b302d	1.1562421e-06
242	0xb6cb6cb8	-6.062528e-06
243	0x35f36393	1.8133891e-06
244	0x372b5bcb	1.02137665e-05
245	0x36be672b	5.6744516e-06
246	0x36a24aae	4.83667e-06
247	0xb6426a38	-2.897008e-06
248	0xb72e0611	-1.0372621e-05
249	0x36ec46b5	7.0415795e-06
250	0x3694aa94	4.4306016e-06
251	0xb5c05e81	-1.4332619e-06
252	0x3729956b	1.0107974e-05
253	0x373bf1f7	1.1202405e-05
254	0x36c57962	5.8851883e-06
255	0x32cd04c6	2.3867312e-08

rios_f.RIOS_H.rnn_cell0.bias_ih f4 [384]
0	0x3d3d455f	0.046208736
1	0xb637045b	-2.727166e-06
2	0xb72ca6b7	-1.0290815e-05
3	0xb8cd2968	-9.782874e-05
4	0xb8af8ff5	-8.371464e-05
5	0xb88c64b7	-6.69448e-05
6	0x36886ca3	4.065763e-06
7	0x3dd94742	0.106092945
8	0xb7e3eebd	-2.717168e-05
9	0x3b9eb0b6	0.004842843
10	0x364143c5	2.8798688e-06
11	0xb5747c7a	-9.107822e-07
12	0x3e21b94d	0.15793343
13	0x3697d6c9	4.525155e-06
14	0xb68b09ae	-4.1436497e-06
15	0xb72a7b23	-1.016146e-05
16	0xb7d10b76	-2.4920078e-05
17	0xb7e01514	-2.6712696e-05
18	0xb8bc003d	-8.964583e-05
19	0x36304584	2.6266507e-06
20	0x37a50c13	1.9675155e-05
21	0x35a3cc23	1.2203858e-06
22	0x347ef313	2.3744023e-07
23	0xb72bc437	-1.0238079e-05
24	0xb72d5367	-1.0331022e-05
25	0x369ff28c	4.7668054e-06
26	0x3dcabfd5	0.0989987
27	0x369f2173	4.7424633e-06
28	0xb89bc2a6	-7.427232e-05
29	0x36d55afc	6.3584866e-06
30	0xb72b9bb6	-1.02286485e-05
31	0x3963508b	0.00021678412
32	0xb72bb6e8	-1.023498e-05
33	0xb87fc283	-6.097789e-05
34	0x3627c459	2.4999229e-06
35	0xb72a7df6	-1.0162117e-05
36	0x3b3490fe	0.0027552242
37	0xb7580d3c	-1.2877685e-05
38	0xb85abf14	-5.2153206e-05
39	0x36ab5a18	5.1066854e-06
40	0xb59174d7	-1.0837347e-06
41	0xb82303cb	-3.886576e-05
42	0xb634b154	-2.6925309e-06
43	0xb536c31c	-6.8084205e-07
44	0xb68040ca	-3.8222397e-06
45	0x3ddff3b6	0.10935156
46	0x39e6c295	0.00044013993
47	0xb984c884	-0.00025326398
48	0xb8bb4eee	-8.931557e-05
49	0x3deef979	0.11668677
50	0xb7dc3436	-2.6250356e-05
51	0x3d803712	0.06260504
52	0xb8aa0505	-8.107167e-05
53	0xb8ec0e83	-0.0001125606
54	0x3715b190	8.922434e-06
55	0xb92115ba	-0.0001536225
56	0x36339889	2.6761866e-06
57	0x3e30b514	0.17256576
58	0xb5ee1fc8	-1.7741631e-06
59	0x3d98bdc7	0.07458072
60	0xb72d65df	-1.0335322e-05
61	0xb7ff6987	-3.0447509e-05
62	0x3651d112	3.1265122e-06
63	0xb6f2bcf6	-7.23416e-06
64	0xb72c2111	-1.0259698e-05
65	0xb823a68d	-3.901734e-05
66	0x3e4a41dc	0.19751686
67	0x36da9b60	6.5149943e-06
68	0xb90372b5	-0.00012535865
69	0x3e099084	0.13434035
70	0x3649cf0b	3.007185e-06
71	0xb81e0ba4	-3.7680977e-05
72	0x372958a2	1.0093821e-05
73	0xb984fb8a	-0.00025364413
74	0xb825aeda	-3.950191e-05
75	0x38ee6669	0.000113678
76	0x3df0725a	0.11740561
77	0xb5a992e7	-1.2634235e-06
78	0xb9c43e0d	-0.00037430265
79	0x3b9874af	0.0046525816
80	0x3680ad4f	3.834873e-06
81	0xb7f9b349	-2.97666e-05
82	0x3e229796	0.15878138
83	0xb72f611c	-1.0453423e-05
84	0xb733b665	-1.0711698e-05
85	0xb6263e82	-2.4772312e-06
86	0x372c97cb	1.0287341e-05
87	0xb72cff61	-1.0311459e-05
88	0xb976a858	-0.00023523101
89	0xb7278016	-9.983798e-06
90	0x35bfbb3e	1.4285104e-06
91	0xb92d5d02	-0.00016533214
92	0xb88b45b5	-6.6410204e-05
93	0xb59cc6f4	-1.1680809e-06
94	0xb76ce228	-1.4119352e-05
95	0x3e031101	0.12799455
96	0xbd8de016	-0.069275066
97	0xb9a35246	-0.0003115108
98	0xb9790614	-0.00023748755
99	0xb9eafbc2	-0.00044819532
100	0xb8d83f14	-0.00010311432
101	0xb968a832	-0.00022187902
102	0xb991e77e	-0.0002782903
103	0x3a261474	0.0006335445
104	0xb8cca5c4	-9.758354e-05
105	0x3c623dde	0.013808696
106	0x35e392ba	1.6955521e-06
107	0xb980f7fc	-0.00024598825
108	0xbc555b13	-0.013022202
109	0xb9b2babb	-0.0003408993
110	0xb97c24d6	-0.00024046315
111	0xb9451b9e	-0.00018797672
112	0xb8a38edf	-7.7990575e-05
113	0xb9916596	-0.00027732243
114	0xba350bc1	-0.00069063535
115	0xb98890e3	-0.0002604789
116	0xb9a0c12e	-0.00030661508
117	0xb955b7f9	-0.00020381798
118	0xb57176e8	-8.995253e-07
119	0xb944cf4b	-0.00018769239
120	0xb9446df0	-0.00018732972
121	0xb967973a	-0.00022086213
122	0x3a1ba72f	0.0005937693
123	0xb9920e9c	-0.00027858175
124	0x39d230e7	0.00040090756
125	0xb954a58d	-0.00020279568
126	0xb944ed06	-0.00018780315
127	0x3ba25e89	0.004955117
128	0xb944ae5c	-0.0001875697
129	0xb917d064	-0.00014478114
130	0xb790bef2	-1.7255054e-05
131	0xb944e79e	-0.00018778301
132	0x3c000c52	0.007815437
133	0xb99245cf	-0.00027899301
134	0xb8ae3fce	-8.308851e-05
135	0x3acd58a6	0.0015666678
136	0xb5fded81	-1.8919092e-06
137	0xb9978001	-0.00028896335
138	0xb999c058	-0.0002932574
139	0xb959f4fc	-0.00020785996
140	0xb6d72887	-6.4122173e-06
141	0xbcbd2d6b	-0.023092946
142	0x3ba48e63	0.0050218566
143	0x3aa77252	0.0012775159
144	0x38c791a4	9.516187e-05
145	0xbd124feb	-0.035720747
146	0xb7f55182	-2.9244231e-05
147	0xbd04e1b0	-0.032441795
148	0x3b07c8ef	0.002071913
149	0x3848bf0b	4.786164e-05
150	0xb9b5c267	-0.0003466785
151	0x3b82fd92	0.003997513
152	0xb98221f7	-0.00024820838
153	0x3b4738a3	0.0030398748
154	0xb9b87e05	-0.00035189107
155	0x3c01122a	0.007877866
156	0xb944b91a	-0.00018760972
157	0xb9691c63	-0.00022231186
158	0xb9598691	-0.00020744863
159	0xb7e22ac9	-2.6961223e-05
160	0xb944ca9c	-0.00018767494
161	0xb8ebf932	-0.000112520895
162	0xbce1c518	-0.027559802
163	0xb981a962	-0.00024730997
164	0x385d9466	5.2828713e-05
165	0xbd94fb1c	-0.07274458
166	0xb985c904	-0.00025517505
167	0xb89ab8e8	-7.377734e-05
168	0xb94e06c0	-0.00019648205
169	0x3a210241	0.00061419985
170	0xb908f5a3	-0.00013061478
171	0xb9e21d69	-0.0004312799
172	0xbd01451d	-0.031560052
173	0xb970d15d	-0.00022966177
174	0x3b3fec7c	0.0029285243
175	0x3c2faa62	0.010721775
176	0xb97880e3	-0.00023699137
177	0xb8eb573d	-0.000112219226
178	0x3dc16a99	0.0944416
179	0xb94432a7	-0.00018710886
180	0xb96f1bda	-0.00022803192
181	0xb9ca2005	-0.000385523
182	0xb96284cf	-0.00021602515
183	0xb944a80c	-0.00018754619
184	0x3b455758	0.0030111875
185	0xb908e439	-0.0001305499
186	0xb9819b2d	-0.00024720412
187	0x3924d5b3	0.00015719868
188	0xb8d8deaf	-0.00010341161
189	0xb631d136	-2.6496832e-06
190	0xb97b6dae	-0.00023978084
191	0xbca2d74f	-0.019878058
192	0x3cdec5c6	0.027193915
193	0x39a90f75	0.00032245708
194	0x377f18b9	1.5204941e-05
195	0xb9944ef2	-0.0002828758
196	0xba9e5ca9	-0.0012082058
197	0xba0d3659	-0.00053868216
198	0xb9969915	-0.00028724284
199	0x3c8d5aee	0.017255273
200	0x39bdd68e	0.00036208745
201	0x3bdf4987	0.006814185
202	0x394ecb20	0.00019721361
203	0xb9a06093	-0.00030589532
204	0xbc8c12c6	-0.017098796
205	0xb9d72075	-0.00041032178
206	0x3894ca21	7.0948394e-05
207	0x397ceffc	0.00024121994
208	0xb960d3a2	-0.00021441144
209	0x3a1b6cf3	0.00059290155
210	0xba06aa4f	-0.00051370723
211	0xb99b7ba5	-0.00029656026
212	0xb9d112f8	-0.0003987772
213	0x3904fd59	0.0001268288
214	0xb82c7bf4	-4.1123436e-05
215	0x397d1ab9	0.00024137915
216	0x397d16de	0.00024136479
217	0x399056fd	0.00027530632
218	0xbc8de8e2	-0.017322961
219	0xb9add9d7	-0.00033159435
220	0xbab5f566	-0.0013882339
221	0xb9ae667f	-0.00033264232
222	0xb97d21a1	-0.00024140488
223	0x3bb4eefc	0.005521653
224	0x397ce052	0.00024116159
225	0x39293876	0.0001613813
226	0x38a61c53	7.9207726e-05
227	0xb97cc48d	-0.00024105814
228	0xbbd5846c	-0.00651603
229	0x38980d4b	7.250401e-05
230	0xb9d17aea	-0.00039955165
231	0x3b69970c	0.003564301
232	0xb800da12	-3.0720672e-05
233	0xb8b0ac17	-8.424388e-05
234	0xb99f23ff	-0.00030353662
235	0x399c0efe	0.0002976581
236	0xb8cc9e69	-9.756984e-05
237	0xbe29a4fa	-0.1656684
238	0x3b5e889f	0.0033955944
239	0x3a8c37f6	0.001069783
240	0x3b12cb0f	0.0022398864
241	0xbde5a235	-0.11212579
242	0xba4a4584	-0.0007716047
243	0x3c50eae3	0.012751314
244	0xba08a03f	-0.0005211867
245	0x3ad4173a	0.0016181238
246	0xbb0bcdea	-0.002133245
247	0xbbb92bb9	-0.005650964
248	0xb9930e40	-0.00028048642
249	0x3ec12287	0.37721655
250	0x398afc1e	0.00026509253
251	0x3c268a89	0.010164865
252	0x397d61a8	0.0002416434
253	0x3a4f1d18	0.00079007586
254	0xb873e454	-5.8148362e-05
255	0xb8b780fb	-8.7501445e-05

rios_f.RIOS_H.rnn_cell0.bias_hh f4 [384]
0	0x3d3d455f	0.046208736
1	0xb637045b	-2.727166e-06
2	0xb72ca6b7	-1.0290815e-05
3	0xb8cd2968	-9.782874e-05
4	0xb8af8ff5	-8.371464e-05
5	0xb88c64b7	-6.69448e-05
6	0x36886ca3	4.065763e-06
7	0x3dd94742	0.106092945
8	0xb7e3eebd	-2.717168e-05
9	0x3b9eb0b6	0.004842843
10	0x364143c5	2.8798688e-06
11	0xb5747c7a	-9.107822e-07
12	0x3e21b94d	0.15793343
13	0x3697d6c9	4.525155e-06
14	0xb68b09ae	-4.1436497e-06
15	0xb72a7b23	-1.016146e-05
16	0xb7d10b76	-2.4920078e-05
17	0xb7e01514	-2.6712696e-05
18	0xb8bc003d	-8.964583e-05
19	0x36304584	2.6266507e-06
20	0x37a50c13	1.9675155e-05
21	0x35a3cc23	1.2203858e-06
22	0x347ef313	2.3744023e-07
23	0xb72bc437	-1.0238079e-05
24	0xb72d5367	-1.0331022e-05
25	0x369ff28c	4.7668054e-06
26	0x3dcabfd5	0.0989987
27	0x369f2173	4.7424633e-06
28	0xb89bc2a6	-7.427232e-05
29	0x36d55afc	6.3584866e-06
30	0xb72b9bb6	-1.02286485e-05
31	0x3963508b	0.00021678412
32	0xb72bb6e8	-1.023498e-05
33	0xb87fc283	-6.097789e-05
34	0x3627c459	2.4999229e-06
35	0xb72a7df6	-1.0162117e-05
36	0x3b3490fe	0.0027552242
37	0xb7580d3c	-1.2877685e-05
38	0xb85abf14	-5.2153206e-05
39	0x36ab5a18	5.1066854e-06
40	0xb59174d7	-1.0837347e-06
41	0xb82303cb	-3.886576e-05
42	0xb634b154	-2.6925309e-06
43	0xb536c31c	-6.8084205e-07
44	0xb68040ca	-3.8222397e-06
45	0x3ddff3b6	0.10935156
46	0x39e6c295	0.00044013993
47	0xb984c884	-0.00025326398
48	0xb8bb4eee	-8.931557e-05
49	0x3deef979	0.11668677
50	0xb7dc3436	-2.6250356e-05
51	0x3d803712	0.06260504
52	0xb8aa0505	-8.107167e-05
53	0xb8ec0e83	-0.0001125606
54	0x3715b190	8.922434e-06
55	0xb92115ba	-0.0001536225
56	0x36339889	2.6761866e-06
57	0x3e30b514	0.17256576
58	0xb5ee1fc8	-1.7741631e-06
59	0x3d98bdc7	0.07458072
60	0xb72d65df	-1.0335322e-05
61	0xb7ff6987	-3.0447509e-05
62	0x3651d112	3.1265122e-06
63	0xb6f2bcf6	-7.23416e-06
64	0xb72c2111	-1.0259698e-05
65	0xb823a68d	-3.901734e-05
66	0x3e4a41dc	0.19751686
67	0x36da9b60	6.5149943e-06
68	0xb90372b5	-0.00012535865
69	0x3e099084	0.13434035
70	0x3649cf0b	3.007185e-06
71	0xb81e0ba4	-3.7680977e-05
72	0x372958a2	1.0093821e-05
73	0xb984fb8a	-0.00025364413
74	0xb825aeda	-3.950191e-05
75	0x38ee6669	0.000113678
76	0x3df0725a	0.11740561
77	0xb5a992e7	-1.2634235e-06
78	0xb9c43e0d	-0.00037430265
79	0x3b9874af	0.0046525816
80	0x3680ad4f	3.834873e-06
81	0xb7f9b349	-2.97666e-05
82	0x3e229796	0.15878138
83	0xb72f611c	-1.0453423e-05
84	0xb733b665	-1.0711698e-05
85	0xb6263e82	-2.4772312e-06
86	0x372c97cb	1.0287341e-05
87	0xb72cff61	-1.0311459e-05
88	0xb976a858	-0.00023523101
89	0xb7278016	-9.983798e-06
90	0x35bfbb3e	1.4285104e-06
91	0xb92d5d02	-0.00016533214
92	0xb88b45b5	-6.6410204e-05
93	0xb59cc6f4	-1.1680809e-06
94	0xb76ce228	-1.4119352e-05
95	0x3e031101	0.12799455
96	0xbd8de016	-0.069275066
97	0xb9a35246	-0.0003115108
98	0xb9790614	-0.00023748755
99	0xb9eafbc2	-0.00044819532
100	0xb8d83f14	-0.00010311432
101	0xb968a832	-0.00022187902
102	0xb991e77e	-0.0002782903
103	0x3a261474	0.0006335445
104	0xb8cca5c4	-9.758354e-05
105	0x3c623dde	0.013808696
106	0x35e392ba	1.6955521e-06
107	0xb980f7fc	-0.00024598825
108	0xbc555b13	-0.013022202
109	0xb9b2babb	-0.0003408993
110	0xb97c24d6	-0.00024046315
111	0xb9451b9e	-0.00018797672
112	0xb8a38edf	-7.7990575e-05
113	0xb9916596	-0.00027732243
114	0xba350bc1	-0.00069063535
115	0xb98890e3	-0.0002604789
116	0xb9a0c12e	-0.00030661508
117	0xb955b7f9	-0.00020381798
118	0xb57176e8	-8.995253e-07
119	0xb944cf4b	-0.00018769239
120	0xb9446df0	-0.00018732972
121	0xb967973a	-0.00022086213
122	0x3a1ba72f	0.0005937693
123	0xb9920e9c	-0.00027858175
124	0x39d230e7	0.00040090756
125	0xb954a58d	-0.00020279568
126	0xb944ed06	-0.00018780315
127	0x3ba25e89	0.004955117
128	0xb944ae5c	-0.0001875697
129	0xb917d064	-0.00014478114
130	0xb790bef2	-1.7255054e-05
131	0xb944e79e	-0.00018778301
132	0x3c000c52	0.007815437
133	0xb99245cf	-0.00027899301
134	0xb8ae3fce	-8.308851e-05
135	0x3acd58a6	0.0015666678
136	0xb5fded81	-1.8919092e-06
137	0xb9978001	-0.00028896335
138	0xb999c058	-0.0002932574
139	0xb959f4fc	-0.00020785996
140	0xb6d72887	-6.4122173e-06
141	0xbcbd2d6b	-0.023092946
142	0x3ba48e63	0.0050218566
143	0x3aa77252	0.0012775159
144	0x38c791a4	9.516187e-05
145	0xbd124feb	-0.035720747
146	0xb7f55182	-2.9244231e-05
147	0xbd04e1b0	-0.032441795
148	0x3b07c8ef	0.002071913
149	0x3848bf0b	4.786164e-05
150	0xb9b5c267	-0.0003466785
151	0x3b82fd92	0.003997513
152	0xb98221f7	-0.00024820838
153	0x3b4738a3	0.0030398748
154	0xb9b87e05	-0.00035189107
155	0x3c01122a	0.007877866
156	0xb944b91a	-0.00018760972
157	0xb9691c63	-0.00022231186
158	0xb9598691	-0.00020744863
159	0xb7e22ac9	-2.6961223e-05
160	0xb944ca9c	-0.00018767494
161	0xb8ebf932	-0.000112520895
162	0xbce1c518	-0.027559802
163	0xb981a962	-0.00024730997
164	0x385d9466	5.2828713e-05
165	0xbd94fa10	-0.07274258
166	0xb985c904	-0.00025517505
167	0xb89ab8e8	-7.377734e-05
168	0xb94e06c0	-0.00019648205
169	0x3a210241	0.00061419985
170	0xb908f5a3	-0.00013061478
171	0xb9e21d69	-0.0004312799
172	0xbd01451d	-0.031560052
173	0xb970d15d	-0.00022966177
174	0x3b3fec7c	0.0029285243
175	0x3c2faa62	0.010721775
176	0xb97880e3	-0.00023699137
177	0xb8eb573d	-0.000112219226
178	0x3dc16a99	0.0944416
179	0xb94432a7	-0.00018710886
180	0xb96f1bda	-0.00022803192
181	0xb9ca2005	-0.000385523
182	0xb96284cf	-0.00021602515
183	0xb944a80c	-0.00018754619
184	0x3b455758	0.0030111875
185	0xb908e439	-0.0001305499
186	0xb9819b2d	-0.00024720412
187	0x3924d5b3	0.00015719868
188	0xb8d8deaf	-0.00010341161
189	0xb631d136	-2.6496832e-06
190	0xb97b6dae	-0.00023978084
191	0xbca2da05	-0.01987935
192	0x3d123d80	0.035703182
193	0x39a90f75	0.00032245708
194	0x377f18b9	1.5204941e-05
195	0xb9944ef2	-0.0002828758
196	0xba9e5ca9	-0.0012082058
197	0xba0d3659	-0.00053868216
198	0xb9969915	-0.00028724284
199	0x3c881e0b	0.016615888
200	0x39bdd68e	0.00036208745
201	0x3bdf4987	0.006814185
202	0x394ecb20	0.00019721361
203	0xb9a06093	-0.00030589532
204	0xbd25cafc	-0.040476784
205	0xb9d72075	-0.00041032178
206	0x3894ca21	7.0948394e-05
207	0x397ceffc	0.00024121994
208	0xb960d3a2	-0.00021441144
209	0x3a1b6cf3	0.00059290155
210	0xba06aa4f	-0.00051370723
211	0xb99b7ba5	-0.00029656026
212	0xb9d112f8	-0.0003987772
213	0x3904fd59	0.0001268288
214	0xb82c7bf4	-4.1123436e-05
215	0x397d1ab9	0.00024137915
216	0x397d16de	0.00024136479
217	0x399056fd	0.00027530632
218	0xbd00283e	-0.031288378
219	0xb9add9d7	-0.00033159435
220	0xbab5f566	-0.0013882339
221	0xb9ae667f	-0.00033264232
222	0xb97d21a1	-0.00024140488
223	0x3bb4eefc	0.005521653
224	0x397ce052	0.00024116159
225	0x39293876	0.0001613813
226	0x38a61c53	7.9207726e-05
227	0xb97cc48d	-0.00024105814
228	0xbbd5846c	-0.00651603
229	0x38980d4b	7.250401e-05
230	0xb9d17aea	-0.00039955165
231	0x3b69970c	0.003564301
232	0xb800da12	-3.0720672e-05
233	0xb8b0ac17	-8.424388e-05
234	0xb99f23ff	-0.00030353662
235	0x399c0efe	0.0002976581
236	0xb8cc9e69	-9.756984e-05
237	0xbe423c81	-0.18968393
238	0x3b5e889f	0.0033955944
239	0x3a8c37f6	0.001069783
240	0x3b12cb0f	0.0022398864
241	0xbdd13994	-0.1021606
242	0xba4a4584	-0.0007716047
243	0x3c404c28	0.011736907
244	0xba08a03f	-0.0005211867
245	0x3ad4173a	0.0016181238
246	0xbb0bcdea	-0.002133245
247	0xbbb92bb9	-0.005650964
248	0xb9930e40	-0.00028048642
249	0x3ebf3e44	0.37352192
250	0x398afc1e	0.00026509253
251	0x3c8cf1dd	0.017205173
252	0x397d61a8	0.0002416434
253	0x3a4f1d18	0.00079007586
254	0xb873e454	-5.8148362e-05
255	0xb8b780fb	-8.7501445e-05

rios_f.RIOS_H.rnn_cell1.weight_ih f4 [384, 2]
0	0x3c230b59	0.009951436
1	0x3bbd62ed	0.005779615
2	0xbb6d599e	-0.0036216746
3	0xbd085fe6	-0.03329458
4	0x3c2ba753	0.010476905
5	0xb93cb173	-0.00017995182
6	0x3d154d96	0.036450945
7	0x3c6b7924	0.014372144
8	0x3c80cf14	0.015723743
9	0xbc15a58a	-0.009133706
10	0xbb467127	-0.0030279846
11	0xbc0beea8	-0.008540787
12	0x3d08f42f	0.033435997
13	0x3b7cce24	0.0038575018
14	0x3cdd612a	0.02702387
15	0x3b8f4c2a	0.004373093
16	0xbb8fe0c1	-0.0043908064
17	0x3b3bd250	0.0028659292
18	0x3b57e9c9	0.0032945743
19	0x3b1156cd	0.0022176981
20	0xb83ebfb6	-4.5478075e-05
21	0x383a0ab3	4.435582e-05
22	0xbc2b7962	-0.010465952
23	0x3c232de6	0.0099596735
24	0x3cac63d0	0.021043688
25	0xbd12d69d	-0.035849202
26	0x3c58e851	0.013238982
27	0xbcc98e1e	-0.0246039
28	0xbc97c949	-0.018528597
29	0xbd107b7d	-0.035274018
30	0xbc0a4bc5	-0.008440916
31	0xbc756504	-0.014977697
32	0x3cad8b30	0.021184534
33	0x3bd6e8f6	0.006558533
34	0xbcdfcc2d	-0.027319038
35	0xbd42629e	-0.04745733
36	0xbc3e64fe	-0.011620758
37	0xbd1bc587	-0.038030174
38	0x3c5d9044	0.013523165
39	0x3c678a23	0.014132055
40	0xbb026f21	-0.0019902664
41	0xbd00699c	-0.031350717
42	0xbc8035b4	-0.015650608
43	0xbd791667	-0.06081238
44	0xb55e1fd5	-8.2747766e-07
45	0xb7501c07	-1.2404292e-05
46	0xbc09532b	-0.008381645
47	0xbc6bad84	-0.014384631
48	0xbbf378b6	-0.0074301613
49	0xbc635eaf	-0.013877555
50	0xbb8c335d	-0.004278584
51	0xbbbe3200	-0.0058043003
52	0xbcbd724d	-0.023125792
53	0xbd569c89	-0.052395377
54	0xbc1b0eed	-0.009464008
55	0xbcda6ec3	-0.026664143
56	0xbce4374f	-0.027858404
57	0xbc840e25	-0.016120026
58	0xbd50bbe3	-0.050960433
59	0xbd4a7b70	-0.049434125
60	0xbc04016f	-0.008056982
61	0xbc73f6da	-0.014890397
62	0x3b57b02d	0.0032911405
63	0xbc4116bc	-0.011785205
64	0xbc00d03e	-0.007862149
65	0xbc668ff5	-0.014072408
66	0x3bbd69f0	0.005780451
67	0xbd1ef211	-0.03880507
68	0xb6e765da	-6.8961936e-06
69	0x389f362b	7.5918004e-05
70	0xbc045158	-0.0080760345
71	0xbc7288c8	-0.014803119
72	0xbc4aa67c	-0.0123687945
73	0xbd3becef	-0.045880254
74	0xbd8b2d1a	-0.06795712
75	0x3b8c4038	0.0042801164
76	0xbc3eab49	-0.011637517
77	0xbc68e815	-0.014215489
78	0x3d10dbff	0.035366055
79	0x3c17524b	0.009235929
80	0x372feda4	1.0486143e-05
81	0x3695a258	4.4594453e-06
82	0xbc4596b4	-0.012059856
83	0xbc43eca2	-0.011958273
84	0xbd02144a	-0.03175763
85	0xbbcaf5a7	-0.006193835
86	0xbb0b79c6	-0.00212823
87	0xbc8f362c	-0.017481886
88	0xb6c8eb24	-5.9878384e-06
89	0xb80d64ca	-3.3710887e-05
90	0xba3d284a	-0.00072157814
91	0xbcda8ac6	-0.0266775
92	0x3ca4dea1	0.020125689
93	0x3b9a4e6e	0.0047090566
94	0x3b97a8a6	0.0046282588
95	0xbc331359	-0.010929906
96	0xbbc6e2f7	-0.006069537
97	0xbc55666c	-0.013024908
98	0xbc7d2387	-0.015450365
99	0xbcb9fe08	-0.02270414
100	0xbbdac189	-0.006675903
101	0xbc8a41b0	-0.016877025
102	0x3d3b2502	0.04568959
103	0xbb360d5a	-0.0027778954
104	0x3c78a30f	0.015175595
105	0x3b5e178b	0.0033888544
106	0x3b1b46cc	0.0023693321
107	0x3c4f2595	0.012643238
108	0xbd2c443f	-0.042057272
109	0xbd1117cd	-0.03542309
110	0xbb875a6d	-0.0041306526
111	0xbb9989f0	-0.004685633
112	0x3c819b09	0.015820997
113	0x3c7c8731	0.0154130915
114	0xbc8d92b7	-0.017281873
115	0xbd751520	-0.0598346
116	0x3c8356f7	0.016032679
117	0x3c1166ff	0.008874654
118	0xbd2fc2d9	-0.04291043
119	0x3ccb2741	0.024798991
120	0xbc0556b5	-0.008138348
121	0xbc6c608a	-0.014427314
122	0x3cd2b5b8	0.025721416
123	0x3a32ab91	0.00068157265
124	0xbc515dbe	-0.012778698
125	0xbc857602	-0.016291622
126	0xb64a5d09	-3.01545e-06
127	0xb83394f5	-4.2815653e-05
128	0xbc01c942	-0.007921519
129	0xbc688e29	-0.01419405
130	0x3acdca98	0.0015700636
131	0xbcaf859a	-0.02142601
132	0x3c76a4a6	0.015053904
133	0x3d81e335	0.063421644
134	0x3b5d037f	0.0033724008
135	0xbccaa408	-0.02473642
136	0x3d4dd3ff	0.050251003
137	0xbc20662d	-0.009789986
138	0xbc4f75c6	-0.012662357
139	0x3c36ccb8	0.011157207
140	0x3afa2221	0.0019083658
141	0xbc807cd7	-0.015684528
142	0x3cdf787e	0.027279135
143	0x3d54da22	0.05196584
144	0x3bb81c97	0.0056186425
145	0xbccefbc1	-0.02526653
146	0x3c54443e	0.012955723
147	0xbc9f6ea1	-0.019461932
148	0x3d345e0a	0.044034995
149	0x3cb7f4e4	0.02245564
150	0x3b30a475	0.0026953493
151	0xba718df7	-0.0009214575
152	0x3d202512	0.039097853
153	0x3c472d52	0.012156801
154	0x3c6551aa	0.013996521
155	0xbb6aed25	-0.0035846916
156	0xbca8ce7d	-0.020606274
157	0xbdb05ac9	-0.08611066
158	0x3c5e0646	0.0135513
159	0xbc913390	-0.017724782
160	0x3c21cf97	0.009876153
161	0x3b33673b	0.0027374763
162	0xbb8ff3c8	-0.0043930747
163	0xbc5a5aba	-0.013327295
164	0x3e43870d	0.19094487
165	0x3d2da798	0.042396158
166	0xbbcc527e	-0.00623542
167	0xbc604b15	-0.013689776
168	0xbc5a7f19	-0.0133359665
169	0xbc396239	-0.011314922
170	0xbba11b77	-0.004916604
171	0xbc46fc6a	-0.012145141
172	0x3b0cb0f7	0.0021467784
173	0x3b466afd	0.0030276172
174	0xbbf93b0b	-0.0076059154
175	0xbc6807b5	-0.014161994
176	0xba9242f8	-0.0011158874
177	0x3b980f70	0.004640512
178	0x3ba20347	0.0049442383
179	0xbc22457c	-0.009904262
180	0x3c4a95c9	0.012364813
181	0xbc9886ba	-0.01861893
182	0x3c374d58	0.011187874
183	0x3a89fd50	0.0010527764
184	0x3ba464a9	0.0050168824
185	0xbc2724b6	-0.010201624
186	0xb72ca414	-1.0290201e-05
187	0xb79d41ab	-1.8746437e-05
188	0xbab1b41d	-0.0013557706
189	0x3aabc121	0.0013103822
190	0xbce845f3	-0.028353667
191	0xbd939a1b	-0.07207128
192	0x3cb33f9f	0.021880923
193	0x3d8434a4	0.06455353
194	0xb9abcd1b	-0.00032768477
195	0xbba4825a	-0.005020422
196	0xbc920ba1	-0.01782781
197	0xbd8f7553	-0.070048
198	0x3c8d8c12	0.017278705
199	0xbc4c0e92	-0.012454646
200	0x3c1efe06	0.009704119
201	0x3c955b3c	0.01823198
202	0xbcd26b63	-0.025685972
203	0x3ce6e7c8	0.028186694
204	0x3c763ef5	0.015029659
205	0x3d5fa025	0.054596085
206	0xbacd6f77	-0.0015673478
207	0x3d9f98f2	0.07792844
208	0x3be436bb	0.006964532
209	0x3bae2c09	0.005315308
210	0x3d8cc4c9	0.06873471
211	0x3c0bb3e5	0.008526777
212	0xb7ea26de	-2.7913073e-05
213	0x380e928b	3.3991917e-05
214	0x3c3ffba5	0.011717712
215	0xbd66e4ed	-0.056370664
216	0xbb970df5	-0.004609818
217	0xbdb1be10	-0.0867883
218	0xbc72b25b	-0.014813031
219	0xbd06d16f	-0.032914575
220	0x3b899713	0.0041989177
221	0xbb779c29	-0.0037782288
222	0x3bb3f494	0.0054918025
223	0xbb84eed7	-0.0040567922
224	0xbcb84b5c	-0.022496872
225	0x3cfdb214	0.030968703
226	0x3d01c764	0.031684294
227	0xbbbb813a	-0.005722192
228	0x3c3d82f3	0.011566865
229	0xbcda47c3	-0.026645547
230	0xbd76f456	-0.06029161
231	0xbc125193	-0.008930582
232	0x3d4e66f7	0.050391164
233	0xbb01754d	-0.0019753755
234	0x3ccb20e3	0.024795955
235	0x3d19a955	0.037515003
236	0xb5ef229f	-1.7816964e-06
237	0xb7523ec3	-1.2531588e-05
238	0x3baef033	0.0053386926
239	0xbb82ace8	-0.003987897
240	0x3bb36168	0.005474258
241	0xbb7e886d	-0.003883864
242	0xbc763f48	-0.015029736
243	0xbd21fcab	-0.039547604
244	0x3d393692	0.045218058
245	0x3d74384b	0.059623998
246	0xbadce196	-0.0016851898
247	0xbd3d5c63	-0.046230685
248	0x3bdbd945	0.00670925
249	0x3c81ec8e	0.015859868
250	0x3d081d6a	0.033231176
251	0xbd6427db	-0.05570207
252	0x3baa3d47	0.005195293
253	0xbb8e8fae	-0.004350624
254	0x3c856457	0.016283197
255	0x3bd1f09f	0.006406858

rios_f.RIOS_H.rnn_cell1.weight_hh f4 [384, 96]
0	0xb9fb4c9d	-0.00047931532
1	0xbdaa3a65	-0.08311919
2	0xbbd072aa	-0.0063613253
3	0x3c884eee	0.0166392
4	0x3d6ce176	0.057832204
5	0x3d12c781	0.035834793
6	0x3d6b1107	0.057389285
7	0xbcef8b5f	-0.029241262
8	0xbd426025	-0.04745497
9	0x3cfae90a	0.0306287
10	0x38f1dabb	0.00011532517
11	0xbbb136ed	-0.005408159
12	0x3cf1a800	0.029499054
13	0x3d304d91	0.043042723
14	0xbc8ebdf2	-0.017424557
15	0xbd8e63ff	-0.069526665
16	0x3d357b25	0.044306893
17	0xbcfa580f	-0.030559568
18	0x3d00a30d	0.031405497
19	0x3cabaf61	0.02095765
20	0x3d858448	0.06519371
21	0xbb4aee16	-0.0030964664
22	0x3884ad82	6.326569e-05
23	0xbd8e63c3	-0.06952622
24	0xbd8e615a	-0.06952162
25	0xbc106fff	-0.008815764
26	0xbcd7d1b7	-0.026345117
27	0x3d6bcdac	0.05756919
28	0x3d87c52c	0.066294044
29	0x3d6d983d	0.058006514
30	0x3d8e6772	0.069533244
31	0xbd6f3944	-0.058404222
32	0xbd8e7103	-0.06955149
33	0x3d619089	0.05506948
34	0x39325089	0.00017005405
35	0x3d8e66c9	0.069531985
36	0xbaa6badf	-0.0012720487
37	0x3c03a3f4	0.008034695
38	0x3c7caa9e	0.015421538
39	0xbd88f2b5	-0.06686918
40	0x38ae7255	8.3182626e-05
41	0x3d71a9f6	0.058999978
42	0x3c0f3055	0.008739551
43	0xbd3311ff	-0.043718334
44	0x38a66a53	7.935301e-05
45	0xbc4ed720	-0.012624532
46	0x3b873980	0.0041267276
47	0xbcf3065e	-0.029666122
48	0xbd59aba0	-0.05314219
49	0xbcd5fbca	-0.026121039
50	0x3cca6aa8	0.02470906
51	0xbb4084a8	-0.0029375944
52	0xbd231ba6	-0.03982129
53	0xbc97f0e4	-0.018547483
54	0x3bc873c1	0.0061173146
55	0x3d44c921	0.048043374
56	0x3d5e1c60	0.05422628
57	0xbcd280cb	-0.025696179
58	0xbc0f3013	-0.008739489
59	0xba8b0d0f	-0.001060875
60	0xbd8e7346	-0.069555804
61	0xbd86f6c7	-0.06590038
62	0x3c36ad85	0.011149769
63	0x38be93dc	9.087447e-05
64	0xbd8e69a0	-0.0695374
65	0x3c516771	0.01278101
66	0x3c662622	0.0140471775
67	0xbc349d85	-0.011023884
68	0x3ce02668	0.027362064
69	0x3ccef7c2	0.025264625
70	0x3caa7300	0.02080679
71	0xbd04c14e	-0.032410912
72	0x3bf0c8d0	0.0073481575
73	0xbc964fcc	-0.018348597
74	0x3c953c48	0.01821722
75	0x3bc50d07	0.006013516
76	0xbd5e98f5	-0.05434509
77	0xbc5fd536	-0.013661673
78	0x3b4a80ed	0.00308996
79	0xbd23cbe7	-0.03998938
80	0xbd1cb342	-0.03825689
81	0xbc41e354	-0.011833984
82	0x3cac47a1	0.02103025
83	0xbd8e5adc	-0.06950924
84	0xbd2c8e88	-0.042128116
85	0xbcbd1a2b	-0.023083767
86	0xbcb3d57b	-0.021952381
87	0xbd8e6990	-0.06953728
88	0xbcbc83df	-0.0230121
89	0x3bf82355	0.0075725713
90	0x3d17f50e	0.037098937
91	0xbd1d83b8	-0.038455695
92	0xbd707e2b	-0.058714073
93	0x388099f0	6.132189e-05
94	0xbcbe7293	-0.023247993
95	0x3d6097cd	0.05483227
96	0xbb16272f	-0.0022911539
97	0xbcf4ea0a	-0.029896755
98	0xbbbda550	-0.005787529
99	0x3ce7d7e6	0.02830119
100	0x3cba9b9e	0.022779282
101	0x3ca832b9	0.020531999
102	0x3cd1763d	0.025569076
103	0xbd016bc5	-0.031596918
104	0xbd44522e	-0.047929935
105	0xbbc25fab	-0.0059318147
106	0xb8e39310	-0.00010851596
107	0x3c437d5b	0.011931743
108	0x3ce556c1	0.027995469
109	0x3cf7a7ac	0.03023132
110	0xbad18007	-0.001598359
111	0xbd574cfa	-0.052563645
112	0x3bbcdd91	0.0057637175
113	0x3c3330fe	0.010936974
114	0x3c91722f	0.017754642
115	0x3ca18716	0.019717734
116	0x3d18dc0f	0.03731924
117	0x3b63bd06	0.0034750118
118	0xb8363e2a	-4.3450076e-05
119	0xbd57154b	-0.05251054
120	0xbd56e200	-0.052461624
121	0xbbdd32ba	-0.006750432
122	0x3ba3f8b9	0.0050040153
123	0x3d493453	0.049122166
124	0x3d3fa3a9	0.046786938
125	0x3d0c2ea9	0.034224186
126	0x3d572d21	0.052533273
127	0xbd21c017	-0.03948983
128	0xbd5725f4	-0.05252643
129	0x3c996128	0.018723086
130	0xb9248171	-0.0001568848
131	0x3d572be2	0.052532084
132	0xbb6f5dae	-0.0036524343
133	0x3c03329f	0.0080076745
134	0x3bc62ea2	0.0060480395
135	0xbcffff64	-0.03124971
136	0xb8b1248a	-8.4468236e-05
137	0x3d20ae5c	0.039228782
138	0x3c5ee878	0.01360523
139	0xbc335b5e	-0.010947077
140	0xb8991139	-7.2988165e-05
141	0x3c3067f2	0.01076697
142	0xbc330dd8	-0.010928594
143	0xbc0d5ae0	-0.008627623
144	0xbd0503d7	-0.032474365
145	0xbc5b3fae	-0.013381882
146	0x3c621646	0.013799256
147	0xbc320510	-0.010865465
148	0xbcc145e6	-0.0235929
149	0xbccf405b	-0.025299242
150	0x3cc062be	0.023484584
151	0x3b49d1b3	0.0030795156
152	0x3d24da1e	0.040247075
153	0x3c87797e	0.016537424
154	0xbc9f2d7e	-0.019430872
155	0x3c702244	0.014656607
156	0xbd575a88	-0.05257657
157	0xbd2f8276	-0.042849027
158	0x3cccc02f	0.024993984
159	0xb909eb73	-0.0001315305
160	0xbd5720d2	-0.052521534
161	0x3b4bb404	0.003108264
162	0x3c7a386e	0.015272243
163	0xbc86ec00	-0.016469955
164	0x39a06dc5	0.00030599363
165	0x3c356933	0.011072445
166	0x3c854db2	0.0162724
167	0x3d15513d	0.036454428
168	0x3aa9ba99	0.0012949287
169	0xbbc0b097	-0.005880426
170	0xbc290b02	-0.010317566
171	0xbcb38ba0	-0.021917164
172	0xbcb6b5dd	-0.022303516
173	0xbce75ba9	-0.02824195
174	0xbb9ae747	-0.0047272774
175	0xbcb4dc15	-0.0220776
176	0xbd32aa5d	-0.043619502
177	0xbbe0109a	-0.0068379166
178	0x3cf8a804	0.030353554
179	0xbd56b221	-0.05241597
180	0xbd21a0fb	-0.039460164
181	0xbc4a9684	-0.012364987
182	0xbbb52d81	-0.005529106
183	0xbd572564	-0.052525893
184	0x3bc6421a	0.0060503604
185	0x3c224262	0.009903522
186	0x3d28b9d1	0.041192833
187	0xbcc00f21	-0.023444714
188	0xbd4cd853	-0.05001099
189	0xb80c48a4	-3.3446253e-05
190	0xbcb391b2	-0.021920059
191	0x3d1d596d	0.03841536
192	0xbc0c9403	-0.008580211
193	0xbda40f6a	-0.080107525
194	0xbbcd7b48	-0.0062708
195	0x3cf41f2b	0.029800018
196	0x3d76392f	0.06011313
197	0x3d1a6e81	0.03770304
198	0x3d09358b	0.03349833
199	0xbcc07b6e	-0.023496356
200	0xbd52f336	-0.051501475
201	0x3cf38eca	0.029731173
202	0xb824379f	-3.9152448e-05
203	0x3d0a7889	0.033806358
204	0x3cc98be1	0.024602832
205	0x3d6f6307	0.05844405
206	0x3c243c18	0.010024093
207	0xbda13128	-0.07870704
208	0x3d210b71	0.039317552
209	0xbd557281	-0.052111153
210	0x3c5b2ed0	0.01337786
211	0x3cf2d366	0.029641818
212	0x3d02ba63	0.031916033
213	0x3c770dfc	0.015079018
214	0xb9471276	-0.00018984996
215	0xbda119db	-0.0786626
216	0xbda1038b	-0.07862004
217	0x3c90659d	0.017626578
218	0x3abb133c	0.00142727
219	0x3d61a607	0.055089977
220	0x3d67d1c4	0.056596532
221	0x3c95ca8c	0.018285058
222	0x3da1258d	0.0786849
223	0xbd8aebd9	-0.067832656
224	0xbda12a66	-0.07869415
225	0x3d61cae0	0.055125117
226	0xb91fb87e	-0.0001523215
227	0x3da12518	0.07868403
228	0x3c289f8b	0.010291944
229	0x3c39afd5	0.0113334255
230	0x3c32a7de	0.0109042805
231	0xbda5a0ee	-0.080873355
232	0xb98904c9	-0.00026134241
233	0x3d9c0072	0.076172724
234	0x3d046ca5	0.032330174
235	0xbd5d78c9	-0.054070268
236	0xb9ab8433	-0.00032714158
237	0x3ccffc16	0.025388759
238	0xbc5a0b2e	-0.0133083295
239	0xbcc2395c	-0.023708992
240	0xbd9d56bc	-0.07682559
241	0xbc3b8838	-0.011446051
242	0x3d0fa954	0.035073593
243	0x39ee3ed7	0.00045441717
244	0xbd36fea4	-0.044676438
245	0xbd098633	-0.033575248
246	0xb9f387af	-0.00046449664
247	0x3cd8cb1c	0.026464038
248	0x3d80919f	0.06277775
249	0x3b3570f2	0.002768573
250	0xbcdf2a17	-0.02724175
251	0x3c886b5a	0.016652752
252	0xbda14237	-0.078739576
253	0xbd93ce65	-0.07217101
254	0xbc94991e	-0.018139418
255	0xb9a8be2d	-0.0003218515

rios_f.RIOS_H.rnn_cell1.bias_ih f4 [384]
0	0x3dc77bf8	0.09740442
1	0x3e0ba06c	0.13635415
2	0x3e2788e1	0.16360809
3	0x3e025b31	0.127301
4	0x3e0a67a2	0.13516095
5	0x3d8e0ba6	0.069358155
6	0x3e19fe7a	0.15038481
7	0x3e23aa8f	0.15983032
8	0x3e2897f2	0.16464213
9	0x3e19f701	0.15035631
10	0xb9b55f00	-0.0003459379
11	0x3e8128ea	0.25226527
12	0x3e6a965c	0.2290892
13	0x3e0097e4	0.12557942
14	0x3dc67198	0.09689635
15	0x3df0af3a	0.11752172
16	0x3dafe28f	0.085881345
17	0x3dc265e8	0.09492093
18	0x3e2243d7	0.15846191
19	0x3ddea494	0.108712345
20	0x3e1aa7fd	0.15103145
21	0x3e3a1d81	0.18175317
22	0xb7d27ff6	-2.5093537e-05
23	0x3def1c17	0.116752796
24	0x3ded9732	0.11601104
25	0x3e2e8341	0.17042257
26	0x3e107ef1	0.14110924
27	0x3e18a13f	0.1490526
28	0x3e3f8be3	0.18705706
29	0x3e4cde7f	0.2000675
30	0x3defbabe	0.1170554
31	0x3e1d1c45	0.15342815
32	0x3def9a82	0.11699392
33	0x3e2777ba	0.16354266
34	0xb9459bea	-0.00018845467
35	0x3defae35	0.11703149
36	0x3e0752b8	0.13215148
37	0x3e4b43ca	0.19850078
38	0x3dcf79f0	0.101306796
39	0x3e12e83f	0.14346407
40	0xb84c2707	-4.8673737e-05
41	0x3e2b45d1	0.16725852
42	0x3e05c37f	0.13062857
43	0x3e10bafc	0.14133829
44	0xb8588e0c	-5.1630705e-05
45	0x3deda302	0.11603357
46	0x3e1084cf	0.14113162
47	0x3db417c6	0.08793597
48	0x3e04d0f2	0.12970331
49	0x3e25e403	0.16200261
50	0x3dc3e344	0.09564832
51	0x3e8b78c5	0.27240577
52	0x3e0efc5a	0.13963452
53	0x3e15a90d	0.14615269
54	0x3ddfdd11	0.10930837
55	0x3e7baac9	0.24576868
56	0x3e236aae	0.15958664
57	0x3e62ee90	0.22161317
58	0x3dcea095	0.10089222
59	0x3e9fc49d	0.31204692
60	0x3df132b9	0.11777253
61	0x3df71671	0.12064827
62	0x3dc1d5cb	0.09464606
63	0xb969cd23	-0.00022297031
64	0x3def68d2	0.11689915
65	0x3db102d9	0.08643121
66	0x3eae90cf	0.34094855
67	0x3dde2d01	0.108484276
68	0x3e6f9d87	0.23399936
69	0x3e0ec0af	0.1394069
70	0x3e09ddcc	0.13463515
71	0x3e390747	0.18069182
72	0x3e0fc903	0.14041524
73	0x3e223ed8	0.15844285
74	0x3ddfd08a	0.109284475
75	0x3dd2634d	0.10272846
76	0x3e00a6b6	0.12563595
77	0x3dc4f67c	0.09617326
78	0x3ecfbe38	0.40574813
79	0x3e09e92e	0.13467857
80	0x3dd2a08d	0.10284529
81	0x3e0761f2	0.13220957
82	0x3e7bc243	0.24585824
83	0x3dec42ca	0.115361765
84	0x3e08d84a	0.13363758
85	0x3dd297f0	0.10282886
86	0x3da86f28	0.08224326
87	0x3defa820	0.11701989
88	0x3dde0a1e	0.108417735
89	0x3df8ffc9	0.12158162
90	0x3e16cb57	0.14726005
91	0x3dd6271e	0.1045668
92	0x3e0ad6bc	0.13558477
93	0xb7d0f79d	-2.4910836e-05
94	0x3e160a8f	0.14652465
95	0x3e334ead	0.17510481
96	0x3c1598fc	0.009130713
97	0x3dbaa871	0.09114159
98	0x3d115783	0.03548385
99	0x3d562692	0.052282877
100	0x3da0fe8e	0.078610525
101	0x3d80238b	0.06256779
102	0x3d873055	0.066010155
103	0x3d1afd1a	0.037839033
104	0x3db6846c	0.08911976
105	0x3db4d556	0.08829753
106	0xb9a66853	-0.00031739715
107	0x3d500497	0.050785627
108	0x3ceafd19	0.02868514
109	0x3d9bbd02	0.0760441
110	0x3d825704	0.06364253
111	0x3d9a97d5	0.07548491
112	0x3d2c3d47	0.042050626
113	0x3db9b5ac	0.09067854
114	0x3d4f2008	0.050567657
115	0x3d33763a	0.04381392
116	0x3d7caa0a	0.0616856
117	0x3da63b2c	0.08116755
118	0xb78382a9	-1.567726e-05
119	0x3d9aa61f	0.07551216
120	0x3d9a820a	0.07544334
121	0x3d868405	0.065681495
122	0x3d68654a	0.05673722
123	0x3da802b8	0.082036436
124	0x3d88dd7a	0.06682868
125	0x3d5e7fde	0.054321162
126	0x3d9a92c8	0.075475276
127	0x3dc95639	0.09830899
128	0x3d9acd44	0.075586826
129	0x3daea02f	0.08526646
130	0xb935bb2c	-0.00017331232
131	0x3d9a9a4d	0.07548962
132	0x3d8196ad	0.06327567
133	0x3d73b8fe	0.059502594
134	0x3d7bf1f9	0.06151006
135	0x3dc70790	0.09718239
136	0xb83d809c	-4.518089e-05
137	0x3db643ea	0.08899672
138	0x3d8abeb6	0.067746565
139	0x3daa90d3	0.08328404
140	0xb835052e	-4.3158587e-05
141	0x3ce9177f	0.028453587
142	0x3d945a39	0.07243771
143	0x3d939ccd	0.07207642
144	0x3d85d119	0.06534023
145	0xbb1b9685	-0.002374084
146	0x3d6254fa	0.05525682
147	0xbccc8dd0	-0.024969965
148	0x3da994e8	0.08280355
149	0x3d98ba34	0.074573904
150	0x3da393fd	0.07987211
151	0x3d62df14	0.055388525
152	0x3d91e126	0.07123022
153	0x3d13a4f0	0.03604597
154	0x3dadd728	0.084883034
155	0xbc9ac1db	-0.018891266
156	0x3d9ac74f	0.07557546
157	0x3dbf4ca6	0.093407914
158	0x3d1ea0cf	0.038727578
159	0xb94e4fee	-0.00019675467
160	0x3d9aa811	0.075515874
161	0x3d8de72b	0.069288574
162	0xbd87a48d	-0.066231824
163	0x3d36421d	0.044496644
164	0x3d0e54df	0.034748908
165	0x3cdc5ebb	0.02690064
166	0x3d885297	0.06656378
167	0x3de55b45	0.11199049
168	0x3d466dbe	0.048444502
169	0x3d841d2a	0.06450875
170	0x3dc2d534	0.095133215
171	0x3d46eb9d	0.048564542
172	0x3d41816a	0.04724256
173	0x3d93cb03	0.07216456
174	0x3b62a4b6	0.0034583039
175	0x3d7150b7	0.058914866
176	0x3da1e4b1	0.079049475
177	0x3d3623c0	0.044467688
178	0xbdffaada	-0.12483759
179	0x3d9a1e43	0.07525303
180	0x3dc2005e	0.09472726
181	0x3d6fc176	0.058534108
182	0x3d975f82	0.073912635
183	0x3d9a8ae9	0.07546026
184	0x3cecdb5f	0.028913198
185	0x3d888370	0.06665695
186	0x3da019d8	0.07817429
187	0x3d83953e	0.0642495
188	0x3d913f21	0.07092119
189	0xb7123cee	-8.716464e-06
190	0x3d849a2d	0.06474719
191	0x3d9af514	0.07566276
192	0x3d79bc18	0.060970396
193	0xbe801542	-0.25016218
194	0xbe8041d8	-0.25050235
195	0x3df924f1	0.12165249
196	0x3e69f848	0.22848618
197	0x3b924012	0.004463204
198	0xbe3cd4e8	-0.18440592
199	0xbe71c519	-0.23610343
200	0xbea28d85	-0.31748596
201	0x3e664234	0.22486192
202	0x3685d2f1	3.9882657e-06
203	0x3e38a337	0.18031012
204	0x3d1febe3	0.03904332
205	0x3df1badf	0.11803221
206	0x3dcee576	0.1010236
207	0xbe873940	-0.26410866
208	0xbc4b7181	-0.012417198
209	0xbe1f915f	-0.15582798
210	0x3e6b100d	0.22955342
211	0x3dbc2d7a	0.091883615
212	0x3e6f7eab	0.23388164
213	0x3ea9337d	0.33047095
214	0xb838c128	-4.404891e-05
215	0xbe8677b0	-0.2626319
216	0xbe85f1b1	-0.26160958
217	0x3e9e7104	0.309456
218	0x3e212c9d	0.15739675
219	0x3e8c2ed3	0.27379474
220	0x3e9557f5	0.29168668
221	0x3e7c48e3	0.24637179
222	0x3e86db69	0.26339272
223	0xbe927b7e	-0.28609842
224	0xbe86bfb0	-0.2631812
225	0x3e97aa82	0.29622275
226	0xb9c1e154	-0.0003697971
227	0x3e86cec4	0.26329625
228	0xbe59585e	-0.21225116
229	0x3e1f8fef	0.1558225
230	0x3e1fa4c6	0.155902
231	0xbe89c793	-0.26910076
232	0xb769cd82	-1.3935731e-05
233	0x3e96d118	0.294564
234	0x3e39d439	0.18147363
235	0xbe6430d9	-0.22284259
236	0xb95344c3	-0.00020148144
237	0xbabfa76f	-0.0014622043
238	0xbe63c56a	-0.22243276
239	0xbd9ecc1d	-0.07753775
240	0xbe51d990	-0.2049315
241	0xbe165361	-0.14680244
242	0xbbcc0a47	-0.006226811
243	0xbe8b5ff4	-0.27221644
244	0xbe83bb4d	-0.25728837
245	0xbe7bfed8	-0.24608934
246	0xbd7f4ace	-0.0623272
247	0xbd9ad909	-0.075609274
248	0x3e8dbf9b	0.27685246
249	0x3ec3ce87	0.38243505
250	0xbe393eaa	-0.1809031
251	0x3ec51033	0.38488922
252	0xbe8780d2	-0.2646547
253	0xbe2ed849	-0.17074694
254	0x3e0cb306	0.13740167
255	0xb9e14391	-0.00042965685
