BRIOS/models/model_file/biros_base/model_58.pt (torch, 628066 bytes, 26 tensors)

rios_f.RIOS_H.rnn_cell0.weight_ih f4 [384, 2]
0	0xbca557b1	-0.020183416
1	0xbcfcec39	-0.030874358
2	0x36dd0348	6.5866952e-06
3	0xb837ad3d	-4.379194e-05
4	0x3888b297	6.51825e-05
5	0x38fc4028	0.000120282464
6	0xbb2f5ec8	-0.0026759375
7	0xbb0f2785	-0.0021843624
8	0xb78f5dff	-1.7090699e-05
9	0x3800cda2	3.070909e-05
10	0x3924f288	0.00015730609
11	0xb886d8eb	-6.430022e-05
12	0x38ae2aa7	8.304911e-05
13	0x38d84170	0.00010311871
14	0x3d1babf3	0.03800578
15	0x3d1a1631	0.03761882
16	0xb8811c91	-6.15652e-05
17	0xb791e566	-1.7392169e-05
18	0xb96d5574	-0.00022633915
19	0xb93061e9	-0.00016821142
20	0x390bbd13	0.00013326509
21	0xb715152d	-8.886022e-06
22	0x3894bb4e	7.092078e-05
23	0xb8bb8645	-8.9418645e-05
24	0x3de3ef66	0.11129646
25	0xbc0166b2	-0.00789802
26	0x3759129e	1.2938543e-05
27	0x38b6abad	8.7104134e-05
28	0x379f7fc2	1.9013769e-05
29	0x3810086b	3.4340115e-05
30	0x36aa6474	5.078089e-06
31	0x370f134f	8.52796e-06
32	0x38b5cb66	8.6686385e-05
33	0x38b3863f	8.5603904e-05
34	0xb8a25b52	-7.741772e-05
35	0xb8893f51	-6.544463e-05
36	0x39384a7b	0.00017575354
37	0xb809030c	-3.2666183e-05
38	0x392f2d63	0.00016706208
39	0x3970acff	0.0002295263
40	0x38ce7da4	9.846248e-05
41	0x3964c4ef	0.00021817138
42	0x34309518	1.6445517e-07
43	0xb89e9c68	-7.56316e-05
44	0xb6360349	-2.7122026e-06
45	0xb7c51dc8	-2.3498098e-05
46	0x368fb7bd	4.283122e-06
47	0x37238d5e	9.748472e-06
48	0x367e3ff9	3.7886186e-06
49	0x37206318	9.559815e-06
50	0xb6cfce63	-6.1931073e-06
51	0x38cf3122	9.879681e-05
52	0xbe3458cc	-0.17611998
53	0x3c0e0f18	0.008670591
54	0x385d4a93	5.275996e-05
55	0x38b97bb1	8.844527e-05
56	0x397f35eb	0.00024338781
57	0x391f2329	0.0001517652
58	0x383b8125	4.470455e-05
59	0x36ceccb5	6.1631094e-06
60	0x36983929	4.5366073e-06
61	0x3722cb95	9.703353e-06
62	0xb8d618f3	-0.00010208962
63	0x39946cad	0.0002830973
64	0x364ca7e6	3.0496099e-06
65	0x372457aa	9.795573e-06
66	0x3759b069	1.2975282e-05
67	0x37f7d988	2.954599e-05
68	0xb7b4f976	-2.1573836e-05
69	0x3549d5f5	7.5189683e-07
70	0x36616064	3.358372e-06
71	0x3728f67e	1.0070971e-05
72	0xb8debe30	-0.0001062121
73	0xb78c2493	-1.6706332e-05
74	0x38473f9d	4.750454e-05
75	0x37b0c884	2.1074207e-05
76	0x381b5ee7	3.7043264e-05
77	0x3899110a	7.298782e-05
78	0xb9b45085	-0.00034392267
79	0xb8b3c586	-8.572177e-05
80	0xb7e9620a	-2.7821417e-05
81	0xb6ffe7b6	-7.626567e-06
82	0xb8d14475	-9.978648e-05
83	0xb7d0bb2b	-2.488269e-05
84	0xb75f1ffe	-1.3299285e-05
85	0xb907fa99	-0.00012967958
86	0x38d13ff8	9.977812e-05
87	0x392d231f	0.0001651165
88	0x36652a4e	3.4148284e-06
89	0x36333264	2.670241e-06
90	0x3d8f6b3c	0.07002875
91	0x3e3e9671	0.18612076
92	0x3955e90e	0.00020400083
93	0xb928a06a	-0.00016081487
94	0x3876724f	5.875743e-05
95	0x391d3d0f	0.00014995433
96	0x38944462	7.069927e-05
97	0x399a8d41	0.0002947841
98	0x399835e2	0.00029031845
99	0x3d781bb9	0.060573313
100	0xb7b50b7a	-2.1582226e-05
101	0x38d77032	0.00010272897
102	0xbca11c43	-0.019666797
103	0xbc87e3db	-0.016588142
104	0x3919ba93	0.00014660721
105	0x391ae6be	0.00014772543
106	0x3901ef94	0.00012391648
107	0x39802512	0.00024441682
108	0xb706fad9	-8.045427e-06
109	0x37d6c848	2.5604051e-05
110	0xb7384570	-1.0983422e-05
111	0x3789058f	1.6334261e-05
112	0x3880f396	6.148887e-05
113	0x38a94795	8.071881e-05
114	0x3dc285c6	0.094981715
115	0x3e10c664	0.1413818
116	0xb760003a	-1.3351493e-05
117	0x3931e3f5	0.00016964956
118	0x3d9d865f	0.07691645
119	0x3d10d7c8	0.035362035
120	0x36b7ac6f	5.473899e-06
121	0x36edad20	7.083305e-06
122	0x37d91890	2.5879854e-05
123	0x3886bef4	6.425186e-05
124	0x384d6e25	4.897839e-05
125	0x389f26a8	7.588911e-05
126	0xb9031f58	-0.0001250481
127	0xb84399f5	-4.6635007e-05
128	0x3666ebc5	3.4409907e-06
129	0x372926f8	1.0082258e-05
130	0x370dda61	8.4551e-06
131	0xb93248b4	-0.00017002487
132	0xbd559916	-0.052147947
133	0xbd9b372a	-0.07578881
134	0xb78d3bfb	-1.683644e-05
135	0x399878e8	0.0002908178
136	0x3922883b	0.00015500274
137	0x394cc24d	0.00019527339
138	0xbe021963	-0.12704997
139	0x3dbf7c5a	0.0934989
140	0x37351375	1.0792971e-05
141	0xb862e4d0	-5.4095697e-05
142	0x38006f06	3.0620977e-05
143	0x36883f17	4.0604605e-06
144	0x38ddbae0	0.000105729094
145	0x37cadc00	2.4182722e-05
146	0x3973bd12	0.0002324472
147	0x3928e4c2	0.00016106947
148	0xb78a519c	-1.6488884e-05
149	0x379c5f58	1.8641047e-05
150	0xb7c0bb52	-2.2975411e-05
151	0xb8e51d7b	-0.00010925062
152	0xbc919557	-0.017771406
153	0x3ca32aa3	0.019917792
154	0x39881ade	0.0002595996
155	0x39405b69	0.000183446
156	0xbad6568a	-0.0016352695
157	0xba9b9346	-0.0011869452
158	0x3c1639aa	0.009169022
159	0x3bf8e353	0.0075954585
160	0x36c76a39	5.943028e-06
161	0x37cdcd8f	2.4533625e-05
162	0x39212a88	0.0001537
163	0xb8cccfed	-9.766207e-05
164	0x3dadb7c1	0.08482314
165	0xbd9b2cba	-0.0757689
166	0x36dc8f5e	6.573201e-06
167	0x36e1c745	6.7287206e-06
168	0xb779c981	-1.4888473e-05
169	0xb757c3be	-1.2860573e-05
170	0x38e75001	0.0001102984
171	0xb9026bc2	-0.00012437909
172	0x395d92b5	0.00021130855
173	0x3911bc55	0.00013898437
174	0x36cce2cb	6.106076e-06
175	0x36e0cfcc	6.699911e-06
176	0x39136be7	0.00014059209
177	0x38a458f1	7.836696e-05
178	0xb921d95c	-0.00015435129
179	0xb88a4c4a	-6.594563e-05
180	0x38f38d1d	0.00011613427
181	0x3804c4e7	3.1654632e-05
182	0x388aa378	6.610801e-05
183	0x385d5199	5.27665e-05
184	0x381225a3	3.4844164e-05
185	0x38344299	4.2977368e-05
186	0x384c9f7d	4.8785925e-05
187	0xb8239f9b	-3.9010873e-05
188	0x389776e8	7.222389e-05
189	0x361c0b70	2.325247e-06
190	0x3d98bb91	0.074576505
191	0x3d5bc081	0.053650383
192	0x3cbdb728	0.023158625
193	0xbe036258	-0.12830484
194	0xb9f39b2a	-0.00046464178
195	0xb9bbb664	-0.0003580331
196	0xbaaa34de	-0.0012985726
197	0xba8e3db6	-0.0010852132
198	0x3bf3b352	0.007437148
199	0xbb2fcf25	-0.0026826349
200	0xba145a0b	-0.00056591694
201	0xba49b3d7	-0.000769434
202	0xba01a0a3	-0.0004944896
203	0xba21e77c	-0.00061761565
204	0xba05b0b3	-0.00050998776
205	0xba324835	-0.0006800921
206	0xbc5177fb	-0.012784953
207	0x3d22b660	0.039724708
208	0xb9d8dfe7	-0.0004136555
209	0xba0d3ccd	-0.0005387783
210	0xba98494d	-0.0011618525
211	0x3b7aa087	0.0038242654
212	0xb9c1dc2c	-0.0003697587
213	0xb9407320	-0.00018353434
214	0xba6793ee	-0.0008833994
215	0xb9dac4fb	-0.00041726962
216	0xbe240ad8	-0.16019762
217	0xbe17799e	-0.14792487
218	0xba408156	-0.00073434913
219	0xba2e5299	-0.0006649881
220	0xba6d8176	-0.00090601237
221	0xba454c65	-0.0007526337
222	0xba20c6d7	-0.0006133145
223	0xba84e2b4	-0.0010138364
224	0xba2e5a34	-0.00066510146
225	0xba0e555f	-0.00054295914
226	0xba0b4ffc	-0.0005314348
227	0xb91cd158	-0.00014955306
228	0xba4c67c2	-0.00077974435
229	0xba25f205	-0.0006330314
230	0xba83672c	-0.0010025254
231	0xba8fa78d	-0.0010959968
232	0xb7b5fd93	-2.1694961e-05
233	0x38ff75fe	0.00012181325
234	0xba61e12f	-0.0008616624
235	0xba5275d3	-0.00080284214
236	0xb96fc95b	-0.00022867827
237	0xb7be8226	-2.271037e-05
238	0xba232e91	-0.00062248955
239	0xba85f3ab	-0.0010219713
240	0xba21edee	-0.0006177117
241	0xba856aee	-0.0010178962
242	0xba23142e	-0.00062209636
243	0xb9ef0ab3	-0.00045593604
244	0x3e0935fd	0.13399501
245	0x3de22729	0.110426255
246	0xb911837a	-0.00013877256
247	0xb7b4281f	-2.1476355e-05
248	0xb9ebf8dd	-0.0004500811
249	0xba0f4146	-0.00054647436
250	0xb909dbe0	-0.00013147248
251	0xb9b13f9a	-0.00033807458
252	0xba236826	-0.0006233476
253	0xba86136a	-0.0010229175
254	0xba8cbf55	-0.0010738174
255	0xba600dd5	-0.0008546983

rios_f.RIOS_H.rnn_cell0.weight_hh f4 [384, 96]
0	0xbd52842f	-0.05139559
1	0xbcb1276a	-0.02162524
2	0x3c82a709	0.01594879
3	0xbd076253	-0.033052754
4	0x3d054130	0.03253287
5	0x3c326dc7	0.010890431
6	0x3cd9c67d	0.026583904
7	0x3bfdd0b9	0.007745829
8	0xbd0c37cd	-0.034232903
9	0x3b604ae8	0.0034224335
10	0xb88c7ebd	-6.699327e-05
11	0x3cb3f108	0.021965519
12	0xbc02c429	-0.007981339
13	0x3d29211c	0.04129134
14	0x3d98dd1e	0.0746405
15	0xbd46b77f	-0.04851484
16	0x3d2857d2	0.041099377
17	0xbc8ad2a8	-0.016946152
18	0xbd19f164	-0.037583724
19	0x3b9cfa3e	0.0047905734
20	0x3d842a94	0.06453434
21	0xbbd37eac	-0.0064543094
22	0x389f9b88	7.610681e-05
23	0xbd4675a8	-0.04845205
24	0xbd467a2b	-0.048456352
25	0xbc86332d	-0.016381824
26	0x3c0a30cc	0.008434486
27	0x3d831274	0.06400004
28	0x3d201f98	0.03909263
29	0x3ce216b9	0.027598726
30	0x3d464f1e	0.048415296
31	0xbd5bbf20	-0.053649068
32	0xbd4696f5	-0.048483808
33	0x3d974c91	0.07387651
34	0x386cae92	5.6429366e-05
35	0x3d46c391	0.04852635
36	0xbb2638ef	-0.0025363525
37	0xbd1b4415	-0.037906725
38	0x3c68f7c9	0.014219233
39	0xbd165c12	-0.0367089
40	0xb978189c	-0.00023660291
41	0x3d926ce8	0.071496785
42	0x3d00c44c	0.031437203
43	0xb9c989e6	-0.0003844045
44	0xb8f07816	-0.000114664595
45	0xbce25f6f	-0.027633397
46	0xbbdca518	-0.006733548
47	0xbc286e34	-0.010280181
48	0xbd0be177	-0.034150567
49	0x3c81e4d9	0.015856193
50	0x3d16e239	0.036836836
51	0x3bdb6310	0.006695159
52	0xbc435672	-0.011922466
53	0xbc91dadc	-0.017804556
54	0xbceecca8	-0.029150322
55	0x3d5e5a43	0.0542853
56	0x3d058f77	0.03260752
57	0xbce0589d	-0.027386004
58	0xbd83069c	-0.06397745
59	0x3d23fb2b	0.040034454
60	0xbd46d132	-0.048539348
61	0xbd670bff	-0.056407925
62	0x3c868e8f	0.0164254
63	0xba5727b5	-0.0008207516
64	0xbd469467	-0.04848137
65	0x3c56c635	0.01310878
66	0x3bf483ff	0.007462024
67	0xbc6ca465	-0.014443492
68	0x3c9ffc7b	0.019529572
69	0x3ce00b01	0.027348997
70	0x3c7f4fc9	0.015582987
71	0xbc7dff2d	-0.015502733
72	0x3c8b63c3	0.017015344
73	0xbbfcbb95	-0.007712791
74	0x3c44efdc	0.012020078
75	0x3cc231ac	0.023705326
76	0xbce72e0e	-0.028220203
77	0x3cbf2d7a	0.023337115
78	0x3c28cb82	0.010302426
79	0x3bb00dc1	0.0053727333
80	0xbd25b4c2	-0.040455587
81	0xbb876cb9	-0.004132834
82	0xbd255c2d	-0.04037111
83	0xbd45b5ed	-0.0482692
84	0xbc3b20e0	-0.011421412
85	0x3c500b2b	0.012697975
86	0xbc20df3a	-0.009818846
87	0xbd467498	-0.048451036
88	0x3c600fe6	0.0136756655
89	0xbca8fca4	-0.020628281
90	0x3b1e8a31	0.0024191255
91	0xbd090f38	-0.03346178
92	0xbcd616f6	-0.026133996
93	0xb84afbd1	-4.8395075e-05
94	0xbd196762	-0.03745211
95	0x3d00dc6d	0.031460214
96	0x37422eba	1.15741805e-05
97	0xb715f1fa	-8.937432e-06
98	0xb75c29ef	-1.3122785e-05
99	0x386032c7	5.345305e-05
100	0x37ddb429	2.6429147e-05
101	0x355cc17a	8.223793e-07
102	0x38a39d21	7.801713e-05
103	0x381dd816	3.7632963e-05
104	0xb87f5e64	-6.0884646e-05
105	0xb7e85abf	-2.7698812e-05
106	0xb68ae73c	-4.1396397e-06
107	0x36c647e1	5.9092276e-06
108	0xb8033d1b	-3.1289743e-05
109	0x3889863f	6.557674e-05
110	0xb8d43ac7	-0.00010119896
111	0xb7e874ee	-2.7711005e-05
112	0xb85e8378	-5.3051364e-05
113	0x3723586f	9.736147e-06
114	0x38cc73e2	9.749063e-05
115	0x3882a646	6.229854e-05
116	0x382dd512	4.144485e-05
117	0x38d4763f	0.00010130973
118	0xb6503602	-3.1025852e-06
119	0xb7e9230a	-2.779208e-05
120	0xb7ea6cdf	-2.794567e-05
121	0x38748824	5.8300924e-05
122	0x38846f75	6.315011e-05
123	0x386b2601	5.606376e-05
124	0x38132097	3.5077883e-05
125	0x384f2092	4.938298e-05
126	0x37e93dc3	2.7804525e-05
127	0xb714aeb6	-8.8621655e-06
128	0xb7e965bb	-2.7823136e-05
129	0xb6f8e8af	-7.418064e-06
130	0xb543e8d6	-7.298198e-07
131	0x37e936ae	2.7801227e-05
132	0xb890497d	-6.880143e-05
133	0x389a7072	7.364237e-05
134	0x38497287	4.8028796e-05
135	0x38209470	3.8285216e-05
136	0x361b6a57	2.3158698e-06
137	0x37eea932	2.8450599e-05
138	0xb7b8aae9	-2.2014096e-05
139	0xb8179e76	-3.6148784e-05
140	0x366e13d0	3.5476296e-06
141	0x371bafac	9.279622e-06
142	0x389bf882	7.437264e-05
143	0xb84d1ac1	-4.8900725e-05
144	0xb7be8b59	-2.2714654e-05
145	0xb74d6928	-1.2243436e-05
146	0xb7b87f43	-2.199377e-05
147	0x372624bd	9.902925e-06
148	0xb8b16eb3	-8.460637e-05
149	0xb74618db	-1.1807507e-05
150	0x37ac2c08	2.0524501e-05
151	0x37082b0f	8.116257e-06
152	0x382ef6f2	4.171482e-05
153	0xb7edcd65	-2.8348246e-05
154	0x38c1beea	9.238518e-05
155	0x382836b6	4.0105275e-05
156	0xb7e87fad	-2.7716009e-05
157	0xb8178c52	-3.613189e-05
158	0xb7a33d5d	-1.9459689e-05
159	0x3786c745	1.6066837e-05
160	0xb7e933b0	-2.7799833e-05
161	0xb8225c11	-3.8709553e-05
162	0xb7ae0f3f	-2.0749516e-05
163	0xb8c12a2f	-9.2108145e-05
164	0xb7525652	-1.2537073e-05
165	0xb7798a40	-1.4873745e-05
166	0xb8140f8a	-3.530042e-05
167	0xb8911be1	-6.919332e-05
168	0x39183b42	0.00014517925
169	0x3875d50c	5.8610967e-05
170	0xb7fef57a	-3.0393468e-05
171	0x3786abee	1.6054106e-05
172	0xb876d7d7	-5.8851987e-05
173	0x38131de7	3.507538e-05
174	0xb7511e1e	-1.2464383e-05
175	0xb8a948de	-8.0721205e-05
176	0xb85fcea2	-5.3359785e-05
177	0xb7c277ca	-2.3182383e-05
178	0x37a93f2b	2.0175785e-05
179	0xb7ebc0a8	-2.8103896e-05
180	0xb8701b1f	-5.7245717e-05
181	0x37c0b415	2.297204e-05
182	0x3812bbab	3.4983892e-05
183	0xb7e945cf	-2.7808272e-05
184	0x37b1eb99	2.1209753e-05
185	0xb8b06fe8	-8.413178e-05
186	0xb7b4a955	-2.1536523e-05
187	0xb864f5a3	-5.4588203e-05
188	0xb84c82ac	-4.8759088e-05
189	0x362e36c6	2.5959903e-06
190	0xb7e14ed6	-2.6858801e-05
191	0x37dd46e6	2.6378268e-05
192	0xb8f1a42b	-0.00011522354
193	0xb96b329b	-0.00022430198
194	0xb608c442	-2.0379816e-06
195	0xb78a8444	-1.6512473e-05
196	0x385c3a01	5.2506108e-05
197	0x3914d19f	0.0001419247
198	0x3889a66e	6.563669e-05
199	0xb90d5b58	-0.00013480836
200	0xb83cbde7	-4.4999553e-05
201	0x394c780c	0.00019499677
202	0x389a0376	7.343937e-05
203	0xb692e340	-4.3775945e-06
204	0x365ef03d	3.3220415e-06
205	0xb6e4d5a6	-6.8198015e-06
206	0xb82c7b28	-4.1122694e-05
207	0xb8770baf	-5.890027e-05
208	0x386f4fbd	5.7056302e-05
209	0xb813e0f3	-3.525703e-05
210	0xb931b382	-0.00016946907
211	0x390353fb	0.00012524419
212	0x38380fae	4.388362e-05
213	0x395705f1	0.00020506211
214	0xb704f890	-7.925686e-06
215	0xb876a3cd	-5.8803522e-05
216	0xb8766d09	-5.8752517e-05
217	0xb907c54d	-0.00012948104
218	0xb951cc1e	-0.00020007833
219	0x388effc4	6.818728e-05
220	0x386abd8d	5.596648e-05
221	0xb8ac95e8	-8.229521e-05
222	0x38772a8c	5.8929014e-05
223	0xb9131965	-0.00014028473
224	0xb875f78f	-5.864311e-05
225	0x38cca8bf	9.7589094e-05
226	0x37b024b8	2.0997933e-05
227	0x38769d17	5.879727e-05
228	0x38f13489	0.00011501561
229	0x391c3f05	0.00014900796
230	0x392e51dd	0.0001662443
231	0xb8f037d2	-0.00011454489
232	0xb726551c	-9.914187e-06
233	0x37f51ce9	2.9219738e-05
234	0xb91e398e	-0.00015089495
235	0xb885a52c	-6.3727e-05
236	0xb823aa23	-3.902068e-05
237	0xb901721a	-0.00012344905
238	0xb933c8d0	-0.00017145579
239	0xb920496d	-0.00015286142
240	0xb8b20a9f	-8.48968e-05
241	0xb7829b6b	-1.556958e-05
242	0x39260e85	0.00015836403
243	0x3917c17a	0.00014472558
244	0xb8b2374b	-8.4980005e-05
245	0xb8fef63f	-0.00012157531
246	0x3835c542	4.3337473e-05
247	0x381ccb3f	3.7382586e-05
248	0xb8b7adf5	-8.758522e-05
249	0xb72dfd48	-1.0370575e-05
250	0x38858f9e	6.368685e-05
251	0xb8ed0a83	-0.000113029986
252	0xb8768755	-5.877701e-05
253	0xb860765a	-5.3515985e-05
254	0xb8c9cff9	-9.623165e-05
255	0xb89e63ac	-7.5525924e-05

rios_f.RIOS_H.rnn_cell0.bias_ih f4 [384]
0	0x3d48eb71	0.04905266
1	0x37ba6cad	2.2223534e-05
2	0x3846d0f0	4.7401467e-05
3	0xbaa304b1	-0.0012437311
4	0x3902b4cb	0.00012465117
5	0x39344cd0	0.00017194753
6	0x3932c7b4	0.00017049798
7	0x3dfc0a06	0.12306599
8	0xb73437d9	-1.0741839e-05
9	0xba3c9a5e	-0.00071946334
10	0xb944afaa	-0.00018757457
11	0x386e42a7	5.6805697e-05
12	0x3e14fac2	0.14548782
13	0x39062ac6	0.0001279517
14	0x38af0b54	8.34676e-05
15	0x37df3f47	2.6613137e-05
16	0x3914feeb	0.00014209344
17	0x38048ff2	3.1605312e-05
18	0x38b00913	8.394024e-05
19	0x3899f6ef	7.3416035e-05
20	0x39381e70	0.00017558946
21	0xb91c88ec	-0.00014928327
22	0xb727b3c3	-9.99583e-06
23	0x37e09962	2.6774305e-05
24	0x37dc174d	2.6236894e-05
25	0x391c945a	0.00014932585
26	0x3dd99cd9	0.106256194
27	0x39033b10	0.00012515136
28	0x397719e6	0.00023565404
29	0x3901e60c	0.00012388098
30	0x37e19506	2.6891485e-05
31	0xb989963b	-0.00026242607
32	0x37d86c18	2.5799542e-05
33	0x38222dd9	3.866651e-05
34	0x384a73a3	4.8268248e-05
35	0x37dc8e81	2.6292402e-05
36	0xba2a0725	-0.000648605
37	0x3899d06c	7.33443e-05
38	0x387736ca	5.8940415e-05
39	0xba5d13e6	-0.0008433446
40	0xb7d6b2cb	-2.5594045e-05
41	0x3848afa6	4.78473e-05
42	0x38b36d6e	8.555768e-05
43	0x3909a618	0.00013127213
44	0xb5118e0a	-5.4223403e-07
45	0x3dfb03cc	0.122565836
46	0xb944fa05	-0.00018785156
47	0x38ad349c	8.259082e-05
48	0xb705d370	-7.976647e-06
49	0x3dbfcf81	0.0936575
50	0x38f37188	0.0001160829
51	0x3d81e45b	0.063423835
52	0x391d3719	0.00014993212
53	0x3999a55e	0.00029305642
54	0xb6661348	-3.4283894e-06
55	0x38f81823	0.00011830057
56	0x390efb4c	0.0001363579
57	0x3e329767	0.17440568
58	0x38d9af15	0.00010379978
59	0x3d833868	0.06407243
60	0x37db33da	2.613098e-05
61	0x38d1b60b	9.999805e-05
62	0xb712f485	-8.75921e-06
63	0xb8c3cb81	-9.33623e-05
64	0x37db714f	2.6159598e-05
65	0x36e0e252	6.7020674e-06
66	0x3e5abfa5	0.21362169
67	0x38e55b99	0.00010936632
68	0x38a16223	7.6953576e-05
69	0x3deb5339	0.11490483
70	0xb6b148f0	-5.283502e-06
71	0x3857a8a2	5.1417046e-05
72	0x37ff24b2	3.0415456e-05
73	0x39689614	0.00022181153
74	0xb858e203	-5.1708903e-05
75	0xb904f08f	-0.00012678116
76	0x3e158756	0.14602408
77	0x38c76f1d	9.509756e-05
78	0xbbb9054f	-0.005646385
79	0x3c696c69	0.014247038
80	0x387fda0b	6.0999806e-05
81	0x38357418	4.3261884e-05
82	0x3e42004e	0.18945429
83	0x37e13733	2.6847794e-05
84	0x366c7d40	3.5239646e-06
85	0xb71b2c90	-9.2490955e-06
86	0x39235f4c	0.00015580392
87	0x37de8b27	2.652926e-05
88	0x38bb9e88	8.9463836e-05
89	0xb9042202	-0.0001260117
90	0x392e1995	0.00016603463
91	0x391cd81e	0.00014957829
92	0x3845b447	4.7136356e-05
93	0xb8731070	-5.7951023e-05
94	0x371fe9f9	9.5316145e-06
95	0x3de7dc7d	0.11321352
96	0xbc8b1dd4	-0.016981997
97	0xba8b5d04	-0.0010632579
98	0xbac8cb96	-0.0015319462
99	0x3bb31b2a	0.0054658847
100	0xba65ef31	-0.0008771299
101	0xbabb5e8c	-0.0014295145
102	0xba859c70	-0.0010193717
103	0x3b8bec58	0.0042701177
104	0xba888866	-0.0010416626
105	0xb93ca20b	-0.00017989443
106	0xb9ee7682	-0.00045483193
107	0xbab3caa1	-0.0013717004
108	0xbcd8a9ae	-0.026448097
109	0xbaa9dd19	-0.0012959569
110	0xbabc3559	-0.001435916
111	0xba67366b	-0.00088200596
112	0xba6d1ecb	-0.0009045421
113	0xba94942d	-0.0011335664
114	0xbb3d1415	-0.002885108
115	0xbabb1e39	-0.0014275975
116	0xba8a8ea2	-0.0010571072
117	0xbb03103c	-0.001999869
118	0xb85f730e	-5.3274496e-05
119	0xba6817db	-0.00088536524
120	0xba674178	-0.0008821706
121	0xbad32442	-0.0016108828
122	0x3a2e1138	0.0006640139
123	0xba4c6995	-0.00077977154
124	0xbabd0b22	-0.0014422874
125	0xbaa0ccb9	-0.0012268043
126	0xba67f26e	-0.00088480755
127	0xba94c598	-0.0011350391
128	0xba676292	-0.0008826639
129	0xba8ac34d	-0.0010586769
130	0xb9145c6d	-0.00014148811
131	0xba67b490	-0.00088388566
132	0xb9bb693a	-0.0003574582
133	0xbaeccfa6	-0.0018067255
134	0xbacfb860	-0.0015847795
135	0xba533a5e	-0.00080577086
136	0xb83d0761	-4.5067984e-05
137	0xba2e9993	-0.00066604576
138	0xbabe50bc	-0.001451991
139	0xba9dfec0	-0.0012054071
140	0xb9a6004a	-0.00031662203
141	0xbd0056bb	-0.031332713
142	0xbaadc422	-0.0013257305
143	0xbada9b44	-0.0016678353
144	0xbb0d4ef3	-0.002156195
145	0xbbc5738c	-0.006025737
146	0xbae7ebb7	-0.001769415
147	0x3c4c0e82	0.012454631
148	0xbad234c8	-0.0016037459
149	0xba7dfd29	-0.0009688908
150	0xbaeb9e87	-0.0017976322
151	0xba1ed13d	-0.00060584006
152	0xba88c828	-0.0010435628
153	0xbca38fea	-0.019966085
154	0xbab49c3b	-0.001377947
155	0x3c2d9deb	0.010596733
156	0xba664555	-0.0008784135
157	0xba964e51	-0.0011467432
158	0xba50f789	-0.0007971456
159	0xb9b02a05	-0.00033600643
160	0xba6765eb	-0.00088271376
161	0xbaed6319	-0.0018111198
162	0xbbf894e8	-0.0075861104
163	0xbac8ab90	-0.0015309919
164	0xba3af20f	-0.00071314065
165	0xbd9e538c	-0.07730779
166	0xbad27c3b	-0.0016058752
167	0xba5150fa	-0.0007984784
168	0xbb20c87c	-0.002453356
169	0xba9d871d	-0.0012018416
170	0xba964545	-0.0011464736
171	0xbae51b4c	-0.0017479449
172	0xbce0e37d	-0.027452225
173	0xba81fc14	-0.0009917044
174	0xb9b63dfe	-0.00034759933
175	0x3cea63ab	0.028611979
176	0xba746601	-0.0009323061
177	0xbb86b414	-0.0041108225
178	0x3da7be49	0.08190591
179	0xba6626dc	-0.0008779594
180	0xba5116cc	-0.0007976114
181	0xbb2581e1	-0.0025254416
182	0xba82d6b5	-0.00099822
183	0xba668388	-0.00087934034
184	0xba1e15a4	-0.00060304464
185	0xbabd1232	-0.0014424978
186	0xba9fef0a	-0.0012201976
187	0xba96426a	-0.0011463885
188	0xba617334	-0.00086002355
189	0xb9c00a13	-0.000366286
190	0xbaaa8ba3	-0.0013011586
191	0xbcf7110e	-0.0301595
192	0x3c290588	0.01031626
193	0x3ad53adc	0.0016268152
194	0xba6abe7b	-0.00089547754
195	0xbc0f2435	-0.00873666
196	0xbb27dd1c	-0.002561397
197	0xbb806a0d	-0.0039188922
198	0xbaeb53d8	-0.0017954065
199	0x3cb90d59	0.022589372
200	0x3a976f0f	0.0011553484
201	0xbaca3c83	-0.0015429411
202	0xba48c57c	-0.0007658822
203	0xbb79423b	-0.0038033861
204	0x3d1cd9e8	0.03829375
205	0xbaecb502	-0.0018059316
206	0x3abb0ad7	0.0014270198
207	0x3a620d24	0.0008623174
208	0xbb2e7859	-0.0026622026
209	0x3ab6f7d7	0.001395936
210	0xbb3bee4e	-0.0028675976
211	0xbb07670d	-0.0020660788
212	0xbb60b12c	-0.003428529
213	0x3a3c1bf7	0.0007175798
214	0xb9719041	-0.0002303729
215	0x3a62f8c8	0.0008658287
216	0x3a61dbc8	0.0008615819
217	0x3b301a40	0.0026871115
218	0xbbb83e43	-0.0056226566
219	0xbb138149	-0.002250748
220	0xbb692e32	-0.0035580513
221	0xbb7c6582	-0.0038512652
222	0xba62c3aa	-0.0008650372
223	0x3b21ac5d	0.0024669387
224	0x3a61bcc3	0.00086111965
225	0xbaf10ffa	-0.0018391602
226	0xb992b928	-0.00027985242
227	0xba622246	-0.0008626323
228	0xbb998ad7	-0.0046857405
229	0xba44eda8	-0.000751222
230	0x38832c90	6.254867e-05
231	0x3a8f735a	0.0010944412
232	0x38a02f48	7.638201e-05
233	0xbaea2e7c	-0.0017866637
234	0xbacd54f4	-0.0015665577
235	0x3b3798bf	0.0028014628
236	0x3a1487c1	0.0005665981
237	0xbe14877d	-0.1450481
238	0x3aaf37d6	0.0013368081
239	0x3b12f02d	0.0022420988
240	0x3b9122ac	0.004429182
241	0xbd02f165	-0.031968493
242	0xbb2b8816	-0.0026173643
243	0x3bf891fa	0.007585761
244	0x3b493129	0.0030699468
245	0x3b797ae6	0.0038067638
246	0xba689076	-0.0008871624
247	0xbb448913	-0.002998893
248	0xbb0044fc	-0.0019572368
249	0x3e9fd68d	0.31218377
250	0x3b6994d5	0.003564169
251	0xbb6b0119	-0.0035858809
252	0x3a611deb	0.0008587527
253	0x3af53da4	0.0018710387
254	0x3a81cd4f	0.0009903106
255	0x3a2a0159	0.0006485186

rios_f.RIOS_H.rnn_cell0.bias_hh f4 [384]
0	0x3d48eb71	0.04905266
1	0x37ba6cad	2.2223534e-05
2	0x3846d0f0	4.7401467e-05
3	0xbaa304b1	-0.0012437311
4	0x3902b4cb	0.00012465117
5	0x39344cd0	0.00017194753
6	0x3932c7b4	0.00017049798
7	0x3dfc0a06	0.12306599
8	0xb73437d9	-1.0741839e-05
9	0xba3c9a5e	-0.00071946334
10	0xb944afaa	-0.00018757457
11	0x386e42a7	5.6805697e-05
12	0x3e14fac2	0.14548782
13	0x39062ac6	0.0001279517
14	0x38af0b54	8.34676e-05
15	0x37df3f47	2.6613137e-05
16	0x3914feeb	0.00014209344
17	0x38048ff2	3.1605312e-05
18	0x38b00913	8.394024e-05
19	0x3899f6ef	7.3416035e-05
20	0x39381e70	0.00017558946
21	0xb91c88ec	-0.00014928327
22	0xb727b3c3	-9.99583e-06
23	0x37e09962	2.6774305e-05
24	0x37dc174d	2.6236894e-05
25	0x391c945a	0.00014932585
26	0x3dd99cd9	0.106256194
27	0x39033b10	0.00012515136
28	0x397719e6	0.00023565404
29	0x3901e60c	0.00012388098
30	0x37e19506	2.6891485e-05
31	0xb989963b	-0.00026242607
32	0x37d86c18	2.5799542e-05
33	0x38222dd9	3.866651e-05
34	0x384a73a3	4.8268248e-05
35	0x37dc8e81	2.6292402e-05
36	0xba2a0725	-0.000648605
37	0x3899d06c	7.33443e-05
38	0x387736ca	5.8940415e-05
39	0xba5d13e6	-0.0008433446
40	0xb7d6b2cb	-2.5594045e-05
41	0x3848afa6	4.78473e-05
42	0x38b36d6e	8.555768e-05
43	0x3909a618	0.00013127213
44	0xb5118e0a	-5.4223403e-07
45	0x3dfb03cc	0.122565836
46	0xb944fa05	-0.00018785156
47	0x38ad349c	8.259082e-05
48	0xb705d370	-7.976647e-06
49	0x3dbfcf81	0.0936575
50	0x38f37188	0.0001160829
51	0x3d81e45b	0.063423835
52	0x391d3719	0.00014993212
53	0x3999a55e	0.00029305642
54	0xb6661348	-3.4283894e-06
55	0x38f81823	0.00011830057
56	0x390efb4c	0.0001363579
57	0x3e329767	0.17440568
58	0x38d9af15	0.00010379978
59	0x3d833868	0.06407243
60	0x37db33da	2.613098e-05
61	0x38d1b60b	9.999805e-05
62	0xb712f485	-8.75921e-06
63	0xb8c3cb81	-9.33623e-05
64	0x37db714f	2.6159598e-05
65	0x36e0e252	6.7020674e-06
66	0x3e5abfa5	0.21362169
67	0x38e55b99	0.00010936632
68	0x38a16223	7.6953576e-05
69	0x3deb5355	0.11490504
70	0xb6b148f0	-5.283502e-06
71	0x3857a8a2	5.1417046e-05
72	0x37ff24b2	3.0415456e-05
73	0x39689614	0.00022181153
74	0xb858e203	-5.1708903e-05
75	0xb904f08f	-0.00012678116
76	0x3e158756	0.14602408
77	0x38c76f1d	9.509756e-05
78	0xbbb9054f	-0.005646385
79	0x3c696c69	0.014247038
80	0x387fda0b	6.0999806e-05
81	0x38357418	4.3261884e-05
82	0x3e42004e	0.18945429
83	0x37e13733	2.6847794e-05
84	0x366c7d40	3.5239646e-06
85	0xb71b2c90	-9.2490955e-06
86	0x39235f4c	0.00015580392
87	0x37de8b27	2.652926e-05
88	0x38bb9e88	8.9463836e-05
89	0xb9042202	-0.0001260117
90	0x392e1995	0.00016603463
91	0x391cd81e	0.00014957829
92	0x3845b447	4.7136356e-05
93	0xb8731070	-5.7951023e-05
94	0x371fe9f9	9.5316145e-06
95	0x3de7dc7d	0.11321352
96	0xbc8b1dd4	-0.016981997
97	0xba8b5d04	-0.0010632579
98	0xbac8cb96	-0.0015319462
99	0x3bb31b2a	0.0054658847
100	0xba65ef31	-0.0008771299
101	0xbabb5e8c	-0.0014295145
102	0xba859c70	-0.0010193717
103	0x3b8bec58	0.0042701177
104	0xba888866	-0.0010416626
105	0xb93ca20b	-0.00017989443
106	0xb9ee7682	-0.00045483193
107	0xbab3caa1	-0.0013717004
108	0xbcd8a97c	-0.026448004
109	0xbaa9dd19	-0.0012959569
110	0xbabc3559	-0.001435916
111	0xba67366b	-0.00088200596
112	0xba6d1ecb	-0.0009045421
113	0xba94942d	-0.0011335664
114	0xbb3d1415	-0.002885108
115	0xbabb1e39	-0.0014275975
116	0xba8a8ea2	-0.0010571072
117	0xbb03103c	-0.001999869
118	0xb85f730e	-5.3274496e-05
119	0xba6817db	-0.00088536524
120	0xba674178	-0.0008821706
121	0xbad32442	-0.0016108828
122	0x3a2e1126	0.00066401286
123	0xba4c6995	-0.00077977154
124	0xbabd0b22	-0.0014422874
125	0xbaa0ccb9	-0.0012268043
126	0xba67f26e	-0.00088480755
127	0xba94c598	-0.0011350391
128	0xba676292	-0.0008826639
129	0xba8ac34d	-0.0010586769
130	0xb9145c6d	-0.00014148811
131	0xba67b490	-0.00088388566
132	0xb9bb693a	-0.0003574582
133	0xbaeccfa6	-0.0018067255
134	0xbacfb860	-0.0015847795
135	0xba533a5e	-0.00080577086
136	0xb83d0761	-4.5067984e-05
137	0xba2e9993	-0.00066604576
138	0xbabe50bc	-0.001451991
139	0xba9dfec0	-0.0012054071
140	0xb9a6004a	-0.00031662203
141	0xbd0056bb	-0.031332713
142	0xbaadc422	-0.0013257305
143	0xbada9b44	-0.0016678353
144	0xbb0d4ef3	-0.002156195
145	0xbbc5738c	-0.006025737
146	0xbae7ebb7	-0.001769415
147	0x3c4c0e82	0.012454631
148	0xbad234c8	-0.0016037459
149	0xba7dfd29	-0.0009688908
150	0xbaeb9e87	-0.0017976322
151	0xba1ed13d	-0.00060584006
152	0xba88c828	-0.0010435628
153	0xbca38fea	-0.019966085
154	0xbab49c3b	-0.001377947
155	0x3c2d9deb	0.010596733
156	0xba664555	-0.0008784135
157	0xba964e51	-0.0011467432
158	0xba50f789	-0.0007971456
159	0xb9b02a05	-0.00033600643
160	0xba6765eb	-0.00088271376
161	0xbaed6319	-0.0018111198
162	0xbbf894e8	-0.0075861104
163	0xbac8ab90	-0.0015309919
164	0xba3af20f	-0.00071314065
165	0xbd9e1037	-0.077179365
166	0xbad27c3b	-0.0016058752
167	0xba5150fa	-0.0007984784
168	0xbb20c87c	-0.002453356
169	0xba9d871d	-0.0012018416
170	0xba964545	-0.0011464736
171	0xbae51b4c	-0.0017479449
172	0xbce0e37d	-0.027452225
173	0xba81fc14	-0.0009917044
174	0xb9b63dfe	-0.00034759933
175	0x3cea63ab	0.028611979
176	0xba746601	-0.0009323061
177	0xbb86b414	-0.0041108225
178	0x3da7be49	0.08190591
179	0xba6626dc	-0.0008779594
180	0xba5116cc	-0.0007976114
181	0xbb2581e1	-0.0025254416
182	0xba82d6b5	-0.00099822
183	0xba668388	-0.00087934034
184	0xba1e15a4	-0.00060304464
185	0xbabd1232	-0.0014424978
186	0xba9fef0a	-0.0012201976
187	0xba96426a	-0.0011463885
188	0xba617334	-0.00086002355
189	0xb9c00a13	-0.000366286
190	0xbaaa8ba3	-0.0013011586
191	0xbcf7fda5	-0.030272314
192	0x3cf4514f	0.029823927
193	0x3ad53adc	0.0016268152
194	0xba6abe7b	-0.00089547754
195	0xbc0f4aa2	-0.008745821
196	0xbb27dd1c	-0.002561397
197	0xbb806a0d	-0.0039188922
198	0xbaeb53d8	-0.0017954065
199	0x3c8e6f41	0.017387034
200	0x3a976f0f	0.0011553484
201	0xbaca3c83	-0.0015429411
202	0xba48c57c	-0.0007658822
203	0xbb79423b	-0.0038033861
204	0xbbf8f42b	-0.0075974665
205	0xbaecb502	-0.0018059316
206	0x3abb0ad7	0.0014270198
207	0x3a620d24	0.0008623174
208	0xbb2e7859	-0.0026622026
209	0x3ab6f7d7	0.001395936
210	0xbb3bee4e	-0.0028675976
211	0xbb07670d	-0.0020660788
212	0xbb60b12c	-0.003428529
213	0x3a3c1bf7	0.0007175798
214	0xb9719041	-0.0002303729
215	0x3a62f8c8	0.0008658287
216	0x3a61dbc8	0.0008615819
217	0x3b301a40	0.0026871115
218	0xbd64943c	-0.05580543
219	0xbb138149	-0.002250748
220	0xbb692e32	-0.0035580513
221	0xbb7c6582	-0.0038512652
222	0xba62c3aa	-0.0008650372
223	0x3b21ac5d	0.0024669387
224	0x3a61bcc3	0.00086111965
225	0xbaf10ffa	-0.0018391602
226	0xb992b928	-0.00027985242
227	0xba622246	-0.0008626323
228	0xbb998ad7	-0.0046857405
229	0xba44eda8	-0.000751222
230	0x38832c90	6.254867e-05
231	0x3a8f735a	0.0010944412
232	0x38a02f48	7.638201e-05
233	0xbaea2e7c	-0.0017866637
234	0xbacd54f4	-0.0015665577
235	0x3b3798bf	0.0028014628
236	0x3a1487c1	0.0005665981
237	0xbe48eb21	-0.19620945
238	0x3aaf37d6	0.0013368081
239	0x3b12f02d	0.0022420988
240	0x3b9122ac	0.004429182
241	0xbb8ffb85	-0.004393997
242	0xbb2b8816	-0.0026173643
243	0x3b6fc3b0	0.0036585145
244	0x3b493129	0.0030699468
245	0x3b797ae6	0.0038067638
246	0xba689076	-0.0008871624
247	0xbb448913	-0.002998893
248	0xbb0044fc	-0.0019572368
249	0x3e982e03	0.29722604
250	0x3b6994d5	0.003564169
251	0x3cb62288	0.022233263
252	0x3a611deb	0.0008587527
253	0x3af53da4	0.0018710387
254	0x3a81cd4f	0.0009903106
255	0x3a2a0159	0.0006485186

rios_f.RIOS_H.rnn_cell1.weight_ih f4 [384, 2]
0	0x3bf33c49	0.007422958
1	0x3b4b1967	0.0030990483
2	0x3cb41999	0.021984862
3	0xbcac53a0	-0.02103597
4	0x3b3a8b75	0.002846447
5	0xbd07c517	-0.033146944
6	0x3ceb377a	0.028712977
7	0xb9c95276	-0.00038399146
8	0x3c695a01	0.01424265
9	0xbaef949c	-0.0018278542
10	0xbba41824	-0.0050077606
11	0xbc1965aa	-0.0093626175
12	0x3d20ddec	0.03927414
13	0x3b403ef0	0.0029334389
14	0x3c80093a	0.0156294
15	0x3c8fcca8	0.017553642
16	0x3aafa59a	0.0013400794
17	0x3c2659d9	0.010153257
18	0x3c3b559c	0.011433985
19	0x3c5f75ff	0.013638972
20	0xb9aaba61	-0.0003256379
21	0x393873a3	0.00017590685
22	0x3a8eee2d	0.0010904722
23	0xbb94f841	-0.0045461957
24	0x3b24d4bd	0.0025151216
25	0xbcd61fdb	-0.026138237
26	0x3c048417	0.008088133
27	0xbc336a68	-0.010950662
28	0xbcb41eb7	-0.021987302
29	0xbd05f805	-0.032707233
30	0xbbc6dc57	-0.006068747
31	0xbc7c3b15	-0.015394946
32	0x3d24201d	0.040069688
33	0x3c9991b8	0.018746242
34	0xbcb275de	-0.02178472
35	0xbd502053	-0.050812077
36	0xbc61525b	-0.013752545
37	0xbd34d2d8	-0.04414639
38	0xbb15fc5c	-0.0022886014
39	0xbb82f821	-0.0039968644
40	0xbc37fb5a	-0.0112293605
41	0xbcd408ad	-0.025883043
42	0xbd0a4e5d	-0.03376614
43	0xbc2136f3	-0.009839761
44	0x38f1a8b0	0.00011523196
45	0x3a019f6c	0.0004944715
46	0xbb9b79c8	-0.004744742
47	0xbc63f527	-0.013913429
48	0xbb11b1da	-0.0022231252
49	0xbc5d761f	-0.013516932
50	0xbb098e07	-0.0020989196
51	0xbc398763	-0.011323783
52	0xbcbf970d	-0.023387456
53	0xbd49197b	-0.049096566
54	0xbb82f6e6	-0.0039967177
55	0xbc9ea3e4	-0.019365259
56	0xbc9db046	-0.019249093
57	0xbc64d69c	-0.0139671825
58	0xbd4111df	-0.047136184
59	0xbd50c1ab	-0.050965946
60	0xbb8befc6	-0.0042705266
61	0xbc81a996	-0.015827935
62	0x3c1db073	0.009624588
63	0xbc89d878	-0.016826853
64	0xbb77cc7d	-0.0037811093
65	0xbc607298	-0.013699196
66	0x3c8a7e87	0.016906036
67	0xbcc9d6bb	-0.024638524
68	0x39028da6	0.00012450534
69	0x3835ecab	4.3374177e-05
70	0xbb8258d1	-0.003977873
71	0xbc7f1957	-0.015570006
72	0xbbcf627f	-0.0063288803
73	0xbc65191a	-0.013983035
74	0xbd3bc512	-0.045842238
75	0x3ba37a2c	0.0049889293
76	0xbbf49a54	-0.0074646864
77	0xbc1c541d	-0.009541539
78	0x3c859ed1	0.016311081
79	0xbc427bc6	-0.01187033
80	0xb833feb4	-4.2914136e-05
81	0x38637990	5.423423e-05
82	0xbcc85f3f	-0.02445948
83	0xbc90b0d5	-0.017662445
84	0xbb8f3c03	-0.0043711676
85	0xbb96eff8	-0.004606243
86	0x3c0630af	0.008190318
87	0xbc50fa57	-0.012754998
88	0xb970f637	-0.00022979906
89	0x39615fec	0.00021493406
90	0x3b889427	0.0041680518
91	0xbbf54445	-0.007484945
92	0xbbb6f34a	-0.0055832015
93	0xbb961d49	-0.004581128
94	0x3c4c7765	0.012479638
95	0x3b95d4a9	0.00457247
96	0x3c9d3534	0.019190408
97	0x3c246265	0.010033225
98	0xbb882843	-0.00415519
99	0xbbb64e1e	-0.0055635115
100	0x3c58a8ae	0.01322381
101	0xbbdf69b0	-0.006818019
102	0x3d3e9692	0.046530314
103	0x3aade8ec	0.0013268269
104	0x3c9260a2	0.017868344
105	0xbbb1606c	-0.0054131057
106	0xbc20a8a8	-0.009805836
107	0x3b1f8bc7	0.0024344788
108	0xbd22212e	-0.039582424
109	0xbd160591	-0.036626402
110	0x3c9979f6	0.018734913
111	0xbb35b786	-0.0027727797
112	0x3c9e4c2a	0.019323427
113	0x3b2c95a7	0.0026334317
114	0xbcfeb869	-0.031093793
115	0xbcf57b45	-0.029966006
116	0x3c3f1557	0.011662803
117	0x3c005af5	0.007834186
118	0xbd2cd6d8	-0.04219708
119	0xbc40d3e6	-0.0117692705
120	0xbbca746c	-0.0061784294
121	0xbc67e386	-0.014153367
122	0x3c91f110	0.017815143
123	0xbc96179d	-0.018321807
124	0xbbd7f25b	-0.0065901703
125	0xbc33da55	-0.010977347
126	0xba623bb4	-0.0008630112
127	0x3aae6ceb	0.0013307607
128	0xbb86de3c	-0.004115848
129	0xbc69d160	-0.01427111
130	0x3bb760e8	0.005596269
131	0xbca7d728	-0.020488337
132	0x3d2a13a6	0.041522644
133	0x3d61b270	0.055101812
134	0xbb1778fc	-0.0023112884
135	0xbca6a6ac	-0.020343147
136	0x3d340820	0.04395306
137	0xbcafd508	-0.021463886
138	0x3bac3d5d	0.0052563385
139	0xbb90a5c2	-0.004414291
140	0x3c333f19	0.010940337
141	0x3b83228a	0.00400192
142	0x3d0adc00	0.033901215
143	0x3cd27d7c	0.025694601
144	0xbc1bd8fa	-0.00951218
145	0xbb52f557	-0.003218969
146	0xbc1c26a5	-0.009530698
147	0xbd1f2962	-0.038857825
148	0x3caab4cc	0.020838164
149	0xbc93bfeb	-0.01803585
150	0x3c9a6e00	0.01885128
151	0x3cc9b80b	0.024623891
152	0x3d5d9a38	0.054102153
153	0xbb0a35e6	-0.0021089255
154	0x3cea1b60	0.028577507
155	0x3bf19ec9	0.007373665
156	0xbb91d2d9	-0.004450184
157	0xbd7e91c9	-0.06215075
158	0x3c860aaf	0.016362516
159	0x3b02de7b	0.0019969034
160	0x3c1c671e	0.009546069
161	0xbc5f5d3a	-0.013633067
162	0xbb0a0bda	-0.0021064193
163	0xbca49224	-0.020089217
164	0x3e05eb75	0.13078101
165	0xbc70ca7d	-0.0146967145
166	0x39024fc4	0.00012427481
167	0xbc57ad61	-0.013163895
168	0xbcf6b916	-0.030117553
169	0xbcd2a520	-0.025713503
170	0xba87a660	-0.0010349266
171	0xbcefe60f	-0.029284505
172	0xbc8f67c0	-0.017505527
173	0xb99da11f	-0.00030065418
174	0xbb88ec34	-0.004178548
175	0xbc5bfff8	-0.013427727
176	0x3b5b9f03	0.0033511526
177	0x3c6a722f	0.01430945
178	0xbc0f8ec8	-0.008762069
179	0xbcaf26eb	-0.021380862
180	0x3c1739f6	0.009230128
181	0xbc100cfd	-0.008792159
182	0x3c30832a	0.010773459
183	0xbb9ecc16	-0.0048461063
184	0x3c728d39	0.014804178
185	0xbb7188f9	-0.0036855324
186	0xb828788d	-4.0166593e-05
187	0xb996d2df	-0.0002876734
188	0xbbba426b	-0.005684187
189	0x3c444539	0.011979395
190	0xbc88e39f	-0.0167101
191	0xbce83367	-0.028344823
192	0x3c7274bc	0.014798339
193	0x3d31770f	0.043326434
194	0xbb4693a1	-0.0030300396
195	0xbc54539c	-0.012959387
196	0x3d0bbd2f	0.034115966
197	0xbd8b5e3a	-0.06805082
198	0x3c1b85fd	0.0094923945
199	0xbc03cb84	-0.008044127
200	0x3c28e711	0.010308997
201	0x3b6efaeb	0.0036465477
202	0xbcdbeeeb	-0.026847323
203	0x3c981c0a	0.018568058
204	0xbcdf505c	-0.027259998
205	0x3d67654f	0.0564931
206	0x3d146477	0.036228623
207	0x3b8e1188	0.004335586
208	0x3c2c1f72	0.010505544
209	0xbba262a2	-0.0049556056
210	0x3d4ddc7a	0.05025909
211	0x3c377400	0.01119709
212	0xb9df0a8a	-0.00042541727
213	0x399eeeb9	0.0003031397
214	0x3c99908c	0.018745683
215	0xbcb641d2	-0.022248182
216	0x3c7cb387	0.015423662
217	0xbd8b59fa	-0.06804271
218	0xbbaf538d	-0.005350536
219	0xbc94411c	-0.018097453
220	0x3cf928aa	0.030414898
221	0xbc10d897	-0.008840702
222	0x3bbf14cb	0.005831336
223	0xbb80ea6f	-0.0039341967
224	0xbcafb936	-0.02145062
225	0x3cd500ff	0.026001452
226	0x3d510671	0.051031534
227	0xbb02e84f	-0.0019974892
228	0x3c0456a6	0.008077299
229	0xba13d3ec	-0.0005639184
230	0xbd22954a	-0.039693154
231	0xbc9666da	-0.01835959
232	0x3d141e6e	0.036161833
233	0x3d2c55fa	0.04207418
234	0x3d823f4a	0.06359728
235	0x3cc1e79a	0.023670007
236	0x380f7910	3.4206605e-05
237	0x399536b4	0.00028460252
238	0x3bac8311	0.005264648
239	0xbb83e29f	-0.004024818
240	0x3bb6d363	0.0055793985
241	0xbb8a62be	-0.004223197
242	0xbc1758d8	-0.009237491
243	0xbd81e338	-0.06342167
244	0x3b9b4268	0.004738141
245	0x3d5a17d3	0.053245377
246	0x3cc9b8b1	0.0246242
247	0xbc5087c4	-0.012727682
248	0x3c9d22af	0.019181577
249	0x3d1bf49d	0.03807508
250	0x3d35fc74	0.04443021
251	0xbab0eccc	-0.0013498305
252	0x3bb28a40	0.0054486096
253	0xbb9c2f31	-0.004766368
254	0x3d0c64f9	0.034275983
255	0x3aa17ab6	0.0012319896

rios_f.RIOS_H.rnn_cell1.weight_hh f4 [384, 96]
0	0xbc77e4de	-0.01513025
1	0xbd8ab76e	-0.06773268
2	0xbc73a9c8	-0.014872022
3	0x3b772a62	0.003771447
4	0x3d7ad9df	0.061242934
5	0x3cbc0782	0.022952799
6	0x3d4eebbc	0.050517783
7	0xbc651d8f	-0.013984098
8	0xbd6bf419	-0.057605837
9	0x3cc714d3	0.024301922
10	0x39dfca96	0.00042684813
11	0xbb8742f4	-0.0041278545
12	0x3d0c63ed	0.034274984
13	0x3d3ede87	0.046598937
14	0x3bd7185c	0.006564183
15	0xbd9cc2d8	-0.07654351
16	0x3d0dfb6a	0.034663595
17	0xbd1c127b	-0.03810356
18	0x3c391250	0.01129587
19	0x3c139ea8	0.009009995
20	0x3d58e3fc	0.052951798
21	0xbb2b570c	-0.0026144413
22	0x3a29d6b3	0.0006478831
23	0xbd9cc4e3	-0.07654741
24	0xbd9cc668	-0.076550305
25	0xbc92acec	-0.017904721
26	0xbc93daee	-0.01804873
27	0x3d7b9b07	0.061427142
28	0x3d78801a	0.060669042
29	0x3d54b217	0.051927652
30	0x3d9cb388	0.0765143
31	0xbd92cf76	-0.07168476
32	0xbd9cf9dc	-0.076648444
33	0x3d5ec184	0.05438377
34	0x39e88633	0.00044350474
35	0x3d9cd439	0.07657666
36	0x3c27ec59	0.010249221
37	0xbc361c7e	-0.0111151915
38	0xb8bac90b	-8.906618e-05
39	0xbd841d84	-0.06450942
40	0xb9db7ed2	-0.00041865424
41	0x3d99f098	0.07516593
42	0xba9467a9	-0.0011322397
43	0xbd2bf887	-0.04198506
44	0xb9feb60c	-0.0004858229
45	0xbc40d19e	-0.011768727
46	0xbb74bb37	-0.0037343034
47	0xbd09b6e8	-0.0336217
48	0xbd338faf	-0.0438382
49	0xbc9380d9	-0.018005775
50	0x3d56b1ba	0.052415587
51	0x3bf236a0	0.0073917657
52	0xbd1da27a	-0.038485028
53	0xbd2c3846	-0.042045854
54	0xbc14bac4	-0.0090777315
55	0x3d22ac0b	0.039714854
56	0x3d813020	0.06308007
57	0xbcae1274	-0.021249034
58	0xbcc2ae81	-0.02376485
59	0x3b79bd8f	0.003810737
60	0xbd9cea4e	-0.076618776
61	0xbd9329d9	-0.07185716
62	0x3c943ff3	0.0180969
63	0x39ba26e8	0.00035505672
64	0xbd9cd6d1	-0.076581605
65	0xbc1a5d85	-0.009421711
66	0x3c3f9b79	0.011694782
67	0xba1949a0	-0.0005847458
68	0x3c80453a	0.01565801
69	0x3d2334a3	0.03984512
70	0x3d293955	0.04131444
71	0xbc283543	-0.010266605
72	0x3c966521	0.018358769
73	0xbc0c5932	-0.008566188
74	0x3c702148	0.014656372
75	0xbc3acb1c	-0.011400964
76	0xbd868524	-0.06568363
77	0xbc91944a	-0.017770905
78	0x3af3453c	0.0018560062
79	0xbd22b431	-0.039722625
80	0xbd5a159b	-0.05324326
81	0xbc62b782	-0.013837697
82	0xbb2a3bd1	-0.0025975595
83	0xbd9c9bfb	-0.076469384
84	0xbcc8abcb	-0.02449598
85	0xbbbccda5	-0.0057618194
86	0xbc83c348	-0.016084328
87	0xbd9cdf8f	-0.07659828
88	0xbbdc1bb3	-0.006717169
89	0x3b4be655	0.003111263
90	0x3d287b4c	0.04113321
91	0xbd036910	-0.032082617
92	0xbd925f1b	-0.07147046
93	0xba1297e6	-0.00055920926
94	0xbd120826	-0.035652302
95	0x3d86b9f5	0.06578437
96	0x3bac8912	0.0052653635
97	0xbcf575c5	-0.029963383
98	0xbb48d6d3	-0.0030645623
99	0x3d0541e0	0.032533526
100	0x3d1a0c11	0.037609164
101	0x3c90bff3	0.017669654
102	0x3cf5185f	0.029918848
103	0xbd067493	-0.032826018
104	0xbd56801c	-0.05236827
105	0xbb774ca5	-0.0037734893
106	0x3aa08f3d	0.001224972
107	0x3c1d176f	0.009588107
108	0x3ce9fcde	0.02856296
109	0x3d016e69	0.031599436
110	0x3bf87ff1	0.007583611
111	0xbd675cb5	-0.056484897
112	0xbb4e8eaf	-0.0031518152
113	0x3c4023a2	0.0117272455
114	0x3ca584c8	0.020204917
115	0x3b60e70d	0.0034317404
116	0x3d18e717	0.03732976
117	0xbb6c128f	-0.0036021804
118	0xb9db40aa	-0.00041819114
119	0xbd6722c9	-0.056429658
120	0xbd66db96	-0.056361757
121	0xbc6f1c1e	-0.014594106
122	0x3c5129be	0.0127663
123	0x3d479389	0.048724685
124	0x3d300b93	0.042979788
125	0x3cfae1b2	0.030625198
126	0x3d670c57	0.056408253
127	0xbcddd5e3	-0.027079528
128	0xbd676098	-0.056488603
129	0x3cd51a75	0.026013592
130	0x39a10dd9	0.0003071863
131	0x3d673965	0.05645122
132	0x3c3618c6	0.011114305
133	0x3c2e66b2	0.010644602
134	0x3a6e958d	0.00091012643
135	0xbcafd08b	-0.021461746
136	0x38439a4f	4.6635334e-05
137	0x3d38bfc1	0.045104746
138	0x3be90bc1	0.007111997
139	0xbba43777	-0.0050114947
140	0xba286c4a	-0.0006424828
141	0x3b80e876	0.0039339615
142	0xbc6ba68a	-0.014382968
143	0x3a91cbd7	0.0011123371
144	0xbcdeb3dd	-0.027185375
145	0xb928b279	-0.00016088215
146	0x3c4a289a	0.012338782
147	0xbc9bb666	-0.019007873
148	0xbcc72c7f	-0.02431321
149	0xbcb39c66	-0.021925163
150	0x3cbf4af0	0.023351163
151	0x3ca31337	0.019906623
152	0x3d383bdb	0.044978958
153	0x3c3479b0	0.011015341
154	0xbcb6b3d7	-0.022302551
155	0x3c6260f3	0.01381706
156	0xbd679455	-0.056537945
157	0xbd482bd1	-0.04886991
158	0x3cb74e4c	0.022376202
159	0xbac19278	-0.0014768383
160	0xbd6755d1	-0.056478325
161	0xbabd1bb3	-0.0014427811
162	0x3c9308fa	0.017948616
163	0xbb865bd4	-0.0041003022
164	0x3a9259c5	0.001116567
165	0x3c4f9ee7	0.012672163
166	0x3ccd9133	0.02509365
167	0x3d26e758	0.04074797
168	0xbb6d926d	-0.0036250607
169	0xbc470abb	-0.012148554
170	0xbc745568	-0.014912941
171	0xbcd5d24e	-0.026101258
172	0xbce6a026	-0.028152537
173	0xbcc8199f	-0.02442628
174	0x3bb6134c	0.0055564996
175	0xbcb54653	-0.02212826
176	0xbd469871	-0.048485223
177	0x3aa3cf0d	0.0012497619
178	0x3cb300fc	0.021851055
179	0xbd66515c	-0.056229934
180	0xbd2e4e0b	-0.042554896
181	0xbc5beb93	-0.0134228645
182	0xbc1b880a	-0.009492883
183	0xbd675288	-0.056475192
184	0xbbf58a39	-0.007493284
185	0x3c3771ae	0.011196537
186	0x3cfed468	0.031107143
187	0xbcf74e4c	-0.030188702
188	0xbd54bf27	-0.05194011
189	0xba5e1c1c	-0.00084728166
190	0xbcef32c8	-0.02919902
191	0x3cef6081	0.029220821
192	0xbc215818	-0.009847663
193	0xbda31f87	-0.07964998
194	0xbbc24ca5	-0.005929547
195	0x3cc116af	0.023570387
196	0x3d8ecb65	0.06972388
197	0x3cc057e6	0.023479413
198	0x3d26bdd3	0.040708374
199	0xbc439526	-0.011937415
200	0xbd806ced	-0.06270776
201	0x3d0c7b4d	0.034297276
202	0xb4bd2494	-3.5230607e-07
203	0x3d3259a4	0.04354252
204	0x3beb366e	0.0071781194
205	0x3d72dba5	0.0592915
206	0x3cc288bc	0.02374684
207	0xbda2a864	-0.07942274
208	0x3d2cc4af	0.04217976
209	0xbd9511c5	-0.0727878
210	0x3c163d37	0.009169868
211	0x3c28d754	0.0103052445
212	0x3d06b823	0.03289045
213	0x3c7ddf71	0.015495167
214	0xbab4f4e1	-0.001380589
215	0xbda272d8	-0.07932061
216	0xbda23955	-0.079210915
217	0x3cd9b594	0.026575841
218	0xbbb3a7b4	-0.0054826383
219	0x3d209ea4	0.03921379
220	0x3d521756	0.051291786
221	0x3cdb354e	0.026758816
222	0x3da26fb0	0.07931459
223	0xbd8b3003	-0.06796267
224	0xbda2953b	-0.0793862
225	0x3d86baad	0.06578574
226	0x39432a59	0.00018612425
227	0x3da29826	0.07939176
228	0x3d01fbd4	0.031734303
229	0x3ae1e14c	0.0017233281
230	0xbb2e38d1	-0.0026584158
231	0xbda0739b	-0.0783455
232	0x3a390442	0.00070578244
233	0x3d9a17e0	0.07524085
234	0x3be9e38a	0.0071377205
235	0xbd4daefa	-0.0502157
236	0x3a14ef0a	0.00056813715
237	0xba442127	-0.0007481747
238	0xbb5820a6	-0.0032978444
239	0xbcbe797a	-0.023251284
240	0xbd94a593	-0.07258143
241	0xbb8befbf	-0.0042705233
242	0x3d8f6c6e	0.07003103
243	0xbc2eebf4	-0.010676373
244	0xbd844e04	-0.06460193
245	0xbd119777	-0.03554484
246	0xbb55941e	-0.0032589505
247	0x3d24b18e	0.04020839
248	0x3d8b2024	0.0679324
249	0x3c8eefc5	0.017448315
250	0xbd2156f8	-0.03938958
251	0x3ca8e8fa	0.020618904
252	0xbda2baca	-0.079457834
253	0xbd9018b0	-0.07035959
254	0xbcbd703b	-0.023124805
255	0x3acdba22	0.0015695731

rios_f.RIOS_H.rnn_cell1.bias_ih f4 [384]
0	0x3dd6e6d4	0.10493246
1	0x3e01196d	0.12607355
2	0x3e18a04a	0.14904895
3	0x3e091ba1	0.13389446
4	0x3e00df56	0.12585196
5	0x3d9a06c3	0.07520821
6	0x3e297b53	0.1655095
7	0x3e22e618	0.15908086
8	0x3e13c4ee	0.14430591
9	0x3e1ff73d	0.15621658
10	0xbb590649	-0.0033115319
11	0x3e7d2309	0.24720396
12	0x3e54126b	0.20710151
13	0x3dfa0a32	0.12208976
14	0x3e03124b	0.12799947
15	0x3e009e3a	0.12560359
16	0x3de39c7e	0.11113833
17	0x3de2651b	0.110544406
18	0x3e436f26	0.19085369
19	0x3dd47fb8	0.10375923
20	0x3e11ee6e	0.1425111
21	0x3e35ccf8	0.1775397
22	0xbb6e7d7b	-0.003639071
23	0x3dfdac57	0.12386387
24	0x3df910e3	0.12161424
25	0x3e2c3b68	0.16819537
26	0x3e0d4848	0.13797104
27	0x3e106f38	0.14104927
28	0x3e1fea6f	0.15616773
29	0x3e521a58	0.20517862
30	0x3dfd71ec	0.123752445
31	0x3e241acf	0.16025852
32	0x3dfe038b	0.124030195
33	0x3e28b577	0.16475473
34	0xb9745afa	-0.00023303545
35	0x3dfe178d	0.12406836
36	0x3def3078	0.116791666
37	0x3e719269	0.23591007
38	0x3d9c038f	0.07617866
39	0x3e1b46b0	0.15163684
40	0xba3cbc6b	-0.00071997073
41	0x3e2d5e47	0.16930495
42	0x3e27d2d4	0.16389018
43	0x3de6bcb1	0.11266459
44	0xbb496405	-0.0030729782
45	0x3da7962c	0.0818294
46	0x3e1bf42c	0.15229863
47	0x3db40812	0.08790602
48	0x3dd1406b	0.10217365
49	0x3e42e94a	0.19034305
50	0x3dd189d9	0.102313705
51	0x3ea13bfb	0.31491074
52	0x3e19e878	0.15030086
53	0x3e1b37de	0.1515803
54	0x3dea8640	0.114513874
55	0x3e84a101	0.25904086
56	0x3e2cc565	0.16872175
57	0x3e7c8446	0.24659833
58	0x3dc519df	0.09624075
59	0x3ea0cac8	0.3140471
60	0x3e01296d	0.12613459
61	0x3df7f77f	0.12107753
62	0x3dd41940	0.103563786
63	0xbbb4dc6f	-0.005519442
64	0x3dfecf85	0.12441925
65	0x3d8e6a46	0.06953864
66	0x3e828bbc	0.25497234
67	0x3dbd9ac0	0.09258032
68	0x3e4c4e4c	0.19951743
69	0x3e1c4982	0.15262416
70	0x3e0c74bc	0.13716406
71	0x3e43f8c3	0.19137864
72	0x3df490f3	0.11941709
73	0x3e3fcf42	0.18731406
74	0x3de927d8	0.11384553
75	0x3ddab200	0.10678482
76	0x3dfac1f0	0.12244022
77	0x3dc08e74	0.09402171
78	0x3eed0565	0.46293178
79	0x3e1ddb6d	0.15415736
80	0x3de35479	0.11100096
81	0x3dd5d793	0.10441508
82	0x3e5affbe	0.2138662
83	0x3df3e317	0.11908548
84	0x3e1f7620	0.15572405
85	0x3de45075	0.111481585
86	0x3d9be480	0.07611942
87	0x3dfe92a0	0.1243031
88	0x3e0bd9e6	0.1365734
89	0x3da4c859	0.08046026
90	0x3de3b477	0.11118405
91	0x3df785e5	0.12086085
92	0x3e1c1078	0.15240657
93	0xbb16e343	-0.0023023642
94	0x3e08fc31	0.13377453
95	0x3e28349f	0.16426323
96	0x3c864d5d	0.016394312
97	0x3dbddb78	0.09270376
98	0x3cc21fc9	0.023696797
99	0x3d789979	0.060693238
100	0x3d999d89	0.075007506
101	0x3d83fb34	0.064443976
102	0x3da60106	0.08105664
103	0x3cde8f73	0.027168011
104	0x3db41a0f	0.08794033
105	0x3d8bd805	0.06828312
106	0xbb43b538	-0.0029862653
107	0x3d350d34	0.044202045
108	0x3bbb00c4	0.0057068784
109	0x3d970076	0.07373135
110	0x3da7da3d	0.081959225
111	0x3da1fe27	0.07909804
112	0x3d61f473	0.055164766
113	0x3dbe85f0	0.0930289
114	0x3d248e63	0.040174853
115	0x3ce1a18a	0.027542848
116	0x3d79975b	0.06093536
117	0x3d8dd96e	0.06926237
118	0xbb588046	-0.0033035441
119	0x3da23271	0.07919777
120	0x3da20eb5	0.079129614
121	0x3d87a33a	0.0662293
122	0x3d57db02	0.052699097
123	0x3dac3aa5	0.08409623
124	0x3d9e4b4d	0.07729206
125	0x3d8c93e2	0.06864144
126	0x3da1b1c2	0.07895233
127	0x3dcf265d	0.10114739
128	0x3da311f6	0.0796241
129	0x3daadf9a	0.0834343
130	0xb919022f	-0.0001459203
131	0x3da22f04	0.07919124
132	0x3d549cb9	0.051907275
133	0x3dac35e2	0.08408715
134	0x3d4ab4c2	0.04948879
135	0x3dc193f6	0.094520494
136	0xba2641d2	-0.00063422055
137	0x3dc68335	0.096929945
138	0x3d763bcf	0.06011563
139	0x3d8570bd	0.06515644
140	0xbb30fb5d	-0.0027005293
141	0x3cff7bc1	0.03118694
142	0x3d735936	0.05941125
143	0x3da82dd6	0.082118675
144	0x3d6ccc31	0.05781192
145	0xbc970f63	-0.018439954
146	0x3d7ab2ea	0.061205782
147	0xba3a5496	-0.0007107941
148	0x3db833ba	0.08994241
149	0x3d8e01af	0.06933915
150	0x3db4b56b	0.08823665
151	0x3d88e39e	0.066840395
152	0x3da06f8d	0.078337766
153	0x3d0feed6	0.03513988
154	0x3dae58df	0.085130446
155	0xbc667eba	-0.0140683
156	0x3da2d1d9	0.079501815
157	0x3dc3bee4	0.09557894
158	0x3d30bd1e	0.043149106
159	0xbb9b0f7d	-0.004732071
160	0x3da2816c	0.079348415
161	0x3d856826	0.06514005
162	0xbd4fce5d	-0.050733913
163	0x3d54f7e4	0.05199422
164	0x3d0fa538	0.035069674
165	0x3cc7b8c7	0.0243801
166	0x3d931c30	0.07183111
167	0x3dd59323	0.10428455
168	0x3d4acf8f	0.04951435
169	0x3d7baba3	0.061442982
170	0x3dd13460	0.10215068
171	0x3d60795e	0.054803245
172	0x3d4bb048	0.04972866
173	0x3d8c6c45	0.06856588
174	0xbaada411	-0.0013247748
175	0x3d7cd901	0.06173039
176	0x3daad31e	0.08341049
177	0x3d1d30d0	0.03837663
178	0xbe0e6489	-0.13905539
179	0x3da0fa5f	0.078602545
180	0x3dbe6d9d	0.09298251
181	0x3d803375	0.06259815
182	0x3da752bf	0.081700794
183	0x3da24af9	0.07924456
184	0x3d0c1354	0.03419812
185	0x3d7a53df	0.061115142
186	0x3d867590	0.06565392
187	0x3d9cfb71	0.07665146
188	0x3da39634	0.07987633
189	0xbaf893ad	-0.0018964909
190	0x3d87e627	0.06635695
191	0x3d8f829a	0.07007332
192	0x3ce40e34	0.027838804
193	0xbe697fd4	-0.22802669
194	0xbe4cc1de	-0.1999583
195	0x3dd523e0	0.10407233
196	0x3e7fb66a	0.24971929
197	0xbdb4e151	-0.08832038
198	0xbe22ef45	-0.15911587
199	0xbe6a3aa9	-0.2287394
200	0xbe9314c5	-0.28726783
201	0x3e4cfa7d	0.20017429
202	0x3a0bc8c0	0.0005332343
203	0x3e231cfa	0.15929022
204	0x3caedae8	0.021344617
205	0x3d93ac6c	0.07210621
206	0x3d772346	0.060336374
207	0xbe8d3923	-0.27582654
208	0xbe166cb9	-0.14689912
209	0xbe2b577d	-0.16732593
210	0x3e6eff6f	0.23339628
211	0xbd1e274b	-0.03861169
212	0x3e7a0c0f	0.24418662
213	0x3e9942d7	0.29933807
214	0xba91c299	-0.0011120617
215	0xbe8bab94	-0.2727934
216	0xbe89d573	-0.2692066
217	0x3e94ad53	0.29038486
218	0x3e44a33e	0.19202897
219	0x3e82e62d	0.25566235
220	0x3e8a1228	0.26966977
221	0x3e367b48	0.17820466
222	0x3e8bbfc4	0.27294743
223	0xbe9ae2e1	-0.3025122
224	0xbe8ba126	-0.27271384
225	0x3e9580cb	0.29199824
226	0x398c0580	0.0002670698
227	0x3e8bd623	0.2731181
228	0xbe0f5790	-0.13998246
229	0x3e1eb661	0.1549926
230	0x3d9fd482	0.078042045
231	0xbe8e1d66	-0.27756804
232	0x39b0e102	0.0003373698
233	0x3e984db5	0.29746786
234	0x3e06ab54	0.13151294
235	0xbe2d4dd4	-0.1692422
236	0xb6e1ebff	-6.732996e-06
237	0xbdbd7379	-0.0925054
238	0xbe662c7c	-0.22477907
239	0xbc05b422	-0.008160623
240	0xbe2b3f46	-0.16723356
241	0xbd2d551b	-0.04231749
242	0x3d6298f6	0.055321656
243	0xbe9624e2	-0.29325014
244	0xbe8fd7b4	-0.28094256
245	0xbe76404c	-0.24047965
246	0xbe147eff	-0.1450157
247	0xbcb8d5e3	-0.022562927
248	0x3e98214a	0.29712898
249	0x3edbab45	0.42904106
250	0xbe462c4b	-0.19352834
251	0x3ec22f3b	0.3792666
252	0xbe8da318	-0.27663493
253	0xbe1e3f3a	-0.15453807
254	0x3e293c24	0.16526848
255	0x39cd5bc2	0.00039169012
