BRIOS/models/model_file/biros_base/test.pt (torch, 626210 bytes, 26 tensors)

rios_f.RIOS_H.rnn_cell0.weight_ih f4 [384, 2]
00000000: 4497 8239 589b 6e39 6d20 283b e026 c73b
00000010: 01d0 6339 6305 7038 f8aa 43b3 892f a333
00000020: f4c8 d937 079a 2037 1832 b338 a14c e038
00000030: 37b2 b2ba 7e64 513b e93b 0938 02eb 7638
00000040: 1115 de3e 28d3 8f3e 2dde 4db6 8cce cfb4
00000050: 30f6 13b6 9ec5 74b5 5b15 0e35 2114 0d34
00000060: f28b a3b8 6431 2339 d8aa 94b7 6ac0 2cb9
00000070: 8694 1e3b a00c ee3a ebb0 c837 05d1 27b8
00000080: 2461 14bb fa95 97ba 76dc c7b7 4cdb beb6
00000090: a5ca ff37 f6e5 5c37 a4ca fbb7 5b04 0ab8
000000a0: 53d5 93b6 cbea 21b5 3055 b1b5 4ae6 3535
000000b0: 5580 e53c 2182 f73c 97c9 85b6 74ab dbb4
000000c0: 85cb 4137 0831 3ab7 2b1a cb38 2794 0539
000000d0: 1b03 28b8 ae9f 3439 5723 ff37 0f47 4ab5
000000e0: fccb dd37 935d ef36 5ad9 3037 6a6f 4136
000000f0: fe5f c634 0628 1333 883c da37 ff71 1237
00000100: 73d0 68b7 c78c 3ab6 abb7 8eba 817b 8eba
00000110: a456 f637 c8ef 0c37 cc03 bbb5 5970 3e34
00000120: 3fc1 813c cc9d 393c ecff d737 541f 1937
00000130: cf9d e53c ee28 b13d a75a 7636 8d16 3233
00000140: c089 a3b8 3c07 f238 9d47 43b6 2ce2 1835
00000150: 3fea 9235 1bf2 83b4 700b 6e38 238a 6738
00000160: 2d32 04b5 4649 42b5 1fdd ad37 f1fb a7b7
00000170: 971a 9bb8 cb41 97b8 afa2 7ab8 da2d 54b8
00000180: d993 17b7 c698 c036 8d16 1038 0d63 9237
00000190: a485 2538 ee4c d237 2f4f cb38 9601 61b8
000001a0: 75ae ae37 bb17 7837 f805 f833 99b9 4c35
000001b0: 8257 5cb5 540d 7234 1c1a 6a39 55d0 1f38
000001c0: 3504 dd37 9bab 1f37 5fe6 e035 ef2f d4b6
000001d0: 49dc a138 70de 4e38 ac6f 8c33 a807 5034
000001e0: 6c10 7e39 8a4f c139 fd51 28b6 ad72 50b6
000001f0: 40f1 6738 4ef6 4338 f5a9 8639 613c c9b8
00000200: 1349 bb35 942f 55b7 d497 863d 94cf e33d
00000210: e475 b5b3 952a 70b6 3226 46b5 1b94 7c39
00000220: 179d b13c 6ba0 d33c e040 ed37 8f6c 0f37
00000230: 47d4 73ba c808 ba3b febe 41b7 00ee 1039
00000240: e2c8 f735 36a2 5cb7 8c62 bcb8 1069 8938
00000250: d2c1 4038 e96b e438 007e 97b7 dd1d 3138
00000260: f780 9a38 72df 3a39 32c4 4f38 74ea 0939
00000270: f55e 11b8 c0f5 f4b6 0503 0ab7 6397 e7b5
00000280: 1757 3939 1b22 bf38 c408 d437 2ff9 0537
00000290: a3c2 a1b6 e68a 4136 c542 a7b6 32ba a5b6
000002a0: 5314 0638 abeb df36 f800 7bb6 7e78 1e35
000002b0: eba2 98ba 0bc6 8bba d24b 5239 90e6 5a39
000002c0: e62c ae3d 6543 593d 3a0d b438 d49a 9137
000002d0: f416 43bd d553 563e 969e beb5 ee19 fab5
000002e0: dff4 3238 bfca 1938 a579 563a 06cb 1b3a
000002f0: 3ff7 e4b5 1744 da35 35fe 5c39 8d08 c4b5
00000300: 43b4 f6b9 9e7b 5fb9 2e2e 163c 8b7b 023d
00000310: 890a b2ba 6f27 48ba 60ea 2db5 e85a 84b4
00000320: fa94 3cba d923 a8b9 098e 43ba 74b8 b6ba
00000330: 8331 7cbb 1809 583c bad1 ecb9 7b1a f138
00000340: 99ad 633e 337e 6c3e c7d1 19b6 4f0a 47b6
00000350: f3e4 84b6 3c56 28b6 9f01 01b6 a3d7 5a32
00000360: 9c88 c5b9 f140 6fba 7910 d0ba 1504 fcb9
00000370: 3340 4a3c 0341 813c e7cd 4aba 9347 c338
00000380: 567f 783b e8ab a13c 9223 e1b7 dc4a 8c37
00000390: 545c 35ba 38f1 b6b9 9c9f a4ba e393 94ba
000003a0: 798c f934 28df 9236 6abd 0cb7 5871 0f35
000003b0: 2f91 74ba bf44 f1bb 572e beb6 efe6 e435
000003c0: 61da 4bb7 298e 30b7 de39 93ba 1a98 2cba
000003d0: 2c66 05ba 7740 1eba a1fb 0938 4f97 65b7
000003e0: e862 41ba 345a 9bb9 2ef2 3538 5f11 9eb5
000003f0: e3b9 c332 5187 29b4 57ec 42ba a1f7 9bb9
0.00024908234 0.00022755319 0.0025654093 0.0060776323 0.00021725894 5.7225476e-05 -4.555747e-08 7.5989256e-08
2.5961992e-05 9.572605e-06 8.544716e-05 0.000106954256 -0.0013633434 0.0031950767 3.271914e-05 5.886984e-05
0.43375447 0.28090787 -3.0676704e-06 -3.8707037e-07 -2.2048007e-06 -9.1184654e-07 5.29302e-07 1.3138971e-07
-7.7985125e-05 0.00015563291 -1.772253e-05 -0.00016474878 0.0024197414 0.0018161722 2.3924242e-05 -4.0010567e-05
-0.0022640908 -0.0011565082 -2.3825309e-05 -5.6879708e-06 3.0492733e-05 1.3166564e-05 -3.0015894e-05 -3.290582e-05
-4.4057756e-06 -6.031884e-07 -1.321232e-06 6.776287e-07 0.028015295 0.030213417 -3.987177e-06 -4.0916677e-07
1.1551082e-05 -1.109788e-05 9.6846685e-05 0.0001273906 -4.0057213e-05 0.00017225623 3.0414825e-05 -7.535427e-07
2.644024e-05 7.1336485e-06 1.0541024e-05 2.8824093e-06 3.6950217e-07 3.4262506e-08 2.6015812e-05 8.72882e-06
-1.3876811e-05 -2.7798103e-06 -0.0010888478 -0.0010870547 2.936583e-05 8.400479e-06 -1.3933691e-06 1.7736001e-07
0.015839217 0.011329126 2.574917e-05 9.126805e-06 0.02802935 0.08650385 3.6709623e-06 4.1464364e-08
-7.7981036e-05 0.00011540807 -2.9098949e-06 5.6953536e-07 1.0946022e-06 -2.4576806e-07 5.6754274e-05 5.520334e-05
-4.924685e-07 -7.237726e-07 2.0726175e-05 -2.002527e-05 -7.395929e-05 -7.212496e-05 -5.9756156e-05 -5.058744e-05
-9.034725e-06 5.739831e-06 3.4353277e-05 1.745068e-05 3.9463528e-05 2.5069774e-05 9.6945434e-05 -5.3645657e-05
2.0823654e-05 1.4787477e-05 1.15494856e-07 7.6266e-07 -8.208373e-07 2.2542855e-07 0.00022325706 3.810258e-05
2.6347212e-05 9.5170935e-06 1.6756347e-06 -6.3236726e-06 7.7181096e-05 4.932139e-05 6.539571e-08 1.9374295e-07
0.00024229445 0.0003687109 -2.5081674e-06 -3.1061165e-06 5.5299373e-05 4.6721012e-05 0.000256851 -9.595673e-05
1.3953853e-06 -1.2706867e-05 0.06571928 0.11123577 -8.4499135e-08 -3.5787573e-06 -7.381633e-07 0.00024087766
0.021681352 0.02583333 2.8282811e-05 8.54874e-06 -0.0009301346 0.0056773163 -1.1548165e-05 0.00013821572
1.8461399e-06 -1.31507895e-05 -8.982894e-05 6.5522385e-05 4.5956876e-05 0.00010891987 -1.8059276e-05 4.22279e-05
7.367314e-05 0.00017821582 4.9535367e-05 0.00013152679 -3.465913e-05 -7.3003757e-06 -8.226144e-06 -1.72549e-06
0.00017675418 9.113942e-05 2.5276451e-05 7.985435e-06 -4.8208326e-06 2.884009e-06 -4.984761e-06 -4.939059e-06
3.1967018e-05 6.6733533e-06 -3.7402478e-06 5.9034926e-07 -0.0011645233 -0.001066388 0.00020055406 0.00020875991
0.085046574 0.053042788 8.5855325e-05 1.7357444e-05 -0.04762931 0.20930417 -1.4202258e-06 -1.8633998e-06
4.266656e-05 3.6666865e-05 0.00081815786 0.00059430336 -1.7059282e-06 1.6262082e-06 0.00021075534 -1.4605627e-06
-0.00047055082 -0.00021312988 0.0091662835 0.0318561 -0.0013583462 -0.00076352706 -6.478858e-07 -2.465306e-07
-0.000719383 -0.00032070166 -0.00074598246 -0.0013940469 -0.003848166 0.013185762 -0.00045169686 0.00011496708
0.22234191 0.23095016 -2.2920883e-06 -2.9659311e-06 -3.9605598e-06 -2.5084146e-06 -1.9223442e-06 1.27383e-08
-0.0003767655 -0.00091268035 -0.001587405 -0.00048068227 0.012344408 0.01577807 -0.00077363703 9.311656e-05
0.0037917695 0.019735292 -2.6838654e-05 1.672416e-05 -0.000691836 -0.00034893467 -0.0012559774 -0.0011335578
4.6482072e-07 4.377118e-06 -8.388752e-06 5.343659e-07 -0.00093294954 -0.0073629315 -5.667836e-06 1.7054534e-06
-1.2150588e-05 -1.0523517e-05 -0.0011232456 -0.0006583944 -0.0005088772 -0.00060368277 3.2897693e-05 -1.3684693e-05
-0.0007377104 -0.0002963111 4.337931e-05 -1.1776973e-06 2.278552e-08 -1.578858e-07 -0.000743573 -0.00029748402

rios_f.RIOS_H.rnn_cell0.weight_hh f4 [384, 96]
00000000: 7a6a 65b9 336b 8bb8 1857 0138 2ec4 70b6
00000010: 5e7d deb8 cab1 2cb9 7dac d138 3a35 f8b8
00000020: 00c0 85b8 cc49 4537 7c64 4335 2ef5 8a36
00000030: 0e99 6339 2ea8 82b8 d81b dc38 9168 1d39
00000040: e076 8637 4cc5 37b7 7ed6 dd38 767c b1b6
00000050: e336 bcb6 8d66 8137 66af 69b6 93b4 0cb7
00000060: 7099 e1b7 8976 fab9 7fcf 80b9 b9bd 94b7
00000070: 4746 dd38 8e80 6937 0138 8535 666a dd38
00000080: c50f e2b6 53c1 9e38 9c48 ddb8 5eaa 08b6
00000090: 0a90 fcb8 fb8f ddb8 347c dc38 3f4c c436
000000a0: 2f74 ccb9 14ef 18b7 cbf2 2336 3273 6039
000000b0: cd74 6035 49ab a734 ae0b f437 33bf f738
000000c0: d0e9 73b7 d55f deb8 0bb6 dd38 4c3e cd38
000000d0: 19db 1d37 a3c0 afb6 e691 5bb4 cbbd c8b8
000000e0: 1df8 dc38 12a5 80b5 d710 0b39 69d6 5336
000000f0: 2b68 8638 0494 a235 f837 6ab9 257a 49b9
00000100: 6dac 9eb7 12d1 6438 ce36 fab6 89e4 7439
00000110: 04b2 e9b8 def4 ddb8 c7bc 4339 d76f cb38
00000120: 5fd1 a0b7 d886 99b9 9617 8738 01de edb8
00000130: 7b46 b336 c96e 4ab9 daf3 fa36 ee7b cd38
00000140: e823 b038 e503 dd38 fcaf 5d37 5001 deb6
00000150: 7dc8 db38 1a5e 9b36 3f8a ca38 4809 8ab9
00000160: f311 eab7 9f0e 4139 0eb3 6237 3218 8736
00000170: f6e9 d038 98c7 dbb8 f023 b236 7b2f 5ab9
00000180: c433 98bb 1e54 1abb e7e1 72bb 48ee 0138
00000190: 0f01 b4ba 703a a9bb 3da3 53bb 2295 a7bb
000001a0: 8e99 b33a b56e 8439 a5a0 1038 0f7b 1fb8
000001b0: 3ccc 94bb 7b86 cb3a 7e5c 993a c8dd 30bc
000001c0: 08c8 30bb e365 3238 cbec a63a c3cf cb3b
000001d0: 6d5e 5239 0ed6 81b8 c1b5 d5b9 ffe3 a337
000001e0: 3632 1a39 a759 423b 59cd 8ebb ba7e 6539
000001f0: db98 ce3a 6363 7b39 3c0c 1bb7 1ae6 de3a
00000200: 7bae 1839 927f 2d3b d639 feba 49dd 8338
00000210: c1c8 95bb 70d7 e2ba c176 373b d2a0 0fb9
00000220: b4c8 ecba 668d 06b9 2b7a 2ab6 1bed 543b
00000230: 83bc 68b7 8e4a 5c36 a972 88bb b922 0a3b
00000240: 16f9 6cb9 7af9 9cba e6f0 993a bdde 763b
00000250: 2bbf 8d39 75d8 23b8 e570 6c37 33d0 a73a
00000260: 555b b53a 0f66 0e38 5666 e13a 1811 3e38
00000270: 95d1 32ba 7bec deb8 11b4 693a bcdf 683b
00000280: c4f8 4239 6244 4538 eec2 2738 c60f bfbb
00000290: 5365 37bb 1c7f e2ba 9c10 2a3b 9855 06ba
000002a0: 3cf0 f9b8 c74b 983b 20e5 10bb cbda 953b
000002b0: 8ac8 933b 39fa 143b f319 9538 c2f9 173b
000002c0: e491 943a 167b ce3a c5fd 36b9 6a7f 12b9
000002d0: adea 003b 5742 2639 57f3 a83b 142b 99ba
000002e0: f1de bcb9 bff5 f2bb 7963 63ba 518d 8eb7
000002f0: 882a 8539 ae78 acba 5ecf 74b8 670b c73b
00000300: 5c4f 00b9 ffc2 0839 492b ec37 ce07 36b5
00000310: ebdc d938 4183 deb6 31f3 c239 079a 2a38
00000320: d01e a438 de9d 16b5 76db 7cb5 7fda 8435
00000330: ff4f 0a39 8aba b537 40a4 dfb8 5b78 f638
00000340: 8983 db38 c17a 09b5 cc80 dbb8 60e9 0fb9
00000350: 0f9c 2ab7 772e 5a37 13b4 f2b6 789f d536
00000360: 40e2 0237 06ce 54b9 4871 41b8 3fba e8b5
00000370: d3d8 dcb8 28ce d5b6 4a8f 8c34 774f ddb8
00000380: 782e f635 0052 9c38 32f7 dc38 01c9 dcb6
00000390: d1cc b538 ec20 dc38 0330 0c39 453c 7c37
000003a0: 7586 94b8 2326 8a35 8877 a136 1eb2 2639
000003b0: 2308 2537 8dd3 cc34 74ae 7e39 3fcc 2538
000003c0: d77d 1236 9669 d938 4076 dbb8 ab89 0ab9
000003d0: 6ff7 9136 957c 5a35 468a f3b6 13d0 16b8
000003e0: f6af ddb8 d52b 4f36 1f9b 7d38 34a2 8a35
000003f0: 80e1 4f38 8db7 b436 c3ad 48b9 31fa 95b8
-0.00021878807 -6.648004e-05 3.083711e-05 -3.5876978e-06 -0.000106091364 -0.0001646943 9.998025e-05 -0.00011835476
-6.377697e-05 1.1759297e-05 7.2789385e-07 4.141263e-06 0.00021705424 -6.230209e-05 0.00010495604 0.00015011641
1.60294e-05 -1.0953587e-05 0.000105780535 -5.2895e-06 -5.6092263e-06 1.5425752e-05 -3.48218e-06 -8.3866935e-06
-2.689354e-05 -0.0004777203 -0.0002456866 -1.7731321e-05 0.000105511914 1.3917814e-05 9.925571e-07 0.000105579194
-6.7371607e-06 7.5700365e-05 -0.00010551626 -2.0364746e-06 -0.00012043126 -0.0001056492 0.00010513552 5.8501314e-06
-0.00038996476 -9.115571e-06 2.4430217e-06 0.00021405218 8.361647e-07 3.12308e-07 2.9092505e-05 0.000118134914
-1.4538367e-05 -0.00010603635 0.00010572009 9.7867654e-05 9.408942e-06 -5.2378323e-06 -2.0449042e-07 -9.572095e-05
0.00010536632 -9.584785e-07 0.00013262346 3.1566253e-06 6.409021e-05 1.2113019e-06 -0.00022336829 -0.00019214356
-1.891536e-05 5.4554148e-05 -7.4569607e-06 0.0002335479 -0.00011143464 -0.00010583711 0.00018666974 9.700626e-05
-1.9170982e-05 -0.000292829 6.441695e-05 -0.00011342392 5.3428207e-06 -0.00019305492 7.4789687e-06 9.7982454e-05
8.399022e-05 0.000105388266 1.3213601e-05 -6.6162684e-06 0.000104800776 4.630315e-06 9.657861e-05 -0.00026328326
-2.7903332e-05 0.00018411361 1.3512339e-05 4.0261302e-06 9.9617915e-05 -0.00010479911 5.308997e-06 -0.00020807788
-0.004644843 -0.0023548673 -0.0037060918 3.0977913e-05 -0.0013733226 -0.005164437 -0.0032293343 -0.0051142136
0.0013702379 0.00025259485 3.4481887e-05 -3.802316e-05 -0.004540948 0.0015527749 0.0011700538 -0.010795064
-0.0026974697 4.2533396e-05 0.0012735365 0.0062198355 0.00020062337 -6.19107e-05 -0.00040761943 1.9537283e-05
0.0001470529 0.0029655488 -0.0043579754 0.00021886351 0.0015762107 0.0002397425 -9.2415685e-06 0.0017005831
0.00014560849 0.0026473743 -0.0019395899 6.287784e-05 -0.004571051 -0.0017306637 0.0027994367 -0.00013697453
-0.0018065185 -0.00012831911 -2.5403085e-06 0.0032489959 -1.3872169e-05 3.2825951e-06 -0.004164059 0.0021077825
-0.00022599506 -0.0011976205 0.0011744767 0.0037669383 0.00027036047 -3.906382e-05 1.40929815e-05 0.0012803137
0.0013836423 3.3950488e-05 0.0017196636 4.531545e-05 -0.0006821391 -0.00010629833 0.00089150766 0.0035533747
0.00018593954 4.7032147e-05 3.9997445e-05 -0.0058307378 -0.0027983978 -0.0017280313 0.0025949841 -0.0005124449
-0.000119179924 0.0046477052 -0.0022109225 0.0045732013 0.00450999 0.0022732152 7.109707e-05 0.0023189639
0.0011334983 0.0015753235 -0.00017451409 -0.0001397111 0.0019671128 0.00015855707 0.0051559615 -0.0011685812
-0.0003602426 -0.007414549 -0.00086741854 -1.6993525e-05 0.00025399425 -0.0013158524 -5.836726e-05 0.0060743573
-0.00012236595 0.00013042612 2.8153549e-05 -6.781164e-07 0.000103885155 -6.6313955e-06 0.00037183755 4.0674608e-05
7.825869e-05 -5.610908e-07 -9.4196673e-07 9.898357e-07 0.00013190506 2.1663745e-05 -0.000106640626 0.00011752612
0.00010467234 -5.121511e-07 -0.00010466724 -0.00013724482 -1.0169125e-05 1.3004631e-05 -7.2331254e-06 6.3664593e-06
7.801282e-06 -0.00020294645 -4.6120287e-05 -1.7339552e-06 -0.00010530804 -6.3718944e-06 2.618129e-07 -0.00010552903
1.8341952e-06 7.453933e-05 0.00010536461 -6.579911e-06 8.6689026e-05 0.0001049655 0.00013369326 1.5034403e-05
-7.0822345e-05 1.02929e-06 4.812089e-06 0.00015897347 9.836661e-06 3.8151884e-07 0.00024288316 3.9529285e-05
2.1828944e-06 0.00010367033 -0.000104647595 -0.00013211991 4.350142e-06 8.139262e-07 -7.2580615e-06 -3.595657e-05
-0.000105708765 3.0870917e-06 6.046437e-05 1.0329009e-06 4.956266e-05 5.385786e-06 -0.00019138218 -7.1514754e-05

rios_f.RIOS_H.rnn_cell0.bias_ih f4 [384]
00000000: d90d 4bb8 1c9b b4ba aa73 3439 3ee9 8b34
00000010: cc9b aa39 7bde a338 aa2b b0bb e011 2b39
00000020: 131e ca3e b355 6037 fcb4 15b6 8eb1 b3b5
00000030: f29a 9838 3576 d138 a6e9 f33a 96c8 9839
00000040: d780 9abb 0402 7137 d308 aa39 c0bd c7b8
00000050: 27fa dfb6 326f 0836 cfe9 413d 8f13 9734
00000060: 5bd2 dbb7 e034 3336 50db 0939 c194 73b6
00000070: a79c a539 02ae e837 1873 8533 6941 a639
00000080: 1567 be35 7231 16bb c275 7b39 2aea bbb5
00000090: 19ea c83c 50ec a639 497b ad3d 5535 42b6
000000a0: afab 7d38 785c e7b6 cd63 0a35 0739 2a39
000000b0: 0fba 88b5 e6c0 38b8 6e71 48b7 9216 6638
000000c0: 9e35 6c37 8c8f aa39 fcec a839 241a 2fb8
000000d0: 50b6 8d37 8d43 f035 5e84 67b6 87fe 3cb8
000000e0: 437d a939 d8ec 95b6 3ef9 8f39 baa6 5d34
000000f0: 3d1a 8639 0f47 e1b6 9b3a abb7 8f44 fbb8
00000100: 510f 21b8 ea08 463d 9a8a a2b6 7c4f ea38
00000110: 4935 6a3c 2e89 a139 35c3 983a 5eed 9438
00000120: c6da 33b7 5e02 02b8 f47c 4438 8aad fab6
00000130: 833d d738 62bd 1139 11c9 bb35 dbd0 2438
00000140: f7be 1738 39e4 a739 c4a1 a3b6 773d d6b5
00000150: e8f7 8739 b812 fab6 b832 9dbb e811 c138
00000160: 2b8b a83d 8e7d f837 e894 7e3e 56aa 23b6
00000170: e115 9339 3575 6338 eaaa 1c36 80b8 69b7
00000180: bcdf 12bb 595a 2d3c 9808 4dbb ec6e 8db4
00000190: fd9c 34bb 761a b9ba 47f5 a1b9 6a41 09bb
000001a0: 0f75 803d 1d8c 08b7 21d6 ab35 a3e9 72b6
000001b0: f72e 09bb 9aaa 3dbb ef2f 9e3c 57d6 4fbb
000001c0: c07a c23c 89f7 5438 76e7 39bb 1234 32bb
000001d0: 7f56 ccb7 9525 a1b6 f8d6 88bd e3a5 4036
000001e0: bcf0 42b6 04c5 3cbb ccbe deba 9c3b a637
000001f0: a86f 2fbb 4aec c7b6 4a1f 60b5 ea20 2ebb
00000200: 87b9 ac36 91df 9aba f0d5 21bb f980 99b6
00000210: b868 4f3d 5cc1 2dbb 79ea 703d 46bf 84b7
00000220: a4b3 01bb cb8e 5036 a752 60b6 b189 54bb
00000230: 83b6 b636 d4b2 1838 460a 11bb cfdc 6dba
00000240: 0907 54b7 d109 3bbb 5edb 3ebb c52e 8aba
00000250: e1e9 d938 ee81 8235 a60a b636 5afa 34bb
00000260: 367d 38bb 31bf c9b6 cadc 4abb 54e5 5eb5
00000270: 2305 16bb 675e 20b7 a835 26bb 4183 ddba
00000280: 70a6 59b8 2cd3 3e3b c2e5 b6b6 5f0b 11bb
00000290: 7e9b c53c 43fb 2bbb d2ca 3a3d 2296 61ba
000002a0: f83c a0b6 fbd5 9cbb 252f 2bbb ac58 35bb
000002b0: 7485 98bb 467e 45bb a6c2 2637 d7e3 e4ba
000002c0: fceb 55bb c3ee 30bb f90a 54b7 9314 6ab7
000002d0: d210 25bb c4ab b3b5 35e4 3a3c b1f5 1cbb
000002e0: 4255 963d 803d 7dbb af3f a63d 2702 93b6
000002f0: 5a23 20bb 9857 4e3c b206 7735 584d 1ebb
00000300: 5fc4 bd3b 8593 a6bc b6b4 91bb d6d0 9437
00000310: a7ba 42bb 980d 113b fa51 d6bb 9acd 3cbb
00000320: d585 f6bd d13c 5c39 a053 e4b8 ae8b e1b7
00000330: 7798 b9bb 97ad 023b b79b 90bc de45 82bb
00000340: d4d4 80ba ac8c ff39 e83c 483b 00d1 d4b8
00000350: 6ee8 3c38 3c27 14b9 aa78 b0bd cf58 16b8
00000360: 65fb dc39 495f 9a3b 5d9d b93b a040 a639
00000370: b90c 3c3b 6109 5e39 636a 23b8 5300 3b3b
00000380: c599 a439 ab64 2bbc 314b 26bb 89d5 f637
00000390: 9115 3ebb 6c08 3bbb ceb1 c5bd a0cd 82b8
000003a0: 57f4 be3b bb28 e5b4 0409 eb37 597a 7cbb
000003b0: a1d5 32b9 9434 d039 6d38 cdba 5070 f83a
000003c0: 6d29 bcb9 5abb 4abb b66b 4e3b 5238 50bb
000003d0: 01b4 ce39 2041 f1b8 b69f db37 96fd af3b
000003e0: b55e 453b 93f0 29b9 35fb b4bb 47c2 0238
000003f0: ac4a eebb 78d1 6036 3d24 f1b9 53af 9f3b
-4.841187e-05 -0.0013779136 0.00017209226 2.6060474e-07 0.00032541004 7.813886e-05 -0.005376299 0.0001631449
0.3947607 1.3371394e-05 -2.2308077e-06 -1.3388214e-06 7.2767856e-05 9.9879144e-05 0.0018609061 0.00029141147
-0.004715066 1.4365189e-05 0.000324315 -9.524403e-05 -6.6750395e-06 2.0330303e-06 0.047342118 2.8140173e-07
-2.6204789e-05 2.6703856e-06 0.00013147038 -3.6296408e-06 0.00031587968 2.7737584e-05 6.2142306e-08 0.00031710722
1.4186104e-06 -0.0022917655 0.00023981094 -1.4000736e-06 0.024525689 0.00031838054 0.084707804 -2.8939296e-06
6.0479793e-05 -6.8951013e-06 5.1554235e-07 0.00016233708 -1.018694e-06 -4.404867e-05 -1.1947339e-05 5.4857293e-05
1.407918e-05 0.00032531878 0.00032220024 -4.1747597e-05 1.6893406e-05 1.7901053e-06 -3.449873e-06 -4.505974e-05
0.0003232752 -4.4681183e-06 0.00027460785 2.0642884e-07 0.0002557802 -6.713795e-06 -2.0412079e-05 -0.00011981383
-3.8399656e-05 0.048348345 -4.8441116e-06 0.000111727946 0.014294931 0.0003081052 0.0011654856 7.101403e-05
-1.0720169e-05 -3.099662e-05 4.6846413e-05 -7.470783e-06 0.00010263456 0.00013898828 1.3991104e-06 3.929516e-05
3.6179055e-05 0.0003202276 -4.8766105e-06 -1.5962131e-06 0.0002593391 -7.4527597e-06 -0.004797306 9.2062925e-05
0.08229669 2.962237e-05 0.2486149 -2.4388041e-06 0.00028054326 5.4230175e-05 2.3345297e-06 -1.39308395e-05
-0.0022411188 0.010580623 -0.003128564 -2.6344003e-07 -0.0027559393 -0.0014122266 -0.0003089106 -0.002094353
0.06272327 -8.138854e-06 1.2802813e-06 -3.6196805e-06 -0.0020932534 -0.0028940798 0.019309966 -0.003171345
0.023740172 5.0775274e-05 -0.0028366721 -0.002719168 -2.4358973e-05 -4.802549e-06 -0.06681627 2.8706788e-06
-2.9048379e-06 -0.0028803954 -0.0016994118 1.98165e-05 -0.0026769433 -5.95817e-06 -8.3492034e-07 -0.0026569911
5.1475977e-06 -0.0011815896 -0.0024694167 -4.5747697e-06 0.050636977 -0.0026512956 0.05881736 -1.5824695e-05
-0.0019790912 3.1077532e-06 -3.342671e-06 -0.0032430703 5.44527e-06 3.640617e-05 -0.0022131368 -0.00090737356
-1.2637823e-05 -0.0028539787 -0.0029122452 -0.0010542503 0.0001039093 9.723569e-07 5.4252623e-06 -0.0027615041
-0.0028150803 -6.0125244e-06 -0.0030954354 -8.303516e-07 -0.0022891245 -9.558723e-06 -0.0025361571 -0.0016900079
-5.189184e-05 0.0029117567 -5.45077e-06 -0.0022132022 0.024121996 -0.0026242293 0.04560358 -0.00086054404
-4.7754693e-06 -0.0047862506 -0.002612063 -0.002767126 -0.0046545807 -0.003013508 9.939691e-06 -0.0017462921
-0.0032641878 -0.0026997782 -1.26387395e-05 -1.3952277e-05 -0.0025187028 -1.338653e-06 0.011406948 -0.0023950154
0.073404804 -0.0038641393 0.081176154 -4.381192e-06 -0.0024435134 0.012594126 9.2024413e-07 -0.0024154987
0.0057912315 -0.020334015 -0.0044465913 1.7740222e-05 -0.0029713304 0.0022133347 -0.006540534 -0.0028809072
-0.12037245 0.00021003491 -0.000108874636 -2.6887134e-05 -0.005663927 0.0019939893 -0.017652376 -0.003975614
-0.0009829053 0.000487422 0.003055388 -0.00010147877 4.503916e-05 -0.00014128996 -0.08616765 -3.5845496e-05
0.00042148973 0.004711066 0.005664511 0.00031710137 0.0028694107 0.00021175064 -3.896131e-05 0.0028534129
0.00031395085 -0.010461013 -0.0025374407 2.942492e-05 -0.0029004554 -0.0028538955 -0.09653054 -6.237184e-05
0.0058274674 -4.268421e-07 2.8018381e-05 -0.0038525073 -0.00017054986 0.00039712025 -0.0015657075 0.001895437
-0.0003588902 -0.0030934424 0.0031497306 -0.003177185 0.00039425495 -0.00011503906 2.6181206e-05 0.005370806
0.0030116264 -0.00016206717 -0.0055231103 3.117535e-05 -0.007272085 3.3500528e-06 -0.00045994102 0.004873195

rios_f.RIOS_H.rnn_cell0.bias_hh f4 [384]
00000000: d90d 4bb8 1c9b b4ba aa73 3439 3ee9 8b34
00000010: cc9b aa39 7bde a338 aa2b b0bb e011 2b39
00000020: 131e ca3e b355 6037 fcb4 15b6 8eb1 b3b5
00000030: f29a 9838 3576 d138 a6e9 f33a 96c8 9839
00000040: d780 9abb 0402 7137 d308 aa39 c0bd c7b8
00000050: 27fa dfb6 326f 0836 cbe9 413d 8f13 9734
00000060: 5bd2 dbb7 e034 3336 50db 0939 c194 73b6
00000070: a79c a539 02ae e837 1873 8533 6941 a639
00000080: 1567 be35 7231 16bb c275 7b39 2aea bbb5
00000090: 19ea c83c 50ec a639 497b ad3d 5535 42b6
000000a0: afab 7d38 785c e7b6 cd63 0a35 0739 2a39
000000b0: 0fba 88b5 e6c0 38b8 6e71 48b7 9216 6638
000000c0: 9e35 6c37 8c8f aa39 fcec a839 241a 2fb8
000000d0: 50b6 8d37 8d43 f035 5e84 67b6 87fe 3cb8
000000e0: 437d a939 d8ec 95b6 3ef9 8f39 baa6 5d34
000000f0: 3d1a 8639 0f47 e1b6 9b3a abb7 8f44 fbb8
00000100: 510f 21b8 ea08 463d 9a8a a2b6 7c4f ea38
00000110: 4935 6a3c 2e89 a139 35c3 983a 5eed 9438
00000120: c6da 33b7 5e02 02b8 f47c 4438 8aad fab6
00000130: 833d d738 62bd 1139 11c9 bb35 dbd0 2438
00000140: f7be 1738 39e4 a739 c4a1 a3b6 773d d6b5
00000150: e8f7 8739 b812 fab6 b832 9dbb e811 c138
00000160: 2b8b a83d 8e7d f837 8095 7e3e 56aa 23b6
00000170: e115 9339 3575 6338 eaaa 1c36 80b8 69b7
00000180: bcdf 12bb 595a 2d3c 9808 4dbb ec6e 8db4
00000190: fd9c 34bb 761a b9ba 47f5 a1b9 6a41 09bb
000001a0: e274 803d 1d8c 08b7 21d6 ab35 a3e9 72b6
000001b0: f72e 09bb 9aaa 3dbb ee2f 9e3c 57d6 4fbb
000001c0: c07a c23c 89f7 5438 76e7 39bb 1234 32bb
000001d0: 7f56 ccb7 9525 a1b6 efd6 88bd e3a5 4036
000001e0: bcf0 42b6 04c5 3cbb ccbe deba 9c3b a637
000001f0: a86f 2fbb 4aec c7b6 4a1f 60b5 ea20 2ebb
00000200: 87b9 ac36 91df 9aba f0d5 21bb f980 99b6
00000210: b868 4f3d 5cc1 2dbb 79ea 703d 46bf 84b7
00000220: a4b3 01bb cb8e 5036 a752 60b6 b189 54bb
00000230: 83b6 b636 d4b2 1838 460a 11bb cfdc 6dba
00000240: 0907 54b7 d109 3bbb 5edb 3ebb c52e 8aba
00000250: e1e9 d938 ee81 8235 a60a b636 5afa 34bb
00000260: 367d 38bb 31bf c9b6 cadc 4abb 54e5 5eb5
00000270: 2305 16bb 675e 20b7 a835 26bb 4183 ddba
00000280: 70a6 59b8 2cd3 3e3b c2e5 b6b6 5f0b 11bb
00000290: 7e9b c53c 43fb 2bbb d2ca 3a3d 2296 61ba
000002a0: f83c a0b6 fbd5 9cbb 252f 2bbb ac58 35bb
000002b0: 7485 98bb 467e 45bb a6c2 2637 d7e3 e4ba
000002c0: fceb 55bb c3ee 30bb f90a 54b7 9314 6ab7
000002d0: d210 25bb c4ab b3b5 35e4 3a3c b1f5 1cbb
000002e0: 4255 963d 803d 7dbb af3f a63d 2702 93b6
000002f0: 5a23 20bb 9857 4e3c b206 7735 584d 1ebb
00000300: 5fc4 bd3b 8a7a a1bc b6b4 91bb d6d0 9437
00000310: a7ba 42bb 980d 113b d327 c6bb 9acd 3cbb
00000320: c25e 3fbe d13c 5c39 a053 e4b8 ae8b e1b7
00000330: 7798 b9bb 97ad 023b b19b 90bc de45 82bb
00000340: 5c3c 2aba ac8c ff39 e83c 483b 00d1 d4b8
00000350: 6ee8 3c38 3c27 14b9 89f3 8abd cf58 16b8
00000360: 65fb dc39 495f 9a3b 5d9d b93b a040 a639
00000370: b90c 3c3b 6109 5e39 636a 23b8 5300 3b3b
00000380: c599 a439 9e64 2bbc 314b 26bb 89d5 f637
00000390: 2f86 683a 6c08 3bbb 8f48 c7bd a0cd 82b8
000003a0: 57f4 be3b bb28 e5b4 0409 eb37 597a 7cbb
000003b0: a1d5 32b9 9434 d039 6d38 cdba 4670 f83a
000003c0: 6d29 bcb9 5abb 4abb b66b 4e3b 5238 50bb
000003d0: 01b4 ce39 2041 f1b8 b69f db37 96fd af3b
000003e0: b55e 453b 93f0 29b9 35fb b4bb 47c2 0238
000003f0: ac4a eebb 78d1 6036 3d24 f1b9 53af 9f3b
-4.841187e-05 -0.0013779136 0.00017209226 2.6060474e-07 0.00032541004 7.813886e-05 -0.005376299 0.0001631449
0.3947607 1.3371394e-05 -2.2308077e-06 -1.3388214e-06 7.2767856e-05 9.9879144e-05 0.0018609061 0.00029141147
-0.004715066 1.4365189e-05 0.000324315 -9.524403e-05 -6.6750395e-06 2.0330303e-06 0.047342103 2.8140173e-07
-2.6204789e-05 2.6703856e-06 0.00013147038 -3.6296408e-06 0.00031587968 2.7737584e-05 6.2142306e-08 0.00031710722
1.4186104e-06 -0.0022917655 0.00023981094 -1.4000736e-06 0.024525689 0.00031838054 0.084707804 -2.8939296e-06
6.0479793e-05 -6.8951013e-06 5.1554235e-07 0.00016233708 -1.018694e-06 -4.404867e-05 -1.1947339e-05 5.4857293e-05
1.407918e-05 0.00032531878 0.00032220024 -4.1747597e-05 1.6893406e-05 1.7901053e-06 -3.449873e-06 -4.505974e-05
0.0003232752 -4.4681183e-06 0.00027460785 2.0642884e-07 0.0002557802 -6.713795e-06 -2.0412079e-05 -0.00011981383
-3.8399656e-05 0.048348345 -4.8441116e-06 0.000111727946 0.014294931 0.0003081052 0.0011654856 7.101403e-05
-1.0720169e-05 -3.099662e-05 4.6846413e-05 -7.470783e-06 0.00010263456 0.00013898828 1.3991104e-06 3.929516e-05
3.6179055e-05 0.0003202276 -4.8766105e-06 -1.5962131e-06 0.0002593391 -7.4527597e-06 -0.004797306 9.2062925e-05
0.08229669 2.962237e-05 0.24861717 -2.4388041e-06 0.00028054326 5.4230175e-05 2.3345297e-06 -1.39308395e-05
-0.0022411188 0.010580623 -0.003128564 -2.6344003e-07 -0.0027559393 -0.0014122266 -0.0003089106 -0.002094353
0.062722936 -8.138854e-06 1.2802813e-06 -3.6196805e-06 -0.0020932534 -0.0028940798 0.019309964 -0.003171345
0.023740172 5.0775274e-05 -0.0028366721 -0.002719168 -2.4358973e-05 -4.802549e-06 -0.0668162 2.8706788e-06
-2.9048379e-06 -0.0028803954 -0.0016994118 1.98165e-05 -0.0026769433 -5.95817e-06 -8.3492034e-07 -0.0026569911
5.1475977e-06 -0.0011815896 -0.0024694167 -4.5747697e-06 0.050636977 -0.0026512956 0.05881736 -1.5824695e-05
-0.0019790912 3.1077532e-06 -3.342671e-06 -0.0032430703 5.44527e-06 3.640617e-05 -0.0022131368 -0.00090737356
-1.2637823e-05 -0.0028539787 -0.0029122452 -0.0010542503 0.0001039093 9.723569e-07 5.4252623e-06 -0.0027615041
-0.0028150803 -6.0125244e-06 -0.0030954354 -8.303516e-07 -0.0022891245 -9.558723e-06 -0.0025361571 -0.0016900079
-5.189184e-05 0.0029117567 -5.45077e-06 -0.0022132022 0.024121996 -0.0026242293 0.04560358 -0.00086054404
-4.7754693e-06 -0.0047862506 -0.002612063 -0.002767126 -0.0046545807 -0.003013508 9.939691e-06 -0.0017462921
-0.0032641878 -0.0026997782 -1.26387395e-05 -1.3952277e-05 -0.0025187028 -1.338653e-06 0.011406948 -0.0023950154
0.073404804 -0.0038641393 0.081176154 -4.381192e-06 -0.0024435134 0.012594126 9.2024413e-07 -0.0024154987
0.0057912315 -0.019711751 -0.0044465913 1.7740222e-05 -0.0029713304 0.0022133347 -0.006047228 -0.0028809072
-0.18688491 0.00021003491 -0.000108874636 -2.6887134e-05 -0.005663927 0.0019939893 -0.017652364 -0.003975614
-0.00064939796 0.000487422 0.003055388 -0.00010147877 4.503916e-05 -0.00014128996 -0.06784732 -3.5845496e-05
0.00042148973 0.004711066 0.005664511 0.00031710137 0.0028694107 0.00021175064 -3.896131e-05 0.0028534129
0.00031395085 -0.010461001 -0.0025374407 2.942492e-05 0.00088700926 -0.0028538955 -0.09730636 -6.237184e-05
0.0058274674 -4.268421e-07 2.8018381e-05 -0.0038525073 -0.00017054986 0.00039712025 -0.0015657075 0.0018954359
-0.0003588902 -0.0030934424 0.0031497306 -0.003177185 0.00039425495 -0.00011503906 2.6181206e-05 0.005370806
0.0030116264 -0.00016206717 -0.0055231103 3.117535e-05 -0.007272085 3.3500528e-06 -0.00045994102 0.004873195

rios_f.RIOS_H.rnn_cell1.weight_ih f4 [384, 2]
00000000: 089a d93c c7bf 2cbc cb02 9e3c 16f9 243b
00000010: 364e fe3c 94ee 133d 56b8 0eb7 3b56 e8b6
00000020: e4d3 f53b cdf5 433b 26da 923c a185 ed3a
00000030: bca8 fb3c 0404 aa3b 8e59 52bd 6ce6 7fbd
00000040: 9891 133e 516b 14be fc06 3635 16a0 1d38
00000050: c629 6938 4d0f 0638 a164 b8b7 6dd9 e0b7
00000060: b6d6 923c 78e3 3fbc 36ec d7bb 2022 44bc
00000070: 486a 403c ebcf 6b3b 35d3 3e3d a953 59bc
00000080: 4b68 7fbc 0b39 77bd bdff a7b8 1b8c 76b8
00000090: b61f b33b d03f 1cbb 1f48 6bbc 611f 8cbc
000000a0: 0aaf a8b8 1f9a 93b6 de0e a837 8084 cf38
000000b0: 672d b23d 6309 88be 54c0 aa35 65d0 25b7
000000c0: 03be 24b9 7c92 7ab8 8635 ce3c 8661 fcbb
000000d0: 7831 0a3b e97a bdbb 21b2 76b9 8f41 b5b8
000000e0: 45e7 c43b 7726 a2ba fd02 f2b8 2ddd 40b9
000000f0: a314 50b7 696e 6cb7 c662 75bb e239 32bc
00000100: 8407 eeb8 f7f4 c3b8 54ec c7ba f7b5 42bd
00000110: b570 643c fd24 503c 1c49 9cb7 ab82 56b7
00000120: eb63 20bd 60af 2ebd bfcc 6bbb b9cb eebb
00000130: 8db5 863d ff67 543d 49fc 58b8 f76c 7ab8
00000140: 20f4 32bd 3b77 70bd be77 13b8 df90 a037
00000150: 157f ea37 fbee 0cb8 0c40 0e3c 4648 f83b
00000160: 4f94 0137 6066 ceb7 bc38 5637 1bde 4b38
00000170: 360f f1bc 0f9d 0bbd cc3d 663d 8685 6c3b
00000180: 61e6 72b8 ead0 03b8 ee6d a43b 8b78 bdb9
00000190: 0104 42bb 6af5 63bc 3937 d83c fc9a 09bb
000001a0: 2440 04b8 b86a 80b8 b1fd 63b7 21ac 1fb8
000001b0: 1585 25b8 ea0f 1eb7 37b5 1b3b 0919 fb3b
000001c0: d629 2bbc 1f11 a9bc 1233 9bb8 7924 e3b7
000001d0: fad5 cc3c 7ab4 ecbb 20ce 65b7 ee5f cdb6
000001e0: 78a6 0bbc d70e b6bc b6fb 8b38 17bb ae37
000001f0: c5be 3b3d cd52 47bc e770 e8ba 4d4a 023c
00000200: d4ed a238 23e8 3e38 4903 da3c af6c 0e3b
00000210: a4cb 2bb7 be7d cbb7 1228 ff3d 6a5d 373d
00000220: c2fd 9c3c f34b 16bd 4e95 293b 5405 253a
00000230: 73af d9bb 40f2 92bc 49e4 8c3b 196e 633b
00000240: b561 6cb7 9fbb 8db8 6007 27bd cd9a 2fbd
00000250: 4497 eabb 3f7e 93bc 2067 36bc 3f68 dabb
00000260: f5ae 0dbb adf8 6dbc 4e52 b23c 46e5 313d
00000270: e696 19b6 1059 97b7 098f 3fbd ad58 6abd
00000280: 576f 0a3b 973c 9ebb d7db 01bc d5e7 99bc
00000290: 5921 35b9 0d94 13b9 9645 ba37 d0be 3938
000002a0: ecac 35bc 76b7 98bc 6587 59b7 03a7 bfb8
000002b0: 478e 163d 3a3c 7d3c a762 123d ac14 82bc
000002c0: a72e 843d 376f 2dbe fdb6 853c 134f 7ebd
000002d0: 2161 443d ceab 493d def2 3238 98f7 2537
000002e0: feb2 133b 2571 8bbc 1723 c13b 1ade 90bb
000002f0: 28cd 0a38 66e1 5337 f6b9 743b c5c8 23bc
00000300: 3ff8 6fbd f0a6 82bd 3c23 2c3d a1cb dabc
00000310: e224 463d 6108 ad3d 1500 17b7 5f6e 00b7
00000320: 90f1 f23b 69fb b1bb 6538 4cbc 1dbb 1cbd
00000330: a196 c4bc b9a9 49bd 96ac 5aba d316 f93c
00000340: fa4d 9a3d e522 863d 0cea f3b8 4b56 a1b7
00000350: d99a a5b2 5d61 03b7 9a3c ddb7 cd75 30b8
00000360: 339d 163b 7fb2 263d b8d6 af3c 780e 533c
00000370: 25bd 393c ab52 debb d42a 02be 905d 68bd
00000380: fb84 123c 296a 2b3d 3365 9eb8 cfb7 6eb8
00000390: bc7d 0d3c 2f4e cbba bdba 48bd e365 a6bd
000003a0: e579 7ab8 11b7 aa37 f36e 8a38 c313 a438
000003b0: f6db 5a3b e2ae 29bc c8f0 e3b7 d39e b0b7
000003c0: c37f 72b9 e4f0 04b9 c646 7f3d 7809 843c
000003d0: 28a4 ad3c ca17 743c b849 93b9 8d3d 20b9
000003e0: 093b 153c 47a9 e3ba 1fe2 98b9 7eb4 3bb9
000003f0: 7430 5eb7 68bb 53b7 97e1 233c dca6 a13a
0.026562706 -0.01054377 0.019288441 0.002517288 0.031043153 0.036116198 -8.506779e-06 -6.9241773e-06
0.007502066 0.0029901147 0.017926287 0.001812149 0.030720107 0.005188467 -0.051354937 -0.062475607
0.14411008 -0.14494063 6.7810447e-07 3.758081e-05 5.5590433e-05 3.196234e-05 -2.1981368e-05 -2.6804128e-05
0.017924648 -0.011711948 -0.006589438 -0.011971027 0.011744089 0.0035982083 0.04658814 -0.013264575
-0.01558883 -0.060357135 -8.0108155e-05 -5.8781454e-05 0.0054664267 -0.0023841746 -0.014360457 -0.017104806
-8.043468e-05 -4.3988834e-06 2.0034084e-05 9.895209e-05 0.08700066 -0.26569661 1.2721962e-06 -9.883287e-06
-0.00015711044 -5.974107e-05 0.025172006 -0.0077020554 0.0021086615 -0.0057824743 -0.00023526746 -8.642964e-05
0.006009015 -0.0012371083 -0.00011540016 -0.00018392941 -1.2402571e-05 -1.4092403e-05 -0.0037442907 -0.010878058
-0.00011350124 -9.343953e-05 -0.0015252926 -0.047536816 0.013942887 0.012704131 -1.8630693e-05 -1.27858175e-05
-0.03915779 -0.04264772 -0.0035980192 -0.007287469 0.06577597 0.05185699 -5.1733372e-05 -5.9706126e-05
-0.043689847 -0.058707457 -3.515905e-05 1.9140947e-05 2.7954151e-05 -3.360117e-05 0.008682262 0.007576975
7.72353e-06 -2.4604786e-05 1.27686035e-05 4.8605823e-05 -0.029426198 -0.03408533 0.056211278 0.0036090328
-5.7911853e-05 -3.14274e-05 0.0050179875 -0.000361387 -0.0029604437 -0.013913492 0.02639352 -0.002099692
-3.1530988e-05 -6.1233935e-05 -1.35893215e-05 -3.806886e-05 -3.9463008e-05 -9.421239e-06 0.0023759136 0.0076628965
-0.010446986 -0.020638047 -7.4004885e-05 -2.7077493e-05 0.025004376 -0.007223663 -1.3697456e-05 -6.120644e-06
-0.008523576 -0.022223873 6.674921e-05 2.0829537e-05 0.04583623 -0.012165737 -0.0017733843 0.007952285
7.769061e-05 4.5515724e-05 0.026612895 0.002173226 -1.0239808e-05 -2.4258039e-05 0.12458815 0.04476682
0.01916397 -0.036693525 0.0025876346 0.00062950444 -0.0066432296 -0.01793778 0.0042996746 0.0034703074
-1.4089445e-05 -6.758351e-05 -0.040778518 -0.04287224 -0.0071591455 -0.018004535 -0.011132985 -0.006665259
-0.0021619175 -0.014524621 0.021767762 0.043431543 -2.288661e-06 -1.8042076e-05 -0.04676727 -0.057213474
0.0021123493 -0.004829 -0.007925949 -0.018787304 -0.00017273928 -0.00014074166 2.2205331e-05 4.4285145e-05
-0.011088591 -0.018642168 -1.2965732e-05 -9.138698e-05 0.03675678 0.015456254 0.035738613 -0.015878998
0.06454211 -0.16936956 0.016322607 -0.06208713 0.04794419 0.04923611 4.2664695e-05 9.892414e-06
0.0022537108 -0.017021725 0.0058940756 -0.004421008 3.309283e-05 1.262906e-05 0.0037342287 -0.009996598
-0.058586355 -0.06379497 0.04202579 -0.026708426 0.048375018 0.08448864 -9.0003205e-06 -7.655092e-06
0.0074140504 -0.0054315818 -0.012464617 -0.038264383 -0.023997607 -0.049234126 -0.00083417573 0.030406391
0.07534404 0.06549624 -0.000116307376 -1.9232879e-05 -1.9278945e-08 -7.830878e-06 -2.6373473e-05 -4.207138e-05
0.0022981882 0.04069757 0.02146469 0.012881868 0.0113365995 -0.006784757 -0.1271165 -0.056729853
0.008942838 0.04184929 -7.552877e-05 -5.6914807e-05 0.008635934 -0.0015510971 -0.049006213 -0.08124902
-5.9718168e-05 2.0350826e-05 6.601019e-05 7.82381e-05 0.0033395267 -0.010356637 -2.7172631e-05 -2.1054793e-05
-0.00023126513 -0.0001267824 0.062323354 0.016117796 0.02119644 0.01489825 -0.0002809295 -0.00015281719
0.009108313 -0.0017369174 -0.00029160173 -0.00017900948 -1.32435125e-05 -1.2620214e-05 0.010002515 0.0012333053

rios_f.RIOS_H.rnn_cell1.weight_hh f4 [384, 96]
00000000: 61b7 b9bc 560c 393d d407 39bc d416 2839
00000010: d1c7 b23d d3ae f0ba bed7 e03c 2d38 853d
00000020: fe9d b7bb bb99 90b9 2f0d 0c3a a1b6 a5b9
00000030: 2468 bb3b 7c3d 07bc 6483 b5bd 2955 d1bc
00000040: 23dc 753c 4026 bf38 69c2 b2bd 621c bb3c
00000050: 74ef d6b9 ee6f 163a ed05 f93b 6a10 ba39
00000060: 6ea8 4138 9361 cabc 8355 a1bd 3332 c3b9
00000070: 2e64 b3bd ab87 a7b8 fe67 2fb9 7e71 b2bd
00000080: bfa1 07ba f5ee 3e3d 800e b53d a1f3 9a38
00000090: bbd5 63bb 08d1 b23d b55b 223d 6bdc 2bb8
000000a0: 7608 4abd e48f 2c3a caad 1fba aac6 113d
000000b0: f041 c839 ca0d 7138 177a 8b3c 4767 903c
000000c0: a8c2 67b9 d106 b33d 88e9 b1bd a2d8 c23b
000000d0: a6e5 133a c851 85b9 7892 8139 dec5 a4bd
000000e0: 4465 b2bd 969a e939 c1bf 603c a41a 8c38
000000f0: 21ce e8bb 7c9e 38ba 7613 0dbd 0b04 41bc
00000100: d81f 0e39 a932 38bc 6c08 c739 3141 ba3c
00000110: d7c3 ba3c dba3 b33d d72b 8c3c 1626 3a3c
00000120: 52e8 8c39 822e 993c 5f29 9ebc cd7a bbbc
00000130: 2c07 0e3c df6b a13c b68b d539 6bdf babd
00000140: 0b9e 533d 6666 b2bd f990 ed39 0fa0 9338
00000150: 4399 b3bd 5953 b239 7f8a 5f3d b5b7 81bd
00000160: 9c1b 193b 6861 12bd 7884 103c acba feb9
00000170: a7fd 9bbd 52e5 b43d 9299 d8b9 e7fa 85bc
00000180: b88e 92bb 6372 2c3c c01c b9bb ff9c bd36
00000190: 696d ab3d e200 40bc ce90 213d f3b5 8d3d
000001a0: bb05 993c 16a5 15b9 ede6 84b7 3eac 90b7
000001b0: 0835 103c 56a9 7f3c 88f8 aebd bf3c b6bc
000001c0: 5e15 56bc 9e5c 3139 1736 abbd bd8b 0d3c
000001d0: 40ad 8bb8 79b4 9638 7c1a 783b 15cc 52b7
000001e0: 96b6 1439 ceab 4ebd 19ce 05bd 645c f7b8
000001f0: 54dd abbd 81df 83b8 1316 7ab8 c0a1 a9bd
00000200: 967e 7ab8 93c7 853d a580 af3d be6d 69b8
00000210: c577 96bc bfdc a93d 1201 f73b 823c af38
00000220: 7d95 4ebd c335 4c39 f57e 80b9 9bad 5e3d
00000230: 5a57 0539 272e d438 1c6b 96bc 4376 3ebb
00000240: 1a45 88b8 6708 ab3d 7474 a9bd 1368 e23c
00000250: d070 2139 74e0 5ab8 b880 cb38 467d 65bd
00000260: 7ad4 a8bd 1e66 8938 07c2 473b 09ea bab5
00000270: 1ea3 3c3c 156e 60b9 76e5 93bc df2f 34bc
00000280: 5578 ac36 8163 c7bc eb6f 0438 1bc7 bdbc
00000290: a636 6abc 2843 ab3d ef26 48bc 7f7c 07bc
000002a0: da5e 78b7 1411 373c aa17 763a ec4b 933c
000002b0: e263 233c f5f0 f13c 7775 2939 e808 a5bd
000002c0: c0a4 693d e412 a9bd 18ec 1a39 513e d238
000002d0: b89b a9bd ff9a e137 7f57 673d 3060 6cbc
000002e0: eb4a 8dbb 4e5d 1bbd cc56 c33a 79c0 2db9
000002f0: 4d89 96bd 6343 ad3d d338 98b8 7578 19bc
00000300: 47dc e9bb 0fa4 74bc bb85 4b3c 9306 2f39
00000310: 485e 8e3d 2828 53bc 3abe 6ab9 f179 463d
00000320: 9ff6 f6bb 3774 35b9 e2dc ee37 880a 1fb9
00000330: 5d1e 1bbc 17f9 53bc a37c 91bd 5396 72bb
00000340: e108 813c e99a 4a3a e83d 8dbd 997a d33b
00000350: 2c21 a6b9 02eb e538 637b 0f3c 046f a1b6
00000360: 43e8 2e3a 4091 d9bc 8099 47bd e593 3738
00000370: 9eae 8dbd 20ef 91b8 ab4b 1fb9 59b7 8bbd
00000380: 9a0a 8a38 922e 6c3d 8ac9 923d a30f b338
00000390: 61e9 32bc c9f7 8b3d edd0 a43c ea40 75b8
000003a0: 714a 59bd c92d 333a b75e 51b9 adc4 613d
000003b0: 1501 1ab9 0c5d c439 29c0 783c 5687 8c3c
000003c0: 3f34 76b9 8c2c 8d3d f888 8bbd d741 01b9
000003d0: 4aff b839 ac34 b6b9 ea36 fa38 cfe3 23bd
000003e0: 6d38 8abd bed8 07b9 c1c8 f23c 8d64 e938
000003f0: ab7f e43b 09ea 01b9 6bb9 fe3b 8ae2 c6bb
-0.02267045 0.04517778 -0.01129337 0.00016030233 0.08729518 -0.0018362649 0.027446624 0.06504855
-0.005603551 -0.00027580358 0.00053425407 -0.00031607322 0.0057192016 -0.008254405 -0.088629514 -0.025553303
0.015006098 9.114714e-05 -0.08728487 0.022840682 -0.00040995667 0.0005738725 0.0075995834 0.00035488914
4.6171648e-05 -0.02470473 -0.07877638 -0.000372307 -0.08759342 -7.988451e-05 -0.0001672804 -0.08713053
-0.00051739434 0.046614606 0.08840656 7.388672e-05 -0.0034764844 0.08731276 0.03963824 -4.0974857e-05
-0.049324475 0.00065827207 -0.0006091265 0.03558985 0.000381961 5.747172e-05 0.01702599 0.017627371
-0.00022102392 0.087415345 -0.08687121 0.005946235 0.0005641825 -0.0002542867 0.00024713925 -0.08045553
-0.08710721 0.000445564 0.013717593 6.6806824e-05 -0.0071046506 -0.0007042659 -0.034442388 -0.011780749
0.00013554038 -0.011242547 0.00037962513 0.022736164 0.022798462 0.08771487 0.017110748 0.011361619
0.00026875973 0.018698934 -0.019306837 -0.022885704 0.008668702 0.019704757 0.0004073062 -0.09124645
0.051664393 -0.08710937 0.00045312176 7.0393195e-05 -0.08769467 0.00034012905 0.05457544 -0.063338675
0.0023362404 -0.035737425 0.0088206455 -0.00048585737 -0.0761674 0.08832802 -0.0004131315 -0.016354991
-0.00447258 0.010525319 -0.005649179 5.6509157e-06 0.08370478 -0.0117189605 0.039444737 0.0691947
0.01867949 -0.00014271247 -1.584316e-05 -1.7246344e-05 0.008801706 0.015604338 -0.08543497 -0.022245763
-0.013066618 0.00016914538 -0.08359926 0.008639273 -6.660307e-05 7.186173e-05 0.0037857583 -1.2564492e-05
0.00014182398 -0.050456814 -0.032667253 -0.00011795087 -0.08391824 -6.2881976e-05 -5.9625203e-05 -0.082828045
-5.9722537e-05 0.065322064 0.08569459 -5.5653734e-05 -0.018367657 0.08294057 0.0075379694 8.355921e-05
-0.050435532 0.00019474984 -0.00024508653 0.05436478 0.0001271641 0.00010117544 -0.01836162 -0.0029062189
-6.4978565e-05 0.08351212 -0.08274165 0.027637517 0.00015396182 -5.218429e-05 9.70377e-05 -0.056027673
-0.08243652 6.55169e-05 0.003048064 -1.3926193e-06 0.0115135 -0.00021403313 -0.018053751 -0.0109977415
5.140008e-06 -0.02433944 3.1575484e-05 -0.02316623 -0.014295256 0.083624184 -0.012216314 -0.008269428
-1.4804036e-05 0.011173505 0.00093876815 0.017980538 0.009972544 0.029533843 0.00016160855 -0.08058339
0.057041883 -0.08255556 0.00014774536 0.00010025188 -0.08281654 2.6894266e-05 0.056479927 -0.01442723
-0.0043119094 -0.03793078 0.0014903187 -0.00016570267 -0.07350407 0.084601186 -7.258509e-05 -0.009367098
-0.007136855 -0.014931693 0.012422021 0.0001669175 0.069515765 -0.012887992 -0.00022386844 0.048456136
-0.0075367237 -0.00017304799 2.8474667e-05 -0.00015167345 -0.009467688 -0.012937806 -0.07103851 -0.003701587
0.015751304 0.0007728772 -0.06896573 0.0064538238 -0.00031686702 0.000109633445 0.008757445 -4.811098e-06
0.0006672183 -0.026558518 -0.048730373 4.3768337e-05 -0.06918071 -6.958679e-05 -0.0001519161 -0.0682208
6.5823275e-05 0.0576616 0.07167347 8.538298e-05 -0.0109199 0.06834371 0.020119155 -5.8473008e-05
-0.05304951 0.00068351306 -0.00019967077 0.055119205 -0.00014686988 0.00037453359 0.015182533 0.017154377
-0.00023479851 0.06893262 -0.06813234 -0.00012326926 0.0003528542 -0.0003475299 0.000119311575 -0.040012177
-0.067490436 -0.00012955346 0.029636743 0.00011129035 0.006973227 -0.00012389584 0.0077735684 -0.006069486

rios_f.RIOS_H.rnn_cell1.bias_ih f4 [384]
00000000: a0d8 083e 3010 fc3d b793 c03d 9bcf d4b7
00000010: 1a03 ad3d 6f4f 993d c171 113e d83c 0c3e
00000020: 6c02 623e 53c0 37b8 e912 2bb9 5144 abb7
00000030: e865 d83d 7d9e 753d ae52 ab3d 4eda 293e
00000040: a912 3d3e efdb f8b9 b6d0 b13d d4b7 b03d
00000050: dbe6 55b8 3587 03b9 5741 f33e 357b 1237
00000060: 6bc1 4639 8abb cd3d 3954 d93d de3c 7139
00000070: a2e3 b53d 5ee9 2439 40cf 83b7 3dae ba3d
00000080: 64c2 1b39 7f6f 083e 820b b53d 5cee c9b7
00000090: 1b3f 0a3e eaf0 b73d 0814 2b3e 36b3 88b8
000000a0: fd20 f33d a9fa 6d38 2ca4 8fb8 4ef1 863d
000000b0: 4f56 3cb9 d69f d1b7 9903 063e 6e36 2f3e
000000c0: b372 f4b8 acd2 a93d c347 ba3d 07d5 163e
000000d0: 35aa 08b9 f2a2 b4b8 3411 3e37 d823 dc3d
000000e0: 6867 c63d a88c 3ab8 f294 ba3d ca88 11b8
000000f0: d72d 7d3d 5821 29b9 ff79 d63d 7d6f 0b3e
00000100: d0fc deb8 1617 7c3d 461b 8fb7 440f ab3e
00000110: a7b0 2e3e d73d ad3d 7de0 0e3e bf67 ff3d
00000120: 4852 feb7 90d6 a03d 6d17 963d 23c9 f13d
00000130: 929a d03d 1982 b53d 0df6 64b9 4e13 2e3e
00000140: 1a7a 883d aa8c c13d f017 3238 ec86 bfb8
00000150: 493a cd3d 3285 a4b8 6c3f fb3d 080c 3f3e
00000160: 2365 053f 3ca0 1e3e 7231 103e 6b35 cfb8
00000170: 63db ec3d 31cc b43d 85a2 22b8 b87c 163e
00000180: 4503 443d 2ec1 943d 7042 d43d 8e81 c8b7
00000190: 8c24 b43d b3c7 8c3d 0196 003d d689 cf3d
000001a0: 329b 03be 39fb 9b37 e02f 08b9 ec8d b6b7
000001b0: 1869 6c3d ce87 cf3d 4f11 bc3d 08c8 e63d
000001c0: 5c80 563d 6142 c2b9 65c1 b33d 5d35 583d
000001d0: 59ba 86b8 acde d5b8 f672 4ebd 4e6b b037
000001e0: 5152 7839 25b6 be3d 0f74 cb3d 685b 7d39
000001f0: 28f0 b53d 5a81 d138 7364 81b7 eb0f b53d
00000200: 6c71 0c39 5363 b93d 1e6a bd3d 9574 c5b7
00000210: 3c8f 743d 41c4 b43d fb6e 8a3d 50e3 8bb8
00000220: eb65 963d 0748 5338 5525 6bb8 0f34 983d
00000230: c4f6 1bb9 5c02 5fb8 45fb 7c3d 95e0 8d3d
00000240: 9d31 21b7 8217 b23d 26ee b13d 5d58 923d
00000250: ba11 c8b8 cc8f a1b8 f147 a9b5 2e56 c03d
00000260: 0a29 b43d 486e b0b7 b4c2 d23d 092e 02b8
00000270: 3335 c23c 41ac 16b9 ada5 783d 578b da3d
00000280: 797b 8d36 bdde 383d 43fc 0237 27c7 65bc
00000290: 18ea c53d bf2b b63d 5046 8b3d 2808 a83c
000002a0: 8cb2 9338 9d52 a83d 868f 113d 1f60 a73d
000002b0: 0df5 833d b514 d53d 2906 28b9 dd75 013e
000002c0: 44e1 843d 0e9e b43d afc1 2838 aab0 c6b8
000002d0: b2b0 bc3d 34b9 9eb8 a517 bf3d 6faa 783d
000002e0: 9ce3 a2be 9629 7a3d 6e16 d6bc 9cb9 a0b8
000002f0: 1503 e43d 56c8 bc3d 1bcd 03b8 d420 863d
00000300: bf60 62bc 4985 d9bd fbbe 133e 9d33 11b8
00000310: a93e 4b3e 37c9 ad3c 4bc9 c03d 6174 0cbd
00000320: cd78 22bd fab0 f3b9 0d57 8638 c9e4 2338
00000330: 897d 80bc 273d 543b 43f4 40be 349e 223e
00000340: c29a d0bd 6b13 e7b9 d754 53be 6eaa 83bc
00000350: 5b21 69b7 6c1a 8f38 0c6e 1fbe b015 86b9
00000360: dbaa feb9 5afb d9bd 5ba7 10be 9859 f9b9
00000370: 1466 57be f5d7 0db9 41a3 1638 6408 57be
00000380: d4ed 02b9 669d b73d 67c4 3d3e 20e5 9836
00000390: 97e2 043d 34bc 543e e839 6ebe a892 46b8
000003a0: 9ceb b4bc 6040 d6b8 fad0 5939 dcf0 243e
000003b0: 12f1 dbb8 b4d0 bfb9 96ab 543b c8de 90bc
000003c0: 0f8f 393a 7cec 493e da99 57be cc63 e3bd
000003d0: 87e1 13ba 3f19 1939 5c57 b8b8 839d aebd
000003e0: d6f2 59be 746f 7938 f87e ff3d fd34 8ab8
000003f0: 71b1 f53d 2cc7 8d39 9046 6b3b 2f3b 5a3e
0.13363886 0.12307775 0.09403174 -2.5369043e-05 0.08447857 0.07485854 0.1420355 0.13695085
0.22071236 -4.3809716e-05 -0.00016314875 -2.04166e-05 0.10566312 0.0599656 0.08365379 0.16587183
0.1846415 -0.0004746611 0.086823866 0.086288124 -5.099816e-05 -0.00012543502 0.47510788 8.7309645e-06
0.00018954805 0.10045536 0.10611767 0.00023006226 0.08881308 0.00015727195 -1.5712925e-05 0.091152646
0.00014854368 0.13323782 0.088400856 -2.4072062e-05 0.13500635 0.089814976 0.1670686 -6.518366e-05
0.118715264 5.673865e-05 -6.849351e-05 0.06588994 -0.0001796123 -2.4989171e-05 0.1308731 0.17110607
-0.00011656191 0.082921356 0.09095719 0.14729701 -0.00013033378 -8.61342e-05 1.1328888e-05 0.10749024
0.09687692 -4.4476852e-05 0.0911044 -3.469809e-05 0.061811294 -0.00016129517 0.10472488 0.13616748
-0.00010632875 0.061545454 -1.7059629e-05 0.33410084 0.17059575 0.08459061 0.13952823 0.1247096
-3.0317475e-05 0.078534245 0.07328687 0.11805942 0.10185732 0.08862705 -0.00021835435 0.16999552
0.06663914 0.09450658 4.24608e-05 -9.132721e-05 0.10020883 -7.844939e-05 0.12267956 0.18656933
0.5210745 0.15490812 0.14081362 -9.880479e-05 0.11565282 0.08828009 -3.8775168e-05 0.14696014
0.04785468 0.072634086 0.103642344 -2.3902187e-05 0.08796033 0.06874027 0.031393055 0.10133712
-0.12852171 1.8594425e-05 -0.00012987806 -2.1762178e-05 0.057717413 0.101333246 0.09182989 0.11268622
0.052368507 -0.0003705202 0.087771215 0.052785266 -6.424328e-05 -0.00010198107 -0.050402604 2.1030803e-05
0.00023681788 0.09312085 0.09934246 0.00024162012 0.08883697 9.98999e-05 -1.5424774e-05 0.08840927
0.00013393693 0.09052148 0.09248756 -2.3538518e-05 0.05970691 0.08826495 0.06759449 -6.670377e-05
0.07343658 5.03734e-05 -5.6063134e-05 0.074318044 -0.00014873879 -5.316954e-05 0.061763067 0.06927601
-9.607899e-06 0.0869589 0.08688001 0.0714576 -9.540045e-05 -7.7038625e-05 -1.2612419e-06 0.093914375
0.0879689 -2.1032189e-05 0.10291043 -3.103729e-05 0.023707008 -0.00014369284 0.060704876 0.10671108
4.2165016e-06 0.045134295 7.807338e-06 -0.014024532 0.096637905 0.08895063 0.068005204 0.020511702
7.042763e-05 0.08218882 0.035537265 0.081726305 0.06443224 0.1040434 -0.00016024023 0.12642618
0.064882785 0.08819209 4.0234703e-05 -9.474282e-05 0.092133895 -7.568524e-05 0.09330682 0.060709413
-0.31814277 0.061074816 -0.026133742 -7.663967e-05 0.111334 0.092178985 -3.1423853e-05 0.0654923
-0.013817011 -0.10621125 0.14428322 -3.4618763e-05 0.19848122 0.02121411 0.094133936 -0.034290675
-0.039665986 -0.0004648043 6.4058324e-05 3.90753e-05 -0.01568486 0.0032385082 -0.18843178 0.15880662
-0.10185768 -0.0004407422 -0.20637833 -0.016072478 -1.3895648e-05 6.823693e-05 -0.15569323 -0.0002557463
-0.00048573953 -0.10643645 -0.14126341 -0.00047559734 -0.21035033 -0.00013527258 3.591483e-05 -0.20999295
-0.00012486364 0.08965568 0.18531953 4.5566267e-06 0.032442655 0.20774919 -0.23264277 -4.7343463e-05
-0.022085004 -0.00010216306 0.00020772583 0.16107506 -0.000104876366 -0.00036585855 0.0032450906 -0.017684355
0.00070785073 0.19719118 -0.21054783 -0.11103019 -0.0005641211 0.00014600622 -8.790076e-05 -0.08526137
-0.21284041 5.9470025e-05 0.12475389 -6.5902226e-05 0.11996735 0.0002704201 0.0035900213 0.21311639
