BRIOS/models/model_file/biros_base/test_512_batch.pt (torch, 628194 bytes, 26 tensors)

rios_f.RIOS_H.rnn_cell0.weight_ih f4 [384, 2]
0	0xb9460731	-0.0001888543
1	0xb908af0e	-0.00013035184
2	0xb8bc6c81	-8.984749e-05
3	0xba685d12	-0.0008863966
4	0x380e1bfd	3.3881504e-05
5	0xb98253c0	-0.0002485793
6	0x3d1dff91	0.038573805
7	0xbb143f08	-0.0022620577
8	0xba877afb	-0.0010336334
9	0xb9de93d8	-0.00042453292
10	0x3c821fee	0.015884366
11	0x3d989289	0.07449824
12	0xb98abfe0	-0.0002646437
13	0x3901765a	0.00012346488
14	0x3a3da1b6	0.00072338746
15	0x3a01cc92	0.0004951443
16	0xb9451e1b	-0.00018798599
17	0xb9728aa6	-0.00023130569
18	0x3e018533	0.12648468
19	0xbda215bb	-0.07914301
20	0x3a3d4620	0.0007220227
21	0x389dbfa8	7.522042e-05
22	0x390e833c	0.00013591064
23	0xbacb1cfb	-0.0015496308
24	0x39ffa53b	0.00048760496
25	0xba629a27	-0.00086441863
26	0xbdb20677	-0.08692639
27	0xbdde4359	-0.10852689
28	0xb8e6fcdd	-0.00011014354
29	0xb8f91b40	-0.00011878321
30	0xb877c004	-5.9068218e-05
31	0xba6a1e92	-0.0008930947
32	0xb9fd8c9e	-0.00048360688
33	0xbbb45e37	-0.0055043953
34	0x36716a4f	3.5973678e-06
35	0xbae11490	-0.0017172266
36	0xb9ac750d	-0.00032893606
37	0xbb41283e	-0.002947345
38	0xb8306fac	-4.2065672e-05
39	0x3a06de25	0.00051447965
40	0x3a00cc8d	0.0004913293
41	0x3a3f6b50	0.00073020626
42	0x397d5836	0.00024160821
43	0x39b4b7ad	0.00034469125
44	0xb8d00da0	-9.920751e-05
45	0x39d9c551	0.00041536478
46	0x39fad8da	0.00047845283
47	0x396d2ccd	0.00022618771
48	0xb89eaa7d	-7.565783e-05
49	0xba0569f9	-0.00050893385
50	0xb8a16d16	-7.697397e-05
51	0xbbaadaeb	-0.0052140853
52	0x38860750	6.39098e-05
53	0xb90aa23f	-0.00013221147
54	0x3a4fe54b	0.00079305907
55	0xbb09a595	-0.0021003236
56	0xba129fde	-0.000559328
57	0xb948bc77	-0.00019143695
58	0x3a8f4b70	0.0010932516
59	0x3a039fea	0.00050210825
60	0xb8ec6105	-0.00011271428
61	0xb8eeb143	-0.00011381742
62	0x35fed98d	1.898779e-06
63	0xb8f78a8d	-0.00011803685
64	0x398929c0	0.00026161782
65	0x3a812fd4	0.0009856173
66	0x39fd0465	0.00048259195
67	0xbb15fdc8	-0.002288686
68	0xba2e22bd	-0.00066427496
69	0xba9e42cd	-0.0012074352
70	0xb9351561	-0.0001726947
71	0xba86085a	-0.0010225878
72	0xba07d57a	-0.0005181652
73	0x396b1d59	0.0002242228
74	0x36451631	2.9368205e-06
75	0xba03c09c	-0.00050259545
76	0x392ce109	0.0001648703
77	0x376c41f2	1.408205e-05
78	0xb7e66b07	-2.7467975e-05
79	0xbbb943da	-0.0056538405
80	0xb97b424d	-0.00023961924
81	0x3aa42aec	0.0012524999
82	0x3c19cf89	0.009387859
83	0x3d014d61	0.031567935
84	0x38cc9848	9.7558426e-05
85	0x3a985129	0.0011620867
86	0x397f8d27	0.00024371278
87	0xba58d4a4	-0.0008271432
88	0xb84898fd	-4.7826197e-05
89	0x3a839aec	0.0010040677
90	0x3e3df21d	0.1854939
91	0x3e4314c6	0.19050893
92	0xb9e4ef37	-0.00043665778
93	0xbb12f3a5	-0.0022423055
94	0x39d8fd9d	0.00041387687
95	0x39805d97	0.00024483792
96	0x39b9d3fa	0.00035443885
97	0x3a459848	0.0007537645
98	0xb996730a	-0.0002869594
99	0xb99d15bd	-0.0002996157
100	0x39e694e4	0.0004397995
101	0xbb9dee43	-0.004819663
102	0x3d23b3c4	0.03996636
103	0x3daf2937	0.08552783
104	0x396c786d	0.00022551576
105	0x38833924	6.25721e-05
106	0x38ec6ed2	0.00011273999
107	0xba2d7138	-0.0006616297
108	0xb8e28bb2	-0.0001080254
109	0xb8fbe149	-0.00012010575
110	0x3c6716fb	0.0141046
111	0x3c1de1d0	0.009636357
112	0xba2da563	-0.0006624071
113	0xbb064562	-0.0020488133
114	0x3a1de0b4	0.0006022558
115	0xba89380f	-0.0010468977
116	0x39aeb7b7	0.00033324744
117	0x3a7cdb87	0.0009645749
118	0x3c4136ac	0.01179282
119	0x3ccf875d	0.0253331
120	0x39e483b1	0.00043585667
121	0xba1c867b	-0.0005970967
122	0x3a164216	0.00057318935
123	0xb9b0e15a	-0.00033737236
124	0x3a179762	0.00057827507
125	0xb98ff466	-0.00027457176
126	0x39f85137	0.00047362756
127	0x39f067fb	0.0004585384
128	0x39b935a7	0.00035325924
129	0x39b368d0	0.00034219632
130	0xb9dc5dcd	-0.00042031557
131	0xb82b6074	-4.0859406e-05
132	0x3d53c5ab	0.051702183
133	0x3cfc0c1c	0.030767493
134	0x3a06702a	0.0005128408
135	0x39f904c9	0.00047496546
136	0x3a3ce01a	0.00072050246
137	0xba130546	-0.0005608391
138	0xba491290	-0.00076703075
139	0xb9f57116	-0.00046814297
140	0x3a2f8b95	0.00066965196
141	0xb922712e	-0.00015491687
142	0x3a8d9c68	0.0010804059
143	0x3a0510c2	0.00050760445
144	0x38b064b9	8.411095e-05
145	0x3944c2f2	0.0001876464
146	0xba078aa9	-0.0005170503
147	0xba125561	-0.00055821805
148	0x38449b92	4.6874928e-05
149	0x389fcc35	7.619747e-05
150	0xb8d6aaf2	-0.00010236156
151	0xbaa04d08	-0.0012229988
152	0x3a36a522	0.0006967356
153	0xb9e2cdaa	-0.0004325931
154	0x37c8af52	2.3923498e-05
155	0xbaa4b944	-0.001256742
156	0x39201e6c	0.00015270122
157	0x3a288813	0.0006428968
158	0x3d815b95	0.06316296
159	0x3e0482e3	0.12940554
160	0x39ba66f2	0.00035553385
161	0x3a9b3b9b	0.0011843325
162	0x38dcf878	0.000105366984
163	0xb898ca5d	-7.285618e-05
164	0x3a8df984	0.0010831808
165	0x3a41e25d	0.00073960965
166	0x395165c9	0.00019969711
167	0xb941be5e	-0.00018476832
168	0xb8e230a7	-0.00010785582
169	0xb8fdfe2c	-0.00012111323
170	0x3c9ed762	0.019389812
171	0x3c8f0017	0.017456098
172	0x38be0cae	9.062268e-05
173	0x39398533	0.00017692595
174	0xb8df543b	-0.00010649158
175	0xb9057908	-0.00012728956
176	0x3d8bbe3f	0.06823396
177	0x3d97d7ed	0.074142314
178	0x3932b66a	0.00017043357
179	0x3a26c650	0.00063619483
180	0xb8e42a81	-0.00010879804
181	0xb8fb1446	-0.00011972389
182	0xb9a6df0a	-0.00031828164
183	0xba8e1a69	-0.0010841611
184	0x3907c4f6	0.00012947977
185	0x38f8c99a	0.00011863113
186	0xb9beadbf	-0.00036369075
187	0xb7820337	-1.5498705e-05
188	0x39415ab7	0.00018439708
189	0x3a6fee5d	0.00091526454
190	0xba7760c6	-0.00094367226
191	0xba78c754	-0.00094901514
192	0xbba7d242	-0.0051215
193	0xbbc86bdd	-0.006116374
194	0xb8f761d9	-0.00011796103
195	0xba3ad4a3	-0.0007127022
196	0xbb3aa74b	-0.0028481062
197	0xbbc0488e	-0.005868024
198	0x3c94f348	0.018182412
199	0x3c05a7b2	0.008157657
200	0xbc057f50	-0.008148029
201	0xbc486245	-0.0122304605
202	0x3c3918fa	0.011297459
203	0x3d9948a2	0.07484557
204	0xbb5dd5c4	-0.0033849338
205	0xbb9a398c	-0.004706567
206	0xbaf90267	-0.0018997908
207	0xbbf0c587	-0.007347766
208	0xbb554a4e	-0.003254551
209	0xbbce13d2	-0.006288984
210	0x3e0216be	0.12703988
211	0x3d8bed2e	0.06832348
212	0xbb7722d6	-0.0037709973
213	0xbbba8886	-0.0056925444
214	0xbb942be3	-0.0045218333
215	0xbbd78052	-0.0065765763
216	0x3a3049c0	0.0006724857
217	0xbad15fc3	-0.0015973974
218	0x3d8fd42c	0.070228904
219	0xbd5c976a	-0.053855337
220	0xbb08bbb4	-0.0020863833
221	0xbb98792c	-0.0046531167
222	0x39598de0	0.00020747585
223	0xb8b09829	-8.420676e-05
224	0xb9d21cb8	-0.00040075718
225	0x395baf89	0.0002095086
226	0x38d1103b	9.96892e-05
227	0x38fbb73c	0.00012002743
228	0xb937b364	-0.00017519068
229	0x3a47b310	0.000761793
230	0xbb586609	-0.0033019802
231	0xbba852ec	-0.005136838
232	0xbb1f12c3	-0.0024272657
233	0xbbbdeb45	-0.0057958686
234	0xbb89d042	-0.0042057345
235	0xbbf05dd8	-0.007335406
236	0xbb2c9667	-0.0026334764
237	0xbbddec98	-0.006772589
238	0x39d64400	0.00040867925
239	0xb91422dc	-0.00014127366
240	0xb8493d74	-4.7979367e-05
241	0xba9aff28	-0.001182531
242	0x39a00b8c	0.0003052618
243	0xbb00236e	-0.0019552368
244	0xbb26a163	-0.0025425784
245	0xbb836e75	-0.0040109702
246	0x38951d14	7.11029e-05
247	0x39adbc97	0.00033137642
248	0xbb9e5861	-0.004832313
249	0xbc02c2a1	-0.007980973
250	0xbae4cf07	-0.0017456718
251	0xbbd57b67	-0.006514955
252	0xbb0971a8	-0.0020972285
253	0xbb999f4a	-0.004688178
254	0x389de8e5	7.5297234e-05
255	0xb986ec5c	-0.00025734573

rios_f.RIOS_H.rnn_cell0.weight_hh f4 [384, 96]
0	0xb9c28fa3	-0.0003710958
1	0x38b9b8a3	8.855879e-05
2	0x39eab655	0.00044767806
3	0xb9e8e73c	-0.0004442277
4	0xb9a31dfa	-0.00031112117
5	0x39933d87	0.00028083866
6	0x398874d0	0.00026026974
7	0xb9788e95	-0.00023704239
8	0x3a4e3078	0.0007865499
9	0xb8375411	-4.3708893e-05
10	0x3a625f19	0.00086353865
11	0xb69717d5	-4.502925e-06
12	0x37bfe8b3	2.2877333e-05
13	0xb9001385	-0.00012214303
14	0x39327c75	0.00017021767
15	0x37ad5703	2.0663725e-05
16	0xb897a015	-7.230059e-05
17	0xb7aa8be0	-2.0330714e-05
18	0x3876d5b8	5.885001e-05
19	0x398ed7aa	0.00027245033
20	0x3911afaa	0.00013893718
21	0x38fc1ef6	0.00012022063
22	0xb89b89c2	-7.416635e-05
23	0xb6ff6f74	-7.612567e-06
24	0x3876aca3	5.881175e-05
25	0x389359dc	7.026244e-05
26	0xb9309bb4	-0.00016842672
27	0x37cffcee	2.4794103e-05
28	0xb9b2b736	-0.00034087308
29	0x38cc6514	9.746305e-05
30	0xb93419a2	-0.00017175687
31	0xb7afa2b3	-2.0937388e-05
32	0xb9978d6c	-0.00028906332
33	0xb72dd881	-1.0362012e-05
34	0xb834047d	-4.2919524e-05
35	0x37e25969	2.6982934e-05
36	0xb9b03108	-0.00033605867
37	0x3894922c	7.0844166e-05
38	0x39affb2c	0.0003356574
39	0x37b31585	2.1348484e-05
40	0x3a16f807	0.0005759005
41	0x397d8da8	0.00024180731
42	0xba357b22	-0.000692295
43	0xb86ee175	-5.6953595e-05
44	0x386058ef	5.3488588e-05
45	0xb837a5b2	-4.3784916e-05
46	0x373f9a8e	1.1420472e-05
47	0xb9b17469	-0.00033846803
48	0x39989b04	0.00029107195
49	0x3980dfa5	0.0002458069
50	0xb8a7137f	-7.966812e-05
51	0xb81a73fb	-3.6824476e-05
52	0x39f55150	0.00046790624
53	0xba02a307	-0.00049833994
54	0x3931fef6	0.00016975016
55	0x3944c9a8	0.0001876714
56	0x37c95989	2.400276e-05
57	0x3838e834	4.4085275e-05
58	0xb9f6d9d2	-0.00047083065
59	0x39bff230	0.00036610803
60	0xb8e0e94d	-0.00010724608
61	0xb99ce4b4	-0.00029925036
62	0x3821a2c8	3.8536993e-05
63	0x3964c2d3	0.00021816352
64	0x38d5efff	0.00010201334
65	0xb95fa0c6	-0.0002132683
66	0xb9309d11	-0.0001684318
67	0xb9527d1c	-0.00020073768
68	0x390f6df3	0.00013678502
69	0x39dfdd66	0.0004269883
70	0x3a44d488	0.0007508476
71	0x39e03dfd	0.00042770794
72	0xb99201cd	-0.00027848632
73	0xb98bf963	-0.00026697954
74	0x39c31fc1	0.00037216957
75	0xb77220e2	-1.443198e-05
76	0x3800a447	3.0670573e-05
77	0x36ccee67	6.1074275e-06
78	0xb908d365	-0.00013048721
79	0xb9809515	-0.00024525137
80	0xb9d7af92	-0.00041138806
81	0x3a1f414e	0.00060751
82	0x39f534d8	0.00046769413
83	0x398aafa8	0.00026452285
84	0x3931e278	0.00016964402
85	0x37cf67b1	2.4724608e-05
86	0x39b321a7	0.00034166613
87	0xb92e6807	-0.00016632686
88	0x39c8aa5e	0.00038273906
89	0x39f83b7a	0.0004734656
90	0xb9322c11	-0.00016991819
91	0x386b70a1	5.613326e-05
92	0xb9ae8f9d	-0.00033294866
93	0xb80ff809	-3.4324858e-05
94	0x38b0014f	8.392578e-05
95	0xb9cca673	-0.00039033926
96	0xb631b661	-2.6481214e-06
97	0x3820c889	3.8333736e-05
98	0x393e82cd	0.00018168539
99	0xb9e1be2f	-0.00043057042
100	0x3909dec3	0.00013148323
101	0x397c6fa6	0.00024074185
102	0x38a51a3b	7.872699e-05
103	0xb9f422b5	-0.00046565165
104	0x378b84c5	1.6631917e-05
105	0xb77015f4	-1.4310226e-05
106	0x39f54b73	0.00046786256
107	0xb98b0b64	-0.00026520633
108	0x380f7a2b	3.4207635e-05
109	0x396d6a1a	0.00022641607
110	0x3a8a6650	0.0010559056
111	0x380d296d	3.36556e-05
112	0x37516140	1.24800135e-05
113	0xb80330e6	-3.1278374e-05
114	0x380a65b0	3.2996468e-05
115	0x3a660946	0.00087751856
116	0xb8b8c590	-8.8106026e-05
117	0xb9328273	-0.00017023999
118	0xba872007	-0.0010309228
119	0x383de6cf	4.527607e-05
120	0x36a26dde	4.8407665e-06
121	0x388f8222	6.8430105e-05
122	0x3975b319	0.0002343174
123	0x37888f0a	1.6279071e-05
124	0x39eb1b8d	0.0004484322
125	0xb8f49fd1	-0.00011664595
126	0xba8a39a7	-0.0010545746
127	0x36c85202	5.9700114e-06
128	0xb9f0328e	-0.00045814033
129	0xb49f22ae	-2.964129e-07
130	0xb81a4d5e	-3.6788515e-05
131	0xb9651e0c	-0.00021850335
132	0xb946008b	-0.00018882954
133	0xb7464823	-1.1818515e-05
134	0x393e02e4	0.00018120889
135	0xb692fc33	-4.380499e-06
136	0x3a1c78d9	0.00059689354
137	0x39ad7b20	0.00033088867
138	0xb970f2eb	-0.00022978678
139	0xb838d1d7	-4.4064447e-05
140	0x387c8e9c	6.0214297e-05
141	0xb7709284	-1.4339228e-05
142	0x381b5b6e	3.704003e-05
143	0xb9c584e9	-0.00037673794
144	0x3a7bedf4	0.0009610348
145	0xb99cbc60	-0.0002989499
146	0x363e6c1d	2.8375136e-06
147	0xb9a76f61	-0.00031935706
148	0x388bc150	6.664044e-05
149	0x399330c3	0.00028074355
150	0x3a8a6bc1	0.0010560678
151	0xb761f6ec	-1.3468536e-05
152	0x36cd2a4b	6.1143996e-06
153	0xb97260d8	-0.00023114996
154	0xb97b12f8	-0.00023944292
155	0x39b9c48a	0.00035432383
156	0xb7aaef01	-2.0376874e-05
157	0xb91baca0	-0.0001484626
158	0x36a1013e	4.7983185e-06
159	0x3964bcf4	0.00021814165
160	0xb9074f6d	-0.00012904192
161	0x3a2c187b	0.0006564927
162	0x39be4314	0.000362896
163	0xb94baeaf	-0.00019424663
164	0xba182382	-0.0005803631
165	0x392c4941	0.00016430487
166	0x392cd59e	0.00016482777
167	0x390b5837	0.00013288936
168	0xb93a707c	-0.00017780246
169	0x39ef828b	0.00045682894
170	0x38aa1a9a	8.1111866e-05
171	0xb878dc6c	-5.933309e-05
172	0xb87610a5	-5.8666472e-05
173	0x37d276ee	2.5089332e-05
174	0xb9c4c5da	-0.00037531444
175	0xba4b7469	-0.0007761182
176	0xb963ad44	-0.00021712953
177	0x38b293d2	8.515235e-05
178	0x3a4c70aa	0.00077987707
179	0xb939eaa8	-0.00017730391
180	0x3a8a72bd	0.0010562759
181	0x39a4f420	0.00031462405
182	0x3a0f2fa6	0.0005462117
183	0xba8ad04a	-0.001059064
184	0x39d875e6	0.00041286572
185	0xb83c5459	-4.4901248e-05
186	0xba8a6abe	-0.0010560376
187	0x380be865	3.3356617e-05
188	0xb5e5c076	-1.7117843e-06
189	0xb98bc967	-0.00026662202
190	0xb9356c19	-0.00017301775
191	0x37822195	1.5512845e-05
192	0x3a807eb0	0.0009803381
193	0x392793b5	0.00015981386
194	0xb947be71	-0.00019049064
195	0x3855457c	5.084787e-05
196	0xb9fb6b7d	-0.00047954536
197	0xbaa92afb	-0.0012906486
198	0xb9983058	-0.00029027718
199	0xba0bb77c	-0.00053297705
200	0xb7183a2a	-9.073448e-06
201	0xb98a1d42	-0.0002634321
202	0x3a28f6fe	0.0006445496
203	0x3aa1e410	0.0012351293
204	0x39670dc3	0.00022035003
205	0x3a199a44	0.0005859474
206	0xb85b2fa5	-5.225804e-05
207	0xb96f7685	-0.00022836968
208	0x38c5e834	9.436943e-05
209	0xb8ea5c94	-0.000111752335
210	0x395b7b6b	0.00020931444
211	0x38a8d805	8.051101e-05
212	0xba4c2fea	-0.0007789122
213	0x38975ca0	7.217494e-05
214	0x394d90f3	0.00019604321
215	0x39063744	0.00012799824
216	0x393b4b08	0.00017861661
217	0xb98aa175	-0.00026441706
218	0x39fb9f16	0.0004799298
219	0x38a9a4f4	8.089273e-05
220	0x3ac35dea	0.0014905308
221	0xba2cb109	-0.00065876596
222	0x3858788e	5.161069e-05
223	0xb875b173	-5.8577814e-05
224	0x39a9fe16	0.000324235
225	0xb96688c4	-0.00021985458
226	0xb9a25963	-0.00030965646
227	0xb9c59517	-0.0003768585
228	0x3aaab5ec	0.0013024188
229	0x39156635	0.00014247822
230	0xb9d5f999	-0.0004081249
231	0x3928b915	0.00016090677
232	0x37f46cb0	2.9137678e-05
233	0x390ee4c2	0.00013627394
234	0xb98fda8c	-0.00027437916
235	0xb9322cbe	-0.0001699207
236	0xb9e34dbe	-0.00043354736
237	0x3808feb5	3.266214e-05
238	0x394ef7cb	0.00019738001
239	0xba61aeda	-0.0008609124
240	0xb8e35cbf	-0.00010841479
241	0xb959685c	-0.0002073361
242	0x397831df	0.00023669701
243	0xba240af5	-0.0006257736
244	0xb9b64315	-0.00034763725
245	0x39a1d927	0.00030870104
246	0xb85c8b8d	-5.2582054e-05
247	0x3a4f1e98	0.0007900982
248	0xb9376e5a	-0.00017493349
249	0xb9d630a1	-0.00040853492
250	0xb8226957	-3.8721915e-05
251	0x398e8124	0.00027180568
252	0xb8c9d52e	-9.624135e-05
253	0x39b57a8f	0.00034614324
254	0x37d650e5	2.5548457e-05
255	0x3942be3e	0.00018572152

rios_f.RIOS_H.rnn_cell0.bias_ih f4 [384]
0	0x3891a54f	6.94493e-05
1	0xba992af6	-0.0011685777
2	0x3939ed3f	0.00017731356
3	0x3d7f62f3	0.062350225
4	0xb97f6f21	-0.00024360094
5	0x3d8808bb	0.0664229
6	0x3a166ab3	0.00057379453
7	0x388a921a	6.607566e-05
8	0x39f81013	0.00047314222
9	0x3dce91de	0.10086416
10	0xb98c3546	-0.00026742573
11	0xba97a9a4	-0.0011570943
12	0xba94dbaa	-0.0011356969
13	0x3dd9ba73	0.106312655
14	0xb6ee9891	-7.110714e-06
15	0xbab3dfa6	-0.0013723269
16	0xbbe01a88	-0.0068391003
17	0xbb2145d7	-0.0024608278
18	0xbb603792	-0.003421281
19	0x3a266790	0.00063478295
20	0x3a8bc9e8	0.0010665031
21	0x3a130e9c	0.0005609782
22	0x3a37547d	0.0006993486
23	0xba21cc87	-0.00061721395
24	0xb9cf6f87	-0.0003956521
25	0xbbd18725	-0.0063942843
26	0xb936ca70	-0.00017432286
27	0xbb5345a0	-0.0032237545
28	0xb90c5e42	-0.00013386554
29	0x39f576ed	0.00046818648
30	0xb633e4be	-2.6806224e-06
31	0xb90e7821	-0.00013586927
32	0x3a880980	0.0010378808
33	0xbb3b7ae0	-0.0028607175
34	0xba977c37	-0.0011557405
35	0xbaae9016	-0.0013318087
36	0x3a316f50	0.0006768601
37	0xba0cdc3d	-0.0005373394
38	0x39ec9b48	0.0004512912
39	0xbbe9289b	-0.0071154363
40	0x3ac35cf2	0.0014905019
41	0x3d248b86	0.040172122
42	0x3aa8c7a3	0.0012876879
43	0xba831f05	-0.0010003751
44	0x3a08f480	0.00052244216
45	0x3ebc8aaa	0.36824542
46	0xbb3ea52f	-0.0029090156
47	0x3a114700	0.0005541891
48	0x3a2276d3	0.0006197516
49	0xb99a2150	-0.0002939799
50	0xbbd1f148	-0.006406937
51	0x3dfc8cba	0.12331529
52	0x396d765e	0.00022646177
53	0xba30b955	-0.0006741484
54	0xb7066677	-8.010879e-06
55	0x3d79cf09	0.06098846
56	0xbb0263a6	-0.001989582
57	0xba96ec1f	-0.0011514461
58	0x3a63bbdb	0.00086873554
59	0x3d4d3056	0.050094925
60	0xba9af6eb	-0.0011822855
61	0x389b2916	7.398629e-05
62	0xba6e3c01	-0.0009087921
63	0x3a389c32	0.0007042318
64	0x37c9c9bb	2.4055005e-05
65	0x3a901cfe	0.0010994968
66	0x3dd9620b	0.10614403
67	0x3a481f46	0.00076340546
68	0x392613b1	0.0001583833
69	0xbb173a19	-0.00230754
70	0xba38eb19	-0.0007054075
71	0x3a9774c2	0.0011555182
72	0x39e154ec	0.00042978616
73	0xba2bbee6	-0.00065515784
74	0x39a682ba	0.00031759386
75	0xbac0f70e	-0.0014722066
76	0xba99acb1	-0.001172444
77	0xbae884d1	-0.0017739778
78	0x3a53b263	0.0008075593
79	0x3e19b004	0.15008551
80	0x3a1e7c92	0.0006045784
81	0xba82c332	-0.0009976386
82	0x3a75c095	0.0009374705
83	0xb9aaa013	-0.0003254419
84	0xb71b80bd	-9.268694e-06
85	0x3dac162f	0.08402669
86	0xb99de61f	-0.00030116827
87	0xb793c5eb	-1.7615928e-05
88	0x3e0cc08d	0.13745327
89	0x3a34b281	0.0006893054
90	0xb700f403	-7.686208e-06
91	0xbaa52e2d	-0.0012602262
92	0x3a9e5e42	0.0012082534
93	0x3a0f9f11	0.000547872
94	0x3a36e367	0.00069766346
95	0xbaf2a477	-0.0018512149
96	0xbc09ebc1	-0.0084180245
97	0xba9552d6	-0.0011392485
98	0xbbf8a049	-0.007587467
99	0xbd0151c6	-0.031572126
100	0xbc71e16c	-0.014763217
101	0x3d65720f	0.056016978
102	0xbbdbcd76	-0.0067078425
103	0xbc0507e2	-0.008119555
104	0xbc0e9bdb	-0.008704151
105	0xbbf2d4d1	-0.0074106236
106	0xbbf3f4d6	-0.007444958
107	0xbc1e040b	-0.009644519
108	0xbad1baca	-0.0016001102
109	0xbd5d9861	-0.054100398
110	0xbbdb0ebc	-0.006685106
111	0xb9c158e2	-0.00036878051
112	0xb9b49b25	-0.00034447867
113	0xb99c86f5	-0.0002985519
114	0x3a372749	0.000698675
115	0xbbeaf428	-0.007170219
116	0xbc012f21	-0.007884772
117	0xbc0949e0	-0.00837943
118	0xbc0fe47e	-0.008782504
119	0xb9df3b4a	-0.00042578048
120	0xba56c96e	-0.00081934675
121	0xbb356869	-0.0027680642
122	0xbb8e24cd	-0.004337883
123	0xb9797b83	-0.00023792502
124	0xbc44ea23	-0.012018713
125	0xbc1548df	-0.009111612
126	0xbbdc7253	-0.0067274957
127	0xb8d56b51	-0.00010176621
128	0xbc0772d4	-0.008267123
129	0xbadfa378	-0.0017062267
130	0x3ab63d4d	0.0013903767
131	0xbc20c14f	-0.009811713
132	0xbbe6db08	-0.0070451535
133	0xbbc0faff	-0.005889296
134	0xbc0216e2	-0.007940026
135	0x3aaf1ed6	0.001336063
136	0xbc1b7bce	-0.009489967
137	0x3d39b9a8	0.04534307
138	0xbbfc1190	-0.0076925233
139	0xba79188c	-0.0009502254
140	0xbbeb8e7c	-0.0071886163
141	0x3e2dce31	0.16973187
142	0xbb0a9d4f	-0.0021150892
143	0xbba78648	-0.005112443
144	0xbc258220	-0.010101825
145	0xbb986346	-0.004650506
146	0xbb25111e	-0.0025187205
147	0xbd52679a	-0.051368333
148	0xbbd2da37	-0.0064347046
149	0xbc127354	-0.008938629
150	0xbbdaab60	-0.0066732615
151	0x3d68a573	0.05679841
152	0xba937592	-0.0011250249
153	0xbbede707	-0.0072602066
154	0xbbed962a	-0.007250567
155	0xba84ba06	-0.001012624
156	0x38f7df17	0.000118194315
157	0xbbf61363	-0.0075096353
158	0x39274f0a	0.00015955805
159	0xbc139dbd	-0.009009776
160	0xbb690b96	-0.0035559884
161	0xbc43ff55	-0.011962731
162	0xbc427d90	-0.011870757
163	0xbc2f94d7	-0.0107166385
164	0xbc1297f7	-0.008947364
165	0xbb6e78af	-0.003638785
166	0xbbe3ef7a	-0.006956038
167	0xbc273e3d	-0.01020771
168	0xbbb61726	-0.0055569587
169	0xbbf17b4e	-0.0073694354
170	0xbbcb10e5	-0.0061970823
171	0xbae54098	-0.0017490564
172	0xba1cc9aa	-0.0005980978
173	0xb9b73bfb	-0.0003494917
174	0xbc06d8ec	-0.008230429
175	0xbd20bb3a	-0.039241053
176	0xbc1c080e	-0.009523405
177	0xbc2f3245	-0.0106931375
178	0xbc0c499b	-0.008562471
179	0xbc1c0ed7	-0.0095250225
180	0xbbda8fe5	-0.0066699856
181	0xbb1492c5	-0.002267049
182	0xbbaa59fd	-0.0051987157
183	0xbbd7d831	-0.0065870513
184	0x3d5147c4	0.05109383
185	0xbc0b08af	-0.008485957
186	0xbbdab13b	-0.0066739595
187	0xba5230a7	-0.0008018114
188	0xbc2db138	-0.010601334
189	0xbc1a57fc	-0.009420391
190	0xbc0cdcbc	-0.008597549
191	0xbc1cd8e3	-0.009573194
192	0x3a1d44c4	0.00059993216
193	0xb94863f8	-0.00019110728
194	0xbc18b33a	-0.009320075
195	0xbd434e8f	-0.04768234
196	0xbb240977	-0.0025030056
197	0xbda5c51a	-0.08094235
198	0x3bf551fc	0.00748658
199	0x3bfd83a1	0.0077366387
200	0xba90b725	-0.001104091
201	0x3d32c7ca	0.043647565
202	0x3c29ef7e	0.010372041
203	0xbb32780f	-0.0027232205
204	0xba4976ec	-0.0007685262
205	0xbde1c3b2	-0.11023654
206	0x3ba3fe4a	0.005004679
207	0x3908bdaf	0.00013040633
208	0x3a5deaa5	0.0008465446
209	0x39e9ce5b	0.0004459497
210	0xbaa77860	-0.0012776963
211	0x3ba44580	0.005013168
212	0x3c0d6ff9	0.008632653
213	0xbbe25990	-0.0069076493
214	0xbbee0d8d	-0.007264799
215	0xb9a9a31a	-0.00032355712
216	0xba96c8a5	-0.0011503889
217	0xb73cde10	-1.1257376e-05
218	0xba92c6a4	-0.0011198116
219	0xb9d54995	-0.0004068135
220	0xbb4c2e5e	-0.0031155567
221	0xbc14240a	-0.0090417955
222	0xbba5b658	-0.0050571375
223	0x39bca43c	0.00035980518
224	0x3c15f9e2	0.009153815
225	0x395f4c5b	0.00021295382
226	0x3aff5574	0.0019480423
227	0xbc053fbe	-0.008132873
228	0x398ebecc	0.00027226505
229	0x3c063904	0.0081923045
230	0xbba57edc	-0.005050523
231	0xbaf0cbcc	-0.0018371283
232	0x3c232872	0.009958373
233	0xbc8511bc	-0.016243808
234	0x3bf9177b	0.007601676
235	0x3a2f813a	0.00066949765
236	0x3c2c9a95	0.010534902
237	0xbb688a31	-0.003548276
238	0xb9ef0220	-0.00045587216
239	0x3b7fe093	0.0039043769
240	0x3c295532	0.010335254
241	0x3b97ae9f	0.0046289708
242	0xb957cf3a	-0.00020581196
243	0x3cb27a78	0.021786913
244	0x3c27e466	0.0102473255
245	0x3bcbfd3c	0.0062252562
246	0x3ba38f4b	0.004991447
247	0xb8d84f92	-0.00010314504
248	0x3a06fab6	0.0005149053
249	0xbbdabdcf	-0.006675459
250	0xbbd70afd	-0.006562589
251	0x3d075eff	0.03304958
252	0x3899a29c	7.325897e-05
253	0x3bd0c1ab	0.0063707433
254	0xb91eb5ab	-0.00015135731
255	0x3c06a0cd	0.008217049

rios_f.RIOS_H.rnn_cell0.bias_hh f4 [384]
0	0x3891a54f	6.94493e-05
1	0xba992af6	-0.0011685777
2	0x3939ed3f	0.00017731356
3	0x3d7f62f3	0.062350225
4	0xb97f6f21	-0.00024360094
5	0x3d8808bb	0.0664229
6	0x3a166ab3	0.00057379453
7	0x388a921a	6.607566e-05
8	0x39f81013	0.00047314222
9	0x3dce91e2	0.10086419
10	0xb98c3546	-0.00026742573
11	0xba97a9a4	-0.0011570943
12	0xba94dbaa	-0.0011356969
13	0x3dd9ba73	0.106312655
14	0xb6ee9891	-7.110714e-06
15	0xbab3dfa6	-0.0013723269
16	0xbbe01a88	-0.0068391003
17	0xbb2145d7	-0.0024608278
18	0xbb603792	-0.003421281
19	0x3a266790	0.00063478295
20	0x3a8bc9e8	0.0010665031
21	0x3a130e9c	0.0005609782
22	0x3a37547d	0.0006993486
23	0xba21cc87	-0.00061721395
24	0xb9cf6f87	-0.0003956521
25	0xbbd18725	-0.0063942843
26	0xb936ca70	-0.00017432286
27	0xbb5345a0	-0.0032237545
28	0xb90c5e42	-0.00013386554
29	0x39f576ed	0.00046818648
30	0xb633e4be	-2.6806224e-06
31	0xb90e7821	-0.00013586927
32	0x3a880980	0.0010378808
33	0xbb3b7ae0	-0.0028607175
34	0xba977c37	-0.0011557405
35	0xbaae9016	-0.0013318087
36	0x3a316f50	0.0006768601
37	0xba0cdc3d	-0.0005373394
38	0x39ec9b48	0.0004512912
39	0xbbe9289b	-0.0071154363
40	0x3ac35cf2	0.0014905019
41	0x3d248b86	0.040172122
42	0x3aa8c7a3	0.0012876879
43	0xba831f05	-0.0010003751
44	0x3a08f480	0.00052244216
45	0x3ebc8aaa	0.36824542
46	0xbb3ea52f	-0.0029090156
47	0x3a114700	0.0005541891
48	0x3a2276d3	0.0006197516
49	0xb99a2150	-0.0002939799
50	0xbbd1f148	-0.006406937
51	0x3dfc8cba	0.12331529
52	0x396d765e	0.00022646177
53	0xba30b955	-0.0006741484
54	0xb7066677	-8.010879e-06
55	0x3d79cf09	0.06098846
56	0xbb0263a6	-0.001989582
57	0xba96ec1f	-0.0011514461
58	0x3a63bbdb	0.00086873554
59	0x3d4d3056	0.050094925
60	0xba9af6eb	-0.0011822855
61	0x389b2916	7.398629e-05
62	0xba6e3c01	-0.0009087921
63	0x3a389c32	0.0007042318
64	0x37c9c9bb	2.4055005e-05
65	0x3a901cfe	0.0010994968
66	0x3dd9620b	0.10614403
67	0x3a481f46	0.00076340546
68	0x392613b1	0.0001583833
69	0xbb173a19	-0.00230754
70	0xba38eb19	-0.0007054075
71	0x3a9774c2	0.0011555182
72	0x39e154ec	0.00042978616
73	0xba2bbee6	-0.00065515784
74	0x39a682ba	0.00031759386
75	0xbac0f70e	-0.0014722066
76	0xba99acb1	-0.001172444
77	0xbae884d1	-0.0017739778
78	0x3a53b263	0.0008075593
79	0x3e19b004	0.15008551
80	0x3a1e7c92	0.0006045784
81	0xba82c332	-0.0009976386
82	0x3a75c095	0.0009374705
83	0xb9aaa013	-0.0003254419
84	0xb71b80bd	-9.268694e-06
85	0x3dac162f	0.08402669
86	0xb99de61f	-0.00030116827
87	0xb793c5eb	-1.7615928e-05
88	0x3e0cc08d	0.13745327
89	0x3a34b281	0.0006893054
90	0xb700f403	-7.686208e-06
91	0xbaa52e2d	-0.0012602262
92	0x3a9e5e42	0.0012082534
93	0x3a0f9f11	0.000547872
94	0x3a36e367	0.00069766346
95	0xbaf2a477	-0.0018512149
96	0xbc09ebc1	-0.0084180245
97	0xba9552d6	-0.0011392485
98	0xbbf8a049	-0.007587467
99	0xbd0151c6	-0.031572126
100	0xbc71e16c	-0.014763217
101	0x3d65720f	0.056016978
102	0xbbdbcd76	-0.0067078425
103	0xbc0507e2	-0.008119555
104	0xbc0e9bdb	-0.008704151
105	0xbbf2d4d1	-0.0074106236
106	0xbbf3f4d6	-0.007444958
107	0xbc1e040b	-0.009644519
108	0xbad1baca	-0.0016001102
109	0xbd5d9861	-0.054100398
110	0xbbdb0ebc	-0.006685106
111	0xb9c158e2	-0.00036878051
112	0xb9b49b25	-0.00034447867
113	0xb99c86f5	-0.0002985519
114	0x3a372749	0.000698675
115	0xbbeaf428	-0.007170219
116	0xbc012f21	-0.007884772
117	0xbc0949e0	-0.00837943
118	0xbc0fe47e	-0.008782504
119	0xb9df3b4a	-0.00042578048
120	0xba56c96e	-0.00081934675
121	0xbb356869	-0.0027680642
122	0xbb8e24cd	-0.004337883
123	0xb9797b83	-0.00023792502
124	0xbc44ea23	-0.012018713
125	0xbc1548df	-0.009111612
126	0xbbdc7253	-0.0067274957
127	0xb8d56b51	-0.00010176621
128	0xbc0772d4	-0.008267123
129	0xbadfa378	-0.0017062267
130	0x3ab63d4d	0.0013903767
131	0xbc20c14f	-0.009811713
132	0xbbe6db08	-0.0070451535
133	0xbbc0faff	-0.005889296
134	0xbc0216e2	-0.007940026
135	0x3aaf1ed6	0.001336063
136	0xbc1b7bce	-0.009489967
137	0x3d39b9a8	0.04534307
138	0xbbfc1190	-0.0076925233
139	0xba79188c	-0.0009502254
140	0xbbeb8e7c	-0.0071886163
141	0x3e2dce31	0.16973187
142	0xbb0a9d4f	-0.0021150892
143	0xbba78648	-0.005112443
144	0xbc258220	-0.010101825
145	0xbb986346	-0.004650506
146	0xbb25111e	-0.0025187205
147	0xbd52679a	-0.051368333
148	0xbbd2da37	-0.0064347046
149	0xbc127354	-0.008938629
150	0xbbdaab60	-0.0066732615
151	0x3d68a573	0.05679841
152	0xba937592	-0.0011250249
153	0xbbede707	-0.0072602066
154	0xbbed962a	-0.007250567
155	0xba84ba06	-0.001012624
156	0x38f7df17	0.000118194315
157	0xbbf61363	-0.0075096353
158	0x39274f0a	0.00015955805
159	0xbc139dbd	-0.009009776
160	0xbb690b96	-0.0035559884
161	0xbc43ff55	-0.011962731
162	0xbc427d90	-0.011870757
163	0xbc2f94d7	-0.0107166385
164	0xbc1297f7	-0.008947364
165	0xbb6e78af	-0.003638785
166	0xbbe3ef7a	-0.006956038
167	0xbc273e3d	-0.01020771
168	0xbbb61726	-0.0055569587
169	0xbbf17b4e	-0.0073694354
170	0xbbcb10e5	-0.0061970823
171	0xbae54098	-0.0017490564
172	0xba1cc9aa	-0.0005980978
173	0xb9b73bfb	-0.0003494917
174	0xbc06d8ec	-0.008230429
175	0xbd20bb3a	-0.039241053
176	0xbc1c080e	-0.009523405
177	0xbc2f3245	-0.0106931375
178	0xbc0c499b	-0.008562471
179	0xbc1c0ed7	-0.0095250225
180	0xbbda8fe5	-0.0066699856
181	0xbb1492c5	-0.002267049
182	0xbbaa59fd	-0.0051987157
183	0xbbd7d831	-0.0065870513
184	0x3d5147c4	0.05109383
185	0xbc0b08af	-0.008485957
186	0xbbdab13b	-0.0066739595
187	0xba5230a7	-0.0008018114
188	0xbc2db138	-0.010601334
189	0xbc1a57fc	-0.009420391
190	0xbc0cdcbc	-0.008597549
191	0xbc1cd8e3	-0.009573194
192	0x3a1d44c4	0.00059993216
193	0xb94863f8	-0.00019110728
194	0xbc18b33a	-0.009320075
195	0xbd478867	-0.048714068
196	0xbb240977	-0.0025030056
197	0xbda5b5dd	-0.08091328
198	0x3bf551fc	0.00748658
199	0x3bfd83a1	0.0077366387
200	0xba90b725	-0.001104091
201	0x3d26aa7e	0.040689938
202	0x3c29ef7e	0.010372041
203	0xbb32780f	-0.0027232205
204	0xba4976ec	-0.0007685262
205	0xbdc7c512	-0.09754385
206	0x3ba3fe4a	0.005004679
207	0x3908bdaf	0.00013040633
208	0x3a5deaa5	0.0008465446
209	0x39e9ce5b	0.0004459497
210	0xbaa77860	-0.0012776963
211	0x3ba44580	0.005013168
212	0x3c0d6ff9	0.008632653
213	0xbbe25990	-0.0069076493
214	0xbbee0d8d	-0.007264799
215	0xb9a9a31a	-0.00032355712
216	0xba96c8a5	-0.0011503889
217	0xb73cde10	-1.1257376e-05
218	0xba92c6a4	-0.0011198116
219	0xb9d54995	-0.0004068135
220	0xbb4c2e5e	-0.0031155567
221	0xbc14240a	-0.0090417955
222	0xbba5b658	-0.0050571375
223	0x39bca43c	0.00035980518
224	0x3c15f9e2	0.009153815
225	0x395f4c5b	0.00021295382
226	0x3aff5574	0.0019480423
227	0xbc053fbe	-0.008132873
228	0x398ebecc	0.00027226505
229	0x3c063904	0.0081923045
230	0xbba57edc	-0.005050523
231	0xbaf0cbcc	-0.0018371283
232	0x3c232872	0.009958373
233	0xbc850ed5	-0.016242424
234	0x3bf9177b	0.007601676
235	0x3a2f813a	0.00066949765
236	0x3c2c9a95	0.010534902
237	0x39cf8a52	0.00039585173
238	0xb9ef0220	-0.00045587216
239	0x3b7fe093	0.0039043769
240	0x3c295532	0.010335254
241	0x3b97ae9f	0.0046289708
242	0xb957cf3a	-0.00020581196
243	0x3cb38988	0.021916166
244	0x3c27e466	0.0102473255
245	0x3bcbfd3c	0.0062252562
246	0x3ba38f4b	0.004991447
247	0xb8f44505	-0.000116476825
248	0x3a06fab6	0.0005149053
249	0xbbdabdcf	-0.006675459
250	0xbbd70afd	-0.006562589
251	0x3d081f51	0.03323299
252	0x3899a29c	7.325897e-05
253	0x3bd0c1ab	0.0063707433
254	0xb91eb5ab	-0.00015135731
255	0x3c06a0cd	0.008217049

rios_f.RIOS_H.rnn_cell1.weight_ih f4 [384, 2]
0	0x3abae04b	0.0014257518
1	0xbcd46f12	-0.025931869
2	0xba37210b	-0.000698582
3	0xba7ea29c	-0.0009713562
4	0x3ce6ab40	0.02815783
5	0x3c9d4f64	0.019202895
6	0xbd0ee367	-0.034884837
7	0xbd343958	-0.044
8	0xbcb2dd7a	-0.021834124
9	0xbc25d38e	-0.010121239
10	0x3d804e4e	0.062649354
11	0xbd202cf6	-0.039105378
12	0xbc9fd5ee	-0.01951119
13	0xbd320945	-0.04346587
14	0xbb0730ce	-0.0020628455
15	0x3c694c0c	0.014239322
16	0x3d557ac8	0.052119046
17	0x3cc529fa	0.024067868
18	0x3c8e9a5b	0.017407587
19	0xbd05349c	-0.032520875
20	0x3c4aaa49	0.012369701
21	0xbc013708	-0.007886656
22	0x3e047e06	0.12938699
23	0xbbec5486	-0.0072122244
24	0xb9d7c935	-0.00041157907
25	0xb9bf38f6	-0.00036472798
26	0xbd1de553	-0.03854878
27	0xbd1973cf	-0.03746396
28	0x3b06a4a4	0.002054491
29	0xbc66516f	-0.014057501
30	0xb917377e	-0.00014421155
31	0x394b53bb	0.0001939078
32	0x3a15c8fd	0.00057138485
33	0xba2e4c3c	-0.0006648933
34	0x3834bc12	4.30905e-05
35	0x399b6339	0.0002963783
36	0xb90b2ae9	-0.00013272058
37	0xb8005362	-3.0595234e-05
38	0x3d1420c1	0.03616405
39	0xbd58602e	-0.0528261
40	0xbda21179	-0.07913489
41	0xbdab94d0	-0.08377993
42	0xbc967a56	-0.018368881
43	0x3c35ec95	0.011103769
44	0x3e3d8982	0.18509486
45	0x3e1bfae6	0.15232429
46	0x399d6462	0.00030020165
47	0x3aa67eb2	0.0012702553
48	0x38ec33a4	0.00011262976
49	0x3947e878	0.0001906472
50	0x39ac0e63	0.00032817115
51	0xba1627a8	-0.0005727955
52	0xbdc1599c	-0.0944092
53	0xbdcace28	-0.099026024
54	0x393bb79f	0.00017902114
55	0x39e501b3	0.0004367955
56	0xba3ce9f2	-0.00072064914
57	0x3c89497d	0.016758675
58	0x3cc90379	0.024537789
59	0x3ceecff5	0.029151896
60	0x3a95b0d8	0.0011420501
61	0xbc86e42f	-0.016466228
62	0xb898656c	-7.266816e-05
63	0x36ff94d6	7.616919e-06
64	0xbd242cc0	-0.04008174
65	0xbde85f87	-0.113463454
66	0xba29ab3d	-0.0006472355
67	0xba374116	-0.00069905946
68	0x35f2fafa	1.8103449e-06
69	0x39b8b609	0.00035230842
70	0x3beb6406	0.0071835546
71	0xbcbda08b	-0.023147842
72	0xbc909678	-0.017649874
73	0x3a90d28d	0.0011049077
74	0x3ca6886d	0.020328725
75	0xbc312c3b	-0.010813768
76	0x3cd082a8	0.025452927
77	0x3a8eaf48	0.0010885978
78	0x3a2c39c7	0.0006569889
79	0x3a15eca5	0.00057191617
80	0xbce34f4a	-0.027747769
81	0xbd05dff2	-0.032684274
82	0xbd5d87c4	-0.054084554
83	0xbd5e0d00	-0.054211617
84	0xbd1f8307	-0.038943317
85	0xbcb2fe1d	-0.021849686
86	0xb9286926	-0.000160609
87	0xb98e57e1	-0.00027149825
88	0xbc5ad142	-0.013355555
89	0xbbb42544	-0.0054976065
90	0xbc7a16cf	-0.015264227
91	0xbdb583a8	-0.08863002
92	0x3ac15429	0.0014749813
93	0xb94909cf	-0.00019172508
94	0x3d16c3c0	0.036807775
95	0x3ab6ba73	0.0013941064
96	0xbe09b024	-0.13446099
97	0xbddc389a	-0.107529834
98	0x3cc9464a	0.02456965
99	0x3cf4db1d	0.029889638
100	0x3a670905	0.00088132947
101	0xba330af4	-0.000682994
102	0x3d4761e2	0.048677333
103	0x3c2f364a	0.010694096
104	0xbd78a15c	-0.06070076
105	0xbddea80d	-0.10871897
106	0xbc3b5cec	-0.0114357285
107	0xbc2d0580	-0.010560393
108	0x3aae2f44	0.0013289233
109	0xbc75f173	-0.015011179
110	0xbd6a3bb9	-0.057185862
111	0x3d0e70d1	0.03477556
112	0xb9b25a0f	-0.00034017905
113	0xba15caa3	-0.0005714094
114	0x3d0bfe84	0.034178272
115	0x3b2732fd	0.002551257
116	0x3d906f67	0.07052498
117	0x3d36aa7e	0.044596188
118	0xbd3f31c9	-0.04667834
119	0xbde355bb	-0.11100336
120	0x3ac71f7e	0.001519188
121	0x3aba9ecc	0.0014237999
122	0xbc24c5ac	-0.010056894
123	0xbd187770	-0.03722328
124	0x3a4cf139	0.00078179274
125	0x3a897579	0.001048728
126	0x3ccef823	0.025264805
127	0x3cd21ae4	0.025647588
128	0xbc338409	-0.010956773
129	0x3b538ac8	0.0032278765
130	0x3d3297e7	0.043601897
131	0xbd2bc45f	-0.04193532
132	0xbd362afe	-0.044474594
133	0xbd69ca28	-0.057077557
134	0xbca3fc26	-0.020017695
135	0xbbd8add1	-0.0066125174
136	0xbc42ecc0	-0.011897266
137	0xbcb54c9c	-0.022131257
138	0x3c1932fe	0.009350536
139	0xba124f82	-0.00055813056
140	0xbd567448	-0.05235699
141	0xbd1bc502	-0.03802968
142	0xbc5ffc7f	-0.01367104
143	0xbd0ac44f	-0.03387862
144	0xbd5ce237	-0.053926673
145	0xbc9ac535	-0.018892864
146	0x3d6eec50	0.058330834
147	0x3cf3d906	0.02976657
148	0xbb2be6a9	-0.0026230013
149	0x3ca126a1	0.01967174
150	0x39d24f7d	0.00040113545
151	0x3a4dcd44	0.00078507164
152	0x3ad9ac6f	0.0016607175
153	0x3afdcfa8	0.0019364255
154	0xb996d6fa	-0.000287704
155	0x39af50bc	0.00033438753
156	0x3aa5ed0d	0.0012659148
157	0x3c78f5cb	0.01519532
158	0x3da0cf9e	0.078521
159	0x3d1679ce	0.036737256
160	0x3d63de78	0.055632085
161	0x3d410c43	0.047130834
162	0x3d947c3a	0.07250257
163	0x3d9157a1	0.07096792
164	0x3c20bce9	0.009810665
165	0xbcd8a0d4	-0.026443876
166	0x3c8ef3c4	0.01745022
167	0x39b6da53	0.0003487641
168	0x3b19d1b5	0.0023470942
169	0xbc67c231	-0.01414542
170	0xbe26f799	-0.16305389
171	0xbe399794	-0.18124229
172	0xba721f0e	-0.0009236195
173	0xbc22255f	-0.009896605
174	0x3b799aec	0.0038086725
175	0xbc0f1317	-0.008732579
176	0x3d60a058	0.054840416
177	0x3d981092	0.074250355
178	0xbd3e4e1f	-0.04646122
179	0xbc9a2b03	-0.018819338
180	0x3aa40d5b	0.0012516187
181	0xbc7af9a5	-0.015318309
182	0xb9a93cb9	-0.00032279434
183	0xb9c0f6dd	-0.0003680502
184	0x3d04788c	0.032341525
185	0x3d0b2b8a	0.03397707
186	0xbc2b2c0e	-0.010447515
187	0xbc4d6b89	-0.012537845
188	0x3d4d82dd	0.05017363
189	0x3d4ddad0	0.050257504
190	0xbc1cc0d4	-0.009567458
191	0x3d016c94	0.03159769
192	0x3be859a4	0.007090764
193	0x3dc43ad7	0.09581535
194	0xba1bc625	-0.00059423066
195	0xba7c3d42	-0.0009622165
196	0xbca20be9	-0.01978107
197	0xbdcaf7d0	-0.09910548
198	0x3c139bda	0.009009326
199	0xbdfdd6ac	-0.12394461
200	0xbb360bc5	-0.0027778011
201	0x3bc8ef7f	0.006132066
202	0xbb79ef84	-0.0038137147
203	0x3cc05923	0.023480004
204	0x3d487925	0.048943657
205	0x3e318a9e	0.17338035
206	0xbc3ce224	-0.0115285255
207	0xbd090b69	-0.033458147
208	0x3c095ee0	0.008384436
209	0x3d4b3cfb	0.049618702
210	0x3b36a360	0.0027868375
211	0xbc624e8e	-0.013812674
212	0xbda7242d	-0.08161197
213	0xbc9ad9ef	-0.018902747
214	0xbd9f2304	-0.077703506
215	0xbe5c3535	-0.21504672
216	0xba27220f	-0.00063756196
217	0xba0887fe	-0.00052082527
218	0xbc9b80d7	-0.018982334
219	0xbd235387	-0.03987458
220	0x3b8d6f7b	0.004316268
221	0xbc694b3f	-0.0142391315
222	0xb9f48dad	-0.00046644863
223	0xb9bdd064	-0.00036204152
224	0x39770a42	0.00023559577
225	0xba59fc08	-0.00083154486
226	0xb9f5f319	-0.00046911163
227	0xb89e3dc4	-7.545532e-05
228	0xba2ba63c	-0.0006547903
229	0xb9c464de	-0.00037459185
230	0x3d2fe2cc	0.0429409
231	0x3d0576a5	0.03258385
232	0xbca592b0	-0.020211548
233	0xbd6755b8	-0.056478232
234	0xbd59b724	-0.053153172
235	0x3d2836e2	0.041067965
236	0x3df2693a	0.118364766
237	0x3daff2b8	0.08591217
238	0xb9c35523	-0.0003725673
239	0x3a0ecceb	0.0005447405
240	0xb97e6ea9	-0.00024264552
241	0xb8f3f9cc	-0.00011633671
242	0x39dd0584	0.00042156514
243	0xba0adc7b	-0.00052971364
244	0xbdc773aa	-0.09738858
245	0xbdee9a57	-0.11650532
246	0xb91e0cc5	-0.00015072811
247	0x397fffcb	0.00024413985
248	0xbcde258c	-0.027117513
249	0x3d530646	0.051519655
250	0x3d85daae	0.065358505
251	0x3d99f6b8	0.07517761
252	0x3b9c7252	0.00477437
253	0xbc6807cc	-0.014162015
254	0xb8cef967	-9.8693e-05
255	0xb78cf224	-1.6802056e-05

rios_f.RIOS_H.rnn_cell1.weight_hh f4 [384, 96]
0	0x3b26b9b7	0.0025440285
1	0xba50930b	-0.00079564814
2	0x3c392b67	0.011301852
3	0x3ca34953	0.019932425
4	0x3c0b5a4e	0.008505417
5	0xbc100ffb	-0.008792873
6	0xbd852eaa	-0.06503041
7	0xbbf2200a	-0.0073890733
8	0xbca2e3a7	-0.019883944
9	0x3a26ffa3	0.00063704903
10	0xbda049b1	-0.078265555
11	0x3cd94e2a	0.02652653
12	0xb9484973	-0.00019100848
13	0x3c174fe8	0.00923536
14	0xbdd92714	-0.10603157
15	0x3a63ba13	0.000868709
16	0xb7b96f20	-2.2105465e-05
17	0x3a43886a	0.0007458987
18	0x3a5b2632	0.00083598786
19	0xbd8a1725	-0.06742696
20	0xbd1b1be5	-0.0378684
21	0x3c444272	0.011978732
22	0x3dc804b5	0.09766523
23	0x3803b02c	3.1396907e-05
24	0xb9e1262a	-0.0004294378
25	0x39cb4c48	0.0003877601
26	0x3bd06e68	0.0063608177
27	0xb7a5c43d	-1.9760913e-05
28	0x3cc20838	0.02368556
29	0x3d3a8de5	0.045545477
30	0x3dd8e6a5	0.10590867
31	0x393756fd	0.00017484646
32	0xbcdf9228	-0.027291372
33	0x392ea4ba	0.00016655299
34	0xbabda7bd	-0.0014469546
35	0x3c6548fc	0.013994452
36	0x3c4e113a	0.012577349
37	0xbce043b0	-0.027376026
38	0x3cf464b5	0.029833177
39	0x3aae6c2b	0.0013307383
40	0xbd6b0f0d	-0.0573874
41	0x3bcbc539	0.006218579
42	0x3d2f7c71	0.042843286
43	0xb5ac9951	-1.285962e-06
44	0xbc2907ca	-0.010316798
45	0x3b5f05ee	0.0034030634
46	0x3a898c0d	0.0010494009
47	0xbc0b38c8	-0.008497424
48	0xbd9e60b8	-0.077332914
49	0xbcd51fe4	-0.026016183
50	0x3a6ef55f	0.00091155426
51	0x3cb542be	0.022126552
52	0xbd96614c	-0.07342777
53	0x3c1c38cf	0.009535029
54	0xbdd93597	-0.106059246
55	0xbcda4096	-0.026642125
56	0xb944fb8d	-0.00018785727
57	0x3c1bba86	0.00950492
58	0x3d322809	0.04349521
59	0xbcf93bdf	-0.030424057
60	0x3ac82066	0.0015268445
61	0xbc1438d3	-0.009046751
62	0xba93b999	-0.0011270522
63	0xbd35e29c	-0.044405565
64	0xbc17b028	-0.0092583075
65	0x3caf3074	0.021385409
66	0xbd5a70f7	-0.053330388
67	0x3d6453cb	0.055743974
68	0x3b9fba80	0.0048745275
69	0xbd05623b	-0.032564383
70	0xbd1e449b	-0.038639646
71	0x3d40e2ce	0.047091298
72	0xbc8256c0	-0.015910506
73	0x3b552d5b	0.0032528255
74	0x3be23e04	0.0069043655
75	0xba62c80f	-0.0008651027
76	0xbb0a37e2	-0.0021090438
77	0x37c57944	2.3540699e-05
78	0x3cf0d7f9	0.029399859
79	0x3d89beee	0.0672587
80	0x3ccab244	0.024743207
81	0xbd0dc8fd	-0.034615505
82	0xbd9857b0	-0.074386
83	0x3cadf815	0.021236459
84	0xbdd93a92	-0.106068745
85	0x3ce39e66	0.027785491
86	0x3c59f2ac	0.013302486
87	0x3dd9bf08	0.106321394
88	0x3d062913	0.032754015
89	0x3d103bf5	0.03521343
90	0x3dd93119	0.10605068
91	0xbab6a65f	-0.001393508
92	0xbd21d884	-0.039513126
93	0x3d06fa38	0.03295347
94	0x3cb80e7a	0.02246784
95	0xbb807a82	-0.003920854
96	0xba421722	-0.000740396
97	0x36f6dedc	7.3573156e-06
98	0xbad47d04	-0.0016211574
99	0x3afe24ea	0.0019389663
100	0xba701c01	-0.00091594463
101	0xba44d6de	-0.00075088243
102	0x3b6f7078	0.0036535542
103	0x3b2a3ba3	0.0025975488
104	0x396becd9	0.00022499579
105	0xb8aef65e	-8.342856e-05
106	0x3b34e395	0.002760147
107	0xba8c7203	-0.001071513
108	0x3883b3b7	6.280041e-05
109	0x39f38508	0.00046447688
110	0x3bc8695c	0.0061160754
111	0x3834f651	4.3144744e-05
112	0x3814ac41	3.5446374e-05
113	0x3739b25b	1.1068386e-05
114	0xb785bf6a	-1.594397e-05
115	0x3bc77a67	0.0060875895
116	0x3b6540fa	0.0034981356
117	0xb993f0db	-0.00028217476
118	0xbbbd4f38	-0.005777266
119	0x38a9f5a9	8.104306e-05
120	0xb83dfe2a	-4.529782e-05
121	0x3981c5a4	0.0002475205
122	0xba5a7a4a	-0.00083342625
123	0x37c51989	2.349612e-05
124	0xbad861ab	-0.00165086
125	0xbb55295e	-0.0032525877
126	0xbbc841d9	-0.0061113653
127	0x388f6b16	6.838718e-05
128	0x3b24b4d9	0.0025132208
129	0xb862d37f	-5.407957e-05
130	0xb84149d3	-4.608354e-05
131	0x359cd1be	1.1683949e-06
132	0x39dc377d	0.00042003012
133	0x3b1e3139	0.0024138226
134	0xbab2cfbd	-0.0013642233
135	0xb9337d6b	-0.00017117492
136	0x3b96c7ab	0.004601439
137	0xba9b4e21	-0.0011848846
138	0x3ab1acee	0.0013555565
139	0xb7c15234	-2.3045672e-05
140	0x3a975efd	0.0011548694
141	0x392b4a5f	0.00016335536
142	0x390d9328	0.00013501628
143	0x3a485460	0.00076419674
144	0x3bbf0f7a	0.0058307024
145	0x3a5ba0f6	0.0008378172
146	0x383f3e0c	4.5595734e-05
147	0x3ac4701b	0.0014987023
148	0x3b5f88d5	0.0034108658
149	0x3a031b0d	0.00050012843
150	0x3bc869f0	0.0061161444
151	0x3ac1fdb1	0.0014800337
152	0xb857b871	-5.143177e-05
153	0x3ab21944	0.0013587852
154	0xbb33080b	-0.0027318026
155	0x3acd6c56	0.0015672545
156	0x394dbeaa	0.00019621351
157	0x3aad5e3e	0.0013226939
158	0xb7954271	-1.7793123e-05
159	0x3b6db33e	0.0036270167
160	0xba73d9c4	-0.0009302164
161	0xbb168f9d	-0.0022973784
162	0x3a3e9d3d	0.0007271355
163	0xbb5dbdb7	-0.0033835003
164	0x3b1db745	0.0024065536
165	0xb9b6624a	-0.00034786976
166	0x3b00bbdf	0.001964323
167	0xbb7f0163	-0.0038910739
168	0x3abf51a0	0.001459647
169	0xbae6ea53	-0.0017617441
170	0xba8d22cd	-0.0010767818
171	0xb91ca12c	-0.0001493736
172	0xb9434d9e	-0.00018625564
173	0x381ed4a4	3.7868173e-05
174	0xbb9f0ab4	-0.004853571
175	0xbbceed4a	-0.006314908
176	0x3b07c083	0.002071411
177	0xba23df69	-0.0006251247
178	0x3baa902e	0.005205176
179	0x3af89f78	0.0018968424
180	0x3bc86faf	0.0061168293
181	0xbaaef9e4	-0.001334962
182	0x3882c272	6.235101e-05
183	0xbbc8beec	-0.0061262753
184	0xbb7f2347	-0.003893094
185	0xba83c02b	-0.0010051777
186	0xbbc86b0a	-0.0061162757
187	0xb8944f6f	-7.0719856e-05
188	0x3b289124	0.0025721276
189	0xbb713207	-0.00368035
190	0xbb9ebbe8	-0.0048441775
191	0x3af48e75	0.0018658178
192	0xbd01a740	-0.031653643
193	0x3a500b62	0.00079362665
194	0x3d03af28	0.032149464
195	0xbc515378	-0.012776248
196	0x3cd20bd2	0.025640402
197	0x3b82ea80	0.0039952397
198	0xbd4403c3	-0.04785515
199	0xbc2b6f37	-0.010463527
200	0xbd0f92d5	-0.03505214
201	0xbba57789	-0.00504965
202	0xbddb9ed0	-0.107236505
203	0xbcee3554	-0.029078163
204	0xb9c1912b	-0.00036919987
205	0x3a8a40aa	0.0010547836
206	0xbdc2d4b6	-0.09513228
207	0x39d828fb	0.00041229263
208	0xbb984387	-0.0046467218
209	0xbb8d7ad5	-0.0043176212
210	0x3bc35e95	0.005962203
211	0xbcebf04a	-0.028801102
212	0xbc51921b	-0.012791182
213	0x3d2c192e	0.0420162
214	0x3dde3220	0.10849404
215	0x3a96573e	0.0011470092
216	0x39a4a786	0.00031405332
217	0x3aff1c7c	0.0019463445
218	0xbcee1cc8	-0.029066458
219	0x3b92a2b1	0.0044749607
220	0x3ca49f89	0.020095604
221	0x3cef9c9c	0.029249482
222	0x3dc43868	0.09581071
223	0xba5df7d6	-0.00084674114
224	0xbd0baf4e	-0.03410273
225	0x3a8c7a59	0.0010717615
226	0xbba3ceef	-0.0049990336
227	0x3caf5bfd	0.021406168
228	0x3cdabc08	0.026700988
229	0xbbedca3a	-0.0072567733
230	0x3cb9c7db	0.022678306
231	0x3bb8b948	0.0056373216
232	0xbd8341a5	-0.06409005
233	0x3d1fadba	0.038984038
234	0xbcd78b69	-0.026311593
235	0x39b1d70c	0.00033920293
236	0xbbc81bdc	-0.0061068367
237	0x3af464fa	0.0018645816
238	0xba3075fa	-0.0006731447
239	0x3c80434c	0.01565709
240	0xbd68c177	-0.056825127
241	0x3d12e27c	0.035860524
242	0xbb30859c	-0.0026935106
243	0xbaf8f085	-0.0018992579
244	0x3a9412b4	0.0011297078
245	0xbc8d821d	-0.017273957
246	0xbdc36d90	-0.09542382
247	0xbd13dbbd	-0.03609823
248	0x3b36c726	0.0027889698
249	0x3d06c317	0.032900896
250	0xbb833592	-0.004004189
251	0xbd012c2c	-0.031536266
252	0xbb0a5257	-0.0021106207
253	0xbcb7f1a1	-0.022454085
254	0x3b0cb82f	0.0021472087
255	0xbc8d66a9	-0.017260866

rios_f.RIOS_H.rnn_cell1.bias_ih f4 [384]
0	0x3df7dae3	0.12102296
1	0xbbd07638	-0.006361749
2	0x3e3e48bd	0.18582435
3	0x3e0042c8	0.12525475
4	0x3dd6f4dd	0.10495923
5	0x3e17e6a4	0.14834076
6	0x3e7e19a2	0.24814466
7	0x3d041a70	0.032251775
8	0x3e01f9a1	0.12692882
9	0x3d9a8b82	0.0754614
10	0x3e58c4ff	0.21168898
11	0x3e84eeed	0.25963536
12	0xbc0fa9f2	-0.008768545
13	0x3e713d28	0.23558486
14	0x3e067ed7	0.13134323
15	0xbbe6b8a1	-0.0070410524
16	0xbc17f92a	-0.009275714
17	0xbc0865fb	-0.008325095
18	0xbc51ef35	-0.012813379
19	0x3e383e67	0.17992555
20	0x3e21b126	0.15790233
21	0x3e0d758e	0.13814375
22	0x3f08873c	0.5333135
23	0xbbfd032c	-0.0077213254
24	0xbbddf755	-0.006773869
25	0xbc16a18a	-0.009193787
26	0x3e664024	0.22485405
27	0xbbeb1ed8	-0.0071753077
28	0x3dc0ca8f	0.09413635
29	0x3dfb19e1	0.122607954
30	0x3e0a0d36	0.13481602
31	0xba9d5be7	-0.0012005538
32	0x3e81e972	0.25373417
33	0xbbb09710	-0.005389102
34	0xbc94139a	-0.018075753
35	0x3e4d5313	0.20051222
36	0x3db71553	0.08939614
37	0x3d919fd3	0.07110562
38	0x3dd01a09	0.10161216
39	0xbc3d3f6b	-0.011550765
40	0x3e78fec1	0.24315931
41	0x3e704bec	0.23466462
42	0x3e46bc58	0.19407785
43	0xbbb20190	-0.005432315
44	0x3da6ed48	0.081507266
45	0x3f12d71a	0.5735947
46	0xbc242d42	-0.010020556
47	0x3dbe1643	0.0928159
48	0x3e816125	0.25269428
49	0x3e4163e3	0.1888576
50	0xbc026a35	-0.007959892
51	0x3dad6475	0.08466426
52	0x3ece4245	0.40284935
53	0x3da41333	0.080114745
54	0x3e07c403	0.13258366
55	0x3d8ef2b1	0.069798835
56	0xbb350eca	-0.0027627223
57	0x3e118752	0.14211777
58	0x3db3e9c9	0.08784825
59	0x3e18064e	0.14846155
60	0xbbb91cae	-0.005649171
61	0x3d9aa56e	0.075510845
62	0xbb9ffa05	-0.0048820996
63	0x3e0900d4	0.13379222
64	0x3e25443a	0.16139308
65	0x3e927003	0.28601083
66	0x3df67562	0.12034108
67	0x3dc1a07c	0.09454438
68	0x3e531e12	0.2061694
69	0x3e1baf2e	0.15203544
70	0x3dfc27c8	0.12312275
71	0x3df7eaad	0.12105308
72	0x3df64725	0.120252885
73	0x3dfe4c25	0.12416867
74	0x3e0e396b	0.1388909
75	0xbc51c0e5	-0.012802337
76	0xbc1f2dce	-0.0097155105
77	0xbbdc2a24	-0.0067188907
78	0x3e121ea7	0.14269505
79	0x3e999d37	0.30002758
80	0x3d0faaad	0.03507488
81	0x3e26f2d9	0.16303577
82	0x3e5005bc	0.20314687
83	0x3e2a69dc	0.16641945
84	0x3e068002	0.13134769
85	0x3e8dc074	0.27685893
86	0x3e5f1f1a	0.21789208
87	0x3e023282	0.1271458
88	0x3e9293df	0.28628442
89	0x3df1b8e4	0.11802843
90	0x3e071691	0.13192202
91	0xbba9c80e	-0.005181319
92	0x3de31a5a	0.110890105
93	0x3e1cb187	0.15302096
94	0x3dd70182	0.104983345
95	0x3db16277	0.08661359
96	0x3d8a20c4	0.06744531
97	0xbbc4d25b	-0.0060065216
98	0x3d9613f9	0.07328028
99	0x3dcb6f64	0.099333555
100	0x3dc6c914	0.09706321
101	0x3dc7a1fc	0.09747693
102	0x3e201c39	0.15635766
103	0x3deda3aa	0.11603482
104	0x3da3057b	0.0796003
105	0xbbcdd3fb	-0.0062813736
106	0x3dd94878	0.106095254
107	0x3dd7752c	0.10520396
108	0xbbea16b3	-0.0071438192
109	0xbc2a26aa	-0.010385195
110	0x3e1b1cca	0.15147701
111	0xbbbd6aea	-0.0057805674
112	0xbbe22fe5	-0.006902682
113	0xbbe747ad	-0.007058105
114	0xbc1af771	-0.009458409
115	0x3dee4029	0.11633331
116	0x3dcb8505	0.09937481
117	0x3dca8965	0.09889487
118	0x3e629c2e	0.2212989
119	0xbbcca3b7	-0.0062451023
120	0xbbae7a05	-0.0053246045
121	0xbbf5ad9d	-0.007497503
122	0x3e1fff49	0.15624727
123	0xbbbfca25	-0.005852955
124	0x3da6e84f	0.08149778
125	0x3d91a768	0.07112008
126	0x3e1a8b36	0.15092167
127	0xba843bf1	-0.0010088665
128	0x3e23061f	0.15920304
129	0xbb76a0b8	-0.0037632417
130	0xbc5f6072	-0.013633834
131	0x3d3342cb	0.04376487
132	0x3dec428e	0.11536132
133	0x3da703a4	0.08154991
134	0x3e118285	0.14209945
135	0xbc09af1f	-0.0084035685
136	0x3d4f35a4	0.050588265
137	0x3db83b16	0.08995645
138	0x3d8b62de	0.06805967
139	0xbb99c4be	-0.004692643
140	0x3de949c0	0.1139102
141	0xbe52c176	-0.20581612
142	0xbc120294	-0.0089117475
143	0x3db20a9d	0.086934306
144	0x3e44c3b4	0.1921528
145	0x3d035e92	0.03207261
146	0xbbe5fa8e	-0.007018394
147	0x3dbc9fa7	0.09210139
148	0x3d80b401	0.06284333
149	0x3dec0c59	0.11525793
150	0x3e1b22a5	0.15149935
151	0x3de84677	0.11341565
152	0xbad2c7f2	-0.0016081317
153	0x3d365c94	0.044521883
154	0x3e2597be	0.16171166
155	0x3d92cb05	0.07167629
156	0xbb9b0e7a	-0.0047319504
157	0x3e100740	0.14065266
158	0xbb8a6a37	-0.0042240876
159	0x3e0a1dbd	0.13487907
160	0x3dd6ffbe	0.10497998
161	0x3e39b33a	0.18134776
162	0x3e1ca3b9	0.1529683
163	0x3dd542b4	0.10413113
164	0x3da60a92	0.08107485
165	0x3d9e0ac9	0.07716901
166	0x3dbdcd36	0.092676565
167	0x3dff37ac	0.124617904
168	0x3dd929fa	0.106037095
169	0x3dbdf49e	0.09275173
170	0x3da0cefb	0.078519784
171	0xbc0cb38a	-0.008587727
172	0xbbf528aa	-0.007481654
173	0xbbb2cd25	-0.005456584
174	0x3dd4f5fd	0.10398481
175	0x3e09e595	0.13466485
176	0x3e072a69	0.13199772
177	0x3dcdf1bb	0.10055872
178	0x3e0ba558	0.13637292
179	0x3d9df3ca	0.07712515
180	0x3e1b4a8a	0.15165153
181	0x3dcbf4e6	0.0995882
182	0x3dd86154	0.10565439
183	0x3e1c971f	0.15292023
184	0xbe024ecd	-0.12725373
185	0x3e1a8dcf	0.15093158
186	0x3e1afafb	0.15134804
187	0xbb9b5b49	-0.0047411066
188	0x3db1f2ee	0.08688913
189	0x3dfb99ac	0.1228517
190	0x3e145c39	0.14488305
191	0x3dc69148	0.09695679
192	0xbc8302a0	-0.015992463
193	0xbb6b670e	-0.003591958
194	0x3d1edfcc	0.038787648
195	0xbdab250e	-0.08356677
196	0x3e20d4db	0.15706198
197	0xbdaf58fe	-0.08561896
198	0xbdaed85f	-0.08537363
199	0xbd8b80c9	-0.06811673
200	0x3c47e936	0.012201598
201	0xbe0a0e94	-0.13482124
202	0xbe801643	-0.25016984
203	0xbe2d0072	-0.16894701
204	0x39133189	0.00014037466
205	0x3d4691e2	0.04847897
206	0xbe742db5	-0.23845561
207	0xb98bb744	-0.0002664869
208	0x3b59e420	0.0033247545
209	0x3b2613de	0.0025341432
210	0xbb19f28b	-0.0023490514
211	0xbda0e692	-0.07856478
212	0x3c47d55b	0.012196864
213	0xbc64df42	-0.013969244
214	0x3e7b3c3f	0.24534701
215	0x39a447af	0.00031333926
216	0xbb3a8e1f	-0.0028466058
217	0xba295540	-0.00064595416
218	0xba1610a5	-0.0005724526
219	0xbade7d73	-0.0016974643
220	0x3daef472	0.08542718
221	0x3da0608c	0.07830915
222	0x3e805dd9	0.250716
223	0x39bf754f	0.0003651776
224	0x3c47629d	0.012169507
225	0xbac58cd7	-0.0015071881
226	0x3adbba42	0.0016763883
227	0x3e4d0d9d	0.20024724
228	0xbddb6b7e	-0.10713862
229	0xbce79c1f	-0.028272687
230	0xbc4b006a	-0.012390235
231	0xbb26d4c8	-0.0025456417
232	0xbea21f6d	-0.316646
233	0xbe3fbf46	-0.18725309
234	0xbd584d0a	-0.052807845
235	0x3985eba2	0.00025543297
236	0x3d5b5f98	0.053557962
237	0xbda1f7eb	-0.07908615
238	0x3a037efd	0.0005016176
239	0x3c04c3bd	0.008103308
240	0xbd9f099b	-0.07765504
241	0x3e72fa32	0.23728254
242	0x3ac6ad3a	0.0015157827
243	0xbd10ee57	-0.03538355
244	0x3ed3c826	0.4136364
245	0xbdca3144	-0.09872678
246	0xbe78b795	-0.24288781
247	0xbda58219	-0.08081455
248	0xb9cc7b95	-0.00039001988
249	0xbd589353	-0.052874874
250	0x3dc1c8d8	0.09462136
251	0xbcd37946	-0.025814664
252	0x3b8be718	0.004269492
253	0xbd4b39b3	-0.049615573
254	0xbb750a24	-0.0037390077
255	0x3e02f5e6	0.12789115
