BRIOS/models/model_file/biros_base/test_batch.pt (torch, 628066 bytes, 26 tensors)

rios_f.RIOS_H.rnn_cell0.weight_ih f4 [384, 2]
0	0xbcb943a0	-0.022615254
1	0xbec7646d	-0.38943806
2	0x325f0c37	1.2983086e-08
3	0xb2a32042	-1.8990367e-08
4	0xb7c0d66b	-2.298803e-05
5	0x37eae9ad	2.8003788e-05
6	0x3c1b1918	0.009466432
7	0x3a98e075	0.0011663573
8	0x3b3536fb	0.002765118
9	0x3a4784fe	0.0007611065
10	0x36dcd95a	6.581814e-06
11	0x35d5cf54	1.5930077e-06
12	0x39c75b39	0.00038024204
13	0xb7a652f2	-1.9827366e-05
14	0x3c219830	0.0098629445
15	0x395ba95c	0.00020948559
16	0x3a5d1e4b	0.0008434995
17	0x389ad169	7.382298e-05
18	0x3b530492	0.003219877
19	0xba744533	-0.0009318173
20	0x38b8883f	8.7991815e-05
21	0x38229e94	3.8771497e-05
22	0x3d49f6dd	0.049307693
23	0x3bfaa9fd	0.0076496587
24	0x3e1681de	0.14697978
25	0x3da31c20	0.07964349
26	0x3ba721df	0.0051004733
27	0x3a7257d7	0.00092446565
28	0xb2acc391	-2.0112369e-08
29	0xb2c9d711	-2.349728e-08
30	0x3d024b62	0.031810172
31	0x3c04207a	0.008064384
32	0x3a6fba53	0.0009144891
33	0x39fad224	0.00047840283
34	0xb49aa7b6	-2.880676e-07
35	0x36bdc1c9	5.6551985e-06
36	0xb623f472	-2.4431179e-06
37	0x36ae3050	5.1912284e-06
38	0x33880dfc	6.335537e-08
39	0xb358c239	-5.0468064e-08
40	0x3c62c3ed	0.013840658
41	0xb92eb5bd	-0.00016661636
42	0x3d1615e0	0.036641955
43	0x3a47af06	0.0007617328
44	0x3d4d7f6b	0.050170343
45	0xbb0e72f5	-0.0021736
46	0x3e1d7a0e	0.15378591
47	0x3d391a01	0.045190815
48	0x3c20ccfe	0.009814499
49	0x3993d998	0.00028200145
50	0x3e24404c	0.16040152
51	0x3d54c38d	0.051944304
52	0x329a5051	1.7964483e-08
53	0xb32de008	-4.0483457e-08
54	0x3866294e	5.487474e-05
55	0xb73afa21	-1.1144702e-05
56	0x38e85f04	0.0001108032
57	0x37f1f2bf	2.8842476e-05
58	0x37e205f4	2.6944072e-05
59	0x369a3484	4.5956713e-06
60	0x3c0dc5c1	0.008653105
61	0x3aa4f197	0.0012584206
62	0x3b1e7002	0.0024175649
63	0xba178702	-0.00057803106
64	0x3a839ab3	0.0010040611
65	0x39f255cc	0.0004622176
66	0x3e32d279	0.17463101
67	0x3dee782e	0.11644016
68	0x3e4e563f	0.20150088
69	0x3e3b1009	0.18267836
70	0x3d3f5b60	0.046718
71	0x3ad8ca24	0.0016539735
72	0x3bb8275f	0.005619928
73	0xb9983377	-0.00029030044
74	0x36663e46	3.4308919e-06
75	0xb592a6c5	-1.0926384e-06
76	0x3e0822c5	0.13294514
77	0x3d1b2830	0.037880123
78	0x3ae2ce09	0.0017303835
79	0x35947fad	1.1064018e-06
80	0x3c41bd3f	0.011824905
81	0xbb5dee60	-0.0033864006
82	0x3e51b7eb	0.20480315
83	0x3e2792d4	0.16364604
84	0x3db49362	0.088171735
85	0x3b1f78c3	0.0024333454
86	0x3d0c0ea0	0.034193635
87	0xba6a31a5	-0.0008933789
88	0x3da5a7ce	0.08088647
89	0x3c281211	0.010258214
90	0x39bac489	0.00035623115
91	0x381ffb5a	3.8142643e-05
92	0x35d22c82	1.5659173e-06
93	0xb44ab6ed	-1.8879264e-07
94	0x3bd2d15e	0.00643365
95	0xb9dd15b5	-0.00042168578
96	0x3ba71370	0.0050987527
97	0xb9b12352	-0.00033786386
98	0x3c7b280b	0.015329371
99	0x3b0fef35	0.0021962647
100	0x3d7ef787	0.06224778
101	0x3c78228a	0.0151449535
102	0x3d045ec6	0.032316945
103	0x3b98bdc0	0.004661292
104	0x3a538046	0.00080681255
105	0x39eb1a99	0.0004484251
106	0x3db3d4a5	0.08780793
107	0x3d2dbe3d	0.042417753
108	0x3c3c3bda	0.011488879
109	0x38d9aaeb	0.00010379202
110	0x39ff5e0a	0.00048707455
111	0x387e9c90	6.070413e-05
112	0x38f965be	0.00011892196
113	0x37d4f327	2.5385596e-05
114	0x3d44510d	0.04792886
115	0xba807878	-0.0009801527
116	0x3e813dd2	0.25242478
117	0x3dcdccac	0.10048804
118	0x3ae302e3	0.0017319586
119	0x3a1e9eb4	0.000605087
120	0x3e090cd4	0.133838
121	0xbc32104a	-0.010868141
122	0x3a637887	0.0008677323
123	0x39752cee	0.00023381758
124	0x3cc9eb0b	0.02464821
125	0x392bb208	0.00016374153
126	0x371e832a	9.448073e-06
127	0xb61d379a	-2.3427187e-06
128	0x3b561bf0	0.003267046
129	0xb8819c44	-6.180306e-05
130	0x3e2d12d2	0.1690171
131	0x3d663e74	0.056211904
132	0xb64b3fe2	-3.0286542e-06
133	0x355c4030	8.204979e-07
134	0x3229a0df	9.8736725e-09
135	0xb30ccf14	-3.2784627e-08
136	0x3d066876	0.032814465
137	0x3c656808	0.014001854
138	0x3aaab3ac	0.0013023517
139	0x391f02db	0.00015164485
140	0x3a92be3f	0.0011195614
141	0x388813c2	6.4886655e-05
142	0x3c2c06d9	0.0104996795
143	0xba2c7baf	-0.00065797096
144	0x3ddaecd0	0.106897
145	0x3ca3df8c	0.020004056
146	0x3a452b8d	0.0007521443
147	0x39319d1d	0.00016938565
148	0x3b86d0b6	0.0041142358
149	0x3a1c8148	0.0005970192
150	0x3c35a9b4	0.011087824
151	0x3b910c93	0.004426548
152	0x3bdb60cd	0.006694889
153	0x3adfa4ed	0.0017062702
154	0x38d4744f	0.00010130612
155	0xb7a60589	-1.979132e-05
156	0x3e8c6b0c	0.2742542
157	0x3e28f390	0.16499162
158	0x3c4f09b4	0.012636591
159	0x3b5dfa98	0.003387129
160	0x3a451f61	0.00075196294
161	0xb9073d9f	-0.00012897559
162	0x39a263ee	0.000309735
163	0x38f83ca8	0.000118368596
164	0x3bd919e5	0.0066254013
165	0xb9dc5f12	-0.00042032503
166	0x3c42906f	0.011875256
167	0xba1e25b8	-0.0006032842
168	0x3ad9e4ae	0.0016623938
169	0x385d2cf5	5.2732375e-05
170	0x3cc8a199	0.024491118
171	0x3b64801f	0.0034866405
172	0x3bcff424	0.0063462425
173	0x3b107f65	0.002204859
174	0x30e05c8d	1.632445e-09
175	0x311e97ac	2.3078242e-09
176	0x3d870edd	0.06594632
177	0x3d65b8e9	0.056084547
178	0x3e00548a	0.12532249
179	0x3d389037	0.04505941
180	0x38267303	3.9684597e-05
181	0x36cc9467	6.09695e-06
182	0x3c8df59c	0.01732903
183	0x3c128a5e	0.008944122
184	0x3d2f367c	0.04277657
185	0xbbb6ccc2	-0.0055786083
186	0x3d14627f	0.036226746
187	0x3b521ee5	0.0032061872
188	0x3a2dbbf4	0.00066274335
189	0xb80933d7	-3.2711625e-05
190	0x3db686e7	0.08912449
191	0x3cc0980e	0.023510005
192	0xbe56ef87	-0.2098981
193	0xbd667918	-0.056267828
194	0xb75bc54e	-1.3099356e-05
195	0xb6cf1c99	-6.17241e-06
196	0x3b52968a	0.0032133185
197	0x3b5b3fa1	0.0033454674
198	0xb9b5b6fb	-0.0003465934
199	0x3d445876	0.047935925
200	0xbba47b0d	-0.0050195516
201	0x3aedce68	0.0018143179
202	0xba53f36a	-0.0008085283
203	0xb8f8789d	-0.000118480275
204	0xb79bdeb6	-1.8581148e-05
205	0xb78e8b90	-1.6992708e-05
206	0x3bf92cfa	0.0076042386
207	0xbc3e3583	-0.011609438
208	0xbc0d636a	-0.008629659
209	0xbaa343e1	-0.0012456143
210	0xbb203a5d	-0.002444885
211	0xbb82512e	-0.0039769625
212	0x3b48038a	0.0030519688
213	0x3a14f227	0.00056818355
214	0x3c95f1fb	0.018303862
215	0x3c26c579	0.010178917
216	0x3c5ea512	0.0135891605
217	0x3cc464ff	0.02397394
218	0x3c9ca74f	0.019122748
219	0x3c04ad21	0.008097918
220	0xb754dfd6	-1.2688301e-05
221	0x3718a3b1	9.098018e-06
222	0x3d47420e	0.04864698
223	0x3c952ad7	0.018208904
224	0xbc02e556	-0.007989248
225	0x3be1eb9d	0.0068945424
226	0x3933d848	0.00017151341
227	0xb8e6fb72	-0.0001101409
228	0xb89821da	-7.25423e-05
229	0xb9c87498	-0.00038233842
230	0xb71821b3	-9.067752e-06
231	0xb413e66e	-1.3774272e-07
232	0x3c4340bb	0.011917288
233	0xbc64f79b	-0.013975049
234	0xbd15b7be	-0.036552183
235	0xbb5f1331	-0.0034038539
236	0x3e530e2b	0.20610873
237	0x3d1a1038	0.037613124
238	0xbd6265de	-0.05527293
239	0xbcb232a3	-0.021752661
240	0xbb2abe40	-0.002605334
241	0xbb6403fd	-0.0034792416
242	0x3b45504b	0.0030107673
243	0xbdade8ce	-0.084916696
244	0xb7ebf7c6	-2.8129562e-05
245	0xb69d8be9	-4.6952523e-06
246	0x39b76b5b	0.00034984466
247	0x39acf358	0.00032987702
248	0xbb6bec70	-0.0035999082
249	0xba503ac3	-0.00079433265
250	0xbabf4c59	-0.0014594897
251	0x3916f5da	0.00014396702
252	0x3a44390b	0.00074853067
253	0xb810bc27	-3.4507506e-05
254	0xba3ae5b9	-0.0007129568
255	0xba15faea	-0.0005721288

rios_f.RIOS_H.rnn_cell0.weight_hh f4 [384, 96]
0	0x3cf340f5	0.02969406
1	0xbd176fbf	-0.036971804
2	0x3d04f784	0.03246261
3	0x3deddc94	0.116143376
4	0x3db64256	0.08899371
5	0xbce0a435	-0.02742205
6	0xb90bed74	-0.00013344531
7	0x3ddec2b7	0.10876983
8	0x3d1cfae5	0.03832521
9	0x3c8ed39c	0.017434888
10	0xbcf9434f	-0.030427603
11	0x3d16402f	0.036682304
12	0xbdb12cb3	-0.08651104
13	0x3dd870d2	0.10568394
14	0x3d36f649	0.04466847
15	0xbd9c5922	-0.07634188
16	0x3b2f0c34	0.0026710154
17	0xbc4a1b2d	-0.012335581
18	0xbc5ebbd2	-0.013594585
19	0x3dbc93c0	0.092078686
20	0xbd716863	-0.05893744
21	0xbd69603e	-0.05697655
22	0xbdd1ef17	-0.10250681
23	0xbd5b4a0b	-0.05353741
24	0xbbd8754f	-0.006605781
25	0xbc800c20	-0.015630782
26	0x3d157ad4	0.03649409
27	0x3c436a28	0.011927165
28	0xbda7aa4e	-0.0818678
29	0x3d94e777	0.07270711
30	0x3a87c99a	0.0010359765
31	0x3b8b1523	0.004244463
32	0x3d8aefde	0.06784032
33	0xbd8aad58	-0.06771344
34	0xbd7d5674	-0.061850026
35	0x3d8b20b5	0.06793348
36	0x3d3ad8d1	0.04561693
37	0xbd822745	-0.06355146
38	0x3c344cef	0.0110046705
39	0xba2cfc26	-0.00065988523
40	0x3c935edc	0.017989568
41	0xbd8f515d	-0.06997941
42	0xbc3722d1	-0.0111777345
43	0x3b090fb3	0.0020913898
44	0xbcd43a52	-0.025906716
45	0xbd8f1b1a	-0.06987591
46	0xbdbb728c	-0.091527075
47	0x3d97be8b	0.0740939
48	0x3aa56f8b	0.0012621743
49	0x3d562f7c	0.05229138
50	0x3d17293f	0.03690457
51	0xbc591bf0	-0.01325129
52	0x3d9a37f5	0.07530204
53	0xbd780ebb	-0.060560923
54	0xb91e7c18	-0.00015114283
55	0x38d82691	0.00010306866
56	0x3d8fe6ba	0.070264295
57	0xbc5f4a79	-0.0136285955
58	0x3e6a0e94	0.22857124
59	0x3ded8e31	0.115993865
60	0xbd597ef0	-0.053099573
61	0xbdc2b19b	-0.09506532
62	0x3d8fcc9f	0.0702145
63	0x3dd64467	0.104622655
64	0xbdd5b71f	-0.10435318
65	0x3d70f376	0.058825932
66	0x39d77bb1	0.00041100153
67	0x3daca9d2	0.08430828
68	0x3da95fdc	0.08270237
69	0x3d9724c6	0.07380061
70	0xbc4ecce5	-0.012622093
71	0xbb8349ec	-0.004006615
72	0x3d65b6cd	0.056082536
73	0x3d620489	0.055180106
74	0xbdf4bd9a	-0.11950226
75	0xbdb7a0fc	-0.08966252
76	0xbd5f10ec	-0.054459497
77	0xbd0594c9	-0.032612596
78	0xbc2ef266	-0.0106779095
79	0xbd197abd	-0.037470568
80	0xbd46a3d2	-0.048496075
81	0x3d80f8a8	0.062974274
82	0x3e1e248d	0.1544363
83	0x3d0447cc	0.032295033
84	0xbd9fbd3c	-0.077997655
85	0x3b76ad7e	0.003764003
86	0x3d9493eb	0.072547756
87	0xb8149f81	-3.54345e-05
88	0xbe1d672c	-0.15371388
89	0x3d29b527	0.041432526
90	0xbd96ece4	-0.07369402
91	0xbb64f47f	-0.003493577
92	0xbc8e61e5	-0.017380664
93	0x3de0aa7c	0.10970017
94	0x3ab552a5	0.0013833834
95	0x3bf5f5e0	0.007506117
96	0x3281b7f6	1.5101232e-08
97	0x32dad3ff	2.5474945e-08
98	0xb2c962e0	-2.3444443e-08
99	0xb2e46c6e	-2.6592001e-08
100	0xb2d67021	-2.496387e-08
101	0x32d15b46	2.4372309e-08
102	0x2ee177b8	1.0253082e-10
103	0x338476ef	6.168363e-08
104	0xb2ce3bec	-2.4008806e-08
105	0xb239a02f	-1.0804839e-08
106	0x32f55a19	2.8562726e-08
107	0x32b438a7	2.098052e-08
108	0x33033a0f	3.055362e-08
109	0xb2d28da9	-2.4511637e-08
110	0xb365b11f	-5.3479308e-08
111	0x32d7c817	2.5120285e-08
112	0xb30fdeef	-3.349754e-08
113	0xb229c51a	-9.88191e-09
114	0x333299cc	4.1583732e-08
115	0x310e12de	2.0674444e-09
116	0xb358a7d3	-5.0444054e-08
117	0x32901379	1.6772661e-08
118	0x32d61bcb	2.4925518e-08
119	0xb2419afb	-1.1269317e-08
120	0x319eb20e	4.6186477e-09
121	0xb30421f9	-3.0764543e-08
122	0xb2c5c839	-2.302487e-08
123	0xb1da9e2a	-6.362616e-09
124	0x32dd9ec4	2.5799984e-08
125	0xb2cdbb86	-2.3950417e-08
126	0xb0e73192	-1.6821551e-09
127	0xb11b77e1	-2.2623612e-09
128	0xb2d5fc01	-2.4911062e-08
129	0x3384ffce	6.1932596e-08
130	0x32ae8072	2.0314676e-08
131	0xb1ec25cb	-6.8728006e-09
132	0xb2d372ce	-2.461584e-08
133	0x30636a83	8.273348e-10
134	0xb10ff08e	-2.0945978e-09
135	0xb27f0ab5	-1.4845388e-08
136	0xb28db26f	-1.6495703e-08
137	0x327ee5c4	1.48369885e-08
138	0x313c12d9	2.7368314e-09
139	0xb1321150	-2.591225e-09
140	0x3282374a	1.5159134e-08
141	0x32d2819b	2.4506155e-08
142	0x32c662f5	2.3095234e-08
143	0xb2c78063	-2.3225033e-08
144	0xb085cd44	-9.735364e-10
145	0xb2c5b8b6	-2.3017815e-08
146	0xb25c1473	-1.2810335e-08
147	0xb1edb162	-6.917774e-09
148	0xb3a5a992	-7.714256e-08
149	0x32894480	1.598005e-08
150	0xb2b023d8	-2.0505396e-08
151	0x2d933902	1.6737282e-11
152	0xb2d4168d	-2.4690303e-08
153	0x3389f806	6.424675e-08
154	0x32a11a2f	1.8754774e-08
155	0xb2d33927	-2.4589623e-08
156	0x33277563	3.898948e-08
157	0x32d4e1d3	2.4782741e-08
158	0xb2d6c2b6	-2.5001423e-08
159	0xb2c16560	-2.2514257e-08
160	0x3317a261	3.530511e-08
161	0xb231e95f	-1.0355818e-08
162	0x2f9164fc	2.64471e-10
163	0xb2d4cfd3	-2.4774556e-08
164	0xb27281e3	-1.4115787e-08
165	0xb2cd3727	-2.3890221e-08
166	0x32042297	7.691276e-09
167	0xb33c0c26	-4.378321e-08
168	0xae1ad296	-3.5202584e-11
169	0xb2253aba	-9.617617e-09
170	0x3391f3b9	6.7964216e-08
171	0x32d69a0b	2.498293e-08
172	0x32aeaa8b	2.033382e-08
173	0xb145909a	-2.874947e-09
174	0xb2ad53c6	-2.0177946e-08
175	0xb18c3f2f	-4.0817194e-09
176	0x32cc74de	2.380187e-08
177	0xb2b2dc0f	-2.0821998e-08
178	0xb134762e	-2.6260625e-09
179	0x32543302	1.2351622e-08
180	0x32da5ab5	2.5419789e-08
181	0xb253c853	-1.2327365e-08
182	0xb2beb1e7	-2.2199812e-08
183	0xaebf2ed6	-8.693994e-11
184	0xb229b305	-9.877799e-09
185	0x33b522ef	8.434824e-08
186	0x32ca757c	2.356932e-08
187	0x33aad209	7.954447e-08
188	0x31ce46d6	6.003442e-09
189	0xb2049638	-7.717567e-09
190	0xb10f9db1	-2.0898876e-09
191	0xb0bb4638	-1.3625998e-09
192	0xb64cfde8	-3.0546162e-06
193	0x37cf75ed	2.4731236e-05
194	0x378e653c	1.697486e-05
195	0x3794d571	1.7742366e-05
196	0x3788b37a	1.6296039e-05
197	0xb7a0ffc4	-1.9192586e-05
198	0xb540e35e	-7.1856437e-07
199	0x36a5453b	4.9254427e-06
200	0x378948e0	1.6365608e-05
201	0xb702e6c0	-7.8023295e-06
202	0xb6f272fe	-7.225549e-06
203	0xb7020bd6	-7.75136e-06
204	0xb46040c8	-2.0885193e-07
205	0x378d54f6	1.6848073e-05
206	0x37bd8a37	2.2594917e-05
207	0xb78a3160	-1.6473874e-05
208	0xb6a22cee	-4.8332067e-06
209	0xb79561fd	-1.7807813e-05
210	0xb79e2181	-1.885067e-05
211	0xb5997727	-1.1434066e-06
212	0x3640d7a6	2.8735753e-06
213	0xb72d1d53	-1.0318431e-05
214	0xb790fd9b	-1.7284232e-05
215	0x372c5c15	1.0273438e-05
216	0x348eff32	2.663524e-07
217	0x379a5316	1.839692e-05
218	0x377988a6	1.48733725e-05
219	0xb7014715	-7.705549e-06
220	0xb7a20f9d	-1.9319175e-05
221	0x377ce6fe	1.50741525e-05
222	0xb6ac336a	-5.131985e-06
223	0xb6835f07	-3.915167e-06
224	0x377b23f5	1.4969138e-05
225	0x36a40270	4.8878646e-06
226	0xb6f282b8	-7.2273797e-06
227	0x379a535e	1.8397051e-05
228	0xb66a444b	-3.490847e-06
229	0x368e7e67	4.246645e-06
230	0xb7244046	-9.790127e-06
231	0xb6d2e2fb	-6.2849117e-06
232	0xb75933e9	-1.2946294e-05
233	0xb72c00e0	-1.0252203e-05
234	0x37392d1f	1.1037365e-05
235	0xb7286bba	-1.0038662e-05
236	0x36ff79e1	7.613781e-06
237	0xb7896a78	-1.6381251e-05
238	0xb78b7787	-1.662575e-05
239	0x374963b7	1.200375e-05
240	0xb619cd5e	-2.2918316e-06
241	0x3781ef66	1.5489477e-05
242	0x37037d32	7.837358e-06
243	0x37c4d419	2.3463786e-05
244	0x37ab82c8	2.0445688e-05
245	0xb73e3277	-1.1336632e-05
246	0x375381bc	1.2606786e-05
247	0x3636adb2	2.7221217e-06
248	0x3797c1e3	1.8090888e-05
249	0x371ea38b	9.455612e-06
250	0x36d1c1ca	6.2512454e-06
251	0x3785306a	1.587738e-05
252	0xb6101d6c	-2.1474798e-06
253	0xb78edc78	-1.7030383e-05
254	0x377f37f7	1.5212215e-05
255	0x369fae3b	4.7588524e-06

rios_f.RIOS_H.rnn_cell0.bias_ih f4 [384]
0	0x3e92a900	0.28644562
1	0xb2f1576a	-2.8095844e-08
2	0x380e46cd	3.3921377e-05
3	0x3c12d1da	0.008961165
4	0x3ae58277	0.0017510195
5	0x36924dbb	4.360188e-06
6	0x38f5eeb5	0.00011726973
7	0x3bfaeecd	0.007657862
8	0x3a0f01b2	0.000545527
9	0x3aca9308	0.0015455196
10	0x38fecb7b	0.00012149565
11	0x3c6b54c4	0.014363471
12	0x3e0dc5dd	0.1384501
13	0x3b6809f7	0.003540633
14	0xb3be0c39	-8.849788e-08
15	0x3cbad83d	0.022808189
16	0x3a4a6004	0.0007719996
17	0x3682511a	3.8837434e-06
18	0x36442f60	2.9233852e-06
19	0xb3ca4d95	-9.42047e-08
20	0x3bd9fa4b	0.0066521517
21	0x3ca5708f	0.020195274
22	0x3c9d5fc2	0.0192107
23	0x3dbf49ec	0.09340271
24	0x3b429ad1	0.0029694329
25	0x3dbe77b0	0.09300172
26	0xb3d7df55	-1.00523415e-07
27	0x37a31ce8	1.9444575e-05
28	0x38f39ad1	0.0001161598
29	0x37b8f137	2.2046834e-05
30	0xb9b2b9da	-0.00034089276
31	0x39f55443	0.0004679282
32	0x3a258700	0.0006314367
33	0x3db149be	0.08656643
34	0x3e419cf9	0.18907537
35	0x3c7c7ad3	0.015410143
36	0x3b3a605d	0.0028438785
37	0xb522f0f9	-6.0700364e-07
38	0x3da4e66a	0.080517605
39	0x3a10d54c	0.0005524948
40	0x3c472b06	0.012156254
41	0x3e41bdc4	0.18920046
42	0x3d49474e	0.049140267
43	0x3c15451f	0.009110718
44	0x3cab4218	0.02090554
45	0x39ae0f56	0.00033199292
46	0x3437bd6c	1.7112114e-07
47	0x3bbcf9c3	0.0057670786
48	0x3b0473ad	0.002021055
49	0x3c4580f3	0.01205467
50	0x3d6d819e	0.05798494
51	0x3c2bf26e	0.010494811
52	0x3a98cac8	0.0011657113
53	0x3d9474ec	0.072488636
54	0x3b1a1c92	0.0023515564
55	0x396c6380	0.0002254378
56	0x38ff0337	0.00012159946
57	0x3c4780d3	0.01217671
58	0x3e03c754	0.12869006
59	0x3ab0c4b5	0.0013486358
60	0x3d83cd82	0.06435682
61	0x3a6498b8	0.00087202666
62	0x3c6c5430	0.014424369
63	0x35f76310	1.8431765e-06
64	0x3acffb7b	0.0015867794
65	0x3da328f3	0.07966795
66	0x34e41db6	4.2489927e-07
67	0xb3b7c158	-8.5567706e-08
68	0x3cc4f713	0.024043595
69	0x3a78c43e	0.00094896916
70	0x39f17ee1	0.00046061634
71	0x3baee3f9	0.005337235
72	0x3d2947d1	0.041328255
73	0x399713a1	0.0002881559
74	0x3abd4450	0.0014439914
75	0x3b929fbe	0.004474609
76	0x3b167679	0.0022958799
77	0x39888be5	0.0002604417
78	0x3e442df9	0.19158162
79	0x3b6176f4	0.0034403177
80	0x39e999a2	0.00044555689
81	0x39a7687e	0.00031930575
82	0x3b0edc50	0.0021798797
83	0x3b0350b4	0.0020037116
84	0x3a307920	0.0006731916
85	0x3b5b9215	0.003350382
86	0x3b40450d	0.0029338032
87	0x319de7a6	4.5956368e-09
88	0x3e0cf33f	0.13764666
89	0x3d9b6794	0.07588115
90	0x380ca834	3.3535252e-05
91	0x3c4cddd4	0.01250406
92	0x3c824900	0.01590395
93	0x3c8fcb04	0.01755286
94	0x39b7f586	0.0003508741
95	0x3d542cd1	0.051800553
96	0x3dc3b004	0.09555057
97	0xb7bb36e5	-2.23177e-05
98	0x3a21c049	0.00061703153
99	0xbc15a238	-0.009132914
100	0x3c7a0b91	0.015261547
101	0xb90274b5	-0.00012441243
102	0xb76ca6aa	-1.4105501e-05
103	0x3c1177b0	0.008878633
104	0x3b375b98	0.0027978178
105	0x3aa5f44f	0.0012661311
106	0xb9000c86	-0.00012211697
107	0xbbccf05a	-0.006254238
108	0xbbfa2777	-0.007634099
109	0x3cd5ac95	0.02608327
110	0xb6c22ef5	-5.787117e-06
111	0x3ce909c5	0.028447041
112	0x3b1412db	0.0022594247
113	0x38bbae74	8.949349e-05
114	0x37b87394	2.198833e-05
115	0xb7a554d0	-1.9709027e-05
116	0xbafdacbd	-0.0019353848
117	0xbbad693d	-0.0052920864
118	0x3cef8359	0.029237436
119	0xbc556c40	-0.013026297
120	0x39aa092c	0.0003243176
121	0x3cc86e9b	0.024466803
122	0xb807b4c0	-3.2354845e-05
123	0xb8320d20	-4.245073e-05
124	0xbaa896dc	-0.0012862342
125	0xb3925f92	-6.816039e-08
126	0x3a28f98a	0.00064458756
127	0x396ccd16	0.00022583114
128	0x37380484	1.0968306e-05
129	0xbc9c96c5	-0.019114861
130	0xbd49d4e3	-0.04927529
131	0xbc04a61c	-0.008096244
132	0xb8a22594	-7.7317614e-05
133	0x36e8d4f4	6.93893e-06
134	0xba8daf5e	-0.001080971
135	0xba6dd6c3	-0.00090728345
136	0x3b92dc20	0.0044818074
137	0xbd726b65	-0.05918445
138	0x3bf4dd7c	0.007472692
139	0x3b196830	0.0023408048
140	0x3bff3172	0.0077878768
141	0x3ac6b9d4	0.0015161582
142	0xb7eaa302	-2.797088e-05
143	0xbbefc495	-0.0073171356
144	0x39d6487e	0.00040871272
145	0xbbc60ec8	-0.0060442425
146	0xbc734515	-0.014848013
147	0x3bd1ab6b	0.0063986084
148	0xbb3e914b	-0.00290783
149	0x3d25d8a3	0.040489804
150	0x3b084b3f	0.0020796803
151	0x379e5e60	1.8879015e-05
152	0xbacc1b1f	-0.0015572048
153	0x3b1e6b6a	0.002417291
154	0x3c9830c9	0.01857795
155	0x3c032149	0.008003541
156	0xbb84da7c	-0.0040543657
157	0xb7a9d9c4	-2.0247775e-05
158	0xbd43906d	-0.047745157
159	0x39e6d02d	0.00044024122
160	0x3c230921	0.009950907
161	0xbd592e09	-0.05302242
162	0x36c51643	5.873649e-06
163	0xb7f6d53e	-2.9424784e-05
164	0x3cd57e8e	0.026061323
165	0x3b8e7bff	0.0043482776
166	0x38a1bdcd	7.7124314e-05
167	0x3b23f8ba	0.0025020079
168	0xbd87e28e	-0.06635009
169	0xba7adddd	-0.00095698034
170	0x3b226317	0.00247783
171	0xbc8de14c	-0.017319344
172	0xbc1e8d7c	-0.009677287
173	0x3b0eb652	0.0021776152
174	0xbc11b33b	-0.0088928295
175	0xbb634681	-0.0034679475
176	0xbb02bdab	-0.0019949477
177	0x3a229f05	0.00062035053
178	0x3a9e0be8	0.0012057992
179	0xbb21bf98	-0.002468085
180	0xbd0bf327	-0.034167435
181	0x3bbe1a3e	0.005801468
182	0xbbefd3c9	-0.007318948
183	0x33e1d7f8	1.05166635e-07
184	0x3d97cb7d	0.07411859
185	0x3d37ca51	0.04487068
186	0x37d5676a	2.5439735e-05
187	0x3cd53954	0.026028313
188	0xb9da18f2	-0.00041598786
189	0x3c409920	0.011755258
190	0x3854f6d8	5.077463e-05
191	0x3cc8bdc9	0.02450456
192	0x3d400f24	0.04688944
193	0xb84d8540	-4.8999907e-05
194	0x3687c9fc	4.0468276e-06
195	0xbd47a250	-0.048738778
196	0x3c58ce8e	0.01323284
197	0x3a2cf883	0.00065983104
198	0x3c1c815a	0.009552324
199	0xbcd0614d	-0.025437022
200	0xbcbbffc9	-0.022949116
201	0xbca9a7a7	-0.020709826
202	0xbc1e7fff	-0.009674071
203	0x3aeb4895	0.0017950708
204	0x3d3afeac	0.04565303
205	0xbcf8e61f	-0.030383168
206	0xb78d8ab8	-1.6873106e-05
207	0x3bbdb53d	0.0057894276
208	0x3c27a94a	0.010233233
209	0x396bd585	0.00022490889
210	0xb973aa3b	-0.00023237702
211	0xb85abab0	-5.2149117e-05
212	0x3d29e321	0.041476373
213	0xbcb1c582	-0.021700624
214	0x3d80ede4	0.06295374
215	0x3d950620	0.07276559
216	0x3d6cbb4c	0.057795808
217	0xbd27344e	-0.040821366
218	0xb84a8cd4	-4.829171e-05
219	0x3becfcd4	0.007232288
220	0x3ba4f82a	0.0050344663
221	0xbb31347c	-0.002703934
222	0x3d3c6472	0.04599423
223	0xbc4d9092	-0.012546675
224	0xbb8d3bcb	-0.0043101064
225	0x3d6e17b7	0.058128085
226	0x3d42c747	0.047553327
227	0xbd000217	-0.031251993
228	0xbcc853f3	-0.024454093
229	0xb9709a01	-0.00022945555
230	0x3b2ffb62	0.0026852717
231	0x3d0be9e9	0.03415862
232	0xbd4150f9	-0.047196362
233	0x3d114ca0	0.035473466
234	0xbc4478e9	-0.011991718
235	0x3cf4eb42	0.029897336
236	0x3d95fd2f	0.073236816
237	0xbbd3c0a7	-0.006462175
238	0x3922018c	0.000154501
239	0xbba11466	-0.0049157618
240	0x3c5c7fca	0.013458202
241	0x3d397e60	0.045286536
242	0x3d49cfd7	0.049270477
243	0xbd74cb1a	-0.059764005
244	0xbd0a8466	-0.03381767
245	0x3d32fe59	0.043699596
246	0xbcd0e91a	-0.025501776
247	0x3c6627fc	0.014047619
248	0xbbaa6a9a	-0.005200696
249	0xbd64b4c6	-0.05583646
250	0x3cc99005	0.024604807
251	0xbbc6bfea	-0.0060653584
252	0x3dd04840	0.101700306
253	0x3c7237fc	0.0147838555
254	0xbdac7aef	-0.08421885
255	0xba542fec	-0.0008094299

rios_f.RIOS_H.rnn_cell0.bias_hh f4 [384]
0	0x3e932b3b	0.2874392
1	0xb2f1576a	-2.8095844e-08
2	0x380e46cd	3.3921377e-05
3	0x3c12bd84	0.008956317
4	0x3ae58277	0.0017510195
5	0x36924dbb	4.360188e-06
6	0x38f5eeb5	0.00011726973
7	0x3bfaeecd	0.007657862
8	0x3a0f01b2	0.000545527
9	0x3aca9308	0.0015455196
10	0x38fecb7b	0.00012149565
11	0x3c6b83f1	0.014374719
12	0x3e031a7d	0.12803073
13	0x3b6809f7	0.003540633
14	0xb3be0c39	-8.849788e-08
15	0x3cbad834	0.022808172
16	0x3a4a6004	0.0007719996
17	0x3682511a	3.8837434e-06
18	0x36442f60	2.9233852e-06
19	0xb3ca4d95	-9.42047e-08
20	0x3bc8d5fd	0.006129025
21	0x3c933ef1	0.017974349
22	0x3c9d5fc2	0.0192107
23	0x3da64108	0.081178725
24	0x3b3f9364	0.0029232139
25	0x3dbb033c	0.09131476
26	0xb3d7df55	-1.00523415e-07
27	0x37a31ce8	1.9444575e-05
28	0x38f39ad1	0.0001161598
29	0x37b8f137	2.2046834e-05
30	0xb9a5fa5a	-0.0003165778
31	0x39f55443	0.0004679282
32	0x3a258700	0.0006314367
33	0x3dbc25cc	0.09186897
34	0x3e4368d4	0.19082958
35	0x3c745afd	0.014914271
36	0x3b3a605d	0.0028438785
37	0xb522f0f9	-6.0700364e-07
38	0x3db0fb1d	0.08641646
39	0x3a168e0d	0.0005743213
40	0x3c472b06	0.012156254
41	0x3e45327d	0.19257541
42	0x3d559e0e	0.052152686
43	0x3b38522d	0.0028125152
44	0x3caf86da	0.021426607
45	0x39ae0f56	0.00033199292
46	0x3437bd6c	1.7112114e-07
47	0x3bb9ac2d	0.005666277
48	0x3b04cbd1	0.0020263086
49	0x3c2e1d9c	0.010627177
50	0x3d6a5c86	0.057217143
51	0x3c2bbe33	0.010482359
52	0x3a98cac8	0.0011657113
53	0x3d9438c1	0.072373874
54	0x3b2f670b	0.00267643
55	0x396c6380	0.0002254378
56	0x38ff0337	0.00012159946
57	0x3c8061e7	0.015671683
58	0x3e03d4f0	0.12874198
59	0x3ab0c4b5	0.0013486358
60	0x3d83c746	0.06434493
61	0x3a6498b8	0.00087202666
62	0x3c91b348	0.017785683
63	0x35f76310	1.8431765e-06
64	0x3acffb99	0.0015867829
65	0x3da03232	0.07822074
66	0x34e41db6	4.2489927e-07
67	0xb3b7c158	-8.5567706e-08
68	0x3cd6665f	0.026171861
69	0x3a78c43e	0.00094896916
70	0x39f17ee1	0.00046061634
71	0x3baee3fa	0.0053372355
72	0x3d294f1a	0.041335203
73	0x399713a1	0.0002881559
74	0x3abd444f	0.0014439913
75	0x3b929df7	0.0044743973
76	0x3b16d09c	0.0023012524
77	0x39888be5	0.0002604417
78	0x3e37bd6e	0.17943355
79	0x3b617307	0.0034400837
80	0x39e9999f	0.0004455568
81	0x39a7687e	0.00031930575
82	0x3b0edc50	0.0021798797
83	0x3b0350b4	0.0020037116
84	0x3a3079d1	0.0006732019
85	0x3b58f6a8	0.0033106003
86	0x3b40450d	0.0029338032
87	0x319de7a6	4.5956368e-09
88	0x3de27677	0.110577516
89	0x3d9b68ae	0.075883254
90	0x380ca834	3.3535252e-05
91	0x3c4cdd3a	0.012503916
92	0x3c80dce0	0.015730321
93	0x3c8fc9da	0.017552305
94	0x39b7f586	0.0003508741
95	0x3d4d6862	0.050148375
96	0x3db7e8b6	0.08979933
97	0xb7bb36e5	-2.23177e-05
98	0x3a21c049	0.00061703153
99	0xbcb677f4	-0.022273995
100	0xbc20fe76	-0.009826293
101	0xb90274b2	-0.00012441239
102	0xb76ca6aa	-1.4105501e-05
103	0x3c0da67a	0.008645648
104	0xbb99a6ff	-0.004689097
105	0x3aa5f44f	0.0012661311
106	0xb900117f	-0.00012213549
107	0xbb289e04	-0.002572895
108	0xbc94405e	-0.018097099
109	0x3bcaada0	0.0061852485
110	0xb6c22ef5	-5.787117e-06
111	0x3ce499d8	0.02790539
112	0x3b137ccc	0.0022504805
113	0x38bbae74	8.949349e-05
114	0x37b87394	2.198833e-05
115	0xb7a554d0	-1.9709027e-05
116	0xbbfd66c2	-0.007733197
117	0xbc2133dc	-0.009839024
118	0x3cbacfa9	0.022804098
119	0x3ce2a3d6	0.027666014
120	0x39aa092c	0.0003243176
121	0xbd059e57	-0.032621708
122	0xb807b4c0	-3.2354845e-05
123	0xb8320d20	-4.245073e-05
124	0xba588416	-0.00082594284
125	0xb73c3b4a	-1.12194775e-05
126	0x3a28f98a	0.00064458756
127	0x396ccd16	0.00022583114
128	0x3b7fd8c8	0.0039039124
129	0xbc82cb8b	-0.015966197
130	0xbce9068a	-0.0284455
131	0xbccd495e	-0.025059398
132	0xb8a225a0	-7.73177e-05
133	0x36e8d4f4	6.93893e-06
134	0x38ceb62c	9.8567776e-05
135	0xba6ddd9c	-0.0009073855
136	0x3b949329	0.0045341444
137	0x3a91da8e	0.0011127756
138	0x3bf4ca90	0.0074704364
139	0x3b196830	0.0023408048
140	0x3c170d6f	0.009219511
141	0x39fe8488	0.000485454
142	0xb7eaa302	-2.797088e-05
143	0x3b9ce646	0.004788193
144	0x39d6487e	0.00040871272
145	0xbc58d276	-0.013233772
146	0x3d0dba15	0.03460129
147	0x3c2cef61	0.010555119
148	0xbb3e9468	-0.0029080156
149	0xbc6b6cee	-0.014369233
150	0xba85d1b3	-0.001020959
151	0x379e5e60	1.8879015e-05
152	0xbaa875a5	-0.0012852444
153	0x3b18a09b	0.0023289088
154	0x3cb9803e	0.022644158
155	0x3bfeb8a3	0.0077734753
156	0xbadec4dc	-0.0016995925
157	0xb9dc60d8	-0.00042033824
158	0xbc172773	-0.009225714
159	0x39e6d02d	0.00044024122
160	0xbb6df7c1	-0.0036311003
161	0xbb8b37f9	-0.004248616
162	0x36c51643	5.873649e-06
163	0xb7f6d53e	-2.9424784e-05
164	0x3cd60884	0.026127107
165	0xbba184b3	-0.004929149
166	0x38a1b478	7.710693e-05
167	0x3b23b702	0.0024980907
168	0xbd75fa30	-0.06005305
169	0xba8fe523	-0.0010978322
170	0x3b22c74f	0.0024838035
171	0x3ca60ad8	0.020268843
172	0x3bb74bb6	0.0055937422
173	0x3b0eb652	0.0021776152
174	0xbca58188	-0.020203367
175	0xbcd60a77	-0.026128037
176	0x39175bac	0.00014434633
177	0xba8ba6f8	-0.0010654619
178	0x3a9c7beb	0.0011938786
179	0xbb28a38f	-0.0025732254
180	0xbc8838f8	-0.016628727
181	0x3bb6e47c	0.0055814367
182	0x3abc043e	0.0014344526
183	0x33e1d7f8	1.05166635e-07
184	0x3d97cb8c	0.0741187
185	0x3d96d57f	0.0736494
186	0x3801d00e	3.0949763e-05
187	0x3ce1e0d7	0.027573032
188	0xb949c4d3	-0.00019242176
189	0x3bcc2e3a	0.0062310966
190	0x3854f6d8	5.077463e-05
191	0x3c453b95	0.012038131
192	0x3d9d840d	0.07691202
193	0xb84d8540	-4.8999907e-05
194	0x368794fa	4.0406567e-06
195	0xbd01fa11	-0.031732623
196	0xbd3e8f12	-0.04652316
197	0x3a2cf883	0.00065983104
198	0x3bf93aae	0.007605872
199	0xbc74cd60	-0.014941543
200	0x3bd54c9e	0.0065093776
201	0x3c0bb25e	0.008526413
202	0xbaaeb9da	-0.0013330535
203	0xbd81bd3b	-0.06334921
204	0x3c6a2055	0.014289935
205	0xbcd41c1f	-0.025892315
206	0xb78d8ab8	-1.6873106e-05
207	0x3c756bc1	0.014979304
208	0x3c95771b	0.01824527
209	0x396bd585	0.00022490889
210	0xb973aa3b	-0.00023237702
211	0xb85abab0	-5.2149117e-05
212	0x3c62d068	0.013843633
213	0x3cc849ec	0.024449311
214	0x3dc20484	0.094735175
215	0xbcdb8693	-0.026797568
216	0x3bfa14ec	0.0076318886
217	0x3d556375	0.052096803
218	0xb84a8cd4	-4.829171e-05
219	0x3be4838f	0.006973691
220	0x3ba8c87e	0.0051508537
221	0xbb2a2acd	-0.0025965453
222	0x3d32e120	0.043671727
223	0xbb54d179	-0.0032473488
224	0xbbb15b6f	-0.005412511
225	0x3bca57c6	0.006175014
226	0xbd444cdf	-0.047924872
227	0x3cc6d8c8	0.024273291
228	0xbc98929b	-0.018624594
229	0xb9709a01	-0.00022945555
230	0xbbc5e5cc	-0.006039357
231	0x3d0e0e26	0.03468146
232	0xbb84f9dc	-0.004058106
233	0xbdee44ea	-0.11634238
234	0x3c013d2a	0.007888118
235	0x3d61e597	0.055150595
236	0x3c7e2c92	0.015513556
237	0xbc41ed00	-0.01183629
238	0x3922018c	0.000154501
239	0xbd066e47	-0.032820012
240	0xbd8ab68e	-0.06773101
241	0x3d98a752	0.07453789
242	0xbccece85	-0.02524496
243	0xbcd4a271	-0.025956364
244	0x3c660849	0.014040061
245	0x3bb638ec	0.005560985
246	0xbc82bdb9	-0.015959607
247	0xbb319779	-0.0027098341
248	0xbbacb1ac	-0.0052702036
249	0xbb9a30e9	-0.0047055376
250	0x3d9c1090	0.076203465
251	0xba4f9868	-0.00079191336
252	0xbce0240e	-0.027360942
253	0x3bde5186	0.0067846207
254	0x3d1fe0ea	0.039032854
255	0xba542fec	-0.0008094299

rios_f.RIOS_H.rnn_cell1.weight_ih f4 [384, 2]
0	0xbe000b57	-0.12504326
1	0xbdc7e6d7	-0.09760826
2	0x3ce15769	0.0275075
3	0x3d5279ad	0.05138557
4	0x3b020de8	0.0019844715
5	0xbc6b3165	-0.014355038
6	0xbd1a77cf	-0.037711915
7	0xbcbc10cd	-0.02295723
8	0xbb83236c	-0.0040020254
9	0xbd027fc6	-0.031860135
10	0x3da085be	0.07838009
11	0x3c4f75a5	0.012662326
12	0x3774ecd3	1.4598673e-05
13	0x35d0c34a	1.5554044e-06
14	0x3ad59f62	0.001629811
15	0x3c9c912a	0.019112188
16	0x3caea000	0.021316528
17	0xbba66795	-0.005078266
18	0x3cc23326	0.02370603
19	0x3bbb608a	0.0057182955
20	0x3c07f452	0.008297997
21	0xbbd3267b	-0.006443796
22	0xbbb53a1e	-0.0055306097
23	0xbcac2b25	-0.021016667
24	0x3d9c5c8f	0.07634842
25	0x3b98f55d	0.0046679215
26	0xbc202626	-0.00977472
27	0x3ba46082	0.0050163874
28	0x3d935f57	0.07195919
29	0x3d2a6805	0.041603107
30	0xbc043c2d	-0.008070988
31	0xbcaa0f98	-0.020759389
32	0xbccea729	-0.025226193
33	0xbc727143	-0.0147975115
34	0xbd0e6c92	-0.03477151
35	0xbd8933eb	-0.06699356
36	0x3ce63fa2	0.028106514
37	0x3c162861	0.0091649005
38	0x3d29ae6a	0.0414261
39	0x3c9626d6	0.018329065
40	0x3cac7ebc	0.021056525
41	0x3cf2bd4c	0.02963128
42	0xba9cf05c	-0.0011973488
43	0xbc89f481	-0.016840221
44	0x3ca92e21	0.020651879
45	0x3cfbfb5f	0.030759512
46	0xbac8122d	-0.0015264206
47	0x3ca681af	0.02032551
48	0x3bced75e	0.006312295
49	0x3b9e9dae	0.004840574
50	0xbc232c3d	-0.009959278
51	0xbd0bcb4e	-0.034129433
52	0x3c066b1b	0.008204247
53	0xbc53607d	-0.012901423
54	0x3c3cc01a	0.01152041
55	0xbbaa7881	-0.0052023535
56	0x3d3e72db	0.046496253
57	0x3b836494	0.0040097926
58	0x3c1af72e	0.009458346
59	0xbc192063	-0.0093461005
60	0x3b8c51e2	0.004282222
61	0x3bb36e06	0.0054757623
62	0x39370978	0.00017455767
63	0x394e5a7b	0.00019679398
64	0x3b78500c	0.0037889509
65	0xbbca532f	-0.006174467
66	0xbcf0ff96	-0.029418748
67	0x3d74c2bd	0.05975603
68	0x3ca26288	0.019822374
69	0xbc71e923	-0.014765057
70	0x3c2d1d4d	0.010566068
71	0xbc6d37bb	-0.014478619
72	0xbc9a2186	-0.018814813
73	0xbc8b2006	-0.016983043
74	0xbc51a483	-0.01279557
75	0xbd2bf5e8	-0.04198256
76	0x3c5d0aae	0.013491316
77	0x3c3b5f8a	0.0114363525
78	0x3c5eb500	0.013592958
79	0xbbabd870	-0.005244307
80	0x3d120657	0.035650577
81	0x3c2d6977	0.010584227
82	0xbc5a1903	-0.013311627
83	0xbbad9bae	-0.0052980995
84	0x3c3f23a0	0.0116662085
85	0xbc9cda77	-0.01914714
86	0x3c1a3e0a	0.009414205
87	0x3b830bbe	0.0039992025
88	0x3cbd5434	0.02311144
89	0xbbd7a5dd	-0.0065810517
90	0x3c121a00	0.008917332
91	0x3b409552	0.0029385877
92	0x3c5950ba	0.013263876
93	0xbcf4bbeb	-0.029874763
94	0x3c8d47df	0.017246185
95	0x3ba96400	0.0051693916
96	0x3aa2ee3b	0.0012430617
97	0x3a237e90	0.0006236816
98	0x3bef6175	0.007305319
99	0xbc451e84	-0.012031201
100	0x3c03ca48	0.008043833
101	0x3c0dda60	0.008658022
102	0x3cb5d382	0.022195581
103	0x3c937c36	0.018003564
104	0x3d531b13	0.05153949
105	0xbade7f26	-0.0016975149
106	0x3d31f11c	0.04344283
107	0xbc12f370	-0.008969173
108	0x3c51dd34	0.012809087
109	0x3bc6a381	0.0060619717
110	0x3864fb12	5.4593263e-05
111	0xb8f5dea8	-0.00011723983
112	0x3d940b66	0.072287366
113	0xba9a627d	-0.0011778619
114	0x3d42b093	0.047531676
115	0x3ce98ff2	0.028511021
116	0x3d6ededf	0.058318015
117	0xbd323a72	-0.04351277
118	0x3c091ce0	0.008368701
119	0xbb8bad81	-0.0042626266
120	0xbc8bbca8	-0.017057732
121	0x3c2f9e92	0.010718958
122	0x3be5aabe	0.0070088794
123	0x3c2f7313	0.010708588
124	0x3be7484f	0.0070581804
125	0xbc41228d	-0.011788023
126	0x3dae54cd	0.08512268
127	0xbc9e27da	-0.019306112
128	0x3d0eff61	0.034911517
129	0xbbfde976	-0.007748778
130	0x3cca3025	0.02468116
131	0x3bad948f	0.0052972506
132	0x3ad3ef9e	0.0016169434
133	0xb94d717e	-0.00019592603
134	0x3c80c31d	0.015718037
135	0xbd2267b3	-0.039649677
136	0xbd6e2c05	-0.05814745
137	0xbe0531a3	-0.13007216
138	0x3bdbefb1	0.006711923
139	0xbb8f65c6	-0.004376146
140	0x3bb536e0	0.0055302233
141	0x3c35ae78	0.01108896
142	0x3d2e1037	0.042495932
143	0xbd8405e3	-0.06446435
144	0x3cf5da80	0.030011415
145	0xbee5c7e0	-0.44879055
146	0x3c19534e	0.00935824
147	0x3cc075ab	0.023493608
148	0x3cf6d3ab	0.030130228
149	0xbc3c084d	-0.011476588
150	0xba696c75	-0.0008904406
151	0xbca62dda	-0.020285536
152	0x3c25a5b4	0.0101103075
153	0x3b5f2fbf	0.0034055558
154	0x3bf08bde	0.007340892
155	0x3c568218	0.01309254
156	0x3d79ba96	0.060968958
157	0x3d13bcee	0.03606885
158	0x3d76c7e4	0.060249224
159	0x3da8184d	0.0820776
160	0x3c3a7c01	0.011382104
161	0xbbbfee74	-0.0058572832
162	0x3c2f4772	0.010698186
163	0xbbd01529	-0.0063501787
164	0x3c3bb043	0.011455598
165	0xbcb95be0	-0.022626817
166	0xbbfdea14	-0.0077488516
167	0xbc6ff1c3	-0.014645043
168	0x3d8e099f	0.06935429
169	0xbd3c686b	-0.04599802
170	0x3b81cc54	0.0039611254
171	0xbbf7a160	-0.007557079
172	0x3bcf7162	0.006330655
173	0x3bb1c1e6	0.005424726
174	0x3830509a	4.2036736e-05
175	0xb8de33ce	-0.00010595434
176	0x3f45cb55	0.77263385
177	0x3e9a2bb0	0.30111456
178	0x3db571bc	0.08859584
179	0x3d054b80	0.032542706
180	0xbb8b6ad6	-0.004254679
181	0xbc8d2718	-0.017230555
182	0x3d198a7a	0.037485577
183	0xbc8f9140	-0.017525315
184	0x3c4159f6	0.0118012335
185	0x3b1bf6a4	0.0023798132
186	0x3d33d5ff	0.043905254
187	0xbd72a28b	-0.059237044
188	0x3aae6204	0.0013304357
189	0x3a47b1c2	0.00076177355
190	0x3c665b75	0.014059891
191	0xbd701fd8	-0.05862412
192	0x3cb9beb8	0.02267395
193	0x3cf20106	0.029541504
194	0x3cd771a4	0.026299305
195	0x3d4de758	0.050269455
196	0x3cc69f5d	0.024245912
197	0xbd986356	-0.07440822
198	0x3a9e231a	0.0012064904
199	0x3d8826c8	0.06648022
200	0x3bdcf5bb	0.0067431605
201	0x3bba03d5	0.0056767263
202	0x3c7e05e2	0.015504332
203	0xbca47fea	-0.020080525
204	0xb6ced289	-6.163788e-06
205	0x369cf80d	4.678039e-06
206	0x3d8cb6b6	0.06870787
207	0x3d9bb4cb	0.07602843
208	0x3c86a13f	0.01643431
209	0xbc39552d	-0.011311811
210	0x3bd6ffa9	0.006561239
211	0x3b9d6e07	0.004804376
212	0x3c025bac	0.007956427
213	0xbd067a2b	-0.032831352
214	0x3d9f19ce	0.07768594
215	0xbda9b67e	-0.08286761
216	0x3d8f882e	0.07008396
217	0x3b226e70	0.0024785064
218	0x3cf077ca	0.029353995
219	0x3bff9d68	0.0078007467
220	0x3da3e399	0.08002395
221	0xbb6cb460	-0.0036118254
222	0x3da0cb70	0.078513026
223	0x3db31198	0.0874359
224	0x3bd49729	0.0064877463
225	0xbcac2f56	-0.021018665
226	0xbca2570a	-0.019816894
227	0xbc6b3b66	-0.014357423
228	0xbcecf2c6	-0.028924357
229	0xbcdbebcd	-0.026845837
230	0xbcd940c8	-0.026520148
231	0x3c6bd685	0.014394407
232	0xbb3de1bc	-0.002897366
233	0xbd424f71	-0.047439042
234	0xbbb6a2bc	-0.0055735987
235	0xbcecc19c	-0.028900914
236	0x3d2fb1fe	0.042894356
237	0x3c8e3ce3	0.017363017
238	0xbd34d349	-0.04414681
239	0x3d4444d9	0.04791722
240	0x3b6acdae	0.003582816
241	0x3b8b4457	0.00425009
242	0xbddafd43	-0.10692837
243	0xbe09587d	-0.13412662
244	0x3c075c09	0.008261689
245	0x3b5ee6a5	0.0034011987
246	0x3c441e98	0.011970185
247	0x3c118536	0.008881858
248	0x3d5051f4	0.050859407
249	0x3ccc32e7	0.024926616
250	0x3c855bc8	0.016279116
251	0x3904eaf1	0.00012676023
252	0xba2d9769	-0.0006621988
253	0x3adf4642	0.0017034488
254	0xb8f29615	-0.00011567414
255	0x3a0378f6	0.0005015278

rios_f.RIOS_H.rnn_cell1.weight_hh f4 [384, 96]
0	0xbc5c64cb	-0.013451765
1	0xbd10e41d	-0.035373796
2	0x3d702306	0.05862715
3	0x3d826e2f	0.06368672
4	0x3d4aff11	0.049559657
5	0xbd915359	-0.070959754
6	0x382b979e	4.091078e-05
7	0xbc26570d	-0.01015259
8	0x3d287942	0.041131265
9	0xbc896a3a	-0.016774286
10	0xbd51c4aa	-0.051212944
11	0x3d22e918	0.039773077
12	0xbd5d2333	-0.053988647
13	0x3d64846e	0.055790357
14	0x3dbc1902	0.09184457
15	0xbd30c901	-0.043160442
16	0x3d116558	0.03549704
17	0x3c780bbe	0.015139518
18	0x3c0db58a	0.008649239
19	0x3bc35a35	0.0059616813
20	0x3ce0003c	0.027343862
21	0xbc1ec7ad	-0.009691161
22	0xbd6193a4	-0.05507244
23	0x3d110552	0.035405464
24	0x3ad4f033	0.0016245901
25	0x3ccfa899	0.025348948
26	0x3d090438	0.03345129
27	0xbbbc6efc	-0.005750535
28	0xbdb77365	-0.08957557
29	0x3cd46da1	0.025931181
30	0xbbdaca78	-0.006676968
31	0x3a8d52b3	0.0010782093
32	0x3d282cb2	0.04105825
33	0xbd0ed040	-0.03486657
34	0xbd0ded7f	-0.034650322
35	0xbd8d38cf	-0.06895601
36	0xbc0f3511	-0.008740679
37	0x3cca58ed	0.024700606
38	0x3bb4d0bb	0.0055180467
39	0x3c23bdc9	0.009993979
40	0xbc817884	-0.015804537
41	0x3c40af54	0.0117605515
42	0xbcad7cf0	-0.021177739
43	0xbbf55003	-0.007486345
44	0x3d47566d	0.048666406
45	0xbd58434c	-0.052798554
46	0x3a345023	0.00068783964
47	0x3c85fd97	0.016356273
48	0xbb05147f	-0.0020306406
49	0x3d5056ea	0.050864138
50	0x3c98a480	0.018633127
51	0xbd85e178	-0.065371454
52	0x3cd9b856	0.026577156
53	0xbc9640f9	-0.018341528
54	0x3d275f86	0.040862583
55	0x3ad5a04f	0.0016298386
56	0x3db22f93	0.0870048
57	0xbc2eb9ed	-0.010664445
58	0xbbe023fb	-0.0068402267
59	0x3d297671	0.04137272
60	0xbd617c83	-0.055050384
61	0xbd5420d0	-0.051789105
62	0x3d4a0827	0.04932418
63	0xbbaf6168	-0.005352188
64	0xbd0f29ff	-0.03495216
65	0xbcad5192	-0.02115706
66	0x3ba9d798	0.0051831715
67	0x3d79721d	0.060899843
68	0xbcca243c	-0.024675481
69	0x3d4685c6	0.04846742
70	0xbb6901e0	-0.0035554096
71	0xbd89c7c9	-0.06727559
72	0x3d62cca4	0.05537094
73	0x3bff99ae	0.0078003025
74	0xb98af610	-0.00026504742
75	0xbd62c9ea	-0.05536834
76	0xbd0d6953	-0.034524273
77	0x3d4e7ec4	0.050413862
78	0x3d0fed70	0.035138547
79	0x3d1e9672	0.038717695
80	0xbd200636	-0.039068423
81	0x3d38b1b7	0.045091357
82	0x3d592227	0.053011086
83	0xbd5ec9b6	-0.054391585
84	0xbd9ec013	-0.07751479
85	0x3c2549c7	0.010088391
86	0x3d318a12	0.043344565
87	0xba5dea2c	-0.0008465375
88	0x3d08d175	0.03340288
89	0xbd62e50b	-0.055394214
90	0xbd1ee554	-0.038792923
91	0xbd3bb260	-0.04582441
92	0x3bacd6b7	0.0052746194
93	0xbc5e0c67	-0.013552762
94	0xba47addf	-0.00076171564
95	0x3cfdc7cc	0.03097906
96	0x3c128224	0.008942161
97	0x3c721ff2	0.014778124
98	0x3ba4512e	0.00501456
99	0x3d8fc257	0.07019489
100	0x3d556268	0.0520958
101	0xbda1da03	-0.079029106
102	0xb7b335d8	-2.1363536e-05
103	0xbc3b3d6c	-0.011428218
104	0x3d5eafbe	0.05436682
105	0xb9e0d6ae	-0.00042884558
106	0xbd093023	-0.033493172
107	0xba0e5cf0	-0.0005430719
108	0x3985dc3b	0.0002553182
109	0x3d714a0a	0.0589085
110	0x3d1479b3	0.036248874
111	0xbb9c875e	-0.004776879
112	0xbb3eaf3f	-0.0029096154
113	0x3a2c7c99	0.0006579846
114	0xbc61f22c	-0.013790648
115	0x3ab51912	0.0013816676
116	0x3c60e90a	0.013727436
117	0xbca088d7	-0.0195965
118	0xbd6cc72e	-0.05780714
119	0x3c2d1959	0.010565125
120	0xba9b04b4	-0.0011826963
121	0x3d0297b2	0.03188295
122	0x3d304850	0.043037713
123	0x3aa81cfe	0.0012826023
124	0xbdace968	-0.08442956
125	0x3d3a66cb	0.045508187
126	0xbb5707a8	-0.003281096
127	0x3ad77838	0.0016439026
128	0x3d4e60f4	0.05038543
129	0xbc73a507	-0.014870889
130	0xbd368370	-0.044558942
131	0xbc660395	-0.01403894
132	0x3c1e66c5	0.009668057
133	0x3c007a5d	0.007841674
134	0x3b2b3c23	0.0026128374
135	0xbbb8e7ab	-0.0056428513
136	0xbb83e775	-0.0040253946
137	0xbc78e90a	-0.01519228
138	0xbb69e16e	-0.0035687345
139	0xba8f850c	-0.0010949685
140	0xbbe379f9	-0.0069420305
141	0xbd6eedda	-0.0583323
142	0xbd2bb048	-0.04191616
143	0x3d106dd1	0.03526098
144	0xb9829bf7	-0.00024911735
145	0x3d5d66c0	0.05405307
146	0x3ccad372	0.024759028
147	0xbbaa47fd	-0.00519657
148	0x3bf2a50c	0.007404929
149	0xbd069a04	-0.032861724
150	0x3ca6f534	0.020380594
151	0x3a1cdf21	0.00059841765
152	0x3da04f9e	0.07827686
153	0xbc9e8d73	-0.019354558
154	0xbb6f813a	-0.003654553
155	0x3d64195e	0.055688255
156	0xbcf561ad	-0.029953802
157	0xbd769611	-0.06020171
158	0x3d581596	0.05275496
159	0x3c36e809	0.01116372
160	0xbcfac193	-0.030609882
161	0x3c4cb7fa	0.012495035
162	0x3b21c739	0.0024685396
163	0x3d88450a	0.06653793
164	0xbc422916	-0.011850616
165	0x3d533eab	0.051573437
166	0xbb6f3f30	-0.0036506169
167	0xbc288a81	-0.010286928
168	0x3be87767	0.007094312
169	0x3c9238fd	0.01784944
170	0xbbdf52e3	-0.006815301
171	0xbd6fddaa	-0.058561005
172	0xbd3559a9	-0.04427496
173	0x3c8d8265	0.017274091
174	0x3c9aaa44	0.018880017
175	0xbc41ef7d	-0.011836884
176	0xbd4fb6f8	-0.050711602
177	0x3d5d6e33	0.054060172
178	0x3cac6293	0.021043098
179	0xbba1ddb5	-0.0049397596
180	0xbd946e02	-0.07247545
181	0x3adc49f2	0.0016806705
182	0x3d5283e4	0.051395312
183	0xb89ed8d6	-7.574416e-05
184	0x3b77e5af	0.003782611
185	0x3cd40f9c	0.02588635
186	0xbd4b57f0	-0.04964441
187	0xbcc2f2a1	-0.023797335
188	0xbb4bc65f	-0.003109358
189	0x3cd7a7d1	0.026325138
190	0xb90786f8	-0.00012924883
191	0x3c87412a	0.016510565
192	0x3bbb7d47	0.0057217213
193	0x3c4b8c05	0.01242352
194	0x3c6494ea	0.0139515195
195	0x3d6b4a5b	0.057443958
196	0x3d5a1bda	0.053249218
197	0xbd830c97	-0.06398886
198	0xb8efc80e	-0.00011433671
199	0xbc05e7ef	-0.008172973
200	0x3d5e4b03	0.054270755
201	0x3b1b650d	0.0023711354
202	0xbd0f94de	-0.03505408
203	0x3bcb1098	0.0061970465
204	0xbab17a2c	-0.0013540438
205	0x3d567a6d	0.052362848
206	0x3c66da5a	0.014090145
207	0xbc82151f	-0.015879212
208	0x3b807a1f	0.003920808
209	0x3b584250	0.003299851
210	0xbc0af15e	-0.008480398
211	0x3c33f817	0.010984442
212	0x3b770e66	0.003769779
213	0xbcbf69b5	-0.023365835
214	0xbd58e1b8	-0.052949637
215	0xb9c4fcda	-0.00037572422
216	0xbb0c45c8	-0.0021403898
217	0x3c9506c7	0.018191708
218	0x3d480c81	0.04884005
219	0x3b3f535b	0.002919397
220	0xbd83a1b8	-0.0642733
221	0x3d4e3af4	0.05034919
222	0xba3caefe	-0.0007197707
223	0x3b088910	0.0020833649
224	0x3d47d0ae	0.048782997
225	0xbcad093e	-0.021122571
226	0xbd38ca8d	-0.045115042
227	0xbc62c405	-0.01384068
228	0x3c2b1b10	0.010443464
229	0x3bfdacd5	0.0077415504
230	0x3aab3c0c	0.001306416
231	0xbc1b770f	-0.009488835
232	0xbc996aec	-0.018727742
233	0xbcf9dbb5	-0.030500272
234	0xba1aa4e8	-0.0005899207
235	0x3a863c85	0.0010241425
236	0xbb85926e	-0.0040762937
237	0xbd5e8b95	-0.054332335
238	0xbd01fc94	-0.031735018
239	0x3d308677	0.043096986
240	0x3a0cf029	0.0005376363
241	0x3d4fef33	0.050765228
242	0x3cdde790	0.027087957
243	0x3bd85a3f	0.006602555
244	0xbc43372d	-0.01191501
245	0xbd0919c6	-0.033471845
246	0x3c840e35	0.016120056
247	0x39f436d4	0.00046580157
248	0x3d79e2ef	0.061007436
249	0xbc6022cf	-0.013680174
250	0x3c14c9a0	0.009081274
251	0x3d5f4441	0.05450845
252	0xbc5f1b04	-0.013617281
253	0xbd5ebe55	-0.054380734
254	0x3d531039	0.051529143
255	0x3c5c7494	0.013455529

rios_f.RIOS_H.rnn_cell1.bias_ih f4 [384]
0	0x3e8d281d	0.27569667
1	0x3e05745c	0.13032669
2	0x3dcf44de	0.10120557
3	0x3e24b66b	0.16085212
4	0x3d8dfb5e	0.0693271
5	0x3e13292b	0.14371173
6	0x38235582	3.8941864e-05
7	0x3ddc3ccb	0.10753783
8	0x3d6fd0f9	0.0585489
9	0x3d05bbcf	0.03264981
10	0x3d57e3cd	0.052707482
11	0x3da1df39	0.079039045
12	0x3d8d396c	0.06895718
13	0x3dbbaa37	0.09163325
14	0x3e2b7c6e	0.16746685
15	0x3e25d688	0.16195118
16	0x3d9a2b22	0.07527758
17	0x3d4c204f	0.0498355
18	0x3de7a59b	0.113108836
19	0x3d802eb7	0.0625891
20	0x3dd985b5	0.10621206
21	0xbc904ac9	-0.017613785
22	0x3d880e12	0.06643309
23	0x3d843b64	0.0645664
24	0x3be79537	0.0070673483
25	0x3de62a1f	0.11238503
26	0x3d6fda58	0.05855784
27	0x3cf067c4	0.029346354
28	0x3e2fa56e	0.1715295
29	0x3d23a3e3	0.039951216
30	0x3c2535bc	0.010083612
31	0x3ade859e	0.0016977077
32	0x3d3e17a9	0.046409283
33	0x3db305ec	0.08741364
34	0x3cfa5a2b	0.030560574
35	0x3d8fd2f0	0.07022655
36	0x3d45a2df	0.04825103
37	0x3da1a68e	0.07893096
38	0x3c1cc66a	0.00956879
39	0x3d7e1219	0.062028978
40	0x3dd25184	0.10269454
41	0x3da0a2ca	0.078435495
42	0x3d06fd0f	0.03295618
43	0x3c3014ac	0.010747116
44	0x3d86e70a	0.06587036
45	0x3d858858	0.06520146
46	0x3d97e620	0.0741694
47	0x3cfcc9c1	0.030857923
48	0x3b0b83ca	0.002128827
49	0x3d973664	0.07383421
50	0x3cf3521b	0.029702237
51	0x3da35636	0.07975428
52	0x3d90a165	0.070620336
53	0xbcd41cee	-0.025892701
54	0x3db44897	0.08802908
55	0x3a2b0032	0.00065231614
56	0x3e2b57c0	0.16732693
57	0x3dc8b565	0.09800223
58	0x3e2bebd2	0.16789177
59	0x3d541f99	0.051787946
60	0x3dd2cb0f	0.102926366
61	0x3d7f8dac	0.06239097
62	0x3d4cc216	0.049989782
63	0x3dcae495	0.0990688
64	0x3d8b643c	0.068062276
65	0x3d2fea41	0.04294801
66	0x3b56d59d	0.0032781132
67	0x3d8dbb16	0.069204494
68	0x3e46a177	0.19397531
69	0x3d757fa3	0.059936177
70	0x3c9caa30	0.01912412
71	0x3e62b88c	0.22140712
72	0x3f02d52e	0.51106536
73	0x3d468769	0.04846898
74	0x3ddc636a	0.10761149
75	0x3d638e56	0.055555664
76	0x3c699949	0.014257737
77	0x3dc0024b	0.09375437
78	0x3d8f9987	0.07011705
79	0x3dd0c4a8	0.10193759
80	0x3d586a6f	0.052835878
81	0x3d8e7cae	0.069573745
82	0x3df2c480	0.11853886
83	0x3dcbabf0	0.09944904
84	0x3e2b23f6	0.16712937
85	0x3ce25bb7	0.027631624
86	0x3d694b69	0.056956682
87	0x397d34a1	0.00024147566
88	0x3ea87319	0.32900313
89	0x3e295af9	0.1653861
90	0x3d614bd1	0.055003945
91	0x3df2e01d	0.118591525
92	0x3c1ea68c	0.009683263
93	0x3de93f86	0.11389069
94	0x3b0bd59e	0.0021337043
95	0x3de9f7f6	0.11424248
96	0xbd5d1856	-0.053978287
97	0x3d8f319d	0.06991885
98	0x3d964f8d	0.07339392
99	0x3dd09e49	0.101864405
100	0x3d7afe6d	0.061277796
101	0x3d978db0	0.074000716
102	0xb7a31840	-1.9442406e-05
103	0x3d9de74c	0.07710132
104	0x3d6e23a3	0.058139455
105	0x3ca32d3f	0.019919036
106	0x3d464c32	0.04841251
107	0x3dc86dce	0.097865686
108	0x3d2dc4c5	0.042423982
109	0x3d923209	0.0713845
110	0x3d2e6042	0.042572267
111	0x3dbf345e	0.0933616
112	0x3d3ff0d9	0.04686055
113	0xbbe4b1ff	-0.0069792266
114	0x3d3f6785	0.046729583
115	0x3d4a1787	0.049338844
116	0x3de95a00	0.11394119
117	0xbc05a68d	-0.008157385
118	0x3de1f83a	0.110336736
119	0x3d24cf6d	0.04023688
120	0x38a9ba0f	8.093204e-05
121	0x3d607dec	0.05480759
122	0x3d505adc	0.0508679
123	0x3c802ddc	0.015646867
124	0x3dc75745	0.09733442
125	0x3d3be7e0	0.04587543
126	0xba7b1dac	-0.00095793116
127	0x3987f923	0.00025934828
128	0x3d5756c4	0.05257298
129	0x3d804328	0.06262809
130	0x3db91915	0.09037987
131	0x3cd1bbe0	0.025602281
132	0x3d246cef	0.04014295
133	0x3cc42b55	0.023946444
134	0x396dd866	0.00022682696
135	0x3d6969d6	0.0569857
136	0x3d9fba79	0.07799239
137	0x3cd714f3	0.026255107
138	0x3c13585b	0.008993234
139	0x3b1d18a9	0.0023970997
140	0x3d08f79c	0.033439264
141	0x3d801f8e	0.062560186
142	0x3d961f78	0.07330221
143	0x3d3c4067	0.045959856
144	0xb98e94fc	-0.00027195353
145	0x3d609fde	0.05483996
146	0xbcb0699c	-0.021534733
147	0x3d97f139	0.074190564
148	0x3d3f3429	0.046680603
149	0x3d088917	0.033333864
150	0x3d2a581f	0.041587945
151	0x391b527d	0.00014812681
152	0x3dd114e9	0.102090664
153	0x3cd980cb	0.026550671
154	0x3df87684	0.1213198
155	0x3cf22867	0.029560281
156	0x3ce74d7e	0.028235193
157	0x3db7db95	0.08977429
158	0x3d44a7b1	0.048011485
159	0x3b070ee4	0.002060824
160	0x3d623bb6	0.055232726
161	0x3da9f0fe	0.08297919
162	0x3ae6504f	0.0017571541
163	0x3d83c893	0.06434741
164	0x3db079a4	0.08616951
165	0x3d970891	0.07374681
166	0x3c76c4bd	0.0150615545
167	0x3def616e	0.11688505
168	0xbc833947	-0.016018523
169	0x3cdda39b	0.027055552
170	0x3dabab14	0.0838224
171	0x3da2b606	0.079448745
172	0x3d056806	0.032569908
173	0x3d67a172	0.05655045
174	0x3cb0d4af	0.02158579
175	0x3df7044d	0.12061367
176	0x3d5a4cd5	0.05329593
177	0x3d8062b9	0.0626883
178	0x3cea17a6	0.02857573
179	0x3d8d373c	0.06895301
180	0x3d9d4db5	0.07680837
181	0x3ada4006	0.001665116
182	0xbc2b3249	-0.010449001
183	0x3767012a	1.3768944e-05
184	0xbd6e7f82	-0.05822707
185	0x3de05844	0.10954335
186	0x3d49a567	0.049230006
187	0x3d5b19aa	0.053491272
188	0xb7bd7fc0	-2.2590044e-05
189	0x3de5869d	0.11207316
190	0x39af5515	0.00033441992
191	0x3d83aada	0.06429072
192	0x3b7a2439	0.0038168563
193	0x3cc33101	0.023827078
194	0x3d88bc6a	0.06676562
195	0x3e7f9f85	0.24963196
196	0x3e37aabf	0.17936228
197	0xbe565242	-0.20929816
198	0xb9df88d6	-0.00042635825
199	0xbcdeb148	-0.027184144
200	0x3dc07a57	0.093983345
201	0xbdd6ed0f	-0.10494434
202	0xbdad0b91	-0.08449472
203	0x3ddd4fbd	0.108062245
204	0xbd4bafcc	-0.0497282
205	0x3dee7745	0.116438426
206	0x3e1e3ac5	0.15452106
207	0xbc72342b	-0.014782946
208	0x3ca0fff6	0.019653302
209	0xbb83f224	-0.004026668
210	0x3de17d6c	0.110102504
211	0x3d3cc81f	0.046089288
212	0xbd6aff2b	-0.057372253
213	0xbd965cf9	-0.07341952
214	0xbdc2cc06	-0.09511571
215	0x3e01959a	0.12654725
216	0x3c61dcf0	0.013785586
217	0x3de762ca	0.112981394
218	0x3e17c2c0	0.14820385
219	0xbdda399c	-0.10655519
220	0xbea8a8a1	-0.32941154
221	0x3d9abc76	0.07555477
222	0xbd285689	-0.04109815
223	0x3c31d016	0.010852834
224	0x3dc56de3	0.096401
225	0x3dce7647	0.10081153
226	0x3bb85b18	0.0056260936
227	0x3d53839d	0.051639188
228	0xbd44b104	-0.048020378
229	0x3daf00ce	0.08545075
230	0x3d10dd83	0.0353675
231	0xbdb31cb9	-0.08745713
232	0xbd9a67b8	-0.07539314
233	0xbd0a40e3	-0.033753287
234	0xbe32927a	-0.17438689
235	0xbd19e4e9	-0.03757182
236	0x3b84ff86	0.004058781
237	0xbe35a7cd	-0.17739792
238	0x3da09106	0.07840161
239	0x3dbe2afb	0.092855416
240	0xbb9c799b	-0.0047752387
241	0x3dfae130	0.12249982
242	0x3bf1e8c9	0.0073824865
243	0xbdc22e3a	-0.09481473
244	0xbc4d561f	-0.01253274
245	0x3cf0c2fc	0.02938985
246	0x3e0b3236	0.13593373
247	0x3c8efefc	0.01745557
248	0x3ea01ea0	0.31273365
249	0x3d1379fa	0.036004998
250	0x3ddf3bd8	0.10900086
251	0x3dec9a3c	0.11552855
252	0xbc8ff80a	-0.017574329
253	0xbe10941a	-0.14118996
254	0x3defdf16	0.11712472
255	0xbd8637fa	-0.065536454
