BRIOS/models/model_file/biros_base/test_attention_batch.pt (torch, 706014 bytes, 32 tensors)

rios_f.RIOS_H.rnn_cell0.weight_ih f4 [384, 2]
00000000: 51d5 263e 1413 393e a2f3 253e 45f3 893d
00000010: 2d24 2c3e 0b17 21bc 59c3 b83e c9cf 1b3e
00000020: ca75 873d f763 99bd 7fff 2d3e a6dd 6f3d
00000030: cdbe b43d 6f82 d53d 0790 343d c3b6 003c
00000040: 8197 823d c79b 6e3e 7a69 a23d 0bc9 b13b
00000050: f53d bf3c 1c5e 0e3d 8c66 463d 08eb 2b3d
00000060: 31b0 d13d aa7b 243a fc06 d73d f94d b23c
00000070: c869 8b3d f77e 103d 7984 3b3d 3684 cb3d
00000080: 211e 263d 36ec 45bd 81b1 433e be73 d63d
00000090: f8f1 243e 559b 213d e48c 7a3e 67e8 943e
000000a0: c2d0 c83d e08a 293b bab9 72bd fa99 a53d
000000b0: 7dbd 513d 5b07 d03a aae0 243d 1f8f 9d3c
000000c0: 1cb0 523d 8c95 4e3d 0a3c e33d 971d e43c
000000d0: f56a a93d e5dc a63a 4d1c eabc 0ffa bd3d
000000e0: e382 353d 7d7f 0cbc 6e61 f33d 389b 3c3d
000000f0: 65d4 af3c eecc 043d 66b6 453e 3e4c f03d
00000100: e5f0 363e bc2f 05bc 36fb 233e b07d 383e
00000110: 56df 1f3e 8684 1abd 1718 4d3d bcd7 b1bc
00000120: f283 6d3d 737b 06bd 6033 073e bdbc 11bd
00000130: 40d7 213e 8e4d f33c 4d87 443e f9e1 3bbd
00000140: 2b54 283d fffc 613d 439c 543d a904 873d
00000150: 6538 443d 0386 a43d 9618 613e 2060 803d
00000160: 4156 19be 0686 753d fd46 2c3d 4364 d7bb
00000170: aaf0 fa3d 21bc e9bc d2cc 1b3e 8173 3b3e
00000180: 5235 0e3e a85b bdbd 1e7e 393e 3f85 513e
00000190: 6dee d13d 9ea8 a83c 49a4 093e 5b2f 3e3b
000001a0: f3c1 203e cb7d 6a3d 46cb 9c3d cb47 93bd
000001b0: d41a f73c 8bf1 84bc 6f13 f73b c439 903e
000001c0: ce63 273e ca1f 2d3d 536d 883d f7f2 313c
000001d0: caaf 523e 0272 773e 752a 043d ea1b ea39
000001e0: 052e 243d 447f af3b 7262 a23d e849 6cbd
000001f0: cb01 a43d 0995 e13c d5d6 513d 22f1 5f3c
00000200: 403c 013e 2692 103d 3930 843d 1e66 6c3c
00000210: 90d9 4a3e 20d7 863d abea 2c3e e540 a53c
00000220: e9cb 353e 8512 023e 8751 5b3e 65ca 263e
00000230: f338 b13d 5859 c83d 8b84 283e f670 d93c
00000240: b327 cc3c fc38 873c f8bd 053e bb6f 4b3d
00000250: 1745 013e 02b1 cd3d aaf1 953d 59ac b83d
00000260: f7c3 223d cdb2 0cbc c714 9b3d ebc6 b43c
00000270: c6b3 d23c 50f5 ba3d e007 0c3e 76cf 943d
00000280: 3ac4 f73c 2803 383e 8440 333d 321c 9ebd
00000290: 053e 2a3e 6974 223d d265 85bc ec09 5d3e
000002a0: 5ef3 123d 9b80 123d 32bf 713d fe6f 6f3c
000002b0: 3d9e 313e c2e0 023d 6212 7cbd 7531 4b3d
000002c0: 2064 053e 1045 d93c 6971 7cbc de43 7abd
000002d0: 2b1b df3d 845b 8e3d f9cb 5a3d dad9 b5bd
000002e0: 351c 16bb a3c1 10bd 847e 093e 090d 753d
000002f0: 6043 c83d 777a e3bc f98c a3bb d9e7 36bd
00000300: a648 44be f57f 1fbe 6eb4 c8bb 7455 12bc
00000310: ef74 d73d cf85 ac3c ff40 fabd 32a0 ec3d
00000320: 3aa7 fc3c 15ab 13bc cc08 933d 33d1 4c3d
00000330: 93f3 413c a884 5ebd 398e 033d 1340 e63c
00000340: 1afe 04be e366 c53d f666 fabd ff0a 4dbc
00000350: 5ce2 013d 30a5 953c 02a3 333c 9240 ed3b
00000360: c34e 0d3d 49dc 08bd 9ed4 623c eb56 803c
00000370: 4716 50be 624d 02bd d26a d83d afc4 713d
00000380: 6784 b8bc c064 9e3c 4cfb 913e baf3 2cbe
00000390: d11e 9dbb 435f 94bc 6e1f 113d dbc2 04be
000003a0: 7839 383d f9d7 6eba 5024 473c 2316 c13d
000003b0: 5a14 7a3d 4b3c af3d c4cd ae3d e640 183d
000003c0: ebb7 953c ad89 e23c 6cae a7bd d25e 3bbe
000003d0: 0e3e 553d 9a8b 84bb 34ec 77bd c4dd c8bc
000003e0: e08a a13c 105b 0c3d 03d9 9bbd 5616 15be
000003f0: b7eb 3d3d cc01 5d3b 0cfd 4dbe 3b51 37bd
0.16292311 0.18073684 0.1620622 0.06735853 0.16810675 -0.009832154 0.36086538 0.15215982
0.06614263 -0.0748977 0.16991995 0.05856099 0.08825455 0.10425269 0.044082668 0.007856074
0.06376553 0.23301612 0.07930274 0.0054255775 0.023344973 0.03475772 0.04843764 0.04197219
0.10238684 0.0006274531 0.10499379 0.021765696 0.068072855 0.035277333 0.045780633 0.099373266
0.040556077 -0.04832097 0.19110681 0.10471295 0.16107929 0.039454777 0.24467808 0.2908356
0.098054424 0.002587013 -0.059259154 0.08086009 0.0512061 0.0015871333 0.04025332 0.019233285
0.051437482 0.050435588 0.11095436 0.02784614 0.082723536 0.0012730627 -0.028577948 0.092762105
0.044314276 -0.008575317 0.118838176 0.046046466 0.021463582 0.032422 0.1930786 0.11733292
0.17865331 -0.008129057 0.16013798 0.18016696 0.1561254 -0.03772404 0.050071802 -0.021709315
0.05798716 -0.032832574 0.13203192 -0.035580385 0.15804768 0.029700067 0.19192238 -0.0458698
0.041095894 0.055172917 0.051906835 0.06592686 0.047905345 0.08033373 0.21982035 0.062683344
-0.1497431 0.059942268 0.042059887 -0.0065732314 0.12252934 -0.02853209 0.15214851 0.1830578
0.13887528 -0.09245998 0.18114516 0.20460986 0.10250554 0.020588215 0.13441576 0.0029019925
0.15698986 0.05724887 0.07655959 -0.07191428 0.03016416 -0.016228458 0.0075401585 0.28169072
0.16346666 0.042266645 0.06661477 0.01086115 0.2057487 0.24164584 0.032267053 0.00044652756
0.04008295 0.0053557474 0.07928933 -0.05768767 0.080081545 0.027536886 0.05123027 0.01366833
0.1262064 0.035295628 0.0645451 0.0144286435 0.19809556 0.065840006 0.16886394 0.020172546
0.17753567 0.12702377 0.21417819 0.16288145 0.0865344 0.09782666 0.16456811 0.026543122
0.024921274 0.016506664 0.13060749 0.0496671 0.12624012 0.10043527 0.073214844 0.09017248
0.039737668 -0.008587551 0.07572322 0.022067508 0.025720488 0.09128821 0.13674879 0.072661325
0.030244935 0.17969954 0.0437627 -0.077202216 0.16625221 0.0396618 -0.016283903 0.21585816
0.035876624 0.03576718 0.05902023 0.014614103 0.1734552 0.031952627 -0.06154097 0.049607713
0.13026476 0.02652219 -0.015407898 -0.06109988 0.10893854 0.06951049 0.05341718 -0.088794425
-0.0022904996 -0.035340916 0.13427168 0.059826884 0.09778476 -0.027768357 -0.0049911705 -0.0446547
-0.19168338 -0.15576155 -0.0061250245 -0.008931506 0.1052035 0.021059899 -0.12219428 0.11553992
0.030841459 -0.009012957 0.07179412 0.050004195 0.011837858 -0.05432573 0.032118056 0.028106725
-0.12987557 0.09638765 -0.122266695 -0.012514829 0.031710014 0.018267244 0.010964157 0.0072403634
0.03449894 -0.033413205 0.013844637 0.015666446 -0.20320998 -0.03181208 0.10567249 0.059025463
-0.022524072 0.01933515 0.28512037 -0.1688985 -0.0047949334 -0.01811183 0.035430364 -0.12964956
0.04497668 -0.0009111162 0.012154654 0.0942805 0.061054565 0.08556422 0.085353404 0.037171267
0.018276175 0.02765354 -0.08187565 -0.1829789 0.052061133 -0.004044962 -0.060527995 -0.024519809
0.019719541 0.03426653 -0.07609751 -0.14559302 0.046367373 0.0033722995 -0.20116061 -0.0447552

rios_f.RIOS_H.rnn_cell0.weight_hh f4 [384, 96]
00000000: 53d5 dd3b d49b 9a3b 6998 76bc 6457 7fbd
00000010: daeb 373c 9e29 4bbc 0588 0c3c 3e88 4d3b
00000020: 6250 e63c cab5 0c3c 7f35 b63b 3562 84bc
00000030: 8aa7 c03b c8f9 02bb 742d c1bc 27a5 0ebd
00000040: 60d7 863b a79a 8b3d 1a4c 033d ecf7 a33c
00000050: b269 ebba f3a8 9a3c 84cc a8bc da37 883c
00000060: 6b8b 923a 5e85 03bd fb18 adbc 134d 91bc
00000070: 4621 53ba 1fed adbc c059 99bc d3a4 e73c
00000080: c24d c23b 5f94 60bd a9af 75bb 9ed7 fc3b
00000090: f5a3 2cbc 9fe3 90bc 6597 ee3b 300e 9a3c
000000a0: 996f e43c a30a 883c 227c 033b 091f 91bc
000000b0: 8182 99bb 0973 983b 3df9 05bd cbdd ed3c
000000c0: 6e60 1c3c ae37 183d 6d57 2abc 9ad2 b33c
000000d0: 620d 9b3b d386 7d3c 3323 d039 eba2 f2ba
000000e0: 5734 94bc b780 cbbb 1aa6 de3c a9a9 443c
000000f0: 6b4e eebb 9500 b4ba 6dec 3f3c a430 dbbb
00000100: 6b50 adbb 1f32 cfbc 17d1 1e3c 9e52 20bd
00000110: 9af6 593c 50ff 0dbc 65ec 80bc 172b d1bb
00000120: 3093 f3bc 5c0a 3e3d 10ec b43c 5329 b23b
00000130: 4e05 04bb 7b80 70ba aa3e 983a 0cfb 50bc
00000140: ec57 673d 4ca7 ddba 8b70 a6bc 96bb f1bc
00000150: 9dad 25bc f5b9 5abc c8e8 d13b b2fc fbbb
00000160: d32a b3bb f795 ac3c 2b1d 03bd 2c29 71bc
00000170: 0e43 5b3c af27 673c 526b 183b 9c3b fcbc
00000180: 5154 7ebc 22de 9fbb 6842 3d3c fc7e b6b9
00000190: ab0e 3c3c a60c bdbb d4b7 d2ba 7561 a8bb
000001a0: 0e2f cc3a e466 d2bb a006 8cba 127b d73a
000001b0: 49bc 31bb 1c10 c03a 2d2b 7a3b 769e 05bd
000001c0: bf57 533a 2c42 babb 2817 0bbc c271 8e3b
000001d0: d600 67bc fd4f 08bb 5389 4dbc 9f39 9a3c
000001e0: 2d21 c93b 2fc3 b3bb b1f6 973c e4b8 0fbb
000001f0: f3d2 423b f645 c53b d6df c0bb 0267 adbb
00000200: 04ae 09bc 50b5 dfbb fb68 eebb b0ed 6639
00000210: 7e9c 4f3b 4cf8 df3a 9c25 a5bc 8ecf f5bb
00000220: 9345 133c 63be 27bb 88bc 0d3d c11f aebc
00000230: 1f7f fb3b 8da8 79bb a4be cb38 85cc 753b
00000240: 1bdd 303c 7449 0b3b a3f5 183c 54c1 063a
00000250: d0d9 3cbc dd7f 6abb 5187 263c e14d 8a3b
00000260: d502 3e3c 1938 bf3c 63db 8abc 5bc0 49bb
00000270: 1db5 e1b7 2fb4 30ba 414f 2bbc 2118 cdbb
00000280: b2c4 4a3c decf ab3c 41c8 81bc 3254 adb7
00000290: 03ff 7b3b 6e3d 083b 0188 0abc e30b 573c
000002a0: 92bf e03b b569 bbbb 2785 58bc 4f02 e63b
000002b0: 6e6d 8dbb 6ed3 71bb c199 c9bb de84 5b3c
000002c0: ff0d 68bb f46b 873a d36d 823c 1b81 25b9
000002d0: b2f7 79ba 613a 743b 1ef9 7fbc 7487 ac3b
000002e0: 71b7 22bc 330b 6b3a 9194 4b3c 1bae beba
000002f0: 3ba8 e43a efa0 6db9 b737 fa3c 0c70 ab3a
00000300: 3866 1cbc a5b1 8e3c 8da2 e4bc 374c 4fbc
00000310: 2147 e33c 268a 71ba 51e7 25bc 2cab 823a
00000320: 91bd 1c3c f546 06bb 3931 3cbb cd30 033c
00000330: afaf 983b c119 a9bc 69e7 b4bb 5f94 2dbd
00000340: 5fc0 7dbb cf41 513c ed2b 32bc 2653 08bb
00000350: 0a75 94bc eb3b fb3a 702f 34bc a6df 1c3a
00000360: 0cb2 923b 07bb a73b eadc 70ba f55d cdba
00000370: 6224 d1ba 34d8 8b3c a9a5 113c d7ce f5bc
00000380: d85d a1bc 21be 30bc 2de2 b53c 87da 01bc
00000390: 88dd f6b9 f837 5cbc 8c3f 003d 7a1f e839
000003a0: 01c4 983c 289d a73c e6fd 5d3c e714 03bd
000003b0: 4db0 183d e059 02bc 9952 b3bb df66 7cbb
000003c0: cd31 873c 6f99 563b ae1c a0bc fb7a c93c
000003d0: c946 00bd ebe2 ae3c 7a8b 683b 5a60 f13b
000003e0: b30e 1dbd 1411 b43c 3740 dd3c afae 8bba
000003f0: 36a5 ceba 6004 44bc a304 3e38 1caa 05bb
0.006769815 0.004718283 -0.015050986 -0.0623392 0.011225665 -0.012400059 0.008577351 0.0031361724
0.028114501 0.008588264 0.0055605765 -0.01616011 0.005879347 -0.0019985307 -0.023581244 -0.03482547
0.00411503 0.06816607 0.032054998 0.02001568 -0.0017960577 0.01887939 -0.020605333 0.016628195
0.0011180466 -0.03210961 -0.021130076 -0.017736947 -0.00080539694 -0.021231232 -0.018719554 0.028276836
0.0059296796 -0.054828998 -0.0037488735 0.0077161333 -0.010537137 -0.017686663 0.007281231 0.018805593
0.027885245 0.016606634 0.0020063003 -0.017714994 -0.0046847467 0.004652385 -0.032708395 0.029036423
0.009544475 0.037162475 -0.0103968205 0.021951009 0.00473182 0.015474039 0.00039699077 -0.0018511688
-0.018091364 -0.0062104124 0.027178813 0.012003341 -0.0072725317 -0.0013733084 0.011714083 -0.006689148
-0.0052891276 -0.025292454 0.009693406 -0.03914129 0.013303423 -0.008666828 -0.015737722 -0.0063833105
-0.02973327 0.0463966 0.02208522 0.005437055 -0.0020144763 -0.00091744185 0.0011615355 -0.012755167
0.056480333 -0.001691082 -0.020317337 -0.029508393 -0.010112193 -0.01335 0.0064059235 -0.0076900357
-0.0054677515 0.021067603 -0.03201024 -0.014719289 0.013382686 0.014108582 0.0023257327 -0.030790143
-0.015523032 -0.004878775 0.011551477 -0.00034808356 0.0114781065 -0.00576933 -0.0016076514 -0.005138571
0.0015577988 -0.006420957 -0.0010683127 0.0016439876 -0.0027120283 0.0014653238 0.0038172707 -0.032621823
0.00080620864 -0.005684158 -0.008489408 0.004347057 -0.01409932 -0.002079963 -0.012544948 0.018826304
0.006137988 -0.005485914 0.018550249 -0.0021930272 0.0029727786 0.006020303 -0.0058860583 -0.0052918205
-0.008403305 -0.006827034 -0.0072756982 0.00022023055 0.003167897 0.0017087548 -0.020159535 -0.007501549
0.008988756 -0.0025595657 0.034603626 -0.021255376 0.007675066 -0.003809485 9.715304e-05 0.0037505936
0.010794903 0.0021253498 0.009335908 0.00051405025 -0.01152654 -0.003578178 0.010164098 0.0042207097
0.011597355 0.02334218 -0.016950315 -0.0030784819 -2.6906428e-05 -0.00067407166 -0.010455907 -0.00625898
0.012375997 0.020973142 -0.015842559 -2.0662414e-05 0.003845156 0.0020788568 -0.008455277 0.013125393
0.0068587745 -0.0057193884 -0.01321534 0.007019318 -0.0043160236 -0.0036899704 -0.006152362 0.013398377
-0.0035408733 0.0010331855 0.015921509 -0.00015783722 -0.00095355057 0.0037266242 -0.015623359 0.0052651707
-0.009931431 0.00089662074 0.012425558 -0.0014547737 0.0017445156 -0.00022662034 0.030544145 0.0013079657
-0.009545855 0.017418692 -0.027909542 -0.012652448 0.027743878 -0.0009214006 -0.010125951 0.0009969226
0.0095666805 -0.002048907 -0.0028715862 0.0080072405 0.004659615 -0.020642163 -0.0055207503 -0.042377826
-0.0038719398 0.012772038 -0.010874731 -0.0020801513 -0.018122215 0.0019167637 -0.010997638 0.0005984254
0.0044767912 0.005118731 -0.0009188192 -0.001566826 -0.0015956277 0.017070867 0.008889594 -0.030005855
-0.019698068 -0.010787518 0.022202576 -0.007925636 -0.0004708583 -0.013441078 0.031310603 0.0004427394
0.01864815 0.02046068 0.013549304 -0.032002356 0.03727751 -0.007955998 -0.005472493 -0.0038513464
0.016503239 0.0032745262 -0.019544926 0.024594774 -0.031317506 0.021348437 0.0035483525 0.0073662223
-0.038344096 0.0219808 0.02700816 -0.0010656918 -0.001576579 -0.011963934 4.530385e-05 -0.0020395583

rios_f.RIOS_H.rnn_cell0.bias_ih f4 [384]
00000000: ae13 2e3d 5be5 aa3d 5155 803d 7d47 b03e
00000010: d3b6 8f3d 475b 903c 5144 f53d d031 533d
00000020: da46 b13e a782 cabc 432a 25bc 0376 a53d
00000030: 48e4 d43d e5d2 1e3d 0b5f 8d3d 61e6 873d
00000040: 42f1 163d 5473 413e 8f2d 4b3d 0735 7e3e
00000050: 566e 203d 9e6e 683d 3a58 c03c 37e5 b43d
00000060: 0353 033e 2ad8 41bc 37e0 873c 47ec af3d
00000070: cb63 063d edf1 153d 7deb 253c 6913 da3d
00000080: 19a5 0c3d ac27 c83e 3140 61bd 5793 b13d
00000090: 5a84 f43d 77ce 9f3d ac15 2e3e 778b de3d
000000a0: a693 b63c bbbb c93d e93b 003c aaa7 1b3e
000000b0: f926 1b3d c09e ed3c 4b12 cc3d ead3 973e
000000c0: 2cf4 103e 4c6d cc3e db0d 833c a04d 003e
000000d0: a8b6 4d3d a281 81bb 0837 233d 3864 083e
000000e0: 7281 373d 9b42 d8bc 7e3a 3a3e b05c 803d
000000f0: 3a95 063c bf83 c13c 8582 8a3d 636e 51bd
00000100: 6aad 2f3e a737 73bc 648c 9abb 8272 503e
00000110: b355 a93d 4beb 5e3e 4197 b53d 5de2 033e
00000120: b3e4 fe3b 640d 15bd 9499 873d a026 88bc
00000130: 2a10 683c 40cf ebba 5fec 10bd 9773 853d
00000140: e6e6 303e b5dc 6e3d f8fc 713d 1654 fd3e
00000150: 1e3b 37bd f06a 77bc cc4a d53c 98a8 c13d
00000160: 7cdb 893d 5b4c 4f3e c397 9abc aa88 843c
00000170: d3c0 f03c aa31 e7bc 98fe 203d bd10 213c
00000180: fe2d 133e dcd2 b9bc 04e9 52bd e5d4 653d
00000190: 9fab 8f3c 182b 523d d3ea 4fbd 9abe f0bc
000001a0: 6951 553d d930 fd3b a893 403d 498e 4b3c
000001b0: 90f2 4d3d b946 e4bc 5da3 de3c af55 fa3c
000001c0: 3121 cdbb 4caf e63d 3630 1dbc 8997 93bd
000001d0: 6ab3 0fbd 17cf 51bd dacd bebc f87f a83c
000001e0: 8028 6cbb 59a4 59bc 0c7e c8bc 44ca 3e3d
000001f0: 74dd 6ebc 1645 f03c 1958 4ebd af91 533d
00000200: 93bd cf3c 1600 aa3c 2f4f 7ebd df6c 90bc
00000210: a555 4cbd c05f 953c ef51 83bc 5304 913d
00000220: f8ac 993c 978d 843b 6b3e 6abd c44b 9ebb
00000230: e42e a83c 6fba c1bc 2638 e7bc 5656 b2bc
00000240: ed78 ea3d 3093 5a3d 3265 5b3d 6f24 e3bb
00000250: be8d 353c bb6e 59bc 1826 863b 1b06 b63c
00000260: 98b5 8f3b a533 a43c c54a 5a3d 34cd 003d
00000270: 74b0 323d be62 ffbc ed6b 1a3c 5697 ffbc
00000280: e5ed 83bd 914d 643b f3eb c83c 8661 423d
00000290: 0c26 8fbc 3758 dd3b 702f eebc 3047 0ebd
000002a0: f7f3 dabc 5680 843d 9606 2c3d cac3 cebc
000002b0: 823d 75bb f206 a33c 81a0 3f3d 544d ab3a
000002c0: 37d5 743d 424d 6a3b 2e53 6e3d 067b 223e
000002d0: 2c78 2a3b 68e4 d13a 96cd fb3b 60a7 f2bb
000002e0: 2dec 0b3c 1206 8a3d 2356 ed3c 1c36 763c
000002f0: 0b38 053c 0ce1 0c3b 51d3 0cbd e526 80bd
00000300: 294e 28bd 7093 113d 1fe5 53bc 811a 843d
00000310: aad5 fb3d 246d dabd e2ee 0a3d 112a 473d
00000320: 669c 68be 0670 d4bc 7fe0 3b3c 4cd2 c63b
00000330: 04da 46b9 5b93 47bc 9d64 de3d c090 c6bd
00000340: 7b41 e73c 29c4 b3bd eb74 d7bd 0bec 97bc
00000350: c1ed a83c 2b76 74bc 8ed2 e7bb ad3f b53d
00000360: e16c e53c acbf b03d b51b 59bd 2262 993c
00000370: 0270 8c3d 924f 48bc e1e1 e23b 7f1d ae3b
00000380: be5e 293d adfe 363e e72e 32ba 58ab 8f3d
00000390: 7f89 cdbd 1ec5 1abc ae8a 233d b704 2dbd
000003a0: 4053 843d 30f3 10bd 83ab 3f3d da14 153d
000003b0: 9d49 013e 15ae 83bd 8575 babc 4f04 5f3d
000003c0: 3197 8cbc b1fc e03d a6d1 89bd e89e c73c
000003d0: 14ed b5bd 119c bf3d cebb 493d d3ad f1bc
000003e0: 8647 92bc a573 ab3d 2166 2dbd 0ed8 c2bd
000003f0: 5cb4 4c3d 7df6 983d 16c7 afbc ede6 03bd
0.042499237 0.08344527 0.06266273 0.3442954 0.07017293 0.01762165 0.11975921 0.051561177
0.34624368 -0.024720503 -0.010080877 0.080791496 0.10395104 0.038775343 0.06902894 0.06635738
0.036851175 0.1889165 0.049603995 0.24824916 0.039167725 0.056746118 0.02347957 0.08832782
0.12824635 -0.011831323 0.016586406 0.08589988 0.032810014 0.03660767 0.010126946 0.106482334
0.034337137 0.39092767 -0.05499286 0.08670681 0.119393066 0.07803052 0.17000455 0.108664446
0.022287201 0.0985026 0.007826784 0.15200678 0.037878964 0.029006362 0.099644266 0.29653865
0.14155644 0.39927137 0.015997818 0.12529612 0.050223023 -0.003952221 0.039847404 0.1331948
0.044801183 -0.026398947 0.18186375 0.06267679 0.008214289 0.023622392 0.06763176 -0.051130664
0.17155996 -0.0148448115 -0.004716443 0.20356181 0.08268299 0.21769445 0.0886674 0.1287932
0.007778728 -0.036389723 0.066210896 -0.01661998 0.01416401 -0.0017990842 -0.03538167 0.06516188
0.17275581 0.05831595 0.05907914 0.49478215 -0.044734113 -0.0151011795 0.026036642 0.09455985
0.067313164 0.20243971 -0.018871194 0.016178448 0.02938882 -0.028221924 0.0393053 0.009830651
0.14373013 -0.022683553 -0.051491752 0.056111235 0.01753789 0.05131063 -0.050761055 -0.02938776
0.052079592 0.0077267704 0.047015816 0.01242406 0.050280154 -0.027865754 0.027177507 0.030558435
-0.0062600602 0.11263904 -0.009594014 -0.072066374 -0.035083212 -0.051222887 -0.023291517 0.020568833
-0.0036034882 -0.013283812 -0.024474166 0.046579614 -0.014579166 0.029329818 -0.050376985 0.051652607
0.02535895 0.020751994 -0.062087234 -0.017630039 -0.049886364 0.018234134 -0.01603028 0.07080903
0.018759236 0.004045199 -0.057188433 -0.0048308093 0.020530172 -0.023648469 -0.028225016 -0.021769684
0.11448846 0.053363025 0.053563304 -0.0069318335 0.011081157 -0.013271029 0.0040938966 0.022219708
0.0043856613 0.020044157 0.053293962 0.031445697 0.04362531 -0.031175014 0.009425146 -0.031200092
-0.06441859 0.0034836272 0.024526572 0.047456287 -0.017474197 0.006754901 -0.029075354 -0.03473586
-0.02672766 0.06469791 0.04199847 -0.025239844 -0.0037420695 0.019900773 0.046783928 0.001306931
0.05977365 0.0035751616 0.058184795 0.15867242 0.002601157 0.0016013505 0.00768442 -0.0074052066
0.008540195 0.06739439 0.028971737 0.015027549 0.0081310375 0.0021496443 -0.034381215 -0.062574185
-0.041090164 0.035540998 -0.012933045 0.06450368 0.122966126 -0.10665348 0.033919223 0.048624102
-0.22715911 -0.025932323 0.011467098 0.00606755 -0.00018963969 -0.012181128 0.10859034 -0.096955776
0.028229466 -0.08777649 -0.10520347 -0.018545171 0.020621182 -0.014920752 -0.0070746606 0.08850036
0.02800602 0.086303085 -0.05300494 0.018723551 0.06857301 -0.012226002 0.0069238995 0.005313575
0.04135012 0.17870589 -0.000679715 0.07015103 -0.10035991 -0.00944641 0.039927177 -0.042240825
0.06461191 -0.03538817 0.046794426 0.03639684 0.12625737 -0.06429688 -0.022761116 0.05444747
-0.017161937 0.10985697 -0.067294404 0.024367765 -0.0888311 0.09355939 0.04925137 -0.029501831
-0.01785637 0.08371667 -0.042333726 -0.095138654 0.04997669 0.07468889 -0.021457236 -0.03220265

rios_f.RIOS_H.rnn_cell0.bias_hh f4 [384]
00000000: 1b63 9c3d fc1c 43bd 574c 59bc 1549 a83e
00000010: 9261 4abd f333 9e3d 8f2e 2e3d 07cb 573d
00000020: 068f c33e e80e c2bb d41f 713b 3589 c03d
00000030: 2816 633c 0eec 173d 4605 d53b 2f77 163d
00000040: d4bb 163d 0c24 523e 4c6c 9a3c 4d50 a13e
00000050: e0a8 13bd b871 103e 9a9a 983d fb9c a23c
00000060: b69c 3c3d c76f af3d 0a16 643c dcdd 0b3e
00000070: d1f3 01bc 8485 3b3c 2de8 e73d 158f d53d
00000080: d522 83bc 7d86 ac3e c7e4 e33b e945 913d
00000090: 05fc 803d f0cc 5a3c ee2b 3b3d 274f 0d3d
000000a0: f9ac 7e3d e0d9 c0bc 028e 003d 191f d03d
000000b0: ce33 223d 8133 c63d bf25 db3d 437f 993e
000000c0: ef06 103d 41a4 d53e c11c 003d b520 9c3c
000000d0: 477e ea3d 8f89 793d 15ce 093d 0007 5a3e
000000e0: 5709 863d 116a c03d e8bd 703e 8ec2 d1bc
000000f0: d414 d13c 7dae 103d 7d60 923d 2623 9a3d
00000100: beab f83d 2ea2 023d 82a4 f53d 7439 f33d
00000110: 0008 ee3d d986 543e 5bbd bf3d 3957 ec3d
00000120: 23ff b63b e2c5 523d 5165 fcbb 7592 82bc
00000130: 67e6 303d 0980 663d 513b e83d cad4 453d
00000140: 53d7 303e 8f10 1b3d 4eb7 083e 27ca 133f
00000150: d080 b1bc 0295 073d 82ea e03d f048 ce3d
00000160: a342 853d 7591 693e 3ae7 77bc 9f36 583d
00000170: fdbb 023e 0694 22ba 3b7a 943c 1473 9b3d
00000180: 4691 323e af37 aabc 01fc f8bb 3138 673c
00000190: d433 66bc 26aa 3d3d f99d dcbc abd9 8ebc
000001a0: 46cc 6b3d dae3 043c 16d2 5d3b e4ba 4c3c
000001b0: 4943 823c fa98 15bd 66f7 333d f8c4 2c3d
000001c0: 3628 3c3c 6693 c33d 6f60 07bd b36e f0bc
000001d0: 80ed 17bd 51f4 713d 9c6e 3dbc 0b22 113d
000001e0: 35dc aeba 3608 e43b a715 213d 532c 5f3d
000001f0: 69c4 313c e9b3 3cbc e00f 0cbc 21aa 113d
00000200: 380c 84bc 6590 9d3c 3b51 533d 362c a4bc
00000210: 575d 86bd a7be 75bd 8e3b 643b 3157 56bb
00000220: a843 6e3a ed90 27bd 437d 7fbd 0b7c a03c
00000230: 9b2a 823d ce9b 843d 5fdb 2e3b 3066 5c3d
00000240: 3ef7 f43a 92c6 e3bc 63d9 e1bc f2be 0ebd
00000250: f95a b939 4220 bdbb d198 a03b 1e0b 4c3c
00000260: 659c edbc acf1 efbc 2f50 c93c c263 d63c
00000270: 0051 373d bbb3 19bc 9924 d83c 13ff f73c
00000280: ee00 c33c 050a 24bc 0f7c 2cbd c213 2bbd
00000290: 4119 183b e853 7a3d ec72 183d c4f6 dfbc
000002a0: fc6b a43b 0e2d e7bc 3048 a63d 9eb0 41ba
000002b0: 900f 76bb b6b9 c53c 2c14 00bd 13ea c13a
000002c0: df23 ffbb a49e 23bc 0b39 5c3b b47d 283e
000002d0: 1477 b93b eb53 86bb 8439 b43b 7366 6a3d
000002e0: f710 183c 5dbe 153d a0bb debc a1b0 8a3d
000002f0: a3c2 a23c 9741 b13b 1aa0 a63d b947 b7bc
00000300: 48bf 27bd 3560 9f3d 63ad b03a c19c 943d
00000310: 4a57 7bbd 65c0 643c ff1d 973d 1539 f93b
00000320: 051f b3bd b2b4 073d 2542 a5bd c833 f23d
00000330: ee4a 903c 0a7b a0bd 1149 e03b beb6 9cbd
00000340: 1999 bebc 485c 8d3d 0089 01bd 992c a03d
00000350: 5847 a8bd 1ebc fbbd 6af6 dfbc 04aa 923d
00000360: d764 5bbd 7632 a43d 282f 64bd c2a6 5fbd
00000370: 9722 a8bd 34dc 6b3d e169 723d f83b 33bd
00000380: c9cc aebc 4866 743e 9b55 4ebd af38 a2bd
00000390: 0392 afbd c1e4 f63c 0eb8 23bd aa11 ae3c
000003a0: c505 97bc 0a53 543c e2df 803d 614d a9bc
000003b0: 920f bb3d 484a 0a3d bed6 3abd 633e 15bd
000003c0: 8127 563c fed8 b4bc 257b 5bbd df59 613d
000003d0: 3109 81bd b08c 693d 2263 0a3e ee04 a9bd
000003e0: dd77 60bd 2297 a9bd 0fd3 a23d b615 05bc
000003f0: b082 9dbd 3121 a2bd 9c80 e539 8fa6 6ebd
0.0763609 -0.047635064 -0.01326283 0.32868257 -0.049409457 0.07724752 0.04252487 0.052683856
0.38195056 -0.005922187 0.0036792653 0.0940117 0.013860263 0.037090354 0.006500873 0.036734756
0.03680022 0.20521563 0.018850468 0.31506577 -0.036049724 0.1410588 0.07451363 0.019850245
0.04604789 0.08566242 0.01392127 0.13658851 -0.0079316655 0.011445407 0.11323581 0.10427681
-0.01600782 0.33696356 0.0069547626 0.070934124 0.06298069 0.013354525 0.04569619 0.034499314
0.06217668 -0.02354139 0.03138543 0.101621814 0.039600186 0.09677792 0.10700559 0.29979905
0.035162862 0.41726878 0.03127742 0.019058565 0.11449867 0.0609222 0.0336438 0.21291733
0.0654475 0.093952306 0.23509943 -0.025605466 0.025522627 0.035322655 0.0714731 0.07526235
0.12142132 0.031892948 0.11994268 0.11876193 0.1162262 0.20754565 0.093622886 0.11540074
0.005584614 0.051458247 -0.0077025075 -0.015938977 0.04318848 0.056274448 0.11339439 0.048298635
0.1726964 0.03785759 0.13351175 0.57730335 -0.021667868 0.03310109 0.10982229 0.100725055
0.065068506 0.22809394 -0.015130812 0.052786466 0.12767024 -0.0006201867 0.01812469 0.07590309
0.1743823 -0.020778505 -0.0075984006 0.014112518 -0.014050443 0.046304844 -0.026930796 -0.017437777
0.057567857 0.008110965 0.0033847145 0.01249573 0.015901225 -0.036522843 0.04393711 0.04218003
0.011484196 0.095495984 -0.03305095 -0.02934966 -0.037091732 0.05907089 -0.011562016 0.035432857
-0.0013340773 0.0069589866 0.03932729 0.05448563 0.0108500505 -0.011517503 -0.008548707 0.03556264
-0.016119108 0.019233892 0.05159114 -0.020040613 -0.06560772 -0.059996273 0.0034825536 -0.0032705779
0.0009089061 -0.040909696 -0.06237532 0.019590398 0.063557826 0.0647503 0.0026681048 0.05380839
0.0018689407 -0.027804647 -0.027569478 -0.03485007 0.0003535373 -0.0057716677 0.0049010296 0.012453822
-0.029005239 -0.029290043 0.024574367 0.026170615 0.044754982 -0.00938123 0.026384639 0.030272996
0.023804154 -0.0100121545 -0.0421105 -0.04176689 0.0023208412 0.061115175 0.037218973 -0.027339347
0.0050177556 -0.028219726 0.081192374 -0.0007388684 -0.0037545897 0.024136405 -0.031269237 0.0014794491
-0.0077862586 -0.009986553 0.0033603336 0.16454202 0.005659947 -0.0040993593 0.0055000205 0.05722661
0.0092813885 0.036558498 -0.027189076 0.067719705 0.0198682 0.0054094302 0.08136006 -0.022373067
-0.040953904 0.07782022 0.0013479408 0.07256461 -0.061362542 0.013961886 0.07378768 0.0076056817
-0.08746151 0.03313131 -0.08069257 0.11826283 0.017613854 -0.07835968 0.0068446477 -0.07652043
-0.023266362 0.06902367 -0.031624794 0.07821006 -0.08216733 -0.1229174 -0.02733918 0.07161334
-0.053562965 0.08017437 -0.055709034 -0.054602392 -0.082097225 0.05758305 0.059183005 -0.043758363
-0.021337884 0.23867142 -0.05037461 -0.07920968 -0.085727714 0.030138375 -0.03997045 0.021248657
-0.018435368 0.012959251 0.06292702 -0.02066678 0.09133829 0.033762246 -0.04561495 -0.03643645
0.013070942 -0.022076126 -0.053584237 0.05501735 -0.06300581 0.057018936 0.13514379 -0.082528934
-0.05480181 -0.082807794 0.079504125 -0.008122852 -0.07690942 -0.07916487 0.00043774105 -0.05826431

rios_f.RIOS_H.rnn_cell1.weight_ih f4 [384, 2]
00000000: f4f9 c33c 7225 bc3c b57b 603d bea3 0fbd
00000010: 3ef0 eb3c 3b3d 4a3c a2c5 403d d6f6 a1bd
00000020: bc71 2fbb c5fe 80bc e042 263b af41 92bd
00000030: d48f 34bd a8ed 913c 5d1d b9bc 660f dbba
00000040: f07a 26bd 2626 0ebe 28dc 23be 88df e4bd
00000050: ec9e 5bbc f2f6 0bbd 558f b1bc 80ae 32bc
00000060: d39e 4b3c 07c8 42bd 93de c13c e849 453c
00000070: 7c19 ac3d 6a28 dfbd abad 563c 6ebd 5cbb
00000080: c416 aabc 9ae9 dcbc 1d6d ba3d 9660 583d
00000090: 09af abbc 78b3 deb9 a224 5c3d bb5c e6bc
000000a0: c1f3 383d d5b0 9d3d c011 a93d 3504 c5bb
000000b0: a0da f83c e916 383b 8d5e 0b3c beac 50bb
000000c0: e0b8 aebc cded 8cbc d856 8fbd 56c9 9a39
000000d0: ab5b 9f3c fa5d 89bc af8b ab3b dc26 b0bc
000000e0: 594b 38ba e692 b5bc 9086 8b3c 528f ea3c
000000f0: 101b 2e3c 306b c73c 6669 c43d 8ca9 243d
00000100: d9de 3a3d 7007 dd3b 9fb0 953d a1f3 21bd
00000110: 6e00 303d 7885 a23c 64f9 13bd 83b1 7dbd
00000120: 5837 b2bc d5ac 54bd b2de 3f3d f509 733c
00000130: 6ec7 df3b 45f1 b13b dbae 643c 362f 5f3d
00000140: 22b1 443d 8ce9 5a3c 045c 4c3d 76bb 813c
00000150: 3fd1 44bc 15a1 36bd 61b4 68bc 59e6 1dbd
00000160: de40 8ebb 6a4d 87bb e435 ea3c 6d8e d23a
00000170: 260e acbd ab80 12bc 3a65 dcbc 21fe 9abd
00000180: 4204 c33c f3ab 053d dc8b 37bd a89a f43c
00000190: 15a4 d13c ad38 e93b b09c ebbb fc81 b1bc
000001a0: ee14 473d eea9 393d f231 a83c eb0a a1bb
000001b0: a5e5 8cbb 7361 27ba 2ee3 b5bb 0482 823b
000001c0: 6730 453d e1da ba3c ec9d 413d 8924 943c
000001d0: 74be 21bb 03e7 463d f829 2abc b502 f4bc
000001e0: 9e9f 37bd e1f5 7dbd 13f5 4d39 6b72 e3bc
000001f0: 66d1 9b3c 5cbe 5f3c 2964 a43a 1932 54bb
00000200: 6874 563d 949a 713c 6a71 f5bd 4752 a0bd
00000210: 538f c13b 5d1e 90bc bc7f f13b 17e7 4dbc
00000220: 8452 dbbc 571e a9bc 15c8 94bd 1461 cabd
00000230: 8b73 6d3d 919f e23b 2311 603b b500 b43c
00000240: fa3d a83c d7f4 81bb dbe7 aebc 24b7 d4bd
00000250: c320 82bd ce4c 4e3d 433b 31bd 8e83 663c
00000260: 60fd f3ba 0d3d ae3a 965b 2cbc 2a37 7d3a
00000270: afed 623c d3bf 643c 8bac 9d3a ac23 7bbb
00000280: c609 083d bf7f 553c 4969 aabc 8205 cbbc
00000290: e968 d53c 9ec4 95ba f893 a9bc 5b29 35be
000002a0: 0316 a2bb e622 f9ba c7c9 a3bc 9e3c 2abd
000002b0: 4adb 29bb 35bb bbbc 8eaa 413d 78ee 153d
000002c0: e339 843d 02e5 ec3c b97d 37be b900 98bc
000002d0: 3ec6 88bb db1a 4fbd 3302 263c d991 bbbb
000002e0: 32d1 103d 4c41 d0bc dc7a 203c 4298 3ebc
000002f0: a642 d03b 690c 48bd 3e6a c0bc c718 a4bc
00000300: 39b1 3d3c cc9b a73d 74de b0bb 1e0f afbd
00000310: 21b7 8d3d 460b 443d 0436 9cbb e122 4bbd
00000320: 7878 a5bb a5bb d0bb f6e7 1c3c fc45 483c
00000330: 50e8 12ba 8ec1 af3c 7891 43bc 9fe0 3f3b
00000340: 0bdc 843d fe16 333d bf1c 1cbe f99a 40bd
00000350: c3eb bd3c 3a8a 06bd a928 d23a d5bc 44bb
00000360: 7031 81bc a581 373c 9921 f53c 7b2a a23c
00000370: d398 8dbd 872d c5bc 0994 03bb c0f7 6d3a
00000380: 90ae b8bb 2235 79bc a938 683d 635e 823e
00000390: 8402 2bbc 8397 323c bf73 f83d b862 a6bd
000003a0: 23b5 fcbc f281 a93d 5939 613d 4de8 0dbd
000003b0: dcfe a43d 1a34 733b edd2 b63b 069a 943b
000003c0: 12ce 923b 02d3 053a d42e f33d 3267 36bd
000003d0: b102 3f3c 6484 1abc ea5b 823c 1b42 363c
000003e0: f6e9 98bc a7bf a4bc 9e5f 7b3d 4ede de3c
000003f0: 236e bfbb 99d0 98bb f0b9 8e3d 4759 e53c
0.023922898 0.022967074 0.054805476 -0.035068266 0.02880108 0.0123437 0.047063477 -0.07908408
-0.0026770672 -0.015746484 0.002536945 -0.071414344 -0.044082478 0.017813519 -0.02259701 -0.0016712963
-0.040644586 -0.1388174 -0.16001952 -0.11175448 -0.013404589 -0.034171052 -0.021674791 -0.010905862
0.012428003 -0.047554042 0.023665702 0.012041546 0.08403298 -0.1089638 0.013102929 -0.0033682245
-0.020762809 -0.026966859 0.09102843 0.052826487 -0.020957487 -0.00042476854 0.053745873 -0.02812039
0.045154337 0.07699744 0.08255339 -0.0060124644 0.030377686 0.0028089827 0.008506429 -0.0031841244
-0.02132839 -0.017203236 -0.06998986 0.00029523176 0.01945289 -0.016768444 0.0052351574 -0.021502905
-0.00070302706 -0.022164773 0.017031938 0.028632794 0.010626569 0.024343103 0.09590416 0.040200755
0.04562268 0.0067452714 0.073090784 -0.039538983 0.04296916 0.019839033 -0.03612651 -0.061936866
-0.021754906 -0.051922638 0.04684324 0.014833917 0.006829194 0.005430373 0.013957704 0.054488383
0.04802049 0.013361346 0.04989244 0.015836459 -0.012012779 -0.044587214 -0.014203162 -0.038549755
-0.004341229 -0.0041291015 0.02859015 0.0016064175 -0.08401136 -0.00894181 -0.026903737 -0.075680025
0.023805741 0.032634687 -0.044811115 0.029858902 0.025590936 0.007117352 -0.0071903095 -0.021668427
0.048603944 0.045328073 0.020531628 -0.0049146316 -0.0042998367 -0.00063850655 -0.0055507636 0.003982784
0.048141863 0.022809448 0.047269747 0.018083828 -0.002468017 0.048560154 -0.010385983 -0.029786447
-0.044829957 -0.062002067 0.00019641621 -0.02776452 0.019020747 0.013656225 0.0012542057 -0.0032378493
0.052357107 0.014746327 -0.11984523 -0.07828193 0.005906978 -0.017592603 0.0073699635 -0.012567303
-0.026772745 -0.02064435 -0.07264725 -0.098817974 0.05797152 0.0069159945 0.0034189902 0.021972993
0.020537365 -0.0039659548 -0.021350792 -0.10386494 -0.06353905 0.050366215 -0.043269407 0.014069451
-0.001861494 0.0013293341 -0.010519883 0.0009659404 0.0138506135 0.01396175 0.0012029571 -0.0038320823
0.033212446 0.013030945 -0.020802157 -0.0247829 0.026051002 -0.0011426394 -0.02070044 -0.17691557
-0.0049464717 -0.0019007593 -0.019993676 -0.041561715 -0.002591806 -0.022916416 0.047281794 0.036604375
0.064563535 0.028917793 -0.17919053 -0.018555032 -0.004174023 -0.05056272 0.01013236 -0.0057241735
0.035355754 -0.025421761 0.009794917 -0.011632981 0.0063556014 -0.04883996 -0.02348816 -0.020031346
0.011577898 0.08184013 -0.005397612 -0.08547805 0.06919695 0.047862314 -0.0047671814 -0.04959381
-0.0050497614 -0.006370025 0.009576788 0.012223717 -0.0005604075 0.021454599 -0.011936538 0.0029278172
0.06487282 0.0437231 -0.15245341 -0.047022793 0.023183709 -0.032846667 0.0016033846 -0.003001978
-0.015770644 0.011200343 0.029923247 0.019795647 -0.069139145 -0.02406956 -0.002007725 0.000907775
-0.005636044 -0.015210422 0.05669466 0.25462636 -0.0104376115 0.010900381 0.12131452 -0.08124298
-0.030848091 0.08276738 0.05498633 -0.034645367 0.08056423 0.0037109912 0.0055793435 0.0045349626
0.004480132 0.000510499 0.11874166 -0.04453201 0.0116583565 -0.009430978 0.015912969 0.011124159
-0.018666249 -0.020110918 0.061370485 0.027205613 -0.0058419867 -0.0046635387 0.069690585 0.027996672

rios_f.RIOS_H.rnn_cell1.weight_hh f4 [384, 96]
00000000: d808 223d 0575 1d3c 12eb c9bb 8158 6dbc
00000010: 413e 613c 41c9 a33b 7f91 8b3b a0f8 56bc
00000020: d2d5 603c c4bd 73bc 35d4 a93c d43e 21bb
00000030: b33c a93b d3f3 06bb bbb1 423c 60af 5ebc
00000040: eda0 db3b 7ce7 8bbc 5af5 dc3b bd1b 923c
00000050: 6b08 48bb 8217 493c d880 09bc 81db 30bb
00000060: eb64 423b de77 82bc 78d3 4abc a600 6dbc
00000070: 9cf3 bbbb 32e0 3ebc 5cfe d5ba c254 b73c
00000080: 9d00 193b 1088 0abc b30b 7b3c 6aca a33c
00000090: 33a7 8e3c fc3e 15bc 3e2f 263b 156c cf3c
000000a0: 046b 2d3c 4128 803c 39dd 873c 5a52 e3ba
000000b0: 9fe5 4f3c 606a e53c a12b 2dba bfd9 b23c
000000c0: 0dad 43bc 3122 593c 4062 81bc 913d 083c
000000d0: 6a5a cb3a 2494 693c 1944 733a 209a 933b
000000e0: d63a 5d3b 5ee8 c8bb d182 d23c f37c f1bb
000000f0: 12b7 90ba ebae 593c 6423 01bc 4b94 78bc
00000100: 0038 0d3c 318d eebc d9e8 9f3b 9b0f 82bc
00000110: 5138 e8bb 2182 813c 542a 8ebc 72ce 713b
00000120: 8924 94bc 4c6c 12bb 1cd6 ab3b ea2e ffbb
00000130: 035c 9db9 50ed a0b9 79a0 9c3b 5594 1cba
00000140: d963 ae3c 5b8e 373b 822f 14bc 93b2 0bbd
00000150: 8fe0 6f3a 1192 da3b 5ae0 4c3b ee60 923c
00000160: 2c80 e6bb c2dd 73bc 5882 5ebc f63e 4dbc
00000170: 0b98 c83b a161 f4b9 ded2 8f3c 6146 91bc
00000180: 2450 f93c 512e c23b 3a08 a6bc b75a d8bc
00000190: 3c6e 8b3c a18a ae3b 32fb d33c 7054 12bc
000001a0: a888 273c 047a d3bc 0acf bd3c 5991 77ba
000001b0: d2ed 2a3c 5d35 c5bb e534 e4bb 4571 b1bc
000001c0: a9b0 733b e4e6 a7ba e190 9c3c 934e 753c
000001d0: b2b1 133c 2654 993c b78c b0bc 1339 443c
000001e0: a213 843b 0dec c3bc 52c4 93bc 7f6f fdbc
000001f0: 4ddb d5bb 91bc b9bc f31b 57ba 2fcc ad3c
00000200: 2b42 35bb 8bec ed39 c514 923c e4f4 aa3c
00000210: 1920 a53c 0e08 60bc 1f2f 393b 92ad 933c
00000220: 86f2 7f3c caa6 a63c 32a4 8f3c d780 d3bb
00000230: 0d3b bb3c 23b6 f13c e308 00bc d230 bd3c
00000240: 5ee7 c0bb d830 c43c cb37 b0bc b58d 5a3c
00000250: 5ecc fb39 66ad 0d3c e9ea 703b db8a 20bc
00000260: 99ea d1bb ed37 943b 6b7b 9e3c d9ae 50bb
00000270: 421e 7cbb 503e 653c 4575 82bc 434d 9bbc
00000280: 7813 7c3c 2f03 07bd 185d 943b 6dd3 75bc
00000290: b1d2 21bb b06c 08bc 5ca2 9cbc 375c ed3a
000002a0: 2adb b3bc e2a8 3d3c 1ff6 c43b 9815 76bc
000002b0: c93a 48ba c169 3a3b fed8 1a3c 19dd 42ba
000002c0: ae91 b93c e1ad c13b 979e 0ebc d049 28bd
000002d0: 3ce8 ecba d3dc b33b d0f4 143b b55d 803c
000002e0: baaf 8bba 41c0 133d 6b62 a6bc 1344 75bc
000002f0: 6d06 6c3b 3f76 a2ba 3b54 943c 77c7 efbc
00000300: e42c 173d 3941 0e3c eb42 353b bef4 79bc
00000310: d584 823c 1d69 2d3c f56a 15bc 2665 5abc
00000320: 7bfa 91bb 0c78 23bc e9db ac3c d693 1abb
00000330: 2fe3 053c eb5a 17bb 8b4c fc3b 185d 4cbc
00000340: 4931 8d3b 6a3c 0fbc 934a 38bc e5e9 9c3c
00000350: a95b 2c3b 895c 1d3c 7bca 9bbb 21f9 c4bb
00000360: 0fbd 1f3b a6af 81bb 1b06 6abc cbd8 b3bc
00000370: 0161 14bc 961c 91bc b116 c3ba 72e6 8d3c
00000380: 66d2 1e3c 9fb3 03bc bf24 9d3c bb81 9c3c
00000390: cf5d 9e3c 4452 3dbc f8e2 0e3b b489 943c
000003a0: a8f4 823c 5e2a bb3c eabf 623c ffd5 45ba
000003b0: 7203 88bb e1d9 af3c 8127 39bc 9746 a83c
000003c0: 8e1a 9abb 2865 8a3b e722 b3bc 4387 123c
000003d0: 9525 143c 5fe6 143c 7e18 8b3a a4c1 083c
000003e0: 6b22 9d3b ffe6 21bc dac2 a43c d7c6 b1bb
000003f0: bd93 d5ba 9bfa 4a3c 743b 33bb 28c3 82bc
0.039559215 0.009610419 -0.006162056 -0.014486433 0.013747753 0.0049983566 0.004259288 -0.0131208
0.013722854 -0.014876787 0.020731071 -0.00246041 0.0051647066 -0.0020592108 0.011883195 -0.013591617
0.0067025335 -0.017078154 0.0067431154 0.017835492 -0.0030522596 0.012273671 -0.008392535 -0.0026986303
0.0029662203 -0.015926298 -0.01237952 -0.014465487 -0.0057358276 -0.011650132 -0.0016326415 0.022379283
0.0023346313 -0.008455291 0.0153226135 0.01999398 0.017413711 -0.009109255 0.0025357748 0.025320092
0.010584597 0.015644195 0.01658498 -0.0017343268 0.012689023 0.028004825 -0.00066059275 0.021832345
-0.011943114 0.013252781 -0.01579392 0.00831546 0.0015514616 0.014256511 0.00092798617 0.004504457
0.0033756993 -0.006131216 0.025697144 -0.0073696314 -0.0011040887 0.013286333 -0.007881973 -0.015172075
0.0086193085 -0.02912006 0.0048800525 -0.015876582 -0.0070867916 0.01580912 -0.017354168 0.0036896733
-0.018083828 -0.0022342382 0.0052440297 -0.007787575 -0.00030013928 -0.0003069439 0.004779872 -0.0005973031
0.021287845 0.0028008434 -0.00904453 -0.03410585 0.00091505883 0.0066702445 0.0031261654 0.017868485
-0.0070343222 -0.014884414 -0.013580881 -0.012527218 0.0061216406 -0.00046612046 0.017556604 -0.017733755
0.030433722 0.0059259315 -0.020267595 -0.026410444 0.017020337 0.0053265844 0.025876615 -0.008931264
0.0102254525 -0.025815018 0.023170013 -0.0009443961 0.010432677 -0.0060183243 -0.0069643133 -0.021660456
0.0037184155 -0.00128099 0.019112052 0.014972347 0.009014534 0.018716883 -0.021551473 0.011976498
0.0040306607 -0.023916269 -0.018037949 -0.030936955 -0.006526387 -0.022672923 -0.0008205764 0.021215526
-0.0027657847 0.000453804 0.01783217 0.020868726 0.020156907 -0.013673795 0.0028256846 0.0180271
0.015621787 0.020343203 0.01753435 -0.006454568 0.022855306 0.029505795 -0.007814619 0.023094568
-0.005886956 0.023949072 -0.02151098 0.01333945 0.00048026716 0.008647298 0.003676111 -0.009798731
-0.00640614 0.0045232684 0.01934596 -0.0031842499 -0.0038470183 0.013991907 -0.01592506 -0.01895774
0.015385501 -0.03296202 0.004527699 -0.015004021 -0.0024692232 -0.008326694 -0.019120388 0.0018109147
-0.021955092 0.011575909 0.0060107852 -0.015019797 -0.0007638154 0.0028444382 0.009451149 -0.0007433459
0.022652473 0.0059106206 -0.008704803 -0.041086018 -0.0018074582 0.005488971 0.0022728927 0.015669683
-0.0010657229 0.03607202 -0.020310601 -0.014969843 0.0036014572 -0.0012394859 0.01810657 -0.029269917
0.036908045 0.0086825425 0.0027658294 -0.015256105 0.01593248 0.010584143 -0.009119739 -0.01332978
-0.0044549084 -0.009977352 0.021100955 -0.0023586652 0.008171841 -0.0023094963 0.0076995543 -0.012473367
0.0043088538 -0.008742431 -0.011248249 0.019154498 0.002629975 0.009604582 -0.004754362 -0.006011144
0.0024374162 -0.0039577065 -0.014283682 -0.02195396 -0.009056331 -0.017713826 -0.0014884082 0.017321799
0.009693718 -0.0080384305 0.019182561 0.019104829 0.01933184 -0.011555258 0.0021802764 0.018132068
0.015985802 0.02284735 0.013839701 -0.00075468415 -0.0041508013 0.021466197 -0.011300922 0.020541472
-0.0047028726 0.0042234845 -0.021867229 0.008943382 0.009042163 0.009088128 0.0010612158 0.008346949
0.0047953627 -0.009881734 0.020112444 -0.005425315 -0.001629464 0.012388851 -0.002734867 -0.015962198

rios_f.RIOS_H.rnn_cell1.bias_ih f4 [384]
00000000: cea7 c13d d446 d83d dd22 323d 2043 e23a
00000010: b0fe 723c a73f b33d d54b 083d b7b5 22bc
00000020: 0f74 e03d e987 b43d f285 bb3d 9ef1 3dbc
00000030: 8927 873d a5cc 53bb d095 323e e16c 6e3d
00000040: 1723 3b3d 4403 5b3d 81d8 8a3c 01d6 d0bc
00000050: de70 953a c590 6a3d 5354 db3a e0ac f63c
00000060: 6238 443c 154d 4d3d 8bb4 bf3a f6f4 323d
00000070: 267e 543d acbb f33c 412d 52bd 2599 333d
00000080: 558c 723d 779c 833d 7586 33bd ce98 9d3d
00000090: 4228 423d 8892 983d a337 f23c 1151 c53d
000000a0: 94d6 663d e57e 9b3c d987 b73d 4c58 003d
000000b0: f3f4 043e 4a5b 013e 44f3 083d 702f 913d
000000c0: 1f54 b63b cf2a 143d 736e 373d e170 1bbb
000000d0: 0924 ac3d c0ba 9abc e3ca 973c 205e cc3c
000000e0: 4a38 baba 39eb 973d 450c 5a3d 8080 a03d
000000f0: e47f 813d c031 843d 6583 b83d 8a36 5c3d
00000100: a37e 583d 0cce 1c3e a349 39bc d684 433d
00000110: a4dd 3b3c d133 c63d 0a48 ddbc e388 34bd
00000120: 236b af3d 91a3 0e3e 2d1a 043e 44c5 8d3c
00000130: 5715 c6ba 3648 a23b 71af 973a 82bf 1d3c
00000140: b9e9 813d 1a14 c7bc 02c0 323d f60d 283e
00000150: 3637 c23c 963e 20bc 02e7 bab9 ac4d 02bd
00000160: 5bf5 873d 93da 6b3c 9a60 b73d 4a28 0c3d
00000170: 4cda 0abc 764a 253c 7153 dabb f310 4d3d
00000180: e06a 133d 00ac 003e 1eec 3d3c dbb6 9a3d
00000190: f1f0 423d c0a4 d43c 4c89 0abc 4b9d f4bc
000001a0: 1ac3 e53c 0cf4 bf3d ca34 673b d89d 3dbc
000001b0: 3ff9 223d 6166 333c d03f df3d 2970 a5bb
000001c0: b7e1 22bc c074 cebb 7bce bf3c e573 2f3d
000001d0: 9089 cc3b 2c3b e33c 04cb ac3d 8c12 d73b
000001e0: 0159 f9ba 08a8 c23d 5cd3 3e3c 5097 cd3d
000001f0: 88ec 023c 724d c33d 3c4b 45bd 0cce bf3c
00000200: 40dd 0d3d 42ad a83d c2e1 b23d d756 0c3c
00000210: 79b7 993d 6181 03bd 57bc b3bb 6223 6f3d
00000220: 709a afbc 33cc c13c 9261 9dbc e086 c43c
00000230: 0215 cc3c fa3b b63d b60b e93d 22d6 033e
00000240: b2b5 83bd f5f8 bd3c 2136 00bd b198 183c
00000250: e840 dfbc af13 c63c 88d2 42bc f8a9 313d
00000260: 3283 803d ea8a d83c 6c48 a73d 7343 433d
00000270: 32d8 843d bbd9 123b 51eb 4fbc 4cac 07bc
00000280: ca33 2f3c 01e0 ac3d 373e 833d fc56 abbb
00000290: 718e b33c e45d 843c fb34 8d3b 0a43 15bd
000002a0: 4219 923d fe49 ee3d 0b7c 993d f166 183d
000002b0: 78eb 3abb 9287 d739 7665 51bd fe44 67bc
000002c0: d866 c53d 27c9 283d 3c43 7fbc db9b 083e
000002d0: 6389 3e3d a611 1d3d 9a6a 97bb e736 1a3c
000002e0: a8fb 33bb d295 473d 6549 eb3c 62b5 b33d
000002f0: bef8 72bb 29fb 423c 5441 08bd 5b74 a0bc
00000300: 900b 053e a80f 833d 8ea0 a3bd 7ae0 02be
00000310: d294 a23d 3ac2 e8bc ef5c 4ebd ec3b 523b
00000320: f915 08be 597d afbd cf6b e53d 9ad0 2abd
00000330: 238e dc3d 2c43 aa3d 1d68 b5bd f271 94bd
00000340: 1ada 03bd 2420 66bc 54e9 cf3c c004 9fbc
00000350: 14c2 4cbc e34a d23c cf13 6fbd cd34 2fbc
00000360: 5dbe ddbb c7cd 0bbe 7066 48bd c87d bcbc
00000370: 79ae 1ebd 76aa 01be 0c23 943a 2014 e13d
00000380: a483 ff3c 3195 d23d cdf8 c33d 654c 843d
00000390: e816 d13d 7c94 e3bd de37 f73c aa9b c8bc
000003a0: cb34 4d3d bd5b a33d b411 683d 63c2 0cbd
000003b0: d36f d63d fa56 983d afd6 5ebd 603b 963d
000003c0: e0eb 9dbd 5642 043e ab92 4abc 325f d53d
000003d0: 7f57 16bc 4788 5dbd b50c ecbc c1fd 173d
000003e0: 2aad b0bd ff13 a23d fff7 ea3d 6913 d0bd
000003f0: 1724 b73d 5132 a33d 23a0 3abd dedc f3bc
0.09455834 0.105603844 0.04349028 0.0017262436 0.01483123 0.08752375 0.033275444 -0.0099310195
0.109596364 0.08814985 0.091564074 -0.011593251 0.065993376 -0.0032318023 0.17439961 0.058209304
0.04568776 0.05346991 0.01694894 -0.02549267 0.0011401435 0.05726697 0.0016733505 0.03011173
0.011976333 0.05012234 0.001462595 0.043690644 0.051878117 0.029752575 -0.05131269 0.043847222
0.059215862 0.06426328 -0.0438294 0.07695161 0.047401674 0.074498236 0.029567545 0.09634603
0.05635698 0.018981406 0.08961458 0.031334206 0.12984066 0.1263248 0.03343512 0.07089126
0.0055642272 0.036173638 0.044783067 -0.0023718404 0.08405311 -0.018887877 0.018529361 0.024947226
-0.0014207449 0.07417912 0.053234357 0.078370094 0.06323221 0.064548016 0.090094365 0.05376295
0.052855145 0.15312976 -0.01130906 0.047734104 0.011466417 0.09677852 -0.02701189 -0.044075858
0.085653566 0.13929583 0.1290061 0.017305978 -0.0015112561 0.004952456 0.0011572671 0.009628179
0.06343407 -0.024301577 0.043640144 0.16411576 0.023707967 -0.009780547 -0.000356488 -0.031812355
0.06638595 0.014395374 0.08953972 0.03421811 -0.008474898 0.010088554 -0.006662779 0.050064992
0.035990596 0.12565613 0.011591939 0.07554408 0.04759306 0.025957465 -0.008455586 -0.02986016
0.028047133 0.0937272 0.0035279267 -0.011573277 0.03978848 0.010949702 0.10900843 -0.005048771
-0.00994151 -0.006300539 0.023413887 0.042835135 0.0062419847 0.027738176 0.0843716 0.0065634903
-0.0019023718 0.09504706 0.011647072 0.10038626 0.007990964 0.09536256 -0.048167452 0.02341368
0.03463483 0.08236171 0.08734466 0.008565626 0.07505698 -0.032105807 -0.0054850983 0.058383353
-0.021435946 0.02365694 -0.019211564 0.023990095 0.024912361 0.08898158 0.11379187 0.12874654
-0.0643114 0.023190001 -0.03130162 0.009313748 -0.02725263 0.024179308 -0.011891015 0.043374985
0.062750235 0.026433427 0.0816811 0.047671746 0.064865485 0.002240761 -0.012690381 -0.008280825
0.0106935 0.08441163 0.06408351 -0.005228875 0.021918507 0.016158052 0.0043092943 -0.036440887
0.07133724 0.11635207 0.074943624 0.037207548 -0.0028521698 0.00041109003 -0.05112215 -0.01411557
0.096387565 0.04120746 -0.015579995 0.13340704 0.04651774 0.03834691 -0.004620862 0.009412504
-0.0027463231 0.048726864 0.02872152 0.087748304 -0.0037074531 0.011900702 -0.033265427 -0.019586733
0.12992692 0.063994706 -0.07989608 -0.12780944 0.079385415 -0.028412927 -0.050381597 0.0032079173
-0.13289632 -0.0856883 0.112022035 -0.041702844 0.10769298 0.08313593 -0.08857749 -0.07248296
-0.03219042 -0.014045749 0.025379814 -0.019411445 -0.012497444 0.025670474 -0.0583685 -0.010693741
-0.006767078 -0.13652717 -0.048925817 -0.023009196 -0.03874061 -0.12662682 0.0011301949 0.10990167
0.0311907 0.10282362 0.09568939 0.064598836 0.10209447 -0.111123055 0.030178007 -0.024488289
0.050099175 0.07976482 0.056657508 -0.03436507 0.104705475 0.074384645 -0.054403957 0.07335544
-0.07711005 0.1291593 -0.01236407 0.10418548 -0.009176134 -0.054085042 -0.028814653 0.037107233
-0.086267784 0.0791397 0.11473083 -0.10159952 0.089424305 0.079685815 -0.045562875 -0.029768404
