BRIOS/models/model_file/biros_base/test_batch.pt (torch, 628066 bytes, 26 tensors)

rios_f.RIOS_H.rnn_cell0.weight_ih f4 [384, 2]
-0.067882665 -0.39645034 -4.4169371e-07 -1.83755e-06 -3.523203e-05 2.746832e-05 0.012414673 0.0024674975
0.0037997284 0.00077258475 -3.2325665e-05 -2.2693808e-05 0.0009498207 -0.00020224474 0.010417673 0.0012028853
0.0011859254 4.0398092e-05 0.0032238443 -0.0012505255 7.305845e-05 -7.929172e-06 0.056028865 0.008396764
0.14407268 0.086688794 0.0069833416 0.0012779417 -1.9305864e-07 6.6987473e-06 0.033898026 0.010029348
0.0010662205 0.0009754153 2.3275638e-06 3.365024e-06 1.2345537e-05 1.3809039e-05 5.2237283e-06 -2.3969974e-06
0.0150914 -0.0016600552 0.040645856 0.0018034537 0.058994886 -0.0041736774 0.16129799 0.033175893
0.011154568 0.00011331354 0.15124665 0.053818602 2.8561656e-06 2.7424917e-06 0.00045335182 -8.5749496e-05
0.00013674864 -2.9119525e-05 1.7739903e-05 -5.057016e-05 0.011262433 0.0012177172 0.004003546 -0.0008672173
0.001445337 0.00050839176 0.16471076 0.11113075 0.20467043 0.18314062 0.050088704 0.00016461658
0.006171054 -0.00061020075 1.051781e-06 -4.6421914e-07 0.13207403 0.03852335 0.0019757026 -0.00022373999
0.01000974 -0.0018885778 0.18666512 0.16975981 0.08945449 0.0011589522 0.035199683 -0.0022904444
0.08428313 0.010400884 0.0004329124 -7.505819e-05 -3.3594297e-06 -7.498718e-06 0.009023413 -0.00032266372
0.0060830237 -0.0014548046 0.020325068 0.0038819641 0.054992944 0.017041365 0.03519163 0.0037378338
0.001033431 0.00011887282 0.08775221 0.03237329 0.013805724 -0.0015845447 0.0014652195 0.0001294563
0.00013582039 -3.1808737e-05 0.053905617 -0.0015919239 0.24378301 0.097372964 0.0024536664 0.00076894794
0.12087963 -0.012193937 0.0012376183 0.00032517448 0.027955549 1.0828768e-05 -1.4024964e-05 -4.6893536e-05
0.0032478876 -0.00014260897 0.16666499 0.05473638 7.9238595e-07 5.0136864e-06 1.0211933e-06 2.530367e-06
0.035984516 0.018485453 0.0018788977 0.00013908833 0.0014457515 2.14014e-05 0.009103868 -0.0004646141
0.11702082 0.020779317 0.00089904416 0.00013036368 0.0040284432 0.0006330464 0.01520382 0.005397238
0.008698847 0.0020456288 -3.877248e-05 -6.9859416e-05 0.22850026 0.14340588 0.016368821 0.0031765895
0.0012624549 -0.0003544971 0.00043747498 4.5839886e-05 0.008376265 -0.0011300863 0.012300691 0.0009459999
0.0024661457 -2.148672e-06 0.027763022 0.0031918134 0.008098894 0.0027940893 2.596843e-07 -5.997727e-07
0.04553411 0.052886188 0.13135618 0.047310024 2.9804685e-05 -5.07827e-05 0.01979669 0.006683685
0.051694557 -0.0018431606 0.04016735 0.004899417 0.0008977965 -0.00032360814 0.089084275 0.02851969
-0.22399156 -0.050219107 -0.00020981743 -1.36215185e-05 0.0018997957 0.0020858417 0.015975475 0.06938525
0.0015475361 0.0017649762 -0.0010002768 -0.00023256888 8.499384e-06 3.513016e-05 0.010035534 -0.008394331
-0.007357944 -0.0021960537 -0.001797615 -0.0018465967 0.0032912309 0.0018887533 0.024908766 0.018125495
0.010805537 0.0066130757 0.041758005 0.0073356563 -0.00014590708 -0.0001940935 0.051079754 0.017769014
-0.010827693 0.008205553 -6.890448e-05 -1.4788077e-05 -0.0002447082 -0.0001796479 -4.6076155e-05 -0.00014366063
0.0066537033 -0.016102483 -0.060646974 -0.009278527 0.2489662 0.04088961 -0.058927108 -0.00802491
-0.0024030688 -0.0030589951 0.0027559614 -0.091783665 -0.00013115075 -9.183322e-05 7.679976e-05 1.3189216e-05
-0.0034150383 -0.0007939088 -0.001447756 -0.00021455428 0.0004275522 4.0356757e-05 -0.00053848716 -0.0004435398
00000000: 1106 8bbd 8afb cabe ec21 edb4 bda1 f6b5
00000010: 1bc6 13b8 c56b e637 ea66 4b3c bdb5 213b
00000020: dd04 793b 4987 4a3a 6b95 07b8 955e beb7
00000030: 63fd 783a a911 54b9 e3ae 2a3c 22aa 9d3a
00000040: 0e71 9b3a 1f71 2938 2247 533b ace8 a3ba
00000050: f536 9938 8907 05b7 867e 653d 9592 093c
00000060: ca87 133e e589 b13d 84d4 e43b 9c80 a73a
00000070: 8e4b 4fb4 cdc5 e036 a8d8 0a3d 2252 243c
00000080: 6cc0 8b3a 03b3 7f3a 3e33 1c36 acd2 6136
00000090: ad1f 4f37 5fad 6737 7c47 af36 1adc 20b6
000000a0: eb41 773c 3696 d9ba 457c 263d dd61 ec3a
000000b0: 9fa4 713d 58c3 88bb 4d2b 253e 72e3 073d
000000c0: a6c1 363c bea2 ed38 67e0 1a3e e570 5c3d
000000d0: 8dac 3f36 a60b 3836 daaf ed39 69d4 b3b8
000000e0: 2f64 0f39 b445 f4b7 27d0 9437 4c1b 54b8
000000f0: 1186 383c cf9b 9f3a 2e30 833b f855 63ba
00000100: 7671 bd3a 9845 053a f0a9 283e 8598 e33d
00000110: 2095 513e 3789 3b3e d029 4d3d ed9c 2c39
00000120: 8e36 ca3b e1f5 1fba ec2a 8d35 cb39 f9b4
00000130: 6a3e 073e a9ca 1d3d ca7a 013b bf9b 6ab9
00000140: e4ff 233c 288a f7ba 2425 3f3e 84d5 2d3e
00000150: ea33 b73d fce7 973a 8b2d 103d 481b 16bb
00000160: a29c ac3d 7868 2a3c 85f8 e239 8f68 9db8
00000170: 9072 61b6 7f9d fbb6 f0d6 133c 312b a9b9
00000180: 1a54 c73b 24af beba c280 a63c 8d68 7e3b
00000190: 4840 613d 559a 8b3c 1925 103d 72f6 743b
000001a0: 3174 873a 5c4b f938 6eb7 b33d db99 043d
000001b0: 6731 623c 7fb0 cfba 9c0c c03a a9be 0739
000001c0: 026b 0e39 5f6a 05b8 23cc 5c3d 1aa8 d0ba
000001d0: 41a2 793e 7a6b c73d b1cd 203b 3993 493a
000001e0: bd8f f73d 14c9 47bc 9437 a23a 2e7c aa39
000001f0: 0903 e53c 34ad 3537 c34c 6bb7 8daf 44b8
00000200: 83da 543b 4e89 15b9 3aaa 2a3e 4133 603d
00000210: 59b4 5435 3d3b a836 ef0f 8935 60cf 2936
00000220: 8064 133d ce6e 973c 5845 f63a 3dd8 1139
00000230: 5f7f bd3a 2887 b337 6428 153c 7397 f3b9
00000240: 9da8 ef3d 6339 aa3c d5ad 6b3a 3cb2 0839
00000250: 0801 843b 06f3 253a 7119 793c 50db b03b
00000260: 9c85 0e3c f50f 063b a29f 22b8 7d81 92b8
00000270: f9fb 693e fed8 123e e817 863c 542e 503b
00000280: f578 a53a ccdb b9b9 e65c e539 3444 4038
00000290: 9a3c 093c 671f 94ba d688 493c fbfc 773a
000002a0: 0f9f 213b e731 10b6 476f e33c be2d 513b
000002b0: 39b1 043c 0a1d 373b bd6a 8b34 1100 21b5
000002c0: fa81 3a3d 309f 583d 3c82 063e 28c8 413d
000002d0: 1305 fa37 82ff 54b8 ab2c a23c d002 db3b
000002e0: acbd 533d 3596 f1ba 8586 243d 4a8b a03b
000002f0: 1a5a 6b3a f3a9 a9b9 d171 b63d 20a2 e93c
00000300: 0b5e 65be 8db2 4dbd 7002 5cb9 fa87 64b7
00000310: 9102 f93a 9eb2 083b 00df 823c db19 8e3d
00000320: b2d6 ca3a c656 e73a b81b 83ba bcdd 73b9
00000330: 9498 0e37 b958 1338 156c 243c 6088 09bc
00000340: e81a f1bb abeb 0fbb f39d ebba 8109 f2ba
00000350: b1b1 573b 0b90 f73a 780d cc3c eb7b 943c
00000360: b509 313c 80b2 d83b 710a 2b3d f25f f03b
00000370: a2fe 18b9 9485 4bb9 0139 513d 5390 913c
00000380: a366 31bc 9570 063c d080 90b8 4f1a 78b7
00000390: 2e4c 80b9 de5f 3cb9 e541 41b8 9ba3 16b9
000003a0: 4f07 da3b 5be9 83bc f668 78bd f704 18bc
000003b0: fff0 7e3e dd7b 273d 8d5d 71bd ea7a 03bc
000003c0: ce7c 1dbb 6c79 48bb 5c9d 343b 13f9 bbbd
000003d0: 8385 09b9 9696 c0b8 8f0f a138 4047 5d37
000003e0: d6ce 5fbb 511e 50ba a1c2 bdba faf9 60b9
000003f0: 1629 e039 bd44 2938 4329 0dba e78a e8b9

rios_f.RIOS_H.rnn_cell0.weight_hh f4 [384, 96]
0.0447898 -0.040381663 0.020202836 0.121172264 0.089548394 -0.0229488 -4.5993125e-05 0.106621355
0.033991676 0.012783442 -0.024882006 0.038913626 -0.08442044 0.10741825 0.0334821 -0.053117305
-0.0026262547 -0.008118204 -0.022388676 0.08237321 -0.04757556 -0.05049246 -0.10427046 -0.040056687
-0.009334838 -0.017424073 0.030132072 -0.0016788825 -0.081772014 0.07221134 0.0039450587 0.0058337697
0.067978494 -0.0658997 -0.06379023 0.07051908 0.038408753 -0.058768243 0.013295674 0.0015797806
0.02487886 -0.07232195 -0.014653893 0.00073805405 -0.04243625 -0.06864938 -0.099537715 0.066493
0.0016827573 0.04841342 0.034086067 -0.0085076615 0.06788735 -0.061441675 -0.0013710029 0.0017283738
0.06919639 -0.025316939 0.22616376 0.122672364 -0.05115416 -0.097929716 0.068948984 0.10105046
-0.10847878 0.068084754 0.0018316641 0.08517315 0.09901588 0.07329749 -0.0085232 0.006781954
0.08686968 0.04430876 -0.13074134 -0.09094904 -0.052112266 -0.029716153 -0.011864295 -0.049829658
-0.04442609 0.061764907 0.14125103 0.027019044 -0.08084204 -0.00065592234 0.07199889 -0.0026239527
-0.17452419 0.05245595 -0.07250272 -0.010382934 -0.02001312 0.12443227 0.003215883 -0.0075064152
-6.0663126e-07 3.7289562e-06 2.365617e-06 7.351183e-06 3.1267684e-06 -6.865952e-06 1.3874386e-08 1.6283406e-06
2.5223028e-06 -2.5891518e-07 1.3385749e-06 -8.762764e-07 -2.720253e-06 4.9904247e-06 -4.415397e-06 1.5931046e-06
-1.3843227e-07 1.3387747e-06 -1.4137677e-06 -8.2530755e-07 -3.906946e-06 1.8683343e-06 -4.7274916e-06 -1.5222178e-06
1.3333171e-07 2.1826435e-07 -6.1281025e-07 -2.3913904e-07 -7.577387e-06 3.7639813e-07 5.3392597e-08 -1.1429921e-07
1.8260356e-07 2.4630308e-06 8.8424775e-07 2.6412072e-06 4.7964445e-08 -3.2164064e-07 -3.723133e-07 3.298303e-07
1.4098509e-06 1.6402335e-07 -1.18427266e-07 -9.326016e-08 -1.3136358e-06 -3.0216568e-06 7.943168e-07 -2.623241e-07
1.5345318e-08 9.354647e-07 -9.014395e-07 1.258255e-06 2.5934077e-07 1.2332434e-07 -3.7770957e-07 6.9206036e-09
6.030623e-06 -1.2924613e-07 5.6085594e-07 3.6454828e-06 1.1849694e-06 -4.1599974e-06 1.5733137e-06 -1.6420586e-06
-3.3108037e-07 -8.37014e-07 -1.2770444e-07 5.4951147e-06 1.8922366e-06 1.1714795e-06 7.172985e-07 2.4144113e-06
2.7250708e-08 -2.6015564e-06 -2.9415008e-07 -4.3656423e-06 7.37152e-07 1.462505e-06 -3.6975514e-06 -2.5663044e-06
-1.6129484e-06 9.624978e-07 -3.2295393e-06 -1.947213e-06 -6.2137115e-06 1.8189696e-06 1.0215873e-06 6.9846533e-09
-5.062082e-07 3.1402365e-06 -1.5745984e-06 4.0292775e-06 1.158467e-06 4.052891e-07 -7.620942e-09 -1.2212388e-06
-4.85849e-06 -8.268553e-06 -4.7492205e-05 -3.8526185e-05 -3.4560137e-05 4.0570758e-05 8.3289706e-07 9.28051e-08
-3.373445e-05 2.169738e-05 1.1340211e-05 1.707996e-05 -2.3441866e-05 -3.6990776e-05 5.1794756e-05 0.000111889436
2.5064206e-05 -4.0758525e-05 4.673191e-05 2.6464802e-05 3.1502892e-05 1.3987951e-06 3.6323916e-05 -2.2351232e-05
-3.8421826e-05 2.231786e-05 -2.7038248e-05 8.102351e-05 4.2039344e-05 -2.9136283e-05 -2.4035032e-06 1.9854006e-06
-2.8886621e-05 8.968968e-06 2.914935e-05 2.1792714e-05 5.6651475e-05 -2.4000881e-05 -1.4112147e-05 5.379044e-05
3.4666326e-05 4.7351873e-06 -2.3338414e-06 5.5393502e-05 -6.375073e-05 3.419814e-05 2.0204145e-05 -1.887788e-05
3.5514415e-05 -3.020918e-05 -8.807377e-06 6.0010436e-05 6.888588e-05 1.873147e-05 -5.021585e-06 -7.291583e-06
-3.859468e-05 -6.914572e-06 4.080261e-05 -3.5136716e-05 -8.232114e-05 3.568872e-05 -3.1769167e-05 -5.4589955e-06
00000000: 8275 373d 3e67 25bd 6b80 a53c 2a29 f83d
00000010: 2665 b73d 1fff bbbc bee8 40b8 4c5c da3d
00000020: db3a 0b3d a471 513c 59d5 cbbc e563 1f3d
00000030: a0e4 acbd 19fe db3d 8724 093d 8891 59bd
00000040: 3e1d 2cbb 3702 05bc 7568 b7bc 49b3 a83d
00000050: 97de 42bd 2fd1 4ebd c08b d5bd 7b12 24bd
00000060: 26f1 18bc eebc 8ebc 89d7 f63c f30d dcba
00000070: 1678 a7bd 8ae3 933d 8d45 813b 3529 bf3b
00000080: 4f38 8b3d 6cf6 86bd 74a4 82bd 4f6c 903d
00000090: 7f52 1d3d f8b6 70bd 19d6 593c a410 cf3a
000000a0: c0ce cb3c 881d 94bd e216 70bc f879 413a
000000b0: a2d1 2dbd 0c98 8cbd 6eda cbbd 7b2d 883d
000000c0: f78f dc3a 264d 463d d59d 0b3d b863 0bbc
000000d0: 8608 8b3d 44aa 7bbd 39b3 b3ba 9a8a e23a
000000e0: d6b6 8d3d 7865 cfbc 7997 673e a63b fb3d
000000f0: 0687 51bd 608f c8bd 2035 8d3d 8bf3 ce3d
00000100: 1f2a debd 0570 8b3d 7314 f03a 436f ae3d
00000110: d6c8 ca3d ff1c 963d e4a4 0bbc 273b de3b
00000120: bbe8 b13d 1a7d 353d 0fe1 05be 7e43 babd
00000130: ac73 55bd 4a6f f3bc 7662 42bc 2f1a 4cbd
00000140: 22f8 35bd 33fd 7c3d 1ca4 103e 0b57 dd3c
00000150: 8390 a5bd 34f2 2bba 2774 933d 9ff6 2bbb
00000160: 78b6 32be 0ddc 563d 4e7c 94bd 2e1d 2abc
00000170: 8ef2 a3bc 59d6 fe3d 90c1 523b 60f8 f5bb
00000180: 62d7 22b5 fb3e 7a36 fec0 1e36 2eaa f636
00000190: 79d5 5136 1462 e6b6 325c 6e32 5b8d da35
000001a0: d544 2936 0801 8bb4 15a9 b335 4139 6bb5
000001b0: 978d 36b6 6c73 a736 f927 94b6 a8d2 d535
000001c0: f9a3 14b4 f3af b335 b0c0 bdb5 b48a 5db5
000001d0: 6918 83b6 7ac3 fa35 d8a0 9eb6 014f ccb5
000001e0: f129 0f34 0c5c 6a34 0080 24b5 0563 80b4
000001f0: 4241 feb6 c413 ca34 c851 6533 a874 f5b3
00000200: af11 4434 8c4a 2536 0b5d 6d35 983f 3136
00000210: 7701 4e33 f4ad acb4 5ae2 c7b4 8813 b134
00000220: 1c3a bd35 651e 3034 1452 feb3 5146 c8b3
00000230: 2f50 b0b5 abc7 4ab6 0939 5535 8dd5 8cb4
00000240: b6d0 8332 a51c 7b35 73fa 71b5 50e1 a835
00000250: 863b 8b34 236b 0434 02c8 cab4 46ca ed31
00000260: a85a ca36 e8c6 0ab4 ba8d 1635 eba4 7436
00000270: 3d0b 9f35 1b96 8bb6 a62a d335 b464 dcb5
00000280: 57bf b1b4 2aaf 60b5 211f 09b4 ad62 b836
00000290: c1f8 fd35 bb3b 9d35 618c 4035 4507 2236
000002a0: f114 ea32 6696 2eb6 aeeb 9db4 957c 92b6
000002b0: b3e0 4535 4a4b c435 7323 78b6 c638 2cb6
000002c0: 7c7c d8b5 2c2f 8135 10bb 58b6 ddac 02b6
000002d0: 607f d0b6 5223 f435 791d 8935 a9fd ef31
000002e0: 5de2 07b5 dabc 5236 ca56 d3b5 3b33 8736
000002f0: 9f7c 9b35 8296 d934 42ed 02b2 72e9 a3b5
00000300: 1c06 a3b6 2ab9 0ab7 5e32 47b8 2d97 21b8
00000310: aaf4 10b8 852a 2a38 4094 5f35 254c c733
00000320: 177e 0db8 c502 b637 d641 3e37 ef46 8f37
00000330: 06a5 c4b7 8b26 1bb8 323e 5938 2fa6 ea38
00000340: f940 d237 22f4 2ab8 0202 4438 bb00 de37
00000350: f921 0438 3cbe bb35 825a 1838 e87e bbb7
00000360: 1f27 21b8 3d37 bb37 32d0 e2b7 2aeb a938
00000370: 6753 3038 b169 f4b7 df4b 21b6 ec3c 0536
00000380: 8c51 f2b7 6d79 1637 c185 f437 7fcf b637
00000390: 0f9d 6d38 8055 c9b7 36c3 6cb7 0c9d 6138
000003a0: af66 1138 f3e2 9e36 179f 1cb6 5256 6838
000003b0: eab1 85b8 f96f 0f38 127c a937 f05b 9eb7
000003c0: 50f5 1438 b869 fdb7 65c3 13b7 b7b3 7b38
000003d0: d376 9038 8721 9d37 167f a8b6 39aa f4b6
000003e0: b9e0 21b8 b903 e8b6 7823 2b38 c35f 13b8
000003f0: d3a3 acb8 79b0 1538 e23f 05b8 6a2c b7b6

rios_f.RIOS_H.rnn_cell0.bias_ih f4 [384]
0.29069164 8.38921e-06 -4.684352e-05 0.013497426 0.0012500673 -2.8271646e-05 -0.00037429243 0.007590903
0.00016837592 0.000116053445 -8.7243134e-05 0.014243132 0.15920947 0.00377255 -4.1175554e-06 0.020712744
0.00026739 -1.1332454e-06 -7.631642e-06 8.950219e-06 0.00563176 0.02976433 0.02625194 0.09519495
0.0028917033 0.09976812 9.671662e-06 -0.00020687253 5.983583e-05 -6.849759e-05 -0.0018187437 -0.0003173589
6.729762e-05 0.089778386 0.20871148 0.016573781 0.0015770436 1.9021038e-05 0.09168252 -0.00045762744
0.008352001 0.20082484 0.056819815 0.011821366 0.023450261 0.00015540417 1.1031284e-05 0.016112985
0.0006702491 0.018534554 0.06546517 0.010824429 0.00069365196 0.0765501 0.003051782 4.6887282e-05
4.2297033e-05 0.015888803 0.12928917 0.0010557565 0.07009814 0.00079390185 0.022171505 -2.1811173e-05
0.00094534794 0.091269515 1.0496258e-06 2.1919398e-06 0.02073176 0.00056928705 6.757793e-05 0.00462556
0.047854513 -7.643754e-05 0.00082081405 0.004317334 0.0017136299 -0.0002092387 0.18824936 0.0019903793
0.0002688732 0.0001766214 0.0011391471 0.00094187004 0.00027704198 0.0030491322 0.0020956865 1.0046863e-07
0.14984722 0.08263699 -7.485795e-05 0.009579118 0.030697023 0.017766295 -0.00030966097 0.05471815
0.08765417 -0.00036007093 4.766555e-05 -0.0127341375 0.01930031 -0.000625355 -1.9842495e-05 0.009707708
0.004679162 0.0018971086 -0.00052935875 -0.006465695 -0.009567482 0.031719342 -0.00032012686 0.027280038
0.0030435547 3.4988882e-06 -0.0003489228 -0.00024014451 -0.0022377963 -0.0060825474 0.030233257 -0.022541232
0.00029530708 0.029554777 -0.00045482014 -0.00023777681 -0.0035849693 -0.00063263596 0.00053203065 0.00045212157
0.00014844986 -0.017956657 -0.0499942 -0.0124999 0.0015101695 -0.00022247463 -0.004751252 -0.00023207608
0.00097036496 -0.06327601 0.004983234 0.0019259454 0.007085791 0.0030926552 -0.00030478253 -0.009882786
0.0001972713 -0.007413982 -0.01719125 0.0025947436 -0.0036847924 0.044865705 0.0012163421 -0.00022388894
-0.003976847 0.0054891836 0.021328112 0.010885969 -0.006205502 -0.0006292735 -0.054152634 -0.00025785953
0.012211591 -0.05860928 -3.192284e-05 -0.000511522 0.029201582 0.0058237123 -0.00016948994 0.0011574321
-0.0641839 -0.0002996452 0.0016519156 -0.021453323 -0.012465132 0.0017950948 -0.009554014 -0.0063632107
-0.0037131591 0.0013402543 -0.0005353292 -0.0037917632 -0.049571157 0.006684952 -0.009574887 -6.7321216e-06
0.07966415 0.047172338 -0.0006458579 0.023993803 -0.0059667965 0.010054025 0.00014536746 0.028779974
0.046233974 -0.00044293204 -0.0007461265 -0.057077546 0.021273172 0.0013926157 0.013237987 -0.025886577
-0.030614585 -0.02168701 -0.014726023 0.0041244477 0.043634277 -0.032943305 -0.0002599612 0.0076962225
0.015568673 -0.0003812491 0.00054140703 -0.0005771796 0.04386828 -0.01969038 0.061624486 0.06920199
0.061596416 -0.04595279 -0.0007695692 0.0193344 0.0074143605 -0.007234336 0.05397638 -0.012853199
-0.010612448 0.065667935 0.050122604 -0.036691096 -0.025382096 -0.00072783895 0.005558477 0.041921023
-0.05273356 0.04197374 -0.009637754 0.034363646 0.071698114 -0.005852604 0.0007394367 -0.0028284392
0.016738376 0.048519235 0.05441596 -0.060872268 -0.040307146 0.040970214 -0.025714986 0.0225585
-0.0072550927 -0.063005775 0.019853283 -0.0029655856 0.09927736 0.017455684 -0.08894285 -0.0014418358
00000000: 89d5 943e 62bf 0c37 d979 44b8 4f24 5d3c
00000010: 4cd9 a33a e628 edb7 ae3c c4b9 1cbd f83b
00000020: 118e 3039 b861 f338 4df6 b6b8 075c 693c
00000030: cf07 233e e33c 773b 8829 8ab6 c6ad a93c
00000040: 7a30 8c39 041a 98b5 a709 00b7 e628 1637
00000050: a18a b83b 53d4 f33c 4f0e d73c 92f5 c23d
00000060: bb82 3d3b 3a53 cc3d 7943 2237 eceb 58b9
00000070: 3cf8 7a38 5da6 8fb8 e962 eeba 3163 a6b9
00000080: 2222 8d38 bbdd b73d 76b8 553e bdc5 873c
00000090: cdb4 ce3a 5e8f 9f37 0cc4 bb3d b7ed efb9
000000a0: d5d6 083c 07a5 4d3e e5bb 683d 67ae 413c
000000b0: c31a c03c fdf3 2239 0113 3937 61ff 833c
000000c0: a8b3 2f3a c7d5 973c 9a12 863d f258 313c
000000d0: 32d6 353a 4dc6 9c3d 6800 483b d6a8 4438
000000e0: 1868 3138 3c29 823c 6164 043e 4f61 8a3a
000000f0: 9d8f 8f3d da1d 503a 04a1 b53c 23f7 b6b7
00000100: 3ad1 773a 83eb ba3d dee0 8c35 3d19 1336
00000110: a7d5 a93c 353c 153a a0b8 8d38 0292 973b
00000120: 1803 443d 184d a0b8 e62b 573a 6c78 8d3b
00000130: e19b e03a 1667 5bb9 71c4 403e 0671 023b
00000140: 8df7 8c39 7233 3939 6f4f 953a d4e7 763a
00000150: f23f 9139 f3d3 473b c957 093b 37c1 d733
00000160: 8d71 193e 953d a93d 0efd 9cb8 bcf1 1c3c
00000170: 5378 fb3c 9f8a 913c fe59 a2b9 2420 603d
00000180: 0884 b33d e7c7 bcb9 7fec 4738 d8a2 50bc
00000190: af1b 9e3c ddee 23ba 6f73 a6b7 140d 1f3c
000001a0: a853 993b 67a8 f83a aac4 0aba 2ede d3bb
000001b0: eec0 1cbc 24ec 013d b3d6 a7b9 637a df3c
000001c0: 6076 473b 71ce 6a36 a0ef b6b9 4dcf 7bb9
000001d0: fea7 12bb 1b50 c7bb bcab f73c 64a8 b8bc
000001e0: 72d3 9a39 dc1c f23c ed74 eeb9 ba53 79b9
000001f0: cef1 6abb 7bd7 25ba f977 0b3a bb0a ed39
00000200: 35a9 1b39 d719 93bc b8c6 4cbd 61cc 4cbc
00000210: e1f0 c53a 1448 69b9 64b0 9bbb 7359 73b9
00000220: 1760 7e3a da96 81bd 664a a33b 0170 fc3a
00000230: ec2f e83b 25ae 4a3b 38cb 9fb9 69eb 21bc
00000240: 9dda 4e39 fdf0 f2bb aad4 8cbc 930c 2a3b
00000250: 8f7c 71bb 1ac5 373d ab6d 9f3a bbc3 6ab9
00000260: 3650 82bb 9cde b33b 4bb8 ae3c 105b 323c
00000270: 8657 cbbb d4f5 24ba 27cf 5dbd 5231 87b9
00000280: 2013 483c 4910 70bd e3e4 05b8 a917 06ba
00000290: 2838 ef3c d7d4 be3b 1cb9 31b9 fab4 973a
000002a0: d972 83bd b319 9db9 1785 d83a e1be afbc
000002b0: 8e3a 4cbc 6349 eb3a 7088 1cbc 7b82 d0bb
000002c0: 7958 73bb 79ab af3a 5655 0cba 3b7f 78bb
000002d0: 200b 4bbd 710d db3b fddf 1cbc 7ce4 e1b6
000002e0: f526 a33d c837 413d ca4e 29ba a78e c43c
000002f0: 1e85 c3bb a3b9 243c c86d 1839 fbc3 eb3c
00000300: d65f 3d3d 5539 e8b9 b497 43ba 25ca 69bd
00000310: 1345 ae3c 6e88 b63a 24e4 583c 1610 d4bc
00000320: 70cb fabc f5a8 b1bc 6b45 71bc 6026 873b
00000330: dbb9 323d 8fef 06bd 674b 88b9 9830 fc3b
00000340: bf13 7f3c 63e2 c7b9 36ed 0d3a de4d 17ba
00000350: 3aaf 333d b84d a1bc f569 7c3d c6b9 8d3d
00000360: 864c 7c3d fe38 3cbd eabc 49ba 2d63 9e3c
00000370: 2af4 f23b 020e edbb 5616 5d3d 3996 52bc
00000380: d5df 2dbc e97c 863d 5c4d 4d3d 6749 16bd
00000390: 1dee cfbc 72cc 3eba e223 b63b 61b5 2b3d
000003a0: 25ff 57bd a8ec 2b3d ace7 1dbc e5c0 0c3d
000003b0: 76d6 923d 33c7 bfbb c2d6 413a 565d 39bb
000003c0: eb1e 893c 1bbc 463d 45e3 5e3d 3355 79bd
000003d0: 1b19 25bd 62d0 273d 3ca8 d2bc 9acc b83c
000003e0: 21bc edbb 2c09 81bd 5aa3 a23c 455a 42bb
000003f0: ee51 cb3d 39ff 8e3c ab27 b6bd fbfb bcba

rios_f.RIOS_H.rnn_cell0.bias_hh f4 [384]
0.2918202 8.38921e-06 -4.684352e-05 0.01346602 0.0012500673 -2.8271646e-05 -0.00037429246 0.007590903
0.00016838594 0.000116053445 -8.7243134e-05 0.014331756 0.1452367 0.00377255 -4.117554e-06 0.020712677
0.00026739 -1.1332454e-06 -7.631642e-06 8.950219e-06 0.0022860875 0.024983674 0.02625194 0.07868829
0.0026435254 0.0963354 9.671662e-06 -0.00020687253 5.983583e-05 -6.849759e-05 -0.0016284601 -0.0003173589
6.729762e-05 0.10007217 0.21186627 0.015781442 0.0015770411 1.9021038e-05 0.09934873 -5.6321263e-05
0.008352001 0.2056513 0.060786128 0.0023309754 0.02511813 0.00015540417 1.1031284e-05 0.015824376
0.00074613973 0.015144573 0.06455814 0.010772863 0.00069365196 0.07634859 0.0039485362 4.6887282e-05
4.2297033e-05 0.021210918 0.12940827 0.0010557565 0.07007607 0.00079390185 0.028200904 -2.1811173e-05
0.00094542303 0.08887406 1.0496258e-06 2.1919398e-06 0.02567071 0.00056928705 6.757786e-05 0.004625562
0.047876608 -7.643753e-05 0.00082081393 0.00427635 0.0017533877 -0.0002092387 0.17037046 0.0019872836
0.00026871607 0.0001766214 0.0011391471 0.00094187004 0.000279133 0.0029288402 0.0020956865 1.0046863e-07
0.11875671 0.082649186 -7.485795e-05 0.009563057 0.03016905 0.017752768 -0.00030966097 0.0526416
0.08160884 -0.00036007093 4.766555e-05 -0.0299192 -0.013994758 -0.0006252815 -1.9842495e-05 0.009297681
-0.0074343444 0.0018971086 -0.0005294465 -0.0017394552 -0.023274884 0.0065004625 -0.00032012686 0.026369946
0.0029716878 3.4988882e-06 -0.0003489228 -0.00024014451 -0.010304662 -0.011213912 0.023291185 0.026730768
0.00029530708 -0.03500247 -0.00045482014 -0.00023777681 -0.0019319106 -0.00074343395 0.00053203065 0.00045212157
0.006074557 -0.014035682 -0.028069828 -0.033444025 0.001510169 -0.00022247463 -0.0007497598 -0.00023302162
0.0010870274 0.0021696265 0.0049600936 0.0019259454 0.009398894 0.0010247831 -0.00030478253 0.0063404767
0.00019727122 -0.016087571 0.038909685 0.009678935 -0.003685256 -0.0141413305 -0.0033599224 -0.00022388894
-0.0030843734 0.0053452733 0.026237225 0.0105503565 -0.0030831317 -0.001297898 -0.0108891865 -0.00025785953
-0.0073428694 -0.0060998327 -3.1922835e-05 -0.000511522 0.029341515 -0.008000314 -0.0001699993 0.001145196
-0.056760605 -0.0007769271 0.0016818193 0.023111047 0.006691582 0.0017950948 -0.021853026 -0.035726607
0.00018289778 -0.0018696456 -0.000565648 -0.0040161707 -0.023493936 0.005753637 0.0009582268 -6.7321216e-06
0.07966441 0.07864177 -0.00060902745 0.026225448 -0.0053352164 0.0033339553 0.00014536746 0.010215803
0.076361544 -0.00044293204 -0.0007461818 -0.03344826 -0.055948414 0.00139266 0.010182298 -0.014171095
0.014683259 0.011555331 0.00052548165 -0.06470994 0.011708218 -0.027210273 -0.00025996118 0.017282262
0.025799552 -0.0003812491 0.00054140703 -0.0005746202 0.014088916 0.028690735 0.09579818 -0.031875294
0.00650536 0.048267107 -0.0007695702 0.018570207 0.007982969 -0.0065191532 0.051360294 -0.0018160368
-0.01219182 0.012361463 -0.047226287 0.02197898 -0.01892263 -0.0007278379 -0.003364428 0.042593144
-0.007019025 -0.11393997 0.010943792 0.06115675 0.011608652 -0.01636415 0.0007394367 -0.037604433
-0.073818795 0.08380171 -0.023315715 -0.025049062 0.020041395 0.0017344574 -0.014999487 -0.002050595
-0.0075415527 -0.008659556 0.07235739 0.0045144022 -0.03226186 0.0036630016 0.046560343 -0.0014418358
00000000: 7569 953e 62bf 0c37 d979 44b8 95a0 5c3c
00000010: 4cd9 a33a e628 edb7 af3c c4b9 1cbd f83b
00000020: c290 3039 b861 f338 4df6 b6b8 becf 6a3c
00000030: eeb8 143e e33c 773b 8529 8ab6 a2ad a93c
00000040: 7a30 8c39 041a 98b5 a709 00b7 e628 1637
00000050: 2fd2 153b 90aa cc3c 4f0e d73c 5427 a13d
00000060: ff3e 2d3b 7f4b c53d 7943 2237 eceb 58b9
00000070: 3cf8 7a38 5da6 8fb8 0e72 d5ba 3163 a6b9
00000080: 2222 8d38 a3f2 cc3d 79f3 583e 1548 813c
00000090: b8b4 ce3a 5e8f 9f37 5977 cb3d 7f3a 6cb8
000000a0: d5d6 083c 4196 523e e0fa 783d 47c3 183b
000000b0: 89c4 cd3c fdf3 2239 0113 3937 1fa2 813c
000000c0: 9798 433a f120 783c 0f37 843d aa80 303c
000000d0: 32d6 353a a65c 9c3d b962 813b d6a8 4438
000000e0: 1868 3138 85c2 ad3c 9a83 043e 4f61 8a3a
000000f0: 0b84 8f3d da1d 503a 9505 e73c 23f7 b6b7
00000100: 44d6 773a 9a03 b63d dee0 8c35 3d19 1336
00000110: 614b d23c 353c 153a 96b8 8d38 0792 973b
00000120: 431a 443d 164d a0b8 e42b 573a a020 8c3b
00000130: eed1 e53a 1667 5bb9 9875 2e3e 163d 023b
00000140: 76e2 8c39 7233 3939 6f4f 953a d4e7 763a
00000150: 9958 9239 c9f1 3f3b c957 093b 37c1 d733
00000160: b836 f33d fa43 a93d 0efd 9cb8 5eae 1c3c
00000170: 1525 f73c 416e 913c fe59 a2b9 b89e 573d
00000180: 8922 a73d e7c7 bcb9 7fec 4738 1c19 f5bc
00000190: 454a 65bc eee9 23ba 6f73 a6b7 4d55 183c
000001a0: cd9b f3bb 67a8 f83a 8eca 0aba 6efe e3ba
000001b0: f8aa bebc d501 d53b b3d6 a7b9 c905 d83c
000001c0: a6c0 423b 71ce 6a36 a0ef b6b9 4dcf 7bb9
000001d0: e3d4 28bc 8eba 37bc 28cd be3c 7cfa da3c
000001e0: 72d3 9a39 c05e 0fbd ed74 eeb9 ba53 79b9
000001f0: 2a38 fdba 02e3 42ba f977 0b3a bb0a ed39
00000200: 140d c73b ebf5 65bc b2f2 e5bc 9afc 08bd
00000210: ddf0 c53a 1448 69b9 878b 44ba 4457 74b9
00000220: 967a 8e3a 4b30 0e3b 4888 a23b 0170 fc3a
00000230: d2fd 193c 0452 863a 38cb 9fb9 c6c3 cf3b
00000240: 97da 4e39 15ca 83bc c35f 1f3d 6594 1e3c
00000250: 5684 71bb 0ab1 67bc 2532 5cbb bbc3 6ab9
00000260: 3323 4abb 6727 af3b 73ef d63c 67db 2c3c
00000270: 5e0e 4abb 3b1e aaba 8f68 32bc 5231 87b9
00000280: 749c f0bb 1be1 c7bb e2e4 05b8 a917 06ba
00000290: 9e5d f03c c013 03bc d741 32b9 671a 963a
000002a0: cf7d 68bd b2aa 4bba 7e70 dc3a 6153 bd3c
000002b0: 0f45 db3b 6349 eb3a 1e05 b3bc 1056 12bd
000002c0: 40c8 3f39 e50e f5ba ff47 14ba 159a 83bb
000002d0: 5b76 c0bc 0189 bc3b 8331 7b3a 7ce4 e1b6
000002e0: 1827 a33d f00e a13d 24a7 1fba c0d6 d63c
000002f0: 0ad3 aebb 7d7e 5a3b c86d 1839 2f60 273c
00000300: 7163 9c3d 5539 e8b9 6a9b 43ba 0b01 09bd
00000310: 2a2a 65bd ea89 b63a a7d3 263c e12d 68bc
00000320: 0d92 703c 9252 3d3c 7ac0 093a a586 84bd
00000330: d3d3 3f3c 14e8 debc 664b 88b9 8893 8d3c
00000340: 9559 d33c 63e2 c7b9 36ed 0d3a 1ca2 16ba
00000350: 32d5 663c d508 eb3c d631 c43d ab8f 02bd
00000360: ea2a d53b bbb3 453d fbbc 49ba 8c20 983c
00000370: 00cb 023c 9f9e d5bb 2c5f 523d 1508 eeba
00000380: 33c0 47bc bc87 4a3c 5a70 41bd 430d b43c
00000390: a203 9bbc 60cc 3eba bc7d 5cbb 2676 2e3d
000003a0: d9ff e5bb 5c59 e9bd 974d 333c 807f 7a3d
000003b0: 3732 3e3c 1c0e 86bc c2d6 413a 1b07 1abd
000003c0: 4f2e 97bd 3ba0 ab3d 9900 bfbc b133 cdbc
000003d0: da2d a43c bc56 e33a 69c0 75bc 4663 06bb
000003e0: 211f f7bb cfe0 0dbc 1c30 943d 8ded 933b
000003f0: 0325 04bd f80e 703b 0fb6 3e3d fbfb bcba

rios_f.RIOS_H.rnn_cell1.weight_ih f4 [384, 2]
-0.14568941 -0.10079741 0.029456375 0.045181066 -0.004463382 -0.020644978 -0.033971615 -0.023738898
-0.005643149 -0.027982421 0.08380198 0.012543909 9.395814e-05 0.000110678215 0.0018379984 0.0049005803
0.022526879 -0.0079072835 0.022506965 0.0059156017 0.009536029 5.4646836e-05 -0.0032766617 -0.021491462
0.06787118 -0.0025502448 -0.004590725 0.0054321853 0.063233964 0.040014498 -0.010308369 -0.03003465
-0.021508228 -0.012163401 -0.027975181 -0.05694341 0.033748798 0.009423563 0.033157405 0.022851562
0.02235134 0.02385492 0.0024961713 -0.019589357 0.025581485 0.028686201 0.0006163482 0.014863216
0.006239769 0.0040019187 -0.02446227 -0.043683268 0.005817004 -0.012760477 0.0075245085 -0.004918704
0.048859365 0.0026098916 0.013322289 -0.0050528976 0.005548765 0.0070311925 0.00071870856 -0.00019685447
0.008162893 -0.0026904794 -0.020138726 0.06879405 0.016745664 -0.014911578 0.013171781 -0.009818838
-0.015855327 -0.014783242 -0.00940357 -0.037399482 0.013825294 0.013115062 0.013222094 -0.0019188393
0.033144083 0.008468518 -0.014359736 -0.00777246 0.010549564 -0.01786534 0.008728796 0.0036821247
0.023783978 -0.0024680782 0.011359388 0.004910064 0.011068233 -0.033589434 0.015678141 0.0046528825
0.0010994388 0.00034352383 0.008147683 -0.011694627 0.00631087 0.006626777 0.019183751 0.018193709
0.061920263 0.009188827 0.050783493 -0.0046687424 0.01715501 0.016344642 -0.00027621016 -0.00048380674
0.074515834 -6.730118e-05 0.05788232 0.031102208 0.059707724 -0.043513086 0.012541358 0.00039993878
-0.022585735 0.0069752103 0.008800857 0.011577054 0.009498273 -0.009797073 0.08918 -0.019267276
0.03286667 -0.0067417794 0.02739499 0.0033082007 0.0028465795 -0.00122217 0.019526694 -0.039092705
-0.06036709 -0.12693788 0.010411602 -0.0036254236 0.00037213956 0.005910999 0.047983155 -0.051880267
0.030611338 -0.44835716 0.00082115404 0.01904243 0.03270555 -0.01457263 0.0002713172 -0.018556995
0.011378582 0.002592975 -0.0035420887 0.008295342 0.054564 0.041039683 0.05622633 0.074196026
0.011243669 -0.008016406 0.0082493 -0.0075099184 0.0069096945 -0.026843632 -0.009430556 -0.010509626
0.07350565 -0.050120797 0.005430768 -0.008367743 0.009968543 0.0053047207 -0.00012116589 -0.0006266361
0.8064701 0.31484368 0.099002786 0.03661745 -0.000571108 -0.015847662 0.039116204 -0.018779416
0.01334484 0.0054278676 0.045344174 -0.049905527 0.0017525434 0.0008021835 0.023026068 -0.052177858
0.028876038 0.036960844 0.012609613 0.056619417 0.0104472935 -0.08207992 -0.009539233 0.075629584
0.0029490555 0.005652632 0.01560178 -0.02375858 4.262592e-05 0.0001042118 0.06352856 0.07067462
0.018997584 -0.014357888 0.004113672 0.0029657918 0.009028103 -0.026112046 0.07338121 -0.091654904
0.066336125 -0.0039974824 0.033447143 0.004812229 0.09890721 -0.0034839446 0.077713735 0.095955245
-0.0050107716 -0.03089281 -0.017390661 -0.008039769 -0.038804997 -0.027714126 -0.035433874 0.0052855853
-0.00040954456 -0.05480672 -0.0017754677 -0.028644199 0.03892875 0.012761502 -0.03176248 0.03350443
0.0035173965 0.0037667542 -0.1189512 -0.15390542 0.0052171056 -0.0014553355 0.004872146 0.0065657687
0.052847493 0.024074329 0.01567791 9.995191e-05 0.00016520603 0.0029097279 -0.00027593737 -0.0002665507
00000000: 9b2f 15be df6e cebd 7f4e f13c c80f 393d
00000010: 9041 92bb a81f a9bc d225 0bbd 1478 c2bc
00000020: 2aea b8bb 643b e5bc 5fa0 ab3d f884 4d3c
00000030: 640b c538 ea1b e838 fee8 f03a 0c95 a03b
00000040: 4a8a b83c 8d8d 01bc 8760 b83c aad7 c13b
00000050: 013d 1c3c 9834 6538 43bd 56bb dd0e b0bc
00000060: 0c00 8b3d 0222 27bb cb6d 96bb 7900 b23b
00000070: cf80 813d 3ee6 233d 6fe4 28bc 3a0b f6bc
00000080: 0632 b0bc 0049 47bc 352c e5bc 7e3d 69bd
00000090: 2e3c 0a3d 4a65 1a3c 0fd0 073d 3333 bb3c
000000a0: 281a b73c 656b c33c ce96 233b dc79 a0bc
000000b0: 4390 d13c 53ff ea3c 6d92 213a d984 733c
000000c0: fa76 cc3b 8722 833b 1965 c8bc 3aed 32bd
000000d0: 919c be3b 5211 51bc 2790 f63b 142d a1bb
000000e0: c220 483d b70a 2b3b bb45 5a3c c792 a5bb
000000f0: 6ad2 b53b eb65 e63b b767 3c3a b86a 4eb9
00000100: a8bd 053c c152 30bb f8f9 a4bc e5e3 8c3d
00000110: 342e 893c b14f 74bc 74ce 573c 31df 20bc
00000120: 08e3 81bc 6935 72bc 6e11 1abc 3330 19bd
00000130: 7c83 623c 8fe0 563c 7ba1 583c 9081 fbba
00000140: 17c2 073d 8abf 0a3c 1945 6bbc 1fb0 febb
00000150: 14d8 2c3c 555a 92bc 3903 0f3c cd4f 713b
00000160: 9ed6 c23c 7bbf 21bb ba1c 3a3c 9ae4 a03b
00000170: 8957 353c 1395 09bd 726f 803c 3577 983b
00000180: 0b1b 903a fd1a b439 dc7d 053c d29a 3fbc
00000190: 6acb ce3b 6f25 d93b 3e27 9d3c f90a 953c
000001a0: 1aa0 7d3d bc8c 163c 5a02 503d 40fc 98bb
000001b0: aa88 8c3c 33e5 853c 4dd0 90b9 71a7 fdb9
000001c0: c29b 983d 0c24 8db8 0316 6d3d 0fca fe3c
000001d0: 1690 743d c73a 32bd 457a 4d3c e0ae d139
000001e0: b805 b9bc 4e90 e43b 7831 103c afad 3d3c
000001f0: a59e 1b3c e783 20bc 01a4 b63d 68d6 9dbc
00000200: 349f 063d 25ea dcbb 756b e03c 66ce 583b
00000210: ae8d 3a3b 3831 a0ba 72f6 9f3c ac1f 20bd
00000220: 7b43 77bd 01fc 01be 6d95 2a3c 8498 6dbb
00000230: ba1b c339 0eb1 c13b fc89 443d 6780 54bd
00000240: a1c4 fa3c 128f e5be b742 573a dffe 9b3c
00000250: 41f6 053d 0ac2 6ebc 943f 8e39 d704 98bc
00000260: 3b6d 3a3c e7ee 293b 6322 68bb 30e9 073c
00000270: 807e 5f3d 3a19 283d 954d 663d 16f4 973d
00000280: 5e37 383c 3e57 03bc 1228 073c c315 f6bb
00000290: b86a e23b 2de7 dbbc 9e82 1abc 9130 2cbc
000002a0: 218a 963d 774b 4dbd 95f4 b13b dc18 09bc
000002b0: 1a53 233c 39d3 ad3b 711a feb8 d644 24ba
000002c0: d374 4e3f 3133 a13e f9c1 ca3d 2efc 153d
000002d0: 69b6 15ba f5d2 81bc 5038 203d 4ad7 99bc
000002e0: 51a4 5a3c 41dc b13b d0ba 393d bd69 4cbd
000002f0: 99b5 e53a a049 523a 2aa1 bc3c 73b8 55bd
00000300: 718d ec3c 4164 173d 8d98 4e3c c3e9 673d
00000310: 202b 2b3c 8419 a8bd 714a 1cbc afe3 9a3d
00000320: f144 413b b739 b93b 9c9e 7f3c 5ba1 c2bc
00000330: 3cc9 3238 498c da38 431b 823d dbbd 903d
00000340: d2a0 9b3c 593d 6bbc fbcb 863b bb5d 423b
00000350: 9cea 133c eee8 d5bc e348 963d 91b5 bbbd
00000360: 3cdb 873d 50fd 82bb dfff 083d e7af 9d3b
00000370: dd8f ca3d e452 64bb 6128 9f3d 2f84 c43d
00000380: 6631 a4bb eb12 fdbc dc76 8ebc 3cb9 03bc
00000390: fdf1 1ebd bc08 e3bc 1c23 11bd b432 ad3b
000003a0: 24b8 d6b9 037d 60bd cfb6 e8ba 3da7 eabc
000003b0: c173 1f3d 9e15 513c 6019 02bd f13b 093d
000003c0: 1f84 663b a6db 763b b09c f3bd 6299 1dbe
000003d0: 41f4 aa3b f5c0 beba 86a6 9f3b a925 d73b
000003e0: 9d76 583d 8737 c53c f66e 803c 469d d138
000003f0: 283b 2d39 22b1 3e3b b0ab 90b9 d4bf 8bb9

rios_f.RIOS_H.rnn_cell1.weight_hh f4 [384, 96]
-0.014844321 -0.045190785 0.07127906 0.06615899 0.04977031 -0.07252272 -3.0393156e-05 -0.018237047
0.040738985 -0.015132924 -0.049646493 0.03703514 -0.048139483 0.059371077 0.10289585 -0.036643874
0.056893498 0.017552597 0.0059817266 -0.00233037 0.03586388 -0.013970738 -0.060111094 0.034482207
0.0013334355 0.028320992 0.029201092 -0.009561033 -0.09087013 0.022571957 -0.0056378883 0.0016240411
0.042010885 -0.045919705 -0.03484831 -0.080583066 -0.005388072 0.024260312 0.007417695 0.013334253
-0.005783188 0.014173654 -0.020046633 -0.005760084 0.045505986 -0.053353284 -0.002191763 0.015636012
-0.0014476533 0.052452527 0.018251508 -0.0700335 0.041283723 -0.019496748 0.038452294 0.0031443418
0.088704824 -0.019817965 -0.0151105495 0.042455126 -0.065920085 -0.05327542 0.05146383 -0.00057290844
-0.039192613 -0.021812411 0.0056579695 0.062535934 -0.023305083 0.050893817 -0.0033485834 -0.07990574
0.05745535 0.0032151588 -0.0019018512 -0.05752397 -0.03483251 0.04876552 0.034551263 0.045813527
-0.03689433 0.043901753 0.06340455 -0.062145557 -0.078225024 0.012038467 0.045555755 -0.0018608245
0.037177045 -0.07116606 -0.037183516 -0.0600988 0.0037073987 -0.017875584 -0.00089221366 0.03966265
0.008816696 0.013912868 0.004516937 0.074806705 0.04939026 -0.084265985 0.00021205332 -0.015076356
0.051592857 -0.0002170653 -0.026702482 -0.0008393626 0.0049453476 0.059520558 0.032353144 -0.0059631937
-0.0077662272 -0.0001573866 -0.014110392 -0.00012349659 0.012785519 -0.019138262 -0.058736626 0.010020401
-0.0017418368 0.029979484 0.03419336 -0.0016615142 -0.09020503 0.040182278 -0.0018847268 0.0011973063
0.04985254 -0.021787668 -0.043120164 -0.013392772 0.008599725 0.008678173 0.0029030978 -0.0036702016
-0.0052697924 -0.016953485 -0.0031352267 -0.00053424796 -0.0083434805 -0.057449393 -0.04089022 0.029851306
-0.000115839386 0.053424712 0.021911085 -0.004238507 0.0058394047 -0.03160892 0.015276752 0.0006946297
0.08306655 -0.01766052 -0.006041945 0.05673773 -0.027773572 -0.06104074 0.051640626 0.00793025
-0.033137247 0.012827747 0.0015265084 0.070993096 -0.014748905 0.050050683 -0.0030576128 -0.010712529
0.006779765 0.017597245 -0.0109743755 -0.05878013 -0.041422766 0.013505936 0.018292278 -0.01596514
-0.04574554 0.053437248 0.021954557 -0.0065682014 -0.07759596 0.0010035714 0.050959468 -0.00014538299
0.0015526543 0.027230006 -0.0456501 -0.027198672 -0.0037115163 0.028348694 0.0003349375 0.014300475
0.0061400426 0.009688772 0.011686971 0.060606617 0.05210387 -0.06522722 -4.272173e-05 -0.009187665
0.05246167 0.0010087107 -0.025443608 0.0052249418 0.0027538731 0.05233371 0.015515374 -0.014915016
0.0021733486 0.0033044578 -0.00825821 0.008718138 0.0078116483 -0.019722117 -0.052588332 0.0010799107
-0.0013948511 0.018068908 0.040604256 -0.0009733953 -0.06549054 0.046361066 1.6605461e-05 0.0010056279
0.047480393 -0.024719715 -0.04334438 -0.015829496 0.007111034 0.009062263 0.0010820467 -0.009109711
-0.019035405 -0.029626824 -0.0008660083 0.0007147192 -0.004640211 -0.05336294 -0.028425666 0.03625279
0.00022877942 0.048909683 0.023195924 0.006838518 -0.012511872 -0.031686585 0.011018318 0.000448982
0.061504487 -0.009733927 0.005768491 0.05547671 -0.0119407475 -0.054411024 0.050059047 0.009772178
00000000: 9835 73bc f919 39bd c1fa 913d 5d7e 873d
00000010: f4db 4b3d cb86 94bd cef4 feb7 dc65 95bc
00000020: ecdd 263d 15f0 77bc 1f5a 4bbd 29b2 173d
00000030: e82d 45bd 162f 733d 0fbb d23d e317 16bd
00000040: 2809 693d 77ca 8f3c 5c02 c43b 1fb9 18bb
00000050: 01e6 123d 86e5 64bc 0d37 76bd 373d 0d3d
00000060: acc6 ae3a 6d01 e83c 2137 ef3c e1a5 1cbc
00000070: 1e1a babd d3e8 b83c 09be b8bb c7dd d43a
00000080: 9b13 2c3d 4d16 3cbd 1abd 0ebd bc08 a5bd
00000090: 6d8e b0bb 90bd c63c 2310 f33b e977 5a3c
000000a0: e680 bdbb 9d38 683c d638 a4bc 16bf bcbb
000000b0: 7c64 3a3d f988 5abd aea3 0fbb 1817 803c
000000c0: 2fbf bdba 76d8 563d 3084 953c b96d 8fbd
000000d0: 1f19 293d a5b7 9fbc 2780 1d3d 4d11 4e3b
000000e0: e0aa b53d 4959 a2bc 3d92 77bc 6de5 2d3d
000000f0: 1c01 87bd 5437 5abd bdcb 523d 3c2f 16ba
00000100: 6f88 20bd f1af b2bc 7d66 b93b d712 803d
00000110: 4dea bebc 0976 503d e873 5bbb 9fa5 a3bd
00000120: 4d56 6b3d 6ab5 523b 8947 f9ba 419e 6bbd
00000130: 89ac 0ebd 5bbe 473d a085 0d3d f7a6 3b3d
00000140: 821e 17bd 53d2 333d 3fda 813d 578c 7ebd
00000150: 7134 a0bd fe3c 453c ac98 3a3d e9e6 f3ba
00000160: f546 183d 83bf 91bd be4d 18bd 292a 76bd
00000170: d4f7 723b d16f 92bc 72e3 69ba 4e75 223d
00000180: e773 103c ccf2 633c d002 943b 4234 993d
00000190: 714d 4a3d a593 acbd a15a 5e39 d202 77bc
000001a0: 0853 533d 069c 63b9 2abf dabc ac08 5cba
000001b0: 950c a23b d4cb 733d bb84 043d e566 c3bb
000001c0: d67b febb 2508 25b9 462f 67bc dd7e 01b9
000001d0: 5a7a 513c d8c7 9cbc d195 70bd 9c2c 243c
000001e0: 584e e4ba 8997 f53c 560e 0c3d 2ac7 d9ba
000001f0: 6abd b8bd 2c96 243d f008 f7ba efee 9c3a
00000200: 2d32 4c3d 0d7c b2bc c59e 30bd 5b6d 5bbc
00000210: dce5 0c3c e52e 0e3c e641 3e3b c487 70bb
00000220: 39ae acbb 09e2 8abc 6078 4dbb c60c 0cba
00000230: 18b3 08bc 0e50 6bbd 817c 27bd ba8a f43c
00000240: ccee f2b8 dfd3 5a3d e07e b33c 2ce3 8abb
00000250: 7a58 bf3b 5b78 01bd 584b 7a3c cf17 363a
00000260: cc1e aa3d cbac 90bc 82fb c5bb d265 683d
00000270: 6785 e3bc db05 7abd 1f85 533d e1ed 013c
00000280: ecba 07bd 782b 523c 1f15 c83a d464 913d
00000290: 64a5 71bc f201 4d3d 3b62 48bb 9a83 2fbc
000002a0: ca28 de3b 1928 903c decd 33bc 6fc3 70bd
000002b0: ebaa 29bd 0048 5d3c b0d9 953c 53c9 82bc
000002c0: ad5f 3bbd 04e1 5a3d 0bda b33c 113a d7bb
000002d0: a1ea 9ebd 458a 833a e0ba 503d f371 18b9
000002e0: 6f82 cb3a 7611 df3c 99fb 3abd c0cf debc
000002f0: e93c 73bb 853b e83c 8d9a af39 8a4c 6a3c
00000300: 6932 c93b a8bd 1e3c b67a 3f3c a53e 783d
00000310: de6a 553d d995 85bd 1c30 33b8 dc87 16bc
00000320: 0ce2 563d b736 843a 1d6f d0bc fd35 ab3b
00000330: 537a 343b df5b 563d 3234 7e3c 1c5e 74bc
00000340: bd6e 0e3b 9a8f 583b 714d 07bc 85d6 0e3c
00000350: dbf8 ff3b 4790 a1bc dd66 57bd ca8b 8d3a
00000360: 70d3 b6ba 3f05 943c a650 263d 742b 7fba
00000370: e71f 86bd 1ae5 3d3d f54b 8b37 46cf 833a
00000380: cd7a 423d 0081 cabc e089 31bd dcac 81bc
00000390: ad03 e93b e379 143c 76d3 8d3a e640 15bc
000003a0: 23f0 9bbc f4b3 f2bc d504 63ba fe5b 3b3a
000003b0: e90c 98bb 1993 5abd f1dc e8bc ce7d 143d
000003c0: 82e4 6f39 8555 483d 6105 be3c a615 e03b
000003d0: 98fe 4cbc cbc9 01bd 2d86 343c 5865 eb39
000003e0: 21ec 7b3d 0d7b 1fbc 9c05 bd3b 8c3b 633d
000003f0: 20a3 43bc 18de 5ebd b70a 4d3d 7c1b 203c

rios_f.RIOS_H.rnn_cell1.bias_ih f4 [384]
0.25603005 0.13514209 0.10435479 0.17161667 0.0622089 0.15227355 -9.547877e-05 0.10940859
0.05984611 0.029851291 0.04639442 0.08325926 0.0687259 0.09340519 0.16868626 0.16306993
0.084954694 0.04999422 0.11734801 0.060908075 0.11237047 -0.030048802 0.0654494 0.05040515
0.006802089 0.116641566 0.047668077 0.021206772 0.18506366 0.03555046 0.010273124 0.0018638041
0.04520618 0.096124075 0.029306497 0.06992648 0.04178871 0.07712331 0.0040610777 0.0627842
0.10665646 0.08509221 0.029332347 0.008927711 0.065638036 0.062320642 0.079086125 0.016657254
0.0018922741 0.07634933 0.028505962 0.08054189 0.07777963 -0.03186624 0.075870425 0.00079486077
0.18351907 0.09978537 0.18213569 0.054207634 0.11482914 0.06514491 0.046448946 0.09491454
0.060238715 0.040367138 0.0032912355 0.071559526 0.20115979 0.058982052 0.013420181 0.23367138
0.52369505 0.054191813 0.115205854 0.050928913 0.0034972362 0.09124592 0.06534014 0.104177885
0.04286029 0.06982813 0.119779244 0.10273714 0.17119868 0.02805054 0.057154745 0.0006503467
0.3248811 0.17901394 0.049227845 0.123009905 0.0071884235 0.12262436 0.0017728695 0.123524666
-0.053978186 0.073534064 0.07805393 0.10535751 0.061953187 0.08387668 -0.00016823031 0.07632514
0.05653934 0.01665955 0.0432585 0.106301114 0.043939874 0.072647326 0.044354536 0.09991977
0.051789638 -0.004456585 0.046725243 0.0511277 0.11714644 -0.01606891 0.11301028 0.029907113
-0.00051258964 0.057751507 0.038184136 0.0073802825 0.101533644 0.04269229 -0.0022286947 -0.00020250988
0.05241662 0.06585372 0.09251391 0.025901388 0.034164812 0.023641042 0.0004904548 0.05870912
0.086454675 0.023603333 0.005388997 0.0005796267 0.034947816 0.064237766 0.08128814 0.04317539
-0.0007697185 0.05239639 -0.029020118 0.076268084 0.052615188 0.032959007 0.034351353 4.201823e-05
0.10872523 0.024309263 0.12816598 0.024815192 0.027108047 0.098319374 0.04606148 -0.00047722674
0.06435688 0.08553337 0.0016990115 0.071169935 0.09720304 0.07744462 0.010218162 0.1218651
-0.02169378 0.028778002 0.087610744 0.08225307 0.028276142 0.05899241 0.01936094 0.12502228
0.048077375 0.06483142 0.027910084 0.069484405 0.07875759 -0.0009048081 -0.018022738 -0.00035191452
-0.061472043 0.11285428 0.04627157 0.059067104 -0.0056504705 0.11604842 -3.3435866e-05 0.06720076
0.009179478 0.018371005 0.066215605 0.24903162 0.16791561 -0.20946804 -0.0006133569 -0.0248583
0.07631254 -0.098892145 -0.07061436 0.1084413 -0.049159348 0.105669364 0.15525782 -0.015537243
0.013432486 -0.00638743 0.10945432 0.041615527 -0.058761213 -0.069391586 -0.084216945 0.1191162
0.009987846 0.108443476 0.12329223 -0.1036887 -0.3385401 0.050754357 -0.042696778 0.018002262
0.07990843 0.09872742 0.009273631 0.053221956 -0.041363686 0.08353518 0.036183216 -0.08116004
-0.07998065 -0.035862558 -0.17593393 -0.033214148 -0.0030291232 -0.16277052 0.0833993 0.06819516
-0.00404828 0.11179356 -0.0017110694 -0.09100039 -0.011845131 0.035831742 0.12502542 0.025796803
0.32314357 0.036463622 0.11038821 0.09884352 -0.025767777 -0.1266714 0.106703855 -0.072495885
00000000: 5f16 833e b062 0a3e f7b7 d53d 48bc 2f3e
00000010: c2ce 7e3d 99ed 1b3e c63b c8b8 9c11 e03d
00000020: 3221 753d b28a f43c 1308 3e3d d583 aa3d
00000030: 2ac0 8c3d 384b bf3d 17bc 2c3e cefb 263e
00000040: bafc ad3d bdc6 4c3d 2754 f03d bf7a 793d
00000050: 7d22 e63d e828 f6bc 560a 863d a175 4e3d
00000060: 0fe4 de3b c6e1 ee3d 9a3f 433d d3b9 ad3c
00000070: 5481 3d3e 5c9d 113d 9b50 283c e34a f43a
00000080: 1e2a 393d b3dc c43d 2e14 f03c 9d35 8f3d
00000090: a32a 2b3d d3f2 9d3d ca12 853b 0195 803d
000000a0: b46e da3d d344 ae3d 644a f03c 8945 123c
000000b0: 3c6d 863d ee43 7f3d e8f7 a13d cb74 883c
000000c0: 2f06 f83a 0a5d 9c3d 5685 e93c 25f3 a43d
000000d0: ed4a 9f3d 2d86 02bd f461 9b3d 345e 503a
000000e0: 6cec 3b3e 465c cc3d c781 3a3e d308 5e3d
000000f0: 8a2b eb3d b26a 853d 4041 3e3d 8e62 c23d
00000100: dfbc 763d 0358 253d c5b1 573b cd8d 923d
00000110: d5fc 4d3e 2a97 713d 52e0 5b3c 8d47 6f3e
00000120: e110 063f 3cf8 5d3d 0cf1 eb3d d69a 503d
00000130: e331 653b 24df ba3d 0dd1 853d 375b d53d
00000140: 458e 2f3d 0d02 8f3d d24e f53d da67 d23d
00000150: b54e 2f3e 3fca e53c 181b 6a3d 077c 2a3a
00000160: d156 a63e 6e4f 373e 23a3 493d 9eec fb3d
00000170: de8c eb3b 7b22 fb3d a15f e83a 80fa fc3d
00000180: 3b18 5dbd 0799 963d bdda 9f3d aec5 d73d
00000190: a0c2 7d3d 89c7 ab3d fb66 30b9 5b50 9c3d
000001a0: cc95 673d 9c79 883c d32f 313d 66b4 d93d
000001b0: 4cfa 333d 1fc8 943d 1aad 353d bda2 cc3d
000001c0: 5f21 543d 8b08 92bb f862 3f3d 476b 513d
000001d0: 79ea ef3d f2a2 83bc ef71 e73d c3ff f43c
000001e0: 4f5f 06ba d88c 6c3d f866 1c3d 4cd6 f13b
000001f0: dff0 cf3d 1cde 2e3d 4b0f 12bb d558 54b9
00000200: cfb2 563d 51de 863d ef77 bd3d 262f d43c
00000210: 67f0 0b3d dcaa c13c dd91 003a f978 703d
00000220: 260f b13d c75b c13c 2f96 b03b 17f2 173a
00000230: 7125 0f3d 178f 833d 657a a63d aed8 303d
00000240: efc6 49ba 999d 563d 99bb edbc 7132 9c3d
00000250: 0683 573d 0600 073d 01b4 0c3d bb3c 3038
00000260: 55ab de3d 3824 c73c f13d 033e 3b49 cb3c
00000270: b211 de3c ab5b c93d f6aa 3c3d 4a34 fab9
00000280: 8acd 833d 1f2c af3d 5eb1 de3a 8bc1 913d
00000290: 6312 c73d 499b 9e3d 146a 273c 6994 f93d
000002a0: 27b7 b1bc d8bf eb3c 436d b33d 4c74 a83d
000002b0: 5ea3 e73c 06a2 713d d69a 9e3c d705 003e
000002c0: c8ec 443d 56c6 843d b0a3 e43c d74d 8e3d
000002d0: a94b a13d a530 6dba 6ca4 93bc 2b81 b8b9
000002e0: 1cca 7bbd 2520 e73d 4287 3d3d 59f0 713d
000002f0: 9527 b9bb cbaa ed3d 7d3d 0cb8 8da0 893d
00000300: 8565 163c ca7e 963c 0c9c 873d 2502 7f3e
00000310: 12f2 2b3e ca7e 56be afc9 20ba a2a3 cbbc
00000320: c049 9c3d f787 cabd 439e 90bd 7916 de3d
00000330: 505b 49bd 2e69 d83d e8fb 1e3e ec8f 7ebc
00000340: ee13 5c3c a54d d1bb 9629 e03d 0b75 2a3d
00000350: 99af 70bd 2d1d 8ebd ef79 acbd 32f3 f33d
00000360: 10a4 233c 9d17 de3d a380 fc3d be5a d4bd
00000370: 2155 adbe cde3 4f3d d1e2 2ebd 7b79 933c
00000380: 08a7 a33d 9a31 ca3d 6df0 173c 44ff 593d
00000390: f86c 29bd 7e14 ab3d da34 143d 3c37 a6bd
000003a0: e5cc a3bd 9ee4 12bd 0628 34be 8f0b 08bd
000003b0: 4184 46bb 51ad 26be 41cd aa3d e7a9 8b3d
000003c0: 6fa7 84bb 06f4 e43d f645 e0ba 6a5e babd
000003d0: 1512 42bc 4ec4 123d aa06 003e d153 d33c
000003e0: 1373 a53e e15a 153d 3713 e23d 796e ca3d
000003f0: f216 d3bc 26b6 01be 8d87 da3d b978 94bd
