BRIOS/models/model_file/biros_base/test_batch.pt (torch, 628066 bytes, 26 tensors)

rios_f.RIOS_H.rnn_cell0.weight_ih f4 [384, 2]
-0.17343086 -0.477365 2.7578702e-05 -1.6138467e-05 4.4678713e-05 3.5123256e-05 0.0270931 0.010797122
0.0076798825 0.000131103 4.6615365e-05 -8.6952095e-06 0.009190979 -0.001639071 0.011062461 0.0028636658
0.0039092507 0.000941511 0.0060156872 -0.002952616 0.00047863627 -0.00053480046 0.06851642 0.022276882
0.07479219 0.10673052 0.013920645 0.0043944814 4.6695797e-05 3.548319e-06 0.037131794 0.016725646
0.0028671834 0.00063907774 1.083761e-05 9.0584945e-06 2.3868031e-05 2.428518e-05 0.0019195813 0.00023699542
0.0048046 -0.008377201 0.009160941 0.009726984 0.069344625 0.0013807166 0.17986152 0.038798895
0.014132583 -0.0004572794 0.096591555 0.02711669 0.00056941307 -0.00041824853 0.010232225 0.0004964568
0.0003548339 -7.804495e-05 0.0005269286 -0.0003281199 0.02342061 0.0021300719 0.009375972 -0.0017349396
0.003936893 -0.00078861485 0.15686026 0.053405695 0.16076492 0.17026563 0.045617882 0.0017912133
0.011027871 -0.00037298872 0.00044339523 -0.0004278134 0.06585937 0.029265074 0.00030258344 -0.002174075
0.018833831 0.0023756835 0.1082701 0.17417043 0.053028636 -0.0032086873 0.01327215 -0.008731308
0.056747112 0.01305893 0.0009609999 -0.00040237783 4.384e-05 3.073657e-05 0.0028250485 -0.0018927812
0.015965624 -0.006552222 0.012683163 0.0028901577 0.013990004 0.02276627 0.039746184 -0.0011679158
0.0010281674 -0.0014012593 0.06623662 0.0062090587 0.023804931 -0.0052051977 0.016268032 0.0049981168
0.00037677493 2.7770891e-05 0.043555662 -0.008774652 0.17203024 0.05231402 0.006696568 0.0017230648
0.051087942 0.025673697 0.0037701717 0.0014552688 0.015461151 -0.00070372934 4.680958e-05 2.4674164e-05
0.0046842434 6.968274e-05 0.12343598 0.055041585 0.0051514697 -0.00032082546 -1.6331858e-05 -1.7509994e-05
0.0013551607 0.009437489 0.0047169765 -0.00021340227 0.014038506 0.0032116866 0.0059962585 -0.0036695278
0.070161425 0.0037709302 0.0011867608 -0.00034022 0.0057151904 0.0015669971 0.02702629 0.012660066
0.01729149 0.005144817 8.175141e-06 4.629572e-05 0.101987556 0.07777906 0.025084293 0.0027070383
0.0042440263 -0.0011459353 0.0011307943 -3.304086e-05 0.019458203 -0.007256588 0.020803398 0.00819448
0.0047954884 0.00030256662 0.02811876 -0.0019987111 0.01458133 0.0071608117 0.00075626967 -0.0011983347
-0.026923088 0.0563672 0.08937423 0.023703797 0.0006703499 -0.00028545948 0.025337225 0.0014006061
0.040943187 0.0077059846 0.041012798 0.00768856 0.005938277 -0.0023085622 0.08166158 0.019606553
-0.23140325 -0.043761533 -0.0006326445 -0.0004527631 -0.00044621827 -0.00021677253 0.10621266 0.17375505
0.036277458 0.0065203626 -0.0033895464 -0.0011832162 -0.004371285 0.0022373411 0.020830052 -0.019402357
0.007393564 -0.004377631 0.0022964678 0.0039596087 -0.00023441463 -0.0016934454 0.04060679 0.014526575
0.0050153593 -0.08042123 0.1295766 0.0012949657 -0.0023315302 0.002847393 0.04938833 0.03101327
-0.0129371155 0.014623079 -0.00030602782 -0.0001463112 -0.0005026933 -0.00047641454 0.0029968268 -0.003784943
-0.014639478 0.003597147 -0.13629214 -0.02879769 0.34560132 0.07143432 -0.074768774 0.007836483
-0.0040397965 -0.0056884284 -0.0049063135 -0.11495881 -0.0011472559 -0.0006462753 -0.0082641 -0.0030983074
-0.001664086 -0.0028699022 -0.0010506841 -0.0004181947 0.0020859633 -0.008166539 -0.0040254835 0.0006959985
00000000: dc97 31be 2f69 f4be d058 e737 1861 87b7
00000010: 6765 3b38 4f51 1338 59f2 dd3c 69e6 303c
00000020: 86a7 fb3b b278 0939 de84 4338 a4e1 11b7
00000030: c395 163c 19d6 d6ba 533f 353c 57ac 3b3b
00000040: 2c19 803b bccf 763a 3e1f c53b ad80 41bb
00000050: 79f1 fa39 da31 0cba 5652 8c3d 027e b63c
00000060: a62c 993d 8895 da3d 6b13 643c 95ff 8f3b
00000070: 3bdb 4338 a81f 6e36 8217 183d 3904 893c
00000080: 5be7 3b3b c887 273a 2ed3 3537 f0f9 1737
00000090: 3538 c837 07b8 cb37 769a fb3a f981 7839
000000a0: e86f 9d3b 8740 09bc c517 163c ee5d 1f3c
000000b0: 8e04 8e3d 29f9 b43a 9e2d 383e 97eb 1e3d
000000c0: 598c 673c 01bf efb9 cbd1 c53d d223 de3c
000000d0: aa44 153a 5e48 dbb9 10a5 273c a724 023a
000000e0: 0009 ba39 10ac a3b8 9421 0a3a 8207 acb9
000000f0: 94dc bf3c ad98 0b3b ad9d 193c ea66 e3ba
00000100: 0d01 813b 0cbb 4eba fa9f 203e eebf 5a3d
00000110: 8f9f 243e 1d5a 2e3e d1d9 3a3d 25c7 ea3a
00000120: 3eae 343c b38d c3b9 8077 e839 244c e0b9
00000130: 47e1 863d 4fbd ef3c 10a4 9e39 ed7a 0ebb
00000140: 6849 9a3c 5bb1 1b3b b7bc dd3d bc59 323e
00000150: 8e34 593d d748 52bb 6f73 593c c30d 0fbc
00000160: a96f 683d 1ff5 553c 9deb 7b3a 3df6 d2b9
00000170: d7e0 3738 24eb 0038 7324 393b 3317 f8ba
00000180: 57ca 823c 06b4 d6bb 0bcd 4f3c cd68 3d3b
00000190: 5436 653c 5480 ba3c e5cc 223d c014 99ba
000001a0: 93c3 863a 76aa b7ba 11a7 873d 5c75 cb3b
000001b0: 8f02 c33c 5d90 aabb 8944 853c 3ec7 a33b
000001c0: e089 c539 89f5 e837 6c67 323d 8fc3 0fbc
000001d0: b228 303e 3a47 563d e26e db3b 76d8 e13a
000001e0: 9741 513d a551 d23c fc14 773b b8be be3a
000001f0: c450 7d3c 7a7a 38ba 6755 4438 5dfb ce37
00000200: 487e 993b a322 9238 01cc fc3d 4973 613d
00000210: a9cd a83b 7734 a8b9 6600 89b7 6de2 92b7
00000220: a69f b13a b39f 1a3c de90 9a3b bcc4 5fb9
00000230: c301 663c 297b 523b 437c c43b 767c 70bb
00000240: cbb0 8f3d b621 773b 168d 9b3a 8e5f b2b9
00000250: 7e46 bb3b b363 cd3a 3d66 dd3c 2a6c 4f3c
00000260: e2a6 8d3c da95 a83b f727 0937 a72d 4238
00000270: dade d03d a14a 9f3d 937d cd3c 9168 313b
00000280: 7911 8b3b 3533 96ba 2937 943a 5a95 0ab8
00000290: cf66 9f3c acc8 edbb e36b aa3c 2442 063c
000002a0: 7923 9d3b cea1 9e39 5059 e63c cffc 02bb
000002b0: 88e6 6e3c 3ea5 ea3b 6640 463a 7111 9dba
000002c0: cf8d dcbc 4be1 663d d609 b73d 772e c23c
000002d0: 6cba 2f3a b9a9 95b9 0390 cf3c 8b94 b73a
000002e0: 0bb4 273d 7c82 fc3b 09fd 273d 51f0 fb3b
000002f0: e195 c23b 3f4b 17bb 303e a73d ec9d a03c
00000300: f9f4 6cbe 4b3f 33bd 0ed8 25ba d660 edb9
00000310: 67f2 e9b9 6f4d 63b9 0686 d93d d8ec 313e
00000320: ac97 143d c4a8 d53b 2723 5ebb 2616 9bba
00000330: ff3c 8fbb 5ba0 123b c9a3 aa3c b1f1 9ebc
00000340: b645 f23b 3b72 8fbb 5680 163b 9bbf 813b
00000350: 33cd 75b9 99f6 ddba 4e53 263d df00 6e3c
00000360: e257 a43b e3b3 a4bd baaf 043e d7bb a93a
00000370: 96cc 18bb 549b 3a3b 6b4b 4a3d 8b0f fe3c
00000380: 32f6 53bc a495 6f3c 5c72 a0b9 1d6b 19b9
00000390: 2dc7 03ba 47c7 f9b9 6966 443b ce0c 78bb
000003a0: 6cda 6fbc 1dbe 6b3b 2b90 0bbe 22e9 ebbc
000003b0: a8f2 b03e 284c 923d 5f20 99bd 9864 003c
000003c0: 4560 84bb ff65 babb 24c5 a0bb 866f ebbd
000003d0: 855f 96ba cd6a 29ba 2666 07bc f90c 4bbb
000003e0: 761d daba f814 3cbb 1cb7 89ba 2441 dbb9
000003f0: a8b4 083b f2cc 05bc 34e8 83bb ab73 363a

rios_f.RIOS_H.rnn_cell0.weight_hh f4 [384, 96]
0.044713337 -0.06297024 -0.020305946 0.12792355 0.08856108 -0.016608724 -0.018110598 0.10075721
0.025326308 0.028510554 -0.009512706 0.036752112 0.022020407 0.10989282 -0.0023806703 0.026747912
0.045138355 -0.0019331725 -0.02990029 0.06053347 0.017009983 -0.039059345 -0.106165044 -0.03641142
-0.011328672 0.0017860783 0.024156708 -0.010286591 -0.08060764 0.0675958 0.02105732 0.014807022
0.07909055 -0.035103403 -0.06917433 0.044883855 0.036431916 -0.05050505 0.02194392 0.020796213
-0.0035262154 -0.08883933 -0.011765271 0.003355048 -0.088396646 -0.06621901 -0.13221478 0.04730215
0.0034954466 0.032979432 0.035708502 0.033649415 0.011440835 -0.07029801 -0.014626013 0.013040148
0.06506841 -0.017231693 0.11446094 0.14640553 -0.02780435 -0.111474864 0.06454982 0.06776907
-0.114091426 0.10747707 0.019608721 0.09156281 0.18227862 0.07226889 -0.0035033259 0.14436388
0.22396323 0.01593658 -0.1298994 -0.09238977 -0.047061052 -0.04315549 -0.00094366365 -0.09401765
-0.033891045 0.05946864 0.0326765 0.040136177 -0.09014332 0.0057755974 0.07034626 -0.004667764
-0.19942594 0.036315616 -0.07218924 -0.02597833 -0.04203843 0.15049641 -0.00095609156 -0.06422976
4.393225e-05 0.00016161686 6.519558e-05 8.7453474e-05 -1.8466639e-05 -8.161945e-05 -3.2931007e-06 1.5689503e-06
2.2003422e-05 1.1711047e-06 1.0214809e-05 0.00010189884 -4.6009038e-05 3.9285016e-05 1.4373133e-05 -4.3838234e-05
8.595531e-06 -1.93631e-05 1.7243652e-05 1.2189541e-05 -0.000112028116 -1.9645744e-05 -4.3009335e-05 1.6504524e-05
1.296905e-06 -3.1389786e-06 5.658259e-05 -1.4650385e-06 -8.1694736e-05 -6.7190454e-06 -7.545267e-06 -3.904404e-06
-2.570879e-05 1.1231152e-05 -6.262891e-06 1.4309133e-05 1.4413392e-06 3.8556325e-05 8.938496e-06 -2.0110876e-05
4.405463e-05 -0.0001005672 7.26088e-07 -2.1798417e-06 -1.7444987e-05 2.4529894e-05 -8.7094115e-05 7.090768e-05
3.305634e-06 -2.2088196e-05 8.225285e-05 1.06148555e-05 -3.1182872e-06 -4.1605294e-05 1.3017771e-05 1.2408799e-05
7.907368e-05 4.4361605e-06 1.8160867e-05 1.7099463e-05 -3.3508255e-05 -4.7521025e-05 -4.948634e-06 4.452918e-05
-1.434556e-06 9.932082e-05 3.8560058e-05 5.4530017e-05 3.4521305e-05 -1.9720694e-05 -3.4837135e-06 1.3810885e-05
-1.8727783e-07 2.8789162e-05 -1.460251e-05 -3.905652e-05 8.736062e-06 -1.8130691e-05 4.8171678e-05 -9.7362594e-05
-2.2234135e-06 -7.688091e-07 -2.5535484e-05 3.7760932e-05 -8.120728e-05 -4.4095425e-05 8.79491e-06 -3.8271602e-07
2.4661336e-05 0.00010996865 -2.367241e-05 9.002322e-05 -5.896261e-05 3.8138667e-05 -1.092393e-06 -3.885251e-05
-9.156215e-07 3.9577008e-05 5.227227e-05 0.0001847784 8.9404064e-05 -0.00016971288 -4.3478785e-06 5.479946e-05
7.772601e-05 4.1352952e-05 1.7976708e-05 -3.0390871e-05 4.883116e-05 0.00014216291 1.7612318e-05 7.346592e-05
9.328154e-05 -3.0053285e-05 3.9710135e-06 5.751995e-05 1.8709094e-05 -2.7166676e-05 -0.00014240532 8.6552545e-06
4.502727e-06 1.8515058e-05 3.9903112e-05 -4.9014334e-06 -0.0001874591 4.635048e-05 5.998248e-06 1.1800903e-05
9.183104e-05 -1.5511225e-05 -7.593612e-05 -6.184874e-05 3.722129e-05 9.147007e-06 5.0124445e-06 1.1836871e-05
1.6296712e-05 -3.666656e-05 6.387805e-06 1.4022849e-05 -0.000107202475 -0.00011089532 -8.192922e-05 2.4404186e-05
-8.416517e-06 9.3178714e-05 3.0403853e-05 3.1621086e-05 9.350062e-06 -7.167333e-05 -2.9796004e-07 -3.877652e-06
0.0001615545 5.1752545e-07 4.6408736e-06 0.00013106452 -9.633191e-06 -0.00013594638 9.3610186e-05 2.6762184e-05
00000000: 5525 373d 8bf6 80bd a858 a6bc 64fe 023e
00000010: 835f b53d 050f 88bc ad5c 94bc cc59 ce3d
00000020: 1e79 cf3c f78e e93c 2edb 1bbc 6289 163d
00000030: 2464 b43c 7d0f e13d 0505 1cbb 701e db3c
00000040: ffe2 383d 8162 fdba 74f1 f4bc f2f1 773d
00000050: 8558 8b3c b1fc 1fbd 0f6d d9bd 2424 15bd
00000060: e59b 39bc d81a ea3a 4ae4 c53c 1789 28bc
00000070: 9e15 a5bd ab6f 8a3d 6780 ac3c 2799 723c
00000080: 3afa a13d 96c8 0fbd 45ab 8dbd 22d8 373d
00000090: a239 153d 62de 4ebd bcc3 b33c d25c aa3c
000000a0: 1418 67bb 65f1 b5bd 20c3 40bc 5de0 5b3b
000000b0: 4d09 b5bd d59d 87bd 5063 07be e6bf 413d
000000c0: dd13 653b 7115 073d 1443 123d f8d3 093d
000000d0: 5772 3b3c 67f8 8fbd f2a1 6fbc 58a6 553c
000000e0: 9642 853d 7b29 8dbc 7f6a ea3d 55eb 153e
000000f0: f3c5 e3bc ef4c e4bd b232 843d 83ca 8a3d
00000100: c4a8 e9bd f01c dc3d 78a2 a03c 4885 bb3d
00000110: 3fa7 3a3e b601 943d 0e98 65bb 20d4 133e
00000120: 9e56 653e 6e8d 823c 5904 05be d936 bdbd
00000130: 17c3 40bd d0c3 30bd 3260 77ba 538c c0bd
00000140: 56d1 0abd 6395 733d cbd7 053d d565 243d
00000150: 109d b8bd 3941 bd3b b311 903d 0bf4 98bb
00000160: 5036 4cbe afbf 143d f4d7 93bd 82d0 d4bc
00000170: 7d30 2cbd bb1b 1a3e 38a2 7aba e48a 83bd
00000180: e543 3838 b277 2939 9cb9 8838 3a67 b738
00000190: cee8 9ab7 1c2b abb8 0aff 5cb6 b994 d235
000001a0: fd93 b837 da2e 9d35 4560 2b37 86b2 d538
000001b0: d4f9 40b8 f7c5 2438 2324 7137 f2de 37b8
000001c0: 8635 1037 f16d a2b7 76a6 9037 ae81 4c37
000001d0: a3f0 eab8 eacc a4b7 ec64 34b8 3273 8a37
000001e0: 5111 ae35 3ea7 52b6 1853 6d38 57a2 c4b5
000001f0: 8753 abb8 2974 e1b6 5a2d fdb6 9302 83b6
00000200: 35a9 d7b7 6e6d 3c37 d325 d2b6 4211 7037
00000210: 0a74 c135 8ab7 2138 8cf6 1537 c7b3 a8b7
00000220: 4cc7 3838 9be7 d2b8 63e8 4235 6549 12b6
00000230: d356 92b7 8cc5 cd37 4ca6 b6b8 45b4 9438
00000240: 5cd6 5d36 0a4a b9b7 2a7f ac38 7516 3237
00000250: c443 51b6 5881 2eb8 e766 5a37 632f 5037
00000260: 5cd4 a538 54da 9436 2a58 9837 d170 8f37
00000270: 378b 0cb8 5051 47b8 710c a6b6 d8c4 3a38
00000280: f88a c0b5 764a d038 8cbb 2138 29b7 6438
00000290: f8ca 1038 de6d a5b7 bec9 69b6 4db5 6737
000002a0: 8a16 49b4 4180 f137 4efd 74b7 9ed0 23b8
000002b0: 1a91 1237 5d17 98b7 f20b 4a38 252f ccb8
000002c0: f435 15b6 2960 4eb5 0935 d6b7 7e61 1e38
000002d0: d44d aab8 1af3 38b8 da8d 1337 1778 cdb4
000002e0: d1df ce37 f89e e638 1d94 c6b7 d9ca bc38
000002f0: 9f4e 77b8 15f7 1f38 569e 92b5 91f5 22b8
00000300: 08c9 75b5 7dff 2538 ec3e 5b38 13c1 4139
00000310: 717e bb38 f4f4 31b9 fee3 91b6 79d8 6538
00000320: d500 a338 6572 2d38 b0cc 9637 e6ef feb7
00000330: 0fd0 4c38 9111 1539 2abe 9337 b711 9a38
00000340: 25a0 c338 f01a fcb7 bf3e 8536 9341 7138
00000350: 79f1 9c37 fee3 e3b7 a352 15b9 0936 1137
00000360: 2116 9736 c950 9b37 a45d 2738 fe76 a4b6
00000370: ab90 44b9 7368 4238 8f44 c936 7efc 4537
00000380: 6a95 c038 1a1e 82b7 e53f 9fb8 cab4 81b8
00000390: 0e1e 1c38 1976 1937 9230 a836 f996 4637
000003a0: ecb4 8837 6bca 19b8 d456 d636 ae43 6b37
000003b0: e4d1 e0b8 7990 e8b8 6ad1 abb8 97b7 cc37
000003c0: aa34 0db7 f168 c338 c70b ff37 e2a0 0438
000003d0: 36de 1c37 534f 96b8 51f7 9fb4 c71c 82b6
000003e0: f566 2939 14ec 0a35 cdb8 9b36 5d6e 0939
000003f0: 3e9e 21b7 d48c 0eb9 9650 c438 5a7f e037

rios_f.RIOS_H.rnn_cell0.bias_ih f4 [384]
0.27703995 1.648549e-05 0.00022363997 0.041166104 0.0014168933 -4.1468764e-05 0.00073399075 0.006263347
0.00038743048 -0.001209561 -0.001595962 0.044275556 0.23157321 0.0060124607 -9.019206e-05 0.012098323
-0.0012675101 8.095527e-06 5.699916e-05 -0.0013205688 0.015390326 0.055799622 0.055465296 0.11341926
0.018634742 0.10890422 0.0006599641 0.0013359485 0.00025392082 0.000502511 -0.0004866233 0.0155495275
-0.0014394103 0.08016174 0.25001773 0.03401853 0.001435469 0.00015885248 0.13193633 -0.009229347
0.007669796 0.21196021 0.08299983 0.022793615 0.05126146 -0.00047610857 0.00013499052 0.070793174
-0.00010784378 0.033473838 0.0841109 0.023229402 -8.5677355e-05 0.1281535 0.016602458 0.0033396997
-8.344749e-06 0.031719632 0.07773802 0.001133736 0.0814286 0.0013694802 0.05077998 0.00017160378
0.0019236535 0.13125111 -0.0009997811 -1.6455957e-05 0.018649815 -2.7583208e-06 0.0040864404 0.0030004433
0.07621097 -0.0009854301 -0.00093163404 0.021365222 0.0038076655 -0.00048083527 0.18763843 0.0047834734
0.005864306 -0.0004691941 0.00459292 0.0078580305 0.004962158 0.010806629 0.0023109305 -0.0011144524
0.18578877 0.08922093 0.0002014904 0.033367094 0.102691226 0.028318685 8.050619e-05 0.06554399
0.06877245 -0.0011388116 -0.0018746688 -0.028441487 0.03682806 -0.0077297585 -0.002910378 0.008146544
0.0174847 0.0022786013 -0.00017838585 0.0011265221 -0.0065245866 0.044747733 -0.0011922781 0.023639193
0.0026713775 -0.0004698835 -0.0011155879 -0.0013026063 0.009312013 -0.0049904482 0.032089263 -0.040663116
-0.0035023526 0.044720102 -0.003381825 -0.0024164843 -0.024098495 0.0018460643 0.00022299949 0.0012794508
0.00016709839 -0.0060080206 -0.05089297 -0.022804027 0.0020408086 -0.0010188296 0.004017843 0.00039099905
-0.009900199 -0.070945874 0.014710529 -0.0078657875 -0.008450851 0.0122702215 -0.0025454825 -0.015034767
0.019880824 -0.012505252 -0.022019416 -0.012027197 -0.004500891 0.058664642 0.014547828 0.01891415
-0.022593277 0.01648498 0.0050650015 0.020274019 -0.016871579 -0.005996948 -0.06969776 -0.0020163353
0.02335777 -0.07228403 -0.0113217775 -0.0028922104 0.044972073 0.012705812 -0.007754584 0.00068676996
-0.044482578 0.0035646427 -0.0048503852 -0.03247931 -0.020178001 0.00024805346 -0.014422023 -0.020379726
-0.00703538 0.005859814 -0.0017306849 -0.0029556386 -0.094459765 0.020664552 -0.015686108 9.001483e-05
0.09124658 0.052331366 -0.001858512 0.01446795 -0.019584235 0.0004831665 0.0033675807 0.038452543
0.046757262 -0.0050159935 0.005765564 -0.07523036 0.040554304 0.002996857 0.016516043 -0.024594251
-0.04533042 -0.023775304 -0.030513164 0.012310784 0.040901292 -0.03593968 0.03099932 0.014395967
0.034209646 0.01507058 0.020627225 -0.04238832 0.046586033 -0.012621744 0.054603327 0.05578499
0.0698791 -0.05987396 -0.040186174 0.029939916 0.01757196 -0.033544756 0.0741751 -0.006533687
-0.028969288 0.084228754 0.055428594 -0.051380835 -0.02735137 -0.032295164 0.012592386 0.06289045
-0.06939558 0.05095154 -0.0031673943 0.045855206 0.063330285 0.0037742625 0.005608723 0.00823668
0.026000926 0.046005182 0.06639804 -0.061895896 -0.057753548 0.027080951 -0.02268117 0.03774059
-0.0076609533 -0.08105098 0.009724567 0.008668017 0.0923679 0.02424584 -0.09352401 -0.006149163
00000000: 2ed8 8d3e 524a 8a37 e680 6a39 ca9d 283d
00000010: 0db7 b93a bfee 2db8 4969 403a c33c cd3b
00000020: 0a20 cb39 228a 9eba 992f d1ba 495a 353d
00000030: 8721 6d3e 2d04 c53b 7e25 bdb8 0b38 463c
00000040: 9522 a6ba 06d2 0737 6212 6f38 f016 adba
00000050: b527 7c3c 258e 643d 942f 633d 5b48 e83d
00000060: e3a7 983c 2d09 df3d 7101 2d3a fe1a af3a
00000070: ad20 8539 f1ba 033a 7921 ffb9 72c3 7e3c
00000080: 98aa bcba d72b a43d 5302 803e 0457 0b3d
00000090: 5926 bc3a a391 2639 511a 073e b036 17bc
000000a0: e952 fb3b 190c 593e d1fb a93d adb9 ba3c
000000b0: 89f7 513d 369e f9b9 3e8c 0d39 03fc 903d
000000c0: 302a e2b8 dd1b 093d 5642 ac3d 964b be3c
000000d0: aead b3b8 ac3a 033e e101 883c ddde 5a3b
000000e0: 6d00 0cb7 72ec 013d 1c35 9f3d de99 943a
000000f0: 0ac4 a63d 2180 b33a abfe 4f3d 8af0 3339
00000100: 1a23 fc3a b166 063e 160b 83ba e60a 8ab7
00000110: 7fc7 983c 971b 39b6 8ce7 853b 16a3 443b
00000120: 7f14 9c3d 8c29 81ba e738 74ba 1e06 af3c
00000130: 078a 793b 9e18 fcb9 4a24 403e afbe 9c3b
00000140: 5d29 c03b 2bfe f5b9 3580 963b f8be 003c
00000150: 9999 a23b 4a0e 313c fb72 173b d112 92ba
00000160: 693f 3e3e 77b9 b63d 2b47 5339 efab 083d
00000170: c74f d23d 96fc e73c 6fd5 a838 ed3b 863d
00000180: 92d8 8c3d 2d44 95ba 72b7 f5ba 1ffe e8bc
00000190: 05d9 163d ea49 fdbb 0abc 3ebb 1579 053c
000001a0: 133c 8f3c 9654 153b 160d 3bb9 cfa7 933a
000001b0: 33cc d5bb 6649 373d 3746 9cba fba6 c13c
000001c0: 4712 2f3b b25a f6b9 eb38 92ba 37bc aaba
000001d0: 6a91 183c ea86 a3bb 0870 033d 5e8e 26bd
000001e0: ba87 65bb 6d2c 373d 9ca1 5dbb e15d 1ebb
000001f0: 356a c5bc a4f7 f13a f8d4 6939 3fb3 a73a
00000200: 2237 2f39 eede c4bb 2675 50bd 83cf babc
00000210: 16bf 053b 408a 85ba 1ca8 833b 01ff cc39
00000220: 7234 22bc 124c 91bd 6e04 713c 81df 00bc
00000230: 7075 0abc 0a09 493c 1cd2 26bb 6254 76bc
00000240: 1cdd a23c d4e2 4cbc 1062 b4bc b80d 45bc
00000250: 367c 93bb 564a 703d 035a 6e3c d9f1 9a3c
00000260: 8915 b9bc 820b 873c 50f8 a53b b315 a63c
00000270: 4436 8abc 0c82 c4bb b3bd 8ebd 7e24 04bb
00000280: cb58 bf3c a609 94bd fa7e 39bc 3d8b 3dbb
00000290: a334 383d 0a2c 503c 2a1a febb 5a08 343a
000002a0: 5d33 36bd c89c 693b fbef 9ebb 0609 05bd
000002b0: 564c a5bc 2c0d 8239 594a 6cbc 62f3 a6bc
000002c0: 0c89 e6bb af03 c03b 26d8 e2ba 63b3 41bb
000002d0: 1f74 c1bd b548 a93c 2780 80bc 58c6 bc38
000002e0: 7ddf ba3d 6a59 563d 5199 f3ba fb0a 6d3c
000002f0: 1e6f a0bc 8351 fd39 a1b2 5c3b 6a80 1d3d
00000300: 8b84 3f3d 345d a4bb 0eed bc3b 6012 9abd
00000310: 451c 263d eb66 443b a74c 873c e279 c9bc
00000320: 64ac 39bd 6dc4 c2bc bef6 f9bc 2cb3 493c
00000330: 1d88 273d 7c35 13bd 49f2 fd3c 10dd 6b3c
00000340: 6a1f 0c3d 98ea 763c 6dfa a83c 609f 2dbd
00000350: ffd0 3e3d 6ecb 4ebc bda7 5f3d cd7e 643d
00000360: c61c 8f3d 663e 75bd 429a 24bd 8e44 f53c
00000370: 12f3 8f3c 3a66 09bd 1de9 973d 8a18 d6bb
00000380: 0051 edbc 2080 ac3d 1809 633d b674 52bd
00000390: fb0f e0bc ef47 04bd 4c50 4e3c b5cc 803d
000003a0: 451f 8ebd 90b2 503d 0f94 4fbb abd2 3b3d
000003b0: 4fb3 813d 9e59 773b 61c9 b73b 24f3 063c
000003c0: e5ff d43c ee6f 3c3d b2fb 873d 8d86 7dbd
000003d0: fc8e 6cbd dfd8 dd3c dccd b9bc e095 1a3d
000003e0: bc08 fbbb 0efe a5bd ca53 1f3c 4c04 0e3c
000003f0: 622b bd3d 369f c63c 8489 bfbd eb7e c9bb

rios_f.RIOS_H.rnn_cell0.bias_hh f4 [384]
0.2786837 1.655132e-05 0.00022364096 0.040266667 0.0014168654 -4.146894e-05 0.00081889116 0.006263348
0.00045803448 -0.001209819 -0.001595961 0.046525616 0.20005429 0.0059015313 -9.019021e-05 0.011097126
-0.0012675137 8.099248e-06 5.6999066e-05 -0.0013868858 -0.0077511244 0.042451486 0.055464596 0.08711767
0.013109581 0.09603633 0.00088946003 0.001325764 0.00025392082 0.00054148224 0.008470048 0.009427567
-0.0014394104 0.11787565 0.2597398 0.03136868 0.0013654812 0.00019965852 0.14787345 0.004117998
0.007876428 0.22042076 0.09136867 -0.0009424282 0.06853624 -0.00047457896 0.00013499046 0.06947345
0.0027190733 0.02197765 0.08276769 0.021253021 -8.567741e-05 0.12627791 0.026048591 0.0019544547
-8.344871e-06 0.04759435 0.078680895 0.0011338165 0.08131635 0.0013694809 0.06816916 0.00017152986
0.0019516484 0.12343298 -0.0009996829 -1.6421682e-05 0.035092108 -2.7580677e-06 0.004065778 0.003000814
0.07691769 -0.0009852697 -0.00093409244 0.011558961 0.004793998 -0.0004808222 0.15403412 0.0033432585
0.005808874 -0.00046918725 0.0032440817 0.007930901 0.005415054 0.009681002 0.0023109543 -0.00095799984
0.14178383 0.0911417 0.00018310497 -0.0021556937 0.09969473 0.026765168 3.7594757e-05 0.060219582
0.061899155 -0.0011388446 -0.001867613 -0.05859793 -0.024825023 -0.0066137123 -0.0015367366 0.0059492
-0.015283167 0.0022830858 -0.0004612643 0.012852626 -0.0321509 0.005407653 -0.0011920211 0.017199699
0.0011155647 -0.0004698878 -0.0011156042 -0.0012953188 -0.012692167 -0.011801617 0.023963068 0.032928474
-0.0034650757 -0.0446751 -0.005740465 -0.0022512367 -0.0047482937 -0.008306888 0.00060851255 0.0012527218
0.014006122 0.0027390074 -0.02614217 -0.05677884 0.002037021 -0.0018408417 0.028358627 -8.8927445e-05
-0.0080530625 0.009996797 0.010475672 -0.0026798374 -2.8350152e-05 0.004199857 -0.0025454108 0.019545447
-0.015626388 -0.024968551 0.057778478 0.013345856 -0.0045055794 -0.012968089 -0.013370457 0.015427922
-0.013851678 0.015915688 0.013069765 0.019553801 -0.009235919 -0.007852115 -0.011524496 -0.0020163362
-0.021789815 -0.00983763 0.00051040546 -0.00289221 0.046011895 -0.018631598 -0.021929381 0.0004885068
-0.033063516 -0.002928663 -0.0039086603 0.029987032 0.012972995 0.00024803897 -0.030349594 -0.07085854
0.0076700677 -0.0054240376 -0.0021014854 -0.0045175552 -0.042044982 0.010372727 -0.00037637178 0.00018160981
0.091252774 0.09097987 -9.749638e-05 0.020356666 -0.017434418 -0.00961925 0.0009923185 -0.008487147
0.077134416 -0.005010983 -0.013917021 -0.02647042 -0.07227422 0.004729161 0.011682033 -0.009761902
0.03877914 0.020993477 0.005974913 -0.06500082 0.00776325 -0.027349243 -0.012176328 0.025053538
0.05193534 0.0029549352 0.019652812 -0.02949711 0.011606336 0.04003745 0.09343405 -0.04861559
0.0025937308 0.037471477 -0.05578277 0.028583221 0.030202832 -0.026439922 0.07090838 0.0075453795
-0.031729355 0.027429923 -0.04608293 0.015176731 -0.019196052 0.0059255767 0.003230847 0.06398003
-0.015806798 -0.11342562 0.018878425 0.07593895 -0.0018819415 -0.027615657 0.005751308 -0.04032199
-0.087372616 0.09217553 -0.01774826 -0.021304034 0.037448835 -0.014782693 -0.009325048 0.0047137896
-0.011904381 -0.020180255 0.06457134 0.022252262 -0.0458948 -0.014146573 0.06523688 -0.0061744004
00000000: a1af 8e3e b0d7 8a37 2a81 6a39 a9ee 243d
00000010: 1db6 b93a efee 2db8 dbaa 563a c53c cd3b
00000020: 5924 f039 ca92 9eba 912f d1ba a591 3e3d
00000030: 08db 4c3e a261 c13b 8024 bdb8 b8d0 353c
00000040: b422 a6ba 01e2 0737 4812 6f38 2ac8 b5ba
00000050: 25fd fdbb 9ce1 2d3d d82e 633d c06a b23d
00000060: 91c9 563c b2ae c43d a72a 693a 42c5 ad3a
00000070: ad20 8539 42f2 0d3a f5c5 0a3c 1576 1a3c
00000080: 99aa bcba ca68 f13d 9dfc 843e 727c 003d
00000090: f2f9 b23a 6d5b 5139 236c 173e 45f0 863b
000000a0: 220c 013c fbb5 613e 7f1f bb3d 490d 77ba
000000b0: ba5c 8c3d e9d0 f8b9 3a8c 0d39 1948 8e3d
000000c0: 7b32 323b 790a b43c 1b82 a93d d11a ae3c
000000d0: b6ad b3b8 ff4e 013e db63 d53c 4f16 003b
000000e0: f300 0cb7 4bf2 423d 7323 a13d 929c 943a
000000f0: 3089 a63d 2780 b33a 469c 8b3d b2dc 3339
00000100: 74ce ff3a 6eca fc3d cb07 83ba 4bc1 89b7
00000110: bebc 0f3d 3e17 39b6 383a 853b 4ea9 443b
00000120: 0687 9d3d 2a24 81ba e2dd 74ba cc61 3d3c
00000130: f816 9d3b dd16 fcb9 1fbb 1d3e 921a 5b3b
00000140: 5e58 be3b 3ffd f5b9 a99a 543b 9cf0 013c
00000150: c470 b13b 119d 1e3c 6173 173b 4822 7bba
00000160: c82f 113e 80a8 ba3d deff 3f39 8a46 0dbb
00000170: c02c cc3d a042 db3c 10af 1d38 cfa8 763d
00000180: f889 7d3d 4945 95ba b2ca f4ba 6204 70bd
00000190: d95d cbbc d7b7 d8bb 536c c9ba 82f1 c23b
000001a0: 4066 7abc d39f 153b d9d5 f1b9 d293 523c
000001b0: aab0 03bd ae32 b13b 973d 9cba 62e6 8c3c
000001c0: 2438 923a 465b f6b9 7739 92ba b0c7 a9ba
000001d0: cff2 4fbc 925b 41bc 324e c43c 02e0 063d
000001e0: 5316 63bb 3dfd 36bd 831a bcbb 7c89 13bb
000001f0: 9397 9bbb 9d19 08bc 9684 1f3a 5e32 a43a
00000200: ef79 653c eb80 333b 1b28 d6bc ee90 68bd
00000210: 8b7f 053b 6648 f1ba 5a50 e83c 8f7e bab8
00000220: fef0 03bc 9bc9 233c 27a2 2b3c 36a0 2fbb
00000230: 7dd1 edb7 f49e 893b e8d0 26bb c61d a03c
00000240: e902 80bc d98a ccbc 20a9 6c3d 94a8 5a3c
00000250: 8aa3 93bb 1c78 54bc c30f 5bbc 65c5 7c3c
00000260: 26f2 62bc 9e61 823c 9122 563c 4b2f a03c
00000270: 4152 17bc 28a6 00bc 3dd1 3cbc 8224 04bb
00000280: 8e80 b2bc 032e 21bc bbcc 053a 3b8b 3dbb
00000290: f876 3c3d 4ba1 98bc 3fa5 b3bc 230f 003a
000002a0: 9c6d 07bd d0ee 3fbb 3814 80bb 5da7 f53c
000002b0: af8c 543c 3a0b 8239 b69f f8bc 481e 91bd
000002c0: 3155 fb3b 20bc b1bb 13b9 09bb 0008 94bb
000002d0: 5c37 2cbd 5ff2 293c c453 c5b9 836e 3e39
000002e0: bce2 ba3d a753 ba3d f876 ccb8 06c3 a63c
000002f0: a0d2 8ebc 0f9a 1dbc af10 823a ad0d 0bbc
00000300: a6f8 9d3d 2c33 a4bb 3804 64bc 7fd8 d8bc
00000310: 8204 94bd 14f7 9a3b ff65 3f3c 62f0 1fbc
00000320: e0d6 1e3d 83fa ab3c 34c9 c33b 261f 85bd
00000330: dc62 fe3b 850b e0bc 397f 47bc 143d cd3c
00000340: 27ba 543d 96a7 413b effe a03c eca3 f1bc
00000350: 8028 3e3c 4ffe 233d 5a5a bf3d 2421 47bd
00000360: 95fb 293b b17b 193d 797c 64bd 5c27 ea3c
00000370: ee6b f73c 8998 d8bc 6a38 913d 3b3f f73b
00000380: a4f6 01bd b8b4 e03c 74c1 3cbd d3a7 783c
00000390: 0a41 9dbc 572b c23b 9ebc 533b f607 833d
000003a0: 427d 81bc b14b e8bd eda6 9a3c e185 9b3d
000003b0: 7aab f6ba 3b3a e2bc 7875 bc3b ac28 25bd
000003c0: 6af0 b2bd 86c6 bc3d cd64 91bc cc85 aebc
000003d0: f363 193d 1c33 72bc 16c8 18bc 2276 9a3b
000003e0: 980a 43bc 1051 a5bc fb3d 843d 604a b63c
000003f0: 30fc 3bbd 07c7 67bc ea9a 853d a052 cabb

rios_f.RIOS_H.rnn_cell1.weight_ih f4 [384, 2]
-0.169215 -0.086433984 0.050718367 0.019527921 0.011889544 -0.017789373 -0.043512244 -0.037650604
-0.010308096 -0.0032462094 0.07188262 0.009154887 -0.00086270925 -0.0012623972 0.034169838 -0.023328625
0.017440185 -0.020259034 0.012698812 0.003213316 0.015019645 0.015684037 0.059231248 -0.03841286
0.04385282 -0.047708124 0.0069521843 -0.0022991498 0.024817739 0.03517322 -0.045394912 -0.049710166
0.013671422 0.001718678 0.0037537445 -0.038664587 0.05037645 0.011718343 -0.0026293863 0.004746328
0.019402642 -0.0050051957 0.01870797 -0.022642998 0.023525504 0.0056808842 0.006950168 0.005851318
0.00033204642 0.001185765 -0.026468147 -0.08833506 0.00077957875 -0.01119832 -0.0040693423 -0.0127644185
0.06482834 0.012917423 0.01733814 0.0053978316 0.012534054 0.0088361325 0.0101524 0.0015115355
0.030762933 -0.0031025924 0.009654229 0.08259588 0.0034482437 -0.019259058 0.008761837 0.0011020818
-0.005702054 0.00039401607 -0.008801553 -0.020084538 0.024433112 0.02467053 0.020485595 0.007412509
0.017744679 -0.03578339 -0.016795177 -0.032235153 0.009805612 -0.03223252 0.004561417 0.0024942998
0.026213203 0.0014931104 0.022593398 0.0066554416 0.007650788 -0.037240125 0.014899898 0.0067069614
0.001884666 0.00067536905 0.016572818 -0.012349071 0.0060396953 0.0053750705 -0.008824931 0.027885515
0.115398146 0.032763842 0.05755797 0.013719101 0.022510985 0.021225667 0.00037228945 0.0024406195
0.083041415 0.016962735 0.055181168 0.028398352 0.053775344 -0.06119645 0.032907154 0.013448546
0.03267763 0.024381485 0.026696324 0.007094015 0.013406832 -0.0029325662 0.11800221 0.0022955888
0.010286401 -0.021543782 0.035384975 -0.0021833521 0.0059530023 -0.00075429166 0.040542856 -0.035745814
-0.022226423 -0.07725487 0.020350812 -0.00431585 -0.000663278 0.00195481 0.022766635 0.0029473077
0.15639752 -0.44541037 -0.022914091 -0.01683352 0.04451848 -0.053356644 0.0075397976 -0.009571106
0.022686 0.006119 -0.0022822078 0.014038625 0.024139097 0.020806495 0.08972698 0.03544717
0.013946477 -0.0022242642 0.00036242208 -0.009476162 0.046325497 -0.009071835 0.0016291244 -0.0014801195
0.07635882 -0.033750877 0.01403481 -0.009750852 0.03339388 0.007946016 -0.0053250445 -0.00653378
0.97270167 0.35642663 0.16657636 0.05746835 0.018401101 -0.012446359 0.018494979 -0.02960923
0.009517736 0.022566875 0.07661315 -0.009028484 0.0018575831 0.0024699871 0.036111373 -0.030677628
0.041131385 0.012183598 -0.03734925 0.06738232 -0.0006095748 -0.089346185 -0.095478885 0.12311479
-0.01743866 0.0064314515 0.012909812 -0.030893963 -5.5081386e-05 0.00015545049 0.009061294 0.036552798
0.017858217 -0.012429888 0.00022175918 0.0050336397 0.02032935 0.012752588 0.13748175 -0.11190951
0.023758167 -0.031347115 0.036529668 0.0048539634 0.15241645 0.017695846 0.021085983 0.10370205
-0.048642535 -0.065068394 -0.016386645 -0.010926741 -0.04499145 -0.023583401 -0.012538075 0.0038685242
0.014905419 -0.024280941 0.014082141 -0.031292032 0.013335164 0.0061672563 -0.022881329 -0.00095665234
-0.00085521233 0.005203464 -0.086738065 -0.20898819 0.00274082 -0.005566425 -0.0014734622 0.004268866
0.039462164 0.040041026 0.00807419 0.0042390553 -0.006713363 0.0018174605 0.0017459863 0.0016452254
00000000: b246 2dbe 4d04 b1bd 10be 4f3d 05f9 9f3c
00000010: 5dcc 423c 05bb 91bc e539 32bd 8537 1abd
00000020: 4ae3 28bc 5bbe 54bb 3237 933d 61fe 153c
00000030: 7027 62ba 0577 a5ba acf5 0b3d ac1b bfbc
00000040: b8de 8e3c 46f6 a5bc ae0e 503c 7f96 523b
00000050: f514 763c cf7b 803c 779c 723d ce56 1dbd
00000060: 049f 333d 9869 43bd 26cf e33b 55ad 16bb
00000070: 924e cb3c cb11 103d 04f0 39bd e39c 4bbd
00000080: 1afe 5f3c 4445 e13a 6201 763b c25e 1ebd
00000090: 8957 4e3d 4bfe 3f3c c851 2cbb 1687 9b3b
000000a0: 4af2 9e3c a002 a4bb 7541 993c cf7d b9bc
000000b0: 8fb8 c03c b626 ba3b 3cbe e33b 6abc bf3b
000000c0: 8416 ae39 ac6b 9b3a bad3 d8bc 03e9 b4bd
000000d0: a55c 4c3a 2979 37bc 1e58 85bb da21 51bc
000000e0: b9c4 843d 99a3 533c b708 8e3c 4be0 b03b
000000f0: a25b 4d3c 6dc5 103c 4056 263c b71e c63a
00000100: 8c02 fc3c dd54 4bbb c52c 1e3c 0728 a93d
00000110: eefb 613b 2cc5 9dbc cf8d 0f3c bb73 903a
00000120: 4cd8 babb f193 ce39 6434 10bc 5488 a4bc
00000130: f327 c83c da19 ca3c 68d1 a73c a2e4 f23b
00000140: 4a5d 913c 9b91 12bd 0a96 89bc 0209 04bd
00000150: b8a7 203c 3f06 04bd f077 953b 6877 233b
00000160: 12bd d63c 79b4 c33a ca15 b93c e415 da3b
00000170: 76b3 fa3b 1a89 18bd b41e 743c 12c6 db3b
00000180: e606 f73a 400b 313a b8c3 873c c253 4abc
00000190: a3e8 c53b 5c21 b03b 7296 10bc 2a70 e43c
000001a0: dd55 ec3d 6133 063d e8c1 6b3d 15c6 603c
000001b0: f568 b83c 73e1 ad3c d82f c339 cdf2 1f3b
000001c0: 9e11 aa3d 6ff5 8a3c a605 623d a9a3 e83c
000001d0: 8943 5c3d 21a9 7abd a7c9 063d 4a57 5c3c
000001e0: fbd8 053d aebb c73c 40b2 da3c e974 e83b
000001f0: 54a8 5b3c 4c30 40bb 25ab f13d 9771 163b
00000200: 4b88 283c 967c b0bc d6ef 103d 9216 0fbb
00000210: 6711 c33b a8bb 45ba 4410 263d 346a 12bd
00000220: 3014 b6bc cd37 9ebd bfb6 a63c f96b 8dbb
00000230: d5df 2dba 451c 003b 1881 ba3c 9e27 413b
00000240: ac26 203e d40c e4be 55b6 bbbc 73e6 89bc
00000250: 0259 363d 7f8c 5abd 6810 f73b 21d0 1cbc
00000260: fed7 b93c e481 c83b 1891 15bb 4302 663c
00000270: 5bbf c53c 6272 aa3c c7c2 b73d 0d31 113d
00000280: c47f 643c f6c4 11bb 7803 be39 e741 1bbc
00000290: cebf 3d3d 09a2 14bc 5888 d53a 9200 c2ba
000002a0: 0362 9c3d 5c3e 0abd 42f2 653c 0ac2 1fbc
000002b0: 05c8 083d 0230 023c b67d aebb 5219 d6bb
000002c0: fa02 793f 8d7d b63e fe92 2a3e ef63 6b3d
000002d0: e8bd 963c d0eb 4bbc c882 973c 0e8f f2bc
000002e0: 47f0 1b3c 2bde b83c 5be7 9c3d 35ec 13bc
000002f0: 257a f33a 82df 213b 85e9 133d a64f fbbc
00000300: 6279 283d b79d 473c 87fb 18bd beff 893d
00000310: dfcb 1fba 22fb b6bd 6f8a c3bd 9b23 fc3d
00000320: 85db 8ebc edbe d23b ad83 533c 5615 fdbc
00000330: 3007 67b8 6c00 2339 d275 143c 63b8 153d
00000340: 654b 923c bba6 4bbc 0788 6839 3bf1 a43b
00000350: bd89 a63c 3bf0 503c 04c8 0c3e d030 e5bd
00000360: 7da0 c23c d565 00bd 22a0 153d ff0d 9f3b
00000370: 0f13 1c3e e1f6 903c 83bc ac3c be61 d43d
00000380: 653d 47bd 9442 85bd 493d 86bc 1306 33bc
00000390: f448 38bd fa31 c1bc 806c 4dbc 1187 7d3b
000003a0: dc35 743c d3e8 c6bc c8b8 663c 132c 00bd
000003b0: bb7b 5a3c b216 ca3b a071 bbbc dac7 7aba
000003c0: 5430 60ba d281 aa3b baa3 b1bd 0001 56be
000003d0: 549f 333b 8f66 b6bb 3021 c1ba d8e1 8b3b
000003e0: 14a3 213d 0f02 243d 9b49 043c c6e7 8a3b
000003f0: c5fb dbbb db37 ee3a 94d9 e43a 9ba4 d73a

rios_f.RIOS_H.rnn_cell1.weight_hh f4 [384, 96]
-0.022125958 -0.077639855 0.07996386 0.065204 0.04964974 -0.075139955 -0.0068139657 -0.0428872
0.038784716 -0.0033862514 -0.053447027 0.047594473 -0.03895374 0.066942036 0.16409518 -0.021172114
0.09875141 0.020756789 0.014299706 0.013002668 0.05444539 -0.027754711 -0.07347053 0.036349583
-0.009273645 0.062267143 0.021489577 -0.016500233 -0.08924927 0.019979797 0.0069938386 0.0107782595
0.045090802 -0.06528567 -0.040545825 -0.08895921 0.0054569268 0.007055113 0.01928414 0.02176891
0.0064436584 0.0073766527 -0.017550357 -0.0026703966 0.007431984 -0.05698106 -0.018119851 0.022867337
-0.0030774993 0.058626816 0.022442551 -0.06601336 0.0864893 -0.02302409 0.024525713 0.007863977
0.08877139 -0.027331827 -0.019208126 0.042842627 -0.11833101 -0.054805417 0.05615634 0.023815246
-0.0436944 -0.017775789 0.013663891 0.06344947 0.005571056 0.05884745 -0.00404485 -0.07569526
0.048260402 -0.016739056 -0.033189733 -0.061327428 -0.03926217 0.032353416 0.04240819 0.07131988
-0.03214944 0.040328555 0.0915001 -0.06521072 -0.076852284 0.016189145 0.053012114 -0.0106596295
0.0391598 -0.0979676 -0.036817405 -0.090998776 -0.015273237 -0.05508428 -0.0010379505 0.05528359
-0.006290047 0.00055030896 0.0066620493 0.09212478 0.038379896 -0.096096076 -0.0017211454 -0.0007868338
0.03659563 -0.0012825044 -0.0108329095 0.0020014998 0.026449298 0.059912257 0.024153667 -0.008509349
-0.0014529622 0.0027264713 -0.00056723476 0.0033395314 0.0058373646 -0.023478279 -0.06114237 0.012672141
-0.0010864738 0.01774821 0.02082792 -0.00333442 -0.10889845 0.028036602 0.0020635833 0.00069856335
0.04834157 -0.019119076 -0.041531023 -0.009168124 0.0017529518 0.010651892 0.005589925 0.008098713
-0.016721545 -0.025370596 -0.0030529175 0.00078683073 -0.004618572 -0.050626688 -0.036303286 0.022218967
0.0007300573 0.05043574 0.019642936 -0.009123015 -0.01718051 -0.027478218 0.007477155 0.0050149714
0.10005423 0.0020621908 0.01474922 0.055003766 -0.025541859 -0.06211097 0.046745077 0.0017700443
-0.034804143 0.021550376 0.009538805 0.080018505 -0.023850754 0.044270467 -0.004031697 -0.014264279
0.0036696487 0.019536704 -0.004881629 -0.05461596 -0.03583502 0.0017485698 0.025960809 -0.009779823
-0.027376484 0.04916553 0.012341179 -0.011202761 -0.094604164 0.0008587551 0.050518084 -0.0025970784
-0.003489037 0.017982211 -0.03155802 -0.009843593 -0.011137284 0.015297924 0.00042235033 -0.0012717235
-0.005999875 -0.012758859 0.021808546 0.055304475 0.036106493 -0.058027547 -0.002035472 -0.005988799
0.032651596 0.0021696514 -0.0047964593 0.0014993055 -0.00089139247 0.04064918 0.023151187 -0.030818807
0.007839151 0.00015456967 -0.0019077775 0.0062879873 0.00032803303 -0.017246788 -0.042107195 -0.0020254964
0.00068169757 0.009567504 0.009986574 -0.0009771808 -0.060603008 0.026105827 -0.00013657166 -0.0005243543
0.040755603 -0.042534325 -0.03531403 -0.0045401375 0.0066997907 -0.0018572836 0.0029356717 0.0019296653
-0.024740167 -0.032793563 -0.00011440844 0.0010783146 -0.008150957 -0.0391511 -0.022967387 0.018338807
-0.0017525918 0.03538498 0.019170439 0.008066157 -0.0015272431 -0.023099978 -0.0018396628 0.0029753277
0.055361077 0.00035737563 0.012075896 0.050959475 -0.010084173 -0.046013527 0.036234345 0.0011011146
00000000: 7f41 b5bc a501 9fbd 18c4 a33d ad89 853d
00000010: 875d 4b3d fae2 99bd b047 dfbb 7daa 2fbd
00000020: b9dc 1e3d dfeb 5dbb 45eb 5abd 6cf2 423d
00000030: f58d 1fbd e818 893d 9108 283e 2471 adbc
00000040: 2e3e ca3d 240a aa3c 5049 6a3c 2409 553c
00000050: 2102 5f3d d95d e3bc b877 96bd 4de3 143d
00000060: 7cf0 17bc d50b 7f3d e90a b03c 7f2b 87bc
00000070: 52c8 b6bd acac a33c 922c e53b 4c97 303c
00000080: 22b1 383d 7eb4 85bd 6113 26bd 3f30 b6bd
00000090: 05d0 b23b 942e e73b c6f9 9d3c b754 b23c
000000a0: 5325 d33b d9b7 f13b c4c5 8fbc d201 2fbb
000000b0: 0088 f33b f964 69bd 1570 94bc 4854 bb3c
000000c0: dfaf 49bb ac22 703d 71d9 b73c 0332 87bd
000000d0: 4d21 b13d 049d bcbc 26ea c83c e9d7 003c
000000e0: c6cd b53d ffe6 dfbc 5c5a 9dbc c07b 2f3d
000000f0: 8757 f2bd a57b 60bd 3104 663d 3118 c33c
00000100: e6f8 32bd 889e 91bc 83de 5f3c ccf1 813d
00000110: 688d b63b 060a 713d a98a 84bb 1e06 9bbd
00000120: b3ac 453d 5820 89bc f5f1 07bd 7832 7bbd
00000130: 5fd1 20bd 0485 043d 36b4 2d3d 2810 923d
00000140: 22af 03bd 8e2f 253d 6864 bb3d 338d 85bd
00000150: bb64 9dbd 199f 843c 3b23 593d baa5 2ebc
00000160: 0766 203d 3da3 c8bd d9cd 16bd 915d babd
00000170: 993c 7abc 0ea0 61bd d70b 88ba 0c71 623d
00000180: bd1c cebb 9c42 103a 524d da3b ebab bc3d
00000190: 3d34 1d3d 05ce c4bd 0e98 e1ba 8643 4eba
000001a0: 4de5 153d b519 a8ba 847c 31bc 982b 033b
000001b0: 33ac d83c 8e66 753d e9dd c53c cc6a 0bbc
000001c0: 5271 beba 99ae 323b 7bb2 14ba 0adc 5a3b
000001d0: 5d47 bf3b 8555 c0bc 6c70 7abd d09e 4f3c
000001e0: 0368 8eba b264 913c 509f aa3c 4986 5abb
000001f0: 2706 dfbd 04ad e53c 2f3d 073b cb1f 373a
00000200: cf01 463d 9c9f 9cbc 6f1c 2abd e635 16bc
00000210: 4dc3 e53a 4685 2e3c b12b b73b 77b0 043c
00000220: 9ffb 88bc ffd5 cfbc 7513 48bb 5143 4e3a
00000230: 6457 97bb ee5d 4fbd c1b2 14bd 8d04 b63c
00000240: 5161 3f3a b595 4e3d 39ea a03c b378 15bc
00000250: 24be 8cbc 001a e1bc ec02 f53b a154 a43b
00000260: 3be9 cc3d d225 073b b6a6 713c a14b 613d
00000270: 293d d1bc 1368 7ebd c477 3f3d d500 e83a
00000280: ca8e 0ebd 6a8a b03c a648 1c3c bee0 a33d
00000290: a862 c3bc f354 353d 531c 84bb b9b4 69bc
000002a0: 7d7e 703b 700b a03c 12f6 9fbb fcb4 5fbd
000002b0: bec7 12bd 4430 e53a c3ab d43c 8d3b 20bc
000002c0: a644 e0bc cb61 493d a832 4a3c c98b 37bc
000002d0: d4bf c1bd 141e 613a 0dec 4e3d bf33 2abb
000002e0: 54a8 64bb 6e4f 933c fb42 01bd 0647 21bc
000002f0: 2879 36bc 25a4 7a3c e76e dd39 f6af a6ba
00000300: 999a c4bb 890a 51bc d6a7 b23c f286 623d
00000310: 67e4 133d 4bae 6dbd 8e65 05bb b03d c4bb
00000320: aebd 053d b630 0e3b 9e2b 9dbb 5884 c43a
00000330: 56ac 69ba c17f 263d 8fa7 bd3c b977 fcbc
00000340: c86f 003c fb13 2239 640e faba 760b ce3b
00000350: d9fb ab39 2349 8dbc 9878 2cbd 31be 04bb
00000360: f3b3 323a 05c1 1c3c ba9e 233c bf14 80ba
00000370: dc3a 78bd e3db d53c ad34 0fb9 d274 09ba
00000380: 59ef 263d 7938 2ebd 72a5 10bd 6fc5 94bb
00000390: eb89 db3b 1970 f3ba 6664 403b d3ec fc3a
000003a0: e4ab cabc 8b52 06bd 90ee efb8 3c56 8d3a
000003b0: 978b 05bc e75c 20bd 1a26 bcbc 443b 963c
000003c0: 39b7 e5ba d7ef 103d 530b 9d3c ea27 043c
000003d0: c62d c8ba 2a3c bdbc d720 f1ba b7fd 423b
000003e0: 4cc2 623d 255e bb39 fbd9 453c e2ba 503d
000003f0: 1638 25bc ae78 3cbd 776a 143d 4653 903a

rios_f.RIOS_H.rnn_cell1.bias_ih f4 [384]
0.18803325 0.15377954 0.10073756 0.21196087 0.030817678 0.1912003 0.006909581 0.0906819
0.05709794 0.031371713 0.044744987 0.084769785 0.07075355 0.08902461 0.15505548 0.15370819
0.11023485 0.06545329 0.12588975 0.03456807 0.12993519 -0.06135711 0.057423428 -0.0044147205
0.011156394 0.12056162 0.023576967 0.0246264 0.23015416 0.029926632 0.025327185 0.010219413
0.045107666 0.12665655 0.02768532 0.07281578 0.034592617 0.06783276 -0.010390017 0.040754817
0.13632153 0.1069294 0.030617902 0.0035400735 0.05246818 0.052592944 0.10392708 -0.028995566
0.017086653 0.082935736 0.036609948 0.08679576 0.12949009 -0.047003243 0.02990128 0.0030927183
0.25126246 0.111530766 0.21184288 0.06880282 0.13666856 0.075862676 0.03821435 0.08134604
0.031053727 0.03669797 0.015787115 0.07312603 0.23786883 0.055759557 -0.009264429 0.22806077
0.55113953 0.0682984 0.13135988 0.034770787 -0.024428697 0.06321034 0.04152036 0.09420751
-0.002814973 0.07708734 0.11089903 0.10365816 0.17451453 0.022583703 0.052006435 0.010615316
0.2960735 0.21217255 0.032537743 0.13427396 -0.007953374 0.15265983 0.00089239585 0.15523069
-0.037422452 0.08172311 0.092946336 0.10873733 0.065307185 0.09533755 0.0020748784 0.06946395
0.04810641 0.018421786 0.035081305 0.13008739 0.054879226 0.06914303 0.051443223 0.106780194
0.057229698 0.016117658 0.037930477 0.035291 0.11031502 -0.032126736 0.11630871 -0.021321695
-0.0011887248 0.055818647 0.016775306 -0.0005510668 0.091163896 0.036090363 0.0029857277 0.00033318694
0.059652425 0.07174424 0.10084191 0.03233871 0.02382652 0.014590098 0.03441341 0.0380396
0.10882573 0.017460976 -0.0003528207 -0.00052664353 0.03660738 0.0646683 0.13461217 0.052604657
0.0016090255 0.039163083 -0.049440008 0.07387964 0.06515793 0.035166603 0.008314874 -0.015581105
0.109892584 0.016704995 0.1509144 0.0015300201 0.037822362 0.11729127 0.041617338 -0.011963541
0.08543147 0.09712194 0.015502211 0.08013141 0.13340783 0.08644425 0.00728492 0.11346726
-0.043879848 0.046464127 0.090595074 0.08800122 0.020016199 0.05207653 0.013239356 0.13400528
0.039388712 0.061236832 0.017310834 0.061898462 0.081757635 -0.009382353 -0.038246695 -0.0022809014
-0.070947215 0.11595308 0.031245932 0.07397315 -0.031219313 0.12178604 0.0025498413 0.08061502
0.025288356 -0.0016988391 0.07439515 0.24042864 0.11988749 -0.20767187 -0.02329596 -0.013638791
0.009074 -0.06705628 -0.06023268 0.10366204 -0.047174346 0.07394508 0.14994843 -0.01065647
-0.011114059 -0.013458201 0.09834061 -0.014547838 -0.058236178 -0.06243642 -0.05903827 0.08991774
-0.025959775 0.09480758 0.033536337 -0.08231027 -0.33541343 -0.01881028 -0.044229362 0.043694973
0.020140003 0.08441294 0.017985309 0.05089026 0.0073735416 0.06959708 0.043443944 -0.068319775
-0.09460809 -0.04223781 -0.17567846 -0.0045297225 -0.031847104 -0.07393367 0.09187538 0.022962693
0.017925566 0.06839022 -0.018581402 -0.076600954 0.0034804395 0.048768356 0.103170775 0.038385272
0.3637379 0.027396863 0.11497291 0.05844068 -0.036338728 -0.059484627 0.07958789 -0.089330226
00000000: ca8b 403e 6278 1d3e 7e4f ce3d 450c 593e
00000010: 5b75 fc3c 03ca 433e c469 e23b 6fb7 b93d
00000020: 88df 693d a07f 003d 8546 373d c89b ad3d
00000030: 3de7 903d 8952 b63d ddc6 1e3e ae65 1d3e
00000040: cfc2 e13d 600c 863d 3ee9 003e 4097 0d3d
00000050: bb0d 053e 9851 7bbd d434 6b3d 5ca9 90bb
00000060: 4fc9 363c 03e9 f63d 7c24 c13c 4ebd c93c
00000070: 88ad 6b3e b228 f53c f57a cf3c 536f 273c
00000080: d1c2 383d 41b2 013e 53cc e23c 7120 953d
00000090: fdb0 0d3d e7eb 8a3d e43a 2abc 86ee 263d
000000a0: df97 0b3e cdfd da3d 65d2 fa3c 9400 683b
000000b0: e0e8 563d b36b 573d b9d7 d43d 1c88 edbc
000000c0: 4ff9 8b3c 36da a93d 50f4 153d fac1 b13d
000000d0: 0d99 043e 7986 40bd 87f3 f43c 34af 4a3b
000000e0: 79a5 803e 3e6a e43d 57ed 583e 7ee8 8c3d
000000f0: d8f2 0b3e e45d 9b3d a686 1c3d c198 a63d
00000100: 6364 fe3c 9c50 163d fb53 813c 1ac3 953d
00000110: e393 733e 2264 643d d5c9 17bc c388 693e
00000120: 7b17 0d3f 08e0 8b3d 3483 063e d06b 0e3d
00000130: b11e c8bc 6c74 813d 4111 2a3d deef c03d
00000140: 697b 38bb f8df 9d3d 081f e33d bb4a d43d
00000150: f0b3 323e 7501 b93c b304 553d ddeb 2d3c
00000160: f296 973e c343 593e 4c46 053d 1d7f 093e
00000170: de4e 02bc dc52 1c3e acef 693a cbf4 1e3e
00000180: 4948 19bd 725e a73d a65a be3d adb1 de3d
00000190: c6bf 853d 5540 c33d affa 073b 1e43 8e3d
000001a0: 3a0b 453d 49e9 963c 6ab1 0f3d a135 053e
000001b0: 0ac9 603d dc9a 8d3d 21b6 523d 93af da3d
000001c0: b069 6a3d 2e09 843c fd5c 1b3d 4c8d 103d
000001d0: d7ec e13d 5397 03bd 4333 ee3d d6aa aebc
000001e0: fcce 9bba 18a2 643d 5e6c 893c 7875 10ba
000001f0: 23b4 ba3d 7dd3 133d 33ac 433b 98af ae39
00000200: 1a56 743d a5ee 923d 3486 ce3d 9875 043d
00000210: d62f c33c 4e0b 6f3c 13f5 0c3d 69cf 1b3d
00000220: 06e0 de3d 520a 8f3c cbfa b8b9 730e 0aba
00000230: 9ff1 153d d070 843d c6d7 093e fb77 573d
00000240: f0e5 d23a 7869 203d 9b81 4abd 354e 973d
00000250: 8571 853d db0a 103d 1c3b 083c e447 7fbc
00000260: 5d0f e13d ead8 883c 4e89 1a3e f58a c83a
00000270: 9feb 1a3d 6836 f03d f176 2a3d ba02 44bc
00000280: b2f6 ae3d dee7 c63d fcfc 7d3c f01b a43d
00000290: 109c 083e af09 b13d 57b6 ee3b 8661 e83d
000002a0: 5bbb 33bd 2b51 3e3d e989 b93d fc39 b43d
000002b0: 03f9 a33c 334e 553d e2e9 583c ae38 093e
000002c0: 0f56 213d 79d3 7a3d 73cf 8d3c 3e89 7d3d
000002d0: 8c70 a73d 71b8 19bc 91a8 1cbd 2d7b 15bb
000002e0: c64c 91bd cf78 ed3d 78f7 ff3c 3c7f 973d
000002f0: a5bf ffbc f66a f93d 3d1b 273b 7d19 a53d
00000300: 8729 cf3c 95ab deba 7c5c 983d ed32 763e
00000310: 9387 f53d efa7 54be 2bd7 bebc 3c75 5fbc
00000320: 1dab 143c ce54 89bd 8bb6 76bd c34c d43d
00000330: e339 41bd 8570 973d 158c 193e 7a98 2ebc
00000340: be17 36bc c97f 5cbc cd66 c93d 0e5a 6ebc
00000350: 0f89 6ebd 55bd 7fbd 1dd2 71bd cb26 b83d
00000360: 98a9 d4bc 7a2a c23d 665d 093d 4992 a8bd
00000370: 4fbb abbe 0418 9abc d929 35bd 80f9 323d
00000380: a6fc a43c b1e0 ac3d ed55 933c 4e72 503d
00000390: c09d f13b ea88 8e3d 47f2 313d 3deb 8bbd
000003a0: e3c1 c1bd 8e01 2dbd 0ee5 33be 116e 94bb
000003b0: 1c72 02bd 896a 97bd 2929 bc3d 421c bc3c
000003c0: a3d8 923c 2c10 8c3d 0638 98bc f6e0 9cbd
000003d0: 1618 643b 54c1 473d 334b d33d e039 1d3d
000003e0: db3b ba3e 636f e03c eb76 eb3d 7f5f 6f3d
000003f0: ebd7 14bd 27a6 73bd fafe a23d c4f2 b6bd
