BRIOS/models/model_file/brios_attention/base_brios.pt (torch, 856802 bytes, 38 tensors)

rios_f.RIOS_H.rnn_cell0.weight_ih f4 [384, 2]
000000 24 b7 a5 36 5c 20 70 b6 d4 d2 cf 39 89 27 4f 39
       4.9387036e-06 -3.5781623e-06 0.00039639196 0.00019755786
000010 5d 51 2b 3d 56 4c b3 bc 4f 08 ea b8 b8 50 60 38
       0.04182564 -0.021886986 -0.00011159537 5.3480937e-05
000020 3b 8e 2f b1 c6 e3 c0 b0 88 85 10 34 d6 84 79 b4
       -2.55467e-09 -1.4034576e-09 1.3459623e-07 -2.3238258e-07
000030 dd 0e d3 3d a8 f4 f9 3d b8 17 fc 3c f8 51 f1 bb
       0.10305569 0.122048676 0.030773029 -0.0073645078
000040 fe ba 0d 3c 73 c8 22 bb 6b fb 80 3c 81 62 ca bb
       0.008650539 -0.0024838715 0.015744885 -0.0061762934
000050 ab d6 73 3c 76 0a ad bb 56 e2 18 36 68 cd c4 b5
       0.014882724 -0.005280788 2.278151e-06 -1.4662919e-06
000060 4f d0 93 35 54 c3 ea b4 1a 97 ce 3b 13 1d 3e bc
       1.1012979e-06 -4.3728016e-07 0.006304634 -0.0116036115
000070 49 d3 be 3c 1b 0e b3 bb 28 a1 00 34 fd 93 30 b5
       0.023294108 -0.005464328 1.1979557e-07 -6.578046e-07
000080 0e bb 47 3d 9d f7 b2 39 ce a0 b2 3d 95 1d b0 3c
       0.048762374 0.00034135292 0.08722077 0.02149848
000090 f4 00 af b2 12 34 7b b2 10 c4 32 35 a2 07 ac 35
       -2.0373115e-08 -1.4621962e-08 6.6595476e-07 1.281722e-06
0000a0 3a 88 a3 3c cc 77 b5 bb 74 60 6e af aa 69 aa ae
       0.019962419 -0.0055379625 -2.1680241e-10 -7.749475e-11
0000b0 b8 65 d4 36 ba eb 8c b6 2f 3f 14 3d f5 0d 08 bc
       6.329934e-06 -4.1997673e-06 0.03619307 -0.008304109
0000c0 72 ab 09 35 23 f9 90 b5 7b a2 b5 37 40 33 16 b7
       5.1285963e-07 -1.0801344e-06 2.1652542e-05 -8.952629e-06
0000d0 72 b6 18 3c c2 e9 e7 bb f8 46 11 3c b0 d5 3f bb
       0.009320842 -0.0070774266 0.008867018 -0.0029271655
0000e0 59 01 0c 3c 0e 94 ab bb b2 f4 9b 3c ed 25 01 bc
       0.008545243 -0.0052361554 0.019037578 -0.007882577
0000f0 49 9b 02 3d 7f cf 95 ba ab 4b 69 39 5a 7b 91 b8
       0.031886373 -0.0011429637 0.000222488 -6.937115e-05
000100 2e 36 89 38 77 d6 a9 b7 e5 3a 09 36 10 75 10 b6
       6.542761e-05 -2.0246238e-05 2.0448872e-06 -2.1525811e-06
000110 6b 08 c3 3b b5 00 fd ba 4f 38 8f af 75 0f 32 ae
       0.0059519312 -0.0019302579 -2.6051558e-10 -4.0486243e-11
000120 2e fb af 37 b4 fb 3d b7 32 24 2e 3b a6 ee 92 b9
       2.097859e-05 -1.1323882e-05 0.0026571867 -0.00028025097
000130 40 a8 a2 3b 94 b5 b9 ba cb d5 bd 3c 58 d0 9c bc
       0.0049639046 -0.0014168494 0.023173233 -0.019142315
000140 65 e0 b0 3d 59 aa 3e 3c d8 de 98 34 99 d3 15 b4
       0.0863655 0.011637294 2.8474346e-07 -1.3953685e-07
000150 42 60 4d 38 a4 49 9a b7 e3 5a 04 38 28 0b 3a b7
       4.8965456e-05 -1.8392522e-05 3.1555897e-05 -1.1089061e-05
000160 be c2 90 35 25 20 5b b5 e0 a1 f0 36 32 0b d2 b6
       1.0785513e-06 -8.1630634e-07 7.171402e-06 -6.259791e-06
000170 df b7 26 3d bd 92 f2 bb ee d8 c1 3b 72 32 cb ba
       0.040702697 -0.0074027465 0.0059157526 -0.0015502705
000180 03 01 a9 3c 89 28 10 b9 29 d7 9f 3e 2e 3a d0 3d
       0.020630365 -0.0001374801 0.31218842 0.10167347
000190 53 35 92 3c 86 f1 d4 bb 02 3e 2c 3b 92 75 d7 bb
       0.017847693 -0.0064985184 0.0026282077 -0.006575295
0001a0 24 25 35 3d b2 b5 24 bc 23 fb 8a b7 4a ca 48 37
       0.044224873 -0.010053085 -1.6567827e-05 1.1968028e-05
0001b0 69 ba 04 3c f5 36 00 3a f8 46 0c 3d c3 37 b5 bc
       0.008101084 0.0004891002 0.03424737 -0.022121316
0001c0 e0 30 c9 3b e3 69 f5 ba 50 28 3d af 5d d0 9d af
       0.0061398596 -0.0018723573 -1.7203772e-10 -2.8706185e-10
0001d0 b2 a6 3f 34 31 5f 86 b4 93 26 51 bd 6a 89 56 bd
       1.7848905e-07 -2.5028706e-07 -0.051062178 -0.052377142
0001e0 8b 1a 02 b9 2c a6 1b ba a3 e0 8d af 4f ea 14 af
       -0.00012407654 -0.00059375423 -2.5807365e-10 -1.3543765e-10
0001f0 0b 33 74 3e 01 28 80 3e 38 95 1e 3b 96 7f 38 ba
       0.23847596 0.2503052 0.0024197828 -0.0007038055
000200 d1 7d 6b 39 5d 71 56 b8 54 e4 b8 b5 b9 6f 46 36
       0.00022458217 -5.1127154e-05 -1.377552e-06 2.956933e-06
000210 24 14 21 af 13 85 08 af f8 2a ee 36 f9 6f 8e b6
       -1.465002e-10 -1.2416405e-10 7.097955e-06 -4.244965e-06
000220 6c 20 b6 37 7c 09 e7 b6 41 b1 bd 39 a7 5b 0b 38
       2.1711188e-05 -6.8854406e-06 0.00036180954 3.322554e-05
000230 05 18 de 3c 15 2f 67 bb 16 b8 ce af a3 98 2d b1
       0.027111063 -0.0035275866 -3.7601983e-10 -2.5261577e-09
000240 8a 9c a1 b1 e8 f9 02 b0 27 d1 4e 3b 32 9b 8b 39
       -4.703513e-09 -4.764886e-10 0.003155777 0.00026627776
000250 6b b3 02 3d 87 46 b2 bc e1 0c b5 be 94 2f 78 3c
       0.031909388 -0.021762146 -0.35361388 0.015148062
000260 2f ad 89 b9 04 4d 0f 39 01 ac 8f 38 cb 51 b5 b7
       -0.00026259708 0.00013666233 6.8508096e-05 -2.161497e-05
000270 aa 5a c8 b4 d5 02 f3 33 0f e7 f0 b9 9f ff 0c 39
       -3.731887e-07 1.13160844e-07 -0.0004594852 0.00013446667
000280 3a 96 53 bb 38 cd c5 b9 24 59 d9 35 f0 f8 85 b5
       -0.0032285587 -0.00037727668 1.6193703e-06 -9.981723e-07
000290 0d c9 04 be b8 6e 01 3d 79 17 9b 34 12 57 7a b5
       -0.1296732 0.03159973 2.8888078e-07 -9.325896e-07
0002a0 7e 57 af 3c d6 93 0c bc 7d 48 42 3c 86 21 aa bb
       0.021404024 -0.008580169 0.011858103 -0.0051919846
0002b0 41 b5 7f 3d 2e bd fa bb c6 8d 98 3c 89 03 2b bc
       0.062428717 -0.0076519465 0.01862229 -0.010437855
0002c0 d3 bc 96 3c 6c 5f 31 3b 7d c5 0f 3d a1 07 52 bb
       0.018400585 0.0027064933 0.03510045 -0.0032048004
0002d0 3a 5f 5a 3b 91 bb 40 ba 50 cc 2d 37 f1 95 19 b7
       0.003332092 -0.00073521683 1.0359174e-05 -9.154422e-06
0002e0 f7 12 d3 33 8e 1f eb b4 30 dd 2f b5 10 dc 7d 35
       9.828903e-08 -4.379512e-07 -6.551445e-07 9.457008e-07
0002f0 f7 e9 d5 3b 24 5b 07 bb 41 90 75 3c 0c a6 19 bc
       0.006528135 -0.002065369 0.014988006 -0.009377968
000300 9c cf d1 b8 c1 3a 2b 38 30 6a 08 3b c1 f4 ac bb
       -0.00010004567 4.0824296e-05 0.0020815246 -0.0052782004
000310 e0 85 b4 bb ae fa 46 3c e9 7b a1 39 b8 c3 07 ba
       -0.005509123 0.012144728 0.00030800633 -0.00051790057
000320 32 4d 39 b1 f5 f3 a7 b1 84 c2 48 b8 7b 87 10 b2
       -2.6964924e-09 -4.8880744e-09 -4.7864873e-05 -8.412708e-09
000330 85 a6 5d 3d 36 52 cb bc 33 05 09 bd 75 c1 0f bd
       0.054113884 -0.024819475 -0.033452224 -0.035096604
000340 ff 80 89 bb 92 c5 31 3c b4 35 63 3c 63 a8 4e 3d
       -0.0041962857 0.010850327 0.013867784 0.050453555
000350 40 53 52 3b 85 9d 86 bc 13 6c b8 b8 f4 77 d4 37
       0.0032093078 -0.016432533 -8.793934e-05 2.5328227e-05
000360 24 37 1e b6 9b 7d 6c b6 5e 52 82 bb 60 55 e8 b9
       -2.357593e-06 -3.5239852e-06 -0.003977104 -0.00044314098
000370 3a c2 b4 39 72 9a 2a 3c 5c 9b 60 b8 10 10 22 36
       0.00034476985 0.010412799 -5.355045e-05 2.414923e-06
000380 1e 5b 6c 3c 41 ab da 3a f6 bf 31 3d ec d4 05 bc
       0.014426021 0.0016683118 0.04339596 -0.00816844
000390 02 c0 e6 31 3a 08 e3 32 48 ae 8b b7 f6 fc 12 38
       6.7157098e-09 2.6430019e-08 -1.6651247e-05 3.50447e-05
0003a0 e0 12 82 3b 98 92 7e bc 83 7b 84 af 61 10 9d ad
       0.003969535 -0.01553788 -2.409842e-10 -1.7856107e-11
0003b0 3d ae 0f b9 b3 e8 84 38 36 ea 39 b9 3a 3c 17 bc
       -0.00013702452 6.337594e-05 -0.00017730225 -0.009230668
0003c0 ea a2 94 b8 27 fb bb 37 93 18 f1 38 98 8e 42 b9
       -7.087535e-05 2.2409089e-05 0.00011496353 -0.00018554402
0003d0 74 07 90 bd e3 fa 3d bc c1 9c a7 3b d8 6f 66 3a
       -0.070326716 -0.011595461 0.005115122 0.000879047
0003e0 f9 e0 dc bb cb e7 89 3c 5c fb 27 bc 9c 29 93 3b
       -0.006740686 0.01683416 -0.0102528 0.004491044
0003f0 aa 83 f7 3b d1 9f 08 3d ea 01 c2 ba 1e 8e 55 b9
       0.0075535374 0.033355538 -0.0014801596 -0.00020366206

rios_f.RIOS_H.rnn_cell0.weight_hh f4 [384, 96]
000000 9d 10 37 b5 ca 1d 54 b4 17 fe 17 36 57 ac e9 b5
       -6.819699e-07 -1.9754876e-07 2.2648653e-06 -1.741001e-06
000010 e0 1c 8f 32 a8 46 e3 b4 37 21 89 b6 92 80 5f b5
       1.6660522e-08 -4.2333454e-07 -4.086785e-06 -8.326107e-07
000020 16 a8 85 34 65 30 61 34 89 59 55 b4 da 11 64 b4
       2.489548e-07 2.0972364e-07 -1.9869744e-07 -2.1240649e-07
000030 0a d4 67 b5 20 22 c2 35 58 aa 8b 36 d9 24 5e 34
       -8.6362763e-07 1.4464058e-06 4.1623534e-06 2.0688766e-07
000040 d6 90 44 36 f3 05 c1 36 ac d7 ff 32 98 45 30 b6
       2.9290582e-06 5.752541e-06 2.9783983e-08 -2.6266553e-06
000050 9b ab 54 b4 20 8a 5c af 0f 44 e3 b4 0e 9d 23 37
       -1.9806468e-07 -2.0057955e-10 -4.2331564e-07 9.752124e-06
000060 97 60 8f 34 a3 7d 05 b6 d8 17 63 36 d6 12 e6 b5
       2.6706104e-07 -1.9891675e-06 3.3839515e-06 -1.7141817e-06
000070 c9 db 4a b5 fa fc 7e 35 80 98 70 34 19 86 aa 34
       -7.5570694e-07 9.4990503e-07 2.2407221e-07 3.1762536e-07
000080 87 dd b2 35 02 4f 89 32 8e 9a 62 34 d2 78 db b0
       1.3326506e-06 1.5984828e-08 2.1104117e-07 -1.5968686e-09
000090 97 54 7f b5 88 76 1b b6 c3 83 37 37 15 f5 c6 b3
       -9.5117997e-07 -2.3165794e-06 1.0938328e-05 -9.264674e-08
0000a0 32 8d b6 36 33 31 ab 32 29 c2 78 b5 ad cd fc b5
       5.44046e-06 1.9929393e-08 -9.266974e-07 -1.8835323e-06
0000b0 3f 12 3c 35 81 06 e8 b5 41 58 09 b6 dc c1 51 b5
       7.006201e-07 -1.728724e-06 -2.0465961e-06 -7.814067e-07
0000c0 52 a6 a3 36 07 69 62 b6 52 3e f2 35 2e fc b7 34
       4.877141e-06 -3.3737758e-06 1.8048543e-06 3.426989e-07
0000d0 dc cc 58 b4 cb 38 a9 b5 66 24 c9 b4 8a 71 9a b5
       -2.0191095e-07 -1.260801e-06 -3.746565e-07 -1.1506938e-06
0000e0 f6 41 b7 33 85 3e 62 30 76 21 43 b5 c5 38 32 b6
       8.5336e-08 8.2307167e-10 -7.2691853e-07 -2.6557111e-06
0000f0 cb 88 4d b4 d0 97 f4 30 e2 42 3f 35 c5 f2 3a 33
       -1.9141878e-07 1.7796484e-09 7.125037e-07 4.3527297e-08
000100 cb 19 02 b6 97 0d c3 b6 a9 b8 1e b1 ba e1 9f 34
       -1.9386523e-06 -5.813035e-06 -2.3096993e-09 2.9780296e-07
000110 95 e9 8d b4 b9 be 09 35 b8 ae 12 b5 67 e9 a7 31
       -2.643325e-07 5.1314015e-07 -5.464349e-07 4.8868745e-09
000120 bd cd 26 33 1a ef 34 34 01 bd ce b4 b4 90 f5 b6
       3.8837005e-08 1.6850791e-07 -3.8508009e-07 -7.3184146e-06
000130 10 18 eb b5 2a 2b ad 36 c1 c0 d7 b5 67 38 f3 b5
       -1.7515868e-06 5.1608267e-06 -1.6074847e-06 -1.8121326e-06
000140 81 df 64 36 43 72 82 35 8c 59 f4 b4 03 52 fd b3
       3.4104744e-06 9.719009e-07 -4.5513696e-07 -1.17961484e-07
000150 ec aa aa 36 75 f8 73 33 de 01 52 35 a7 55 98 34
       5.0862927e-06 5.6803817e-08 7.8233813e-07 2.8374527e-07
000160 62 12 49 36 b0 d4 53 34 d0 cd 48 b6 f2 56 80 b5
       2.9962034e-06 1.9728282e-07 -2.992212e-06 -9.562048e-07
000170 28 7c f3 33 63 1a 14 b6 4f ca a1 b3 18 0b aa b4
       1.1338153e-07 -2.2069078e-06 -7.5339464e-08 -3.167304e-07
000180 da 17 ee 38 be 7a 20 39 3d 71 9b 37 bb 75 21 b8
       0.00011353167 0.00015304514 1.853017e-05 -3.8495036e-05
000190 37 b5 19 b5 96 df e1 38 25 d8 82 38 e7 3d 98 b6
       -5.7260644e-07 0.00010770482 6.239143e-05 -4.5371594e-06
0001a0 58 dd 1f b9 1a 0e 1f 38 72 73 24 39 f4 c3 21 39
       -0.00015245879 3.7921687e-05 0.00015683266 0.00015427155
0001b0 02 58 e3 37 7c e0 31 b9 b8 6f 4b 39 ce a2 1d b9
       2.710149e-05 -0.00016963662 0.00019401207 -0.00015033336
0001c0 bd 37 b2 38 e9 76 fd 39 c9 2d 71 b5 f9 78 b2 b7
       8.4980835e-05 0.00048344515 -8.984612e-07 -2.1275586e-05
0001d0 2e 0f 26 39 6f 88 8d b4 fd 12 14 39 34 78 a0 39
       0.00015836649 -2.6362565e-07 0.00014121454 0.00030607136
0001e0 72 cc 1a b9 b8 8e 8d 38 81 ae 6f 39 65 ca 7a 38
       -0.00014762746 6.7499874e-05 0.00022857824 5.979314e-05
0001f0 0e cc e4 38 12 33 21 b8 fe ce 1f b9 a9 cd 66 b9
       0.00010909895 -3.8432954e-05 -0.00015240532 -0.00022011124
000200 d4 e2 71 39 d9 b9 80 33 4e 0c 22 b9 da b0 54 34
       0.00023068051 5.99427e-08 -0.00015454108 1.9808377e-07
000210 d6 c9 cd b8 56 e7 95 b9 0e 44 b1 39 54 96 26 39
       -9.8127566e-05 -0.00028591853 0.00033810775 0.00015886995
000220 6e 1c f4 39 02 83 8d b5 c8 c8 11 37 e1 aa 47 b9
       0.00046560488 -1.0543447e-06 8.6894215e-06 -0.00019041776
000230 c3 b6 cf b8 11 13 a8 38 3a 3d 5e b9 ad 67 69 ba
       -9.904571e-05 8.014416e-05 -0.00021194378 -0.00089036935
000240 83 8d 6e b9 08 92 2c 38 da b5 1c 39 e1 81 67 b7
       -0.00022750166 4.1143998e-05 0.00014945064 -1.3798913e-05
000250 13 a3 38 b9 aa 33 e9 b7 01 87 17 37 5b f9 a8 38
       -0.00017608357 -2.7799822e-05 9.031734e-06 8.05731e-05
000260 a7 1a 29 b9 cb 8e 12 b4 83 b5 7a 38 b1 ce 23 b9
       -0.00016127025 -1.3649257e-07 5.977369e-05 -0.0001562189
000270 c6 4e 5e b8 ad d7 b1 b3 6e 02 c2 38 90 2a 2b b9
       -5.3002288e-05 -8.281436e-08 9.2510934e-05 -0.00016323687
000280 51 be 3a b9 7a c2 1a ba b3 49 34 34 51 75 22 b9
       -0.0001780924 -0.0005903613 1.6790618e-07 -0.00015493228
000290 8e 7a 1b 39 ec 5f 0b 39 a9 14 a6 39 32 c1 76 b5
       0.00014827607 0.00013291807 0.0003167738 -9.192328e-07
0002a0 3c 9a c1 b4 8c d9 3b 39 a7 7a 13 37 90 cf 8c b9
       -3.6061272e-07 0.00017914752 8.79044e-06 -0.00026857527
0002b0 2d 76 0a b8 d5 25 93 38 04 94 9e b7 ae 3a 2e b8
       -3.3011824e-05 7.016553e-05 -1.8903993e-05 -4.1539482e-05
0002c0 fb cb b5 38 ac 20 01 b8 11 5e 0e 39 63 d4 27 39
       8.668747e-05 -3.0786425e-05 0.00013577218 0.00016005481
0002d0 37 fc 12 39 47 67 2d 37 3f 7b 0b 38 78 a5 b5 39
       0.00014017602 1.033565e-05 3.3254964e-05 0.00034646294
0002e0 d4 9b 18 b9 e1 2a 1d b9 63 f9 13 ba 56 63 98 b7
       -0.000145539 -0.0001498866 -0.00056447665 -1.8166069e-05
0002f0 7d 15 22 b9 09 32 49 39 a7 df 2c 39 bf 63 06 b7
       -0.00015457529 0.00019187493 0.00016486515 -8.010246e-06
000300 6c a6 f5 b8 b3 ba a2 bb f7 cc 1e bb ff c9 d3 3b
       -0.00011713509 -0.004966104 -0.0024231055 0.006463289
000310 a4 08 05 38 2f 91 3f bc 3a b0 d0 3a b5 67 c1 3b
       3.171772e-05 -0.011692329 0.001592166 0.0059022554
000320 fb 6c 8b 3b 96 4a 33 bc 1f 30 d1 bb 2a 96 9b bb
       0.004254935 -0.010943076 -0.0063839103 -0.0047481256
000330 66 ec c2 3a db 24 ac bb e9 ec b4 3b 83 e1 cb 3b
       0.0014871478 -0.005253417 0.005521406 0.0062219515
000340 1b 53 26 bb 62 ef b2 3c 11 28 23 38 00 70 92 bb
       -0.0025379125 0.021842662 3.8899543e-05 -0.004468918
000350 c2 fa c8 bb a5 3f 81 35 10 10 e2 ba f3 5e 24 3c
       -0.0061334083 9.629772e-07 -0.0017247219 0.010032403
000360 6c 11 05 3b 6e 07 8b ba e8 b7 d1 b9 f1 a7 89 3b
       0.0020304574 -0.0010607073 -0.00040000607 0.0042009284
000370 69 04 95 3a b0 31 00 bb 99 c4 89 3b 89 aa b3 3a
       0.0011369112 -0.0019560866 0.0042043445 0.001370744
000380 08 c4 83 bc 9d 22 db 37 0a 9b 61 3b 75 60 89 b5
       -0.016084686 2.6122952e-05 0.0034424686 -1.0235368e-06
000390 2e 8e b3 bb 54 17 9f 3b 68 cb 0a 3c c0 ea 89 bb
       -0.0054795956 0.004855076 0.008471347 -0.0042088926
0003a0 b6 94 de ba ee f8 e7 b5 7c ca 82 3b c6 02 13 bd
       -0.0016981575 -1.7283289e-06 0.003991423 -0.035891317
0003b0 d1 2d b8 ba 7d c5 93 3b 8e f6 31 3b 7e 62 3c bc
       -0.001405174 0.0045096264 0.0027155015 -0.011498092
0003c0 6c d1 aa 3c ad 1a bd b9 17 b8 93 bb 11 93 a0 38
       0.020851813 -0.00036068764 -0.004508029 7.656788e-05
0003d0 7d f6 57 3c dd fe 92 ba 35 c9 09 b9 f6 f3 90 3b
       0.013181326 -0.0011214871 -0.00013140294 0.0044236137
0003e0 55 38 d2 3b 86 07 9b 35 ed 36 b5 ba 11 80 92 bc
       0.0064154067 1.155059e-06 -0.0013825573 -0.017883332
0003f0 dd b0 f5 3a 92 4c e1 35 4b 47 0c bc 08 2d 45 ba
       0.0018744726 1.6786091e-06 -0.008561919 -0.0007521664

rios_f.RIOS_H.rnn_cell0.bias_ih f4 [384]
000000 c4 63 b8 34 70 4a b1 39 98 eb 3a 3d 7d 68 24 37
       3.434526e-07 0.0003381553 0.045634836 9.79949e-06
000010 21 4d 89 b1 f1 73 b0 34 7f a2 7c 3e 7c b7 78 3b
       -3.9959933e-09 3.2866913e-07 0.24671362 0.0037951162
000020 0e 08 9a 3a 5c 97 1c 3c 97 65 8b bb 25 3e d9 34
       0.0011751668 0.009557571 -0.004254054 4.0464616e-07
000030 06 56 94 35 a0 7f 2e bb 9a cc 26 bb 39 e8 e7 34
       1.1051895e-06 -0.0026626363 -0.0025451542 4.3196067e-07
000040 2c 96 bb 3c 9b 59 09 3d 92 33 11 b3 95 37 1c 34
       0.022898756 0.03353272 -3.3807346e-08 1.4548853e-07
000050 36 cd bf 3c 4e 38 e8 af 1d 52 64 33 25 f9 86 3b
       0.023413282 -4.224056e-10 5.316007e-08 0.004119056
000060 55 fd 12 35 cc 28 01 b7 27 1a 19 3c 85 d2 0a bb
       5.4757885e-07 -7.698498e-06 0.009344614 -0.0021182608
000070 b7 e6 7d 3a 04 f4 30 3b 89 db c9 3b 65 8e 88 b7
       0.0009685563 0.0027000913 0.006160204 -1.6278771e-05
000080 84 99 7a 36 2c f6 2f 36 f5 ad 0f 38 86 c3 3e b0
       3.734226e-06 2.6220323e-06 3.4255867e-05 -6.9399453e-10
000090 5b 61 04 b6 53 02 bb b9 53 db 8a ba 50 e0 3e 3d
       -1.97262e-06 -0.0003566915 -0.0010593928 0.04660064
0000a0 a0 99 01 3c 01 58 50 34 2a 30 d1 b6 f4 ab da b6
       0.007910162 1.9403525e-07 -6.2342924e-06 -6.5169243e-06
0000b0 0a 15 d1 34 b4 d9 6f b4 f8 47 59 3c 4b 5f f5 b9
       3.8944592e-07 -2.233781e-07 0.013261788 -0.0004680104
0000c0 34 cc ad 3b 32 d3 3f 3e 89 e9 96 bb d8 f2 1c 3b
       0.005303884 0.18732908 -0.0046054763 0.0023948457
0000d0 42 55 0e 3c 70 e3 90 b6 c2 c0 44 3a 27 1c ed 3c
       0.008687319 -4.3180116e-06 0.000750553 0.028944088
0000e0 4b 00 97 39 26 24 e8 af 31 c6 b3 34 38 23 7f 3d
       0.00028801183 -4.222624e-10 3.348555e-07 0.062289447
0000f0 1a 89 88 3a e1 09 18 b0 cb 59 8a 3e 8e c9 21 39
       0.0010416836 -5.5311317e-10 0.27021632 0.00015429241
000100 54 94 3f b7 03 91 f7 36 dd c9 0d af 4d af a8 b3
       -1.14190225e-05 7.378055e-06 -1.2895592e-10 -7.854997e-08
000110 cb 2f e8 b4 38 3a 3d 38 8c f7 a3 3a b5 7a 12 b2
       -4.3248141e-07 4.5115332e-05 0.0012509688 -8.526219e-09
000120 3e 12 07 b2 f0 ec 38 3b c5 18 18 3d ac f1 28 3e
       -7.862182e-09 0.0028217398 0.037132997 0.1649844
000130 a4 f8 c3 b7 ee a7 55 b7 59 c3 ca b4 77 88 c0 b7
       -2.3361594e-05 -1.27348885e-05 -3.7767566e-07 -2.295173e-05
000140 c2 4e 13 bb ba 3a e9 34 22 ef 15 3e 11 ef fd 34
       -0.0022477363 4.344236e-07 0.14642003 4.7298866e-07
000150 c4 81 a2 37 53 01 b7 3a 7f bb e6 3c 53 b7 08 3c
       1.9372332e-05 0.0013962187 0.028165577 0.008344489
000160 a6 b9 54 3c b3 9b bd 3c 5c 82 47 ba c1 82 57 b6
       0.012983715 0.023145532 -0.00076106726 -3.2113605e-06
000170 22 1b cf 34 11 27 be 35 60 96 34 39 e4 a3 4f b9
       3.8576496e-07 1.4167473e-06 0.00017222157 -0.00019802112
000180 4b 6e ba b8 97 2d 7a bb a2 96 ad 3b 85 76 82 39
       -8.889715e-05 -0.0038174146 0.005297498 0.00024883836
000190 b0 36 2a 32 6b ba 9e b8 79 47 21 bb 95 1b 75 bc
       9.907737e-09 -7.56875e-05 -0.0024609251 -0.014960189
0001a0 c6 57 41 bb 81 bc 88 bc 2b 7d 16 bc a4 1c d9 b8
       -0.002950178 -0.016691448 -0.009185116 -0.00010352701
0001b0 a1 55 21 b7 f9 14 67 3a 53 3f 66 3c 04 69 b8 b8
       -9.616285e-06 0.0008815076 0.014053184 -8.7933644e-05
0001c0 64 97 0f bd 84 df f7 3b c8 48 e6 32 f5 27 39 b8
       -0.035056487 0.007564487 2.6808621e-08 -4.414465e-05
0001d0 40 a1 cf 3b 1a b8 c2 af b2 a8 f4 b8 87 88 74 bb
       0.006336361 -3.5419206e-10 -0.000116662486 -0.0037312822
0001e0 bb 66 bf b8 ad 15 a0 38 27 fd f1 bb 74 38 0d 3a
       -9.126725e-05 7.633432e-05 -0.0073849144 0.00053871353
0001f0 b3 76 06 bb 4c a6 5d 3b f2 01 20 3c 99 77 ef 39
       -0.0020517528 0.0033821044 0.009766089 0.0004567474
000200 8a b2 79 b8 ba a4 94 b3 9a 9e b9 b9 47 de 41 30
       -5.9532504e-05 -6.9217506e-08 -0.00035404117 7.0528866e-10
000210 5a 63 50 37 2d d4 d1 ba 5c 14 8f 3a 12 aa 41 3c
       1.2420898e-05 -0.0016008668 0.0010916102 0.011820333
000220 c5 a1 41 bc fa 96 b6 35 ae b2 21 39 fc c2 b8 38
       -0.011818354 1.3603997e-06 0.0001542072 8.8101224e-05
000230 af 30 7a b8 d2 b3 d6 b6 94 cc 9c 3b 89 f6 5e 3b
       -5.9649985e-05 -6.398631e-06 0.00478513 0.0034021458
000240 13 54 65 bb 29 7d 0e 3d c7 24 b7 3a 24 e5 eb 3a
       -0.003499274 0.03478733 0.0013972752 0.0017997366
000250 04 9d 6e bc 0f 9b 83 38 41 eb ed 39 d0 8c 0c 3a
       -0.014563803 6.275449e-05 0.0004537944 0.0005361559
000260 47 c4 79 bb b3 13 18 b0 6e d0 30 b8 03 e7 93 bc
       -0.0038111375 -5.532527e-10 -4.2155785e-05 -0.01805449
000270 e5 8d 66 bb c9 61 d3 2f 46 85 01 bd 90 8c 21 bb
       -0.003517979 3.8450157e-10 -0.03162124 -0.0024650432
000280 73 75 88 3a dc 5f 3c b9 a2 cc 01 2f fd a2 0b b9
       0.0010410979 -0.00017964788 1.1805182e-10 -0.00013316791
000290 1f 8b 48 b9 32 96 11 3b d8 d0 5e 3b e2 aa 14 b1
       -0.00019125313 0.0022214768 0.0033998992 -2.163397e-09
0002a0 20 9d c9 b1 84 a0 03 bc 72 78 c3 3a b6 32 b3 3c
       -5.867733e-09 -0.008033875 0.0014913215 0.021874767
0002b0 c7 f6 93 3a 30 a3 c3 39 41 82 de 36 65 b7 3a 3b
       0.0011288755 0.00037314883 6.631279e-06 0.002849066
0002c0 ca 55 36 3a 48 5a 84 b7 4f 81 72 bc 5a f0 ca b8
       0.00069555326 -1.5777667e-05 -0.014801337 -9.6768796e-05
0002d0 c9 b4 48 3c 09 69 37 3a 60 67 db 3b 99 f4 8e bc
       0.012250134 0.00069965475 0.006695673 -0.017450618
0002e0 cf 19 91 3c 87 73 03 bc 34 f3 b1 3b 10 5a ce 36
       0.017712502 -0.008023149 0.0054306034 6.149763e-06
0002f0 c8 8d b5 b8 39 bd d5 b7 a2 1e 80 bb c8 fd d1 39
       -8.6571614e-05 -2.5479692e-05 -0.0039099017 0.00040052668
000300 2f 9f 42 ba 05 67 ab 3c 3e 88 b4 3d c6 d7 83 bb
       -0.0007424233 0.020923147 0.08815049 -0.004023525
000310 8e 34 d8 b6 ea 69 9d b9 82 0d d3 bc 93 21 31 3d
       -6.44342e-06 -0.00030024286 -0.025763277 0.04324491
000320 22 55 86 bc 47 65 9a 3c 87 ee 6b 3d dc f0 07 ba
       -0.016398016 0.01884712 0.057600524 -0.0005185732
000330 3e 88 4f ba ad fd 8b 3d 32 a9 52 3d df c3 b7 39
       -0.0007916725 0.06835494 0.05143089 0.00035050415
000340 98 ed 91 3d f5 3d 33 3d 9b 7f 58 b7 1b e3 0d b9
       0.071253955 0.04376026 -1.2904314e-05 -0.00013531411
000350 74 8e 70 3d 6c de ac b5 d0 e6 3b ba 92 d6 a7 bd
       0.058729604 -1.2879732e-06 -0.00071678776 -0.08195223
000360 37 bb de 39 ef 1c d8 b9 99 1f aa 3d 27 75 0e 3d
       0.00042482626 -0.00041220288 0.08306808 0.034779694
000370 4a 28 51 bb ef b3 2a 3d 74 15 ac 3d 51 a3 84 3b
       -0.0031914883 0.041675504 0.08402529 0.004047789
000380 4e d7 f2 3a a9 20 a5 bc fe 6a 79 bc 8d 86 d5 34
       0.00185273 -0.020157175 -0.015223263 3.977224e-07
000390 7b 1a 8d 3a 37 9f 62 bb 93 c4 3f bc 5e 29 3f bd
       0.0010765338 -0.0034579763 -0.011704582 -0.04667031
0003a0 c9 8e e5 bb 3a 81 e0 38 58 20 c5 ba f0 d4 29 ba
       -0.0070055467 0.00010705223 -0.0015039546 -0.00064785685
0003b0 c3 cd eb 39 71 2c 4d ba a1 e5 ed 3c 10 8b 19 3c
       0.00044975997 -0.00078267517 0.02904016 0.009371534
0003c0 0b 7b 62 3d 89 01 33 ba 74 5a 4f 3c a2 31 89 bd
       0.055293124 -0.0006828537 0.012655843 -0.0669892
0003d0 b6 b4 8b bd 58 3f c9 36 d9 6b f5 bc 38 be 53 3c
       -0.06821577 5.997641e-06 -0.029958652 0.01292377
0003e0 fb cb bd 3c e2 6e ee b5 22 da b5 b9 28 72 e3 bd
       0.023168555 -1.7764653e-06 -0.00034685532 -0.11105758
0003f0 21 37 31 3d 54 ae 7e b4 0d a6 90 3d 1f 4a bf 3c
       0.043265466 -2.3719014e-07 0.07062922 0.023350773

rios_f.RIOS_H.rnn_cell0.bias_hh f4 [384]
000000 c4 63 b8 34 70 4a b1 39 f2 7a 20 3d 7d 68 24 37
       3.434526e-07 0.0003381553 0.03917975 9.79949e-06
000010 1d 4d 89 b1 f1 73 b0 34 42 ed 7c 3e a4 4e 89 3b
       -3.9959915e-09 3.2866913e-07 0.24699882 0.004190283
000020 4e 4a 98 3a e3 80 f9 3b 2d 9b 07 bb 25 3e d9 34
       0.0011618824 0.0076142414 -0.0020691857 4.0464616e-07
000030 06 56 94 35 9e 39 21 bb 67 f4 34 bb 39 e8 e7 34
       1.1051895e-06 -0.0024600993 -0.0027611495 4.3196067e-07
000040 17 c0 89 3c e4 c2 01 3d 92 33 11 b3 95 37 1c 34
       0.016815228 0.031680003 -3.3807346e-08 1.4548853e-07
000050 1c c5 16 3c 48 38 e8 af 1d 52 64 33 1e b3 8e 3b
       0.009202268 -4.2240544e-10 5.316007e-08 0.0043548485
000060 5e fd 12 35 cc 28 01 b7 be 19 19 3c cd bd 2a bb
       5.4757936e-07 -7.698498e-06 0.009344516 -0.0026053071
000070 43 75 7f 3a 6a 30 3f 3b bf 5a ca 3b 65 8e 88 b7
       0.00097449514 0.0029173144 0.0061753686 -1.6278771e-05
000080 84 99 7a 36 2c f6 2f 36 89 5d 11 38 86 c3 3e b0
       3.734226e-06 2.6220323e-06 3.4657805e-05 -6.9399453e-10
000090 5b 61 04 b6 53 02 bb b9 53 db 8a ba 4c 0c b4 3c
       -1.97262e-06 -0.0003566915 -0.0010593928 0.02197852
0000a0 a0 e3 cc 3c 16 58 50 34 2a 30 d1 b6 f4 ab da b6
       0.025010884 1.9403555e-07 -6.2342924e-06 -6.5169243e-06
0000b0 02 15 d1 34 b4 d9 6f b4 08 a0 84 3c 4b 5f f5 b9
       3.894457e-07 -2.233781e-07 0.01618959 -0.0004680104
0000c0 37 cc ad 3b 63 a0 3b 3e 3a 0c 8f bb ee 0d 1c 3b
       0.0053038853 0.18322901 -0.004365471 0.0023812014
0000d0 4b 39 26 3c 70 e3 90 b6 f9 86 43 3a ea 1f 4d 3d
       0.010145496 -4.3180116e-06 0.0007458772 0.050079264
0000e0 2e 15 97 39 5f 25 e8 af 31 c6 b3 34 64 bf 04 3d
       0.00028816744 -4.2227108e-10 3.348555e-07 0.032409087
0000f0 38 89 88 3a 47 0b 18 b0 ca 9e 80 3e 9d a5 22 39
       0.0010416871 -5.5313304e-10 0.25121146 0.0001551122
000100 54 94 3f b7 03 91 f7 36 dd c9 0d af 3e b0 a8 b3
       -1.14190225e-05 7.378055e-06 -1.2895592e-10 -7.855168e-08
000110 cb 2f e8 b4 38 3a 3d 38 60 36 c1 3a b5 7a 12 b2
       -4.3248141e-07 4.5115332e-05 0.0014740936 -8.526219e-09
000120 3e 12 07 b2 f0 ec 38 3b 32 f4 f1 3c e3 ab 35 3e
       -7.862182e-09 0.0028217398 0.029535387 0.17741351
000130 a4 f8 c3 b7 ee a7 55 b7 8f c3 ca b4 77 88 c0 b7
       -2.3361594e-05 -1.27348885e-05 -3.776772e-07 -2.295173e-05
000140 1f 46 13 bb ba 3a e9 34 eb 2d 09 3e 11 ef fd 34
       -0.0022472215 4.344236e-07 0.13396423 4.7298866e-07
000150 dc 84 d1 b9 35 10 3d ba 00 88 d1 3c be 65 0c 3c
       -0.00039962574 -0.0007212193 0.025577545 0.008569179
000160 2c 0a 55 3c 14 b7 bb 3c 5c 82 47 ba c1 82 57 b6
       0.013002913 0.022914447 -0.00076106726 -3.2113605e-06
000170 22 1b cf 34 11 27 be 35 31 d2 30 39 cd ef a2 3a
       3.8576496e-07 1.4167473e-06 0.0001686297 0.0012431085
000180 4b 6e ba b8 7e 71 95 bb 9c 96 ad 3b 85 76 82 39
       -8.889715e-05 -0.0045606485 0.005297495 0.00024883836
000190 b0 36 2a 32 6b ba 9e b8 a0 c7 2c bb a3 44 75 bc
       9.907737e-09 -7.56875e-05 -0.0026364103 -0.014969978
0001a0 06 2b 32 bb 87 4e 2e bc fc e0 24 3b a4 1c d9 b8
       -0.0027186288 -0.01063884 0.0025158515 -0.00010352701
0001b0 a1 55 21 b7 66 75 a1 3b 53 3f 66 3c 04 69 b8 b8
       -9.616285e-06 0.004927325 0.014053184 -8.7933644e-05
0001c0 03 cd 05 bd 7f 9a 0d 3b 91 49 e6 32 f5 27 39 b8
       -0.032666218 0.002160698 2.6808978e-08 -4.414465e-05
0001d0 da 1a 6f bb 2f b8 c2 af b2 a8 f4 b8 65 d7 76 bb
       -0.003648451 -3.5419265e-10 -0.000116662486 -0.0037665006
0001e0 bb 66 bf b8 ad 15 a0 38 56 fb f3 bb 5a fa 0a 3a
       -9.126725e-05 7.633432e-05 -0.007445733 0.00053015875
0001f0 bf cb c7 ba e5 a6 5d 3b 28 98 6e 3c 98 77 ef 39
       -0.0015243216 0.00338214 0.014562644 0.00045674737
000200 8a b2 79 b8 c6 a4 94 b3 1f d3 a4 39 51 de 41 30
       -5.9532504e-05 -6.921759e-08 0.00031437815 7.052892e-10
000210 5a 63 50 37 2b d4 d1 ba 5c 14 8f 3a 70 3e fc 3a
       1.2420898e-05 -0.0016008666 0.0010916102 0.0019244682
000220 4d 08 77 bc fa 96 b6 35 ae b2 21 39 fc c2 b8 38
       -0.015077663 1.3603997e-06 0.0001542072 8.8101224e-05
000230 ad 30 7a b8 d2 b3 d6 b6 06 c5 5a b9 89 f6 5e 3b
       -5.9649978e-05 -6.398631e-06 -0.00020863497 0.0034021458
000240 19 54 65 bb 4e cc ec 3c c7 24 b7 3a 24 e5 eb 3a
       -0.0034992753 0.028906014 0.0013972752 0.0017997366
000250 f6 9c 6e bc 0f 9b 83 38 41 eb ed 39 56 10 97 3a
       -0.01456379 6.275449e-05 0.0004537944 0.0011525254
000260 82 62 6a bb b3 13 18 b0 6e d0 30 b8 86 b4 4d bc
       -0.0035764282 -5.532527e-10 -4.2155785e-05 -0.012555247
000270 e5 8d 66 bb d2 61 d3 2f 0b f2 13 bd 10 27 29 bb
       -0.003517979 3.8450182e-10 -0.036119502 -0.0025810637
000280 73 75 88 3a dc 5f 3c b9 b1 cc 01 2f fd a2 0b b9
       0.0010410979 -0.00017964788 1.1805203e-10 -0.00013316791
000290 1f 8b 48 b9 32 96 11 3b c1 b9 5e 3b e2 aa 14 b1
       -0.00019125313 0.0022214768 0.003398523 -2.163397e-09
0002a0 29 9d c9 b1 eb 1c 21 3b 72 78 c3 3a d0 fb cf 3c
       -5.867737e-09 0.0024583887 0.0014913215 0.025388628
0002b0 c7 f6 93 3a 30 a3 c3 39 51 82 de 36 65 b7 3a 3b
       0.0011288755 0.00037314883 6.6312864e-06 0.002849066
0002c0 ca 55 36 3a 48 5a 84 b7 51 c4 89 ba 5a f0 ca b8
       0.00069555326 -1.5777667e-05 -0.0010510777 -9.6768796e-05
0002d0 ed b6 48 3c 09 69 37 3a 60 67 db 3b 7f e5 9c 3c
       0.012250644 0.00069965475 0.006695673 0.019152401
0002e0 cf 19 91 3c 4c 74 fc 3c 34 f3 b1 3b 10 5a ce 36
       0.017712502 0.030817173 0.0054306034 6.149763e-06
0002f0 c8 8d b5 b8 39 bd d5 b7 c9 8f 29 bb c8 fd d1 39
       -8.6571614e-05 -2.5479692e-05 -0.0025873056 0.00040052668
000300 81 a2 42 ba 8d bd 27 3b 6e 7b 82 bd 6b e4 93 bb
       -0.00074247277 0.0025595159 -0.063711986 -0.0045133135
000310 8e 34 d8 b6 ea 69 9d b9 ab 64 80 3d 0f 99 6b 3d
       -6.44342e-06 -0.00030024286 0.06269201 0.057519015
000320 1e d0 5b bc b9 5e 8a bd d2 7d 2d 3d e0 f0 07 ba
       -0.013416318 -0.06756348 0.04235632 -0.00051857345
000330 3e 88 4f ba a8 2b 4a bd a2 e1 7d 3d df c3 b7 39
       -0.0007916725 -0.04935804 0.06198276 0.00035050415
000340 5a 24 fd bc c1 3d 61 bd a5 7f 58 b7 1b e3 0d b9
       -0.030901123 -0.054990534 -1.2904323e-05 -0.00013531411
000350 84 9c 69 3c 35 6b ae b5 e7 e3 3b ba 95 08 ae 3c
       0.014258508 -1.2995212e-06 -0.0007167444 0.021244327
000360 37 bb de 39 f7 1c d8 b9 30 2c 14 bd 96 b0 a8 bc
       0.00042482626 -0.0004122031 -0.036174953 -0.020592015
000370 a6 b2 5c bd a4 56 84 3c f4 57 54 bc 3f a0 95 3b
       -0.05388131 0.016154595 -0.012960423 0.004566222
000380 df d4 f2 3a f0 de 60 3b 66 92 b3 bc 86 86 d5 34
       0.0018526575 0.0034312569 -0.021920394 3.977222e-07
000390 d1 29 91 3a b2 e3 37 ba 33 66 53 bc 8d aa 00 bd
       0.0011075084 -0.0007014825 -0.012902784 -0.03141265
0003a0 c2 a1 9d 3c 3a 81 e0 38 0e 20 c5 ba f0 d4 29 ba
       0.019242171 0.00010705223 -0.001503946 -0.00064785685
0003b0 57 cd eb 39 62 2c 4d ba fb b2 a0 bc 8e 4c 23 3c
       0.00044975683 -0.0007826743 -0.019616595 0.0099669825
0003c0 d3 01 4b 3c 25 09 23 3d d3 0b 19 bb d3 9e a2 bd
       0.012390572 0.039803643 -0.0023352995 -0.079404496
0003d0 d3 c2 3a 3a f6 8e 8b 3a ec cf 80 bc 8f 86 a8 3b
       0.0007124368 0.0010647464 -0.015724145 0.0051429938
0003e0 62 ca ea 3a e2 6e ee b5 22 da b5 b9 1a e5 b8 3c
       0.0017913098 -1.7764653e-06 -0.00034685532 0.022570182
0003f0 a2 d5 ad 3c b9 ad 7e b4 d0 bf ff 3d 54 62 01 3d
       0.021220032 -2.3718793e-07 0.12487757 0.031587914

rios_f.RIOS_H.rnn_cell1.weight_ih f4 [384, 2]
000000 6f ee 5a 3c 20 0b 66 bc ac 03 38 3c 6a 23 0c bc
       0.013362511 -0.014040738 0.011231344 -0.008553365
000010 8e 42 ba bb bf 7b 45 bc 73 87 d9 bc d7 43 c6 bc
       -0.0056842035 -0.012053429 -0.026553845 -0.02420227
000020 74 fa a9 35 ae b7 c9 b5 ff ad fc 3c 6d 29 b4 bc
       1.2664373e-06 -1.5029125e-06 0.030844687 -0.02199241
000030 70 be 5d bc 6b 12 b0 3b 6b 3f a2 3c 50 85 80 bc
       -0.013534173 0.0053732893 0.01980563 -0.015688568
000040 c6 aa 69 3c fd f8 03 bc 65 87 0c 3e 20 7c b9 3c
       0.014261907 -0.008054969 0.13723524 0.022642195
000050 08 11 19 3c d3 5a 84 bc fe 8a 74 3c 82 8c 55 bc
       0.0093424395 -0.01615659 0.014925716 -0.013033988
000060 f6 32 ec ba 3f 79 76 bb 9a be 68 bb 1f 51 10 bd
       -0.0018020559 -0.003760889 -0.0035513998 -0.035233613
000070 96 53 ac 3b 94 73 15 3d 8c fb ca 3c bd 64 88 bc
       0.0052589877 0.036487177 0.02477815 -0.016649598
000080 c0 0f ce 3d 68 a7 f3 bc c0 b0 6e bb 7c 16 46 bc
       0.10061598 -0.029742911 -0.003642127 -0.012090322
000090 a3 7e 24 36 80 7b 2a b6 ea 67 eb bb f3 2e 26 bc
       2.4511617e-06 -2.540386e-06 -0.0071840184 -0.0101430295
0000a0 32 85 88 3c 43 3a b7 bc 3e c3 42 b3 96 09 03 33
       0.016665075 -0.022366649 -4.5346717e-08 3.0509533e-08
0000b0 f9 5f 89 3c 4d b7 63 bc 90 91 a3 3d e5 5d 39 3d
       0.016769396 -0.013898683 0.07986748 0.04525556
0000c0 dc d7 96 3c 81 73 64 bc 4a 70 b0 3b 04 39 4c bc
       0.018413477 -0.013943554 0.0053844796 -0.012464765
0000d0 d6 2a 59 3c 26 8a 2e 3c d5 17 bc 3c 44 e1 06 bc
       0.013254842 0.010653054 0.022960583 -0.008232418
0000e0 63 06 8d 3c 17 c4 82 bc 4e b4 e9 bb 92 22 11 bc
       0.01721496 -0.015962644 -0.0071320897 -0.00885834
0000f0 a7 6d c5 3c 8d 55 3f 3b 05 21 02 3e 70 19 e4 3c
       0.024100138 0.002919528 0.12707908 0.02784416
000100 14 fe 2d 3c ac e8 13 bd bf f7 ef 34 86 7b 63 34
       0.010619659 -0.036110565 4.4697478e-07 2.118596e-07
000110 a7 3a 3d 3c 54 4d 15 bc 96 83 a9 b0 e8 5a 84 b2
       0.011549628 -0.009112675 -1.2333767e-09 -1.5408162e-08
000120 d1 bf b1 3b bc 36 37 3c b3 92 f4 3c b6 fc a7 bb
       0.0054244776 0.011182483 0.029855108 -0.005126561
000130 d2 d0 b2 3c 91 f4 ab 3b 21 1c 15 3c 59 21 96 bc
       0.021828089 0.0052476604 0.009100945 -0.018326448
000140 36 b2 64 3d 51 86 91 bd 4e e6 6d 39 6d bb 0f ba
       0.055834018 -0.07105697 0.00022687876 -0.00054829457
000150 af 0f 94 bd 77 11 2d be cb f6 1f 3d e5 34 c9 3c
       -0.07229554 -0.16901194 0.03905372 0.024561355
000160 4b f3 89 3c fc 79 8f ba cc ec ee bb a8 95 db bc
       0.016839644 -0.0010946388 -0.007291412 -0.02680476
000170 96 7e a1 3d 9c 69 47 bc fd b1 02 3b 47 23 83 3c
       0.078854725 -0.012171175 0.0019942515 0.016008032
000180 da 19 f7 3c 2d 1b 39 bd 0c 73 94 bd bd cb 8e bc
       0.030163694 -0.045191932 -0.07248506 -0.017431134
000190 d5 81 b3 3d 48 1b 7f bc bd 2c 87 ba 5b 78 f1 39
       0.08764998 -0.015570469 -0.0010313016 0.00046056774
0001a0 1b 8f a9 3d 09 e2 e3 3d 20 7e 56 3c b4 56 07 39
       0.08279248 0.11127097 0.013091594 0.00012906903
0001b0 af 1c c6 b6 75 de 2a 39 07 0f 4e bc 2c d2 15 bd
       -5.904199e-06 0.00016295335 -0.012576825 -0.03657739
0001c0 93 a3 6c 3c a9 11 a0 bc 33 94 0d b3 d6 92 31 32
       0.014443296 -0.019539671 -3.2963907e-08 1.0336143e-08
0001d0 94 a3 a0 3c 24 92 bc ba ca 05 c2 bd a1 ff fc bd
       0.01960925 -0.0014386815 -0.094737604 -0.12353445
0001e0 b8 aa 08 3e db a5 47 be 70 a5 ef b1 d7 b3 05 b3
       0.13346374 -0.19496863 -6.9746235e-09 -3.113004e-08
0001f0 9a 48 82 3b 83 28 71 bd b3 ce be 3c be d8 9a bb
       0.00397594 -0.058876526 0.023291921 -0.0047255447
000200 45 08 6f 3d da 92 7c be bb f6 06 3c 3f 9a 62 3d
       0.058357496 -0.24665394 0.008237536 0.05532288
000210 ed ce 34 31 0c 61 9b ae 97 1a 28 3c 99 09 1e bc
       2.631107e-09 -7.065823e-11 0.010260246 -0.009645843
000220 b4 89 72 3c 02 85 f6 bb 2a 98 85 bd 1c b3 5b bc
       0.014803339 -0.00752318 -0.065231636 -0.013409402
000230 8a f8 91 bc c3 f0 07 bd c7 89 2c 34 21 65 2e b1
       -0.017818708 -0.033188593 1.6068871e-07 -2.5377818e-09
000240 df 17 b2 36 04 ab f2 b6 f0 31 48 3c 6f 3a ae bc
       5.3075923e-06 -7.232071e-06 0.012218937 -0.021268098
000250 1c 66 9d ba 57 6b 8c 39 e2 03 4a 3d a3 62 6f 3d
       -0.001200858 0.00026782855 0.04932011 0.058443677
000260 62 cc 68 3c 05 aa 0e bc 1a 61 12 3d 09 88 00 bd
       0.014208885 -0.008707528 0.035737135 -0.031379733
000270 4d 01 a0 3a 80 ab b1 bb 50 b2 13 bc 1e f0 2d 3c
       0.0012207419 -0.0054220557 -0.009014681 0.01061633
000280 87 c6 98 3c 5a ad 63 3c bd 14 33 3b fe ae 18 bc
       0.018649353 0.013896311 0.0027325593 -0.009319065
000290 bf b7 07 3c 05 05 82 bc 70 ec bb 3c b4 35 70 bc
       0.008283555 -0.015871534 0.02293989 -0.014661241
0002a0 99 65 ef bb cb 55 3c bb a4 3e 95 3a ca 9d 0c ba
       -0.0073058126 -0.002873766 0.0011386466 -0.00053640886
0002b0 19 a1 4e 3c 03 04 93 bc aa a3 a3 3d a7 a4 cc 3b
       0.012611651 -0.017946249 0.07990201 0.006245214
0002c0 70 5d 04 3d 8c a4 c7 bc d2 0c 1b 3c 6c e0 fd ba
       0.03231567 -0.024370454 0.009463506 -0.0019369251
0002d0 5f a0 c3 bd fd d1 20 bd 8e 83 87 3c 35 5b 8f bc
       -0.09552073 -0.03926276 0.016542222 -0.017499546
0002e0 83 66 cd 3c 5e 1a eb bc 3c 94 4b 3c f7 be bb 3b
       0.025073295 -0.028699096 0.012425479 0.005729552
0002f0 9f 0d 81 3c 82 45 58 bc 1a a1 ee 38 cd ce 20 38
       0.015753565 -0.013200166 0.00011378732 3.833957e-05
000300 97 40 fe 3b 61 17 29 bb 37 6a 2e 3c 73 98 da bb
       0.0077591646 -0.0025801288 0.010645441 -0.0066710054
000310 5a fb c2 3b a3 d7 1c 3b da 78 08 bc 50 71 73 bd
       0.0059503736 0.002393224 -0.0083295945 -0.059434235
000320 d1 3d fe 34 b2 ff 16 b5 5e 2d a6 3b 55 1d b0 bb
       4.7356164e-07 -5.625144e-07 0.005071326 -0.0053745904
000330 a2 e9 f2 3c b5 ef 35 3d e1 92 b3 3d c2 1e cc bb
       0.02965242 0.044418056 0.08768249 -0.0062292526
000340 09 8a dc 3b 49 38 03 bb 21 30 a1 bd 45 4d 9e bd
       0.0067303223 -0.0020022562 -0.07870508 -0.07729582
000350 3a 90 13 3c 55 57 a7 bb ec a2 0e 3c 8a 77 ca bb
       0.009006554 -0.0051068463 0.008705836 -0.006178801
000360 42 14 99 3a 83 a3 df 3a 66 c9 67 bb ad 52 86 bc
       0.0011679011 0.001706228 -0.0035367846 -0.016396845
000370 27 06 b7 3c 72 7f b8 bc 06 24 66 3c d8 d9 8b bb
       0.0223418 -0.022521708 0.014046675 -0.0042679124
000380 df be 89 bc 13 2f 03 bd d6 66 37 bd c3 2e 0b 3c
       -0.016814647 -0.032027315 -0.044775806 0.008495036
000390 7e e2 19 36 e8 ec e1 b5 84 a9 42 3d 1c dc 5e 3c
       2.2930612e-06 -1.6832755e-06 0.047524944 0.013602283
0003a0 e4 8d 69 3c 7b 85 48 bc 6e a9 b0 b1 29 9b ee 31
       0.014255021 -0.0122388555 -5.141536e-09 6.9443513e-09
0003b0 63 41 f9 3b e1 0c b9 bb f0 4a 2d 3c 06 ce 99 3c
       0.0076066717 -0.0056472872 0.0105769485 0.018774997
0003c0 2f b4 43 3c 8e 4f 18 bc 49 cd 19 bc 89 cf fb 3a
       0.011944815 -0.009296311 -0.009387323 0.001921163
0003d0 1b 51 9b 3d a9 61 44 3d dc 05 e3 3a 1d fb d5 bb
       0.07583829 0.0479447 0.0017320472 -0.006530179
0003e0 f6 d6 ab 3b e9 a1 34 bc 7a 81 ac 3b 1b b7 cf 3b
       0.005244131 -0.0110249305 0.0052644582 0.0063389665
0003f0 64 ae 65 3b 9f a5 02 bc c6 ca 55 3c 9c 7a 3c bd
       0.0035046572 -0.007974057 0.013048833 -0.046015367

rios_f.RIOS_H.rnn_cell1.weight_hh f4 [384, 96]
000000 b7 d7 0f 3d a9 b5 34 3d 4b 6c db bb 05 f3 45 3c
       0.03511783 0.044118557 -0.006696259 0.012081866
000010 c5 b6 29 37 b5 83 28 3d 55 14 e4 bb 2e ef 3a bc
       1.0115739e-05 0.04114123 -0.0069604316 -0.011409564
000020 3a 8f 31 bd 69 fd 4b 3c 31 16 35 3d da d4 32 3d
       -0.043349482 0.012450554 0.044210616 0.043660022
000030 f1 8b 51 3b da 5b bd bc 53 c2 0d 3b 75 21 34 bd
       0.003197428 -0.023115087 0.002163072 -0.04397722
000040 0a d7 dc bc d4 ee a4 bc c5 79 e6 37 58 91 54 ba
       -0.026958007 -0.020133413 2.747484e-05 -0.0008108816
000050 2a 52 36 3d 90 4f 9b b6 cd 03 27 3d 98 09 97 bb
       0.04451195 -4.6286223e-06 0.04077511 -0.004609298
000060 ce c9 2f bd 34 7b ed b9 8f 84 95 3c 53 d7 f6 3b
       -0.042917065 -0.00045295956 0.018251685 0.007532993
000070 15 ad 0c 3d 50 9d 28 bb 0c 53 32 bd 57 7b ec bc
       0.03434475 -0.0025728531 -0.04353623 -0.028867407
000080 4f e9 8b bc ac ee 8f 36 a9 a8 33 bd 7b d2 07 36
       -0.017079024 4.289517e-06 -0.04386202 2.0239083e-06
000090 cb 00 be bb 29 94 ac 3c fb 66 0e 3c f0 75 3a 3d
       -0.0057984344 0.021066742 0.008691545 0.04552263
0000a0 ff 8f 9b 3c df 2b 23 ba bd 57 ce 3b 39 43 3b b9
       0.018989561 -0.0006224494 0.0062970803 -0.00017858752
0000b0 81 ef f2 bc 20 da 20 3c 0d b9 85 bc 98 cd 04 bc
       -0.02965522 0.00981763 -0.01632359 -0.008105658
0000c0 46 b2 43 bc c8 0c 0a 3b 86 e9 2a bc c1 8b 62 39
       -0.011944359 0.0021064747 -0.010431653 0.00021605102
0000d0 0b 87 32 3c 3d 7b 90 bb a3 70 cf b9 24 3a 43 3c
       0.010896455 -0.0044092224 -0.00039566038 0.011915717
0000e0 ef dd 3c bd 9d dd 82 b6 c1 e3 cd 3c 36 51 14 3a
       -0.04611009 -3.900101e-06 0.025133016 0.00056578533
0000f0 5f 89 82 3a 13 bf c7 b5 c3 8c 80 3c 6c 49 3f bd
       0.0009959153 -1.4882265e-06 0.01569212 -0.04670088
000100 bc 25 8e 3b f4 49 3b bc e8 ad 96 35 1c 72 2e bd
       0.0043379944 -0.011431206 1.1226484e-06 -0.042589292
000110 92 a4 2f 3d e3 17 f2 bb 2e 70 0f 3c 9a f9 16 b6
       0.042881556 -0.0073881014 0.008754773 -2.249703e-06
000120 0a 51 1c 37 5b 57 4e 3d 00 20 50 b9 81 45 76 bb
       9.317193e-06 0.050376277 -0.00019848347 -0.0037578049
000130 ef 01 42 bb 53 b9 ac 3b 96 f4 c8 ba 9a 06 bd 3c
       -0.0029603203 0.005271116 -0.0015331681 0.023074437
000140 ff 2c de 3a bc 43 03 bb 59 55 26 3d 87 ba 39 3d
       0.0016950666 -0.0020029387 0.040608738 0.045343902
000150 de 78 16 bc a6 06 e3 b9 83 90 54 ba 9e 4f 98 3c
       -0.00918409 -0.00043301767 -0.0008108692 0.018592652
000160 5d b8 b5 3b dc 4f 31 bd 97 cd fd bb 00 9f 32 ba
       0.0055456595 -0.04328905 -0.0077454555 -0.0006813854
000170 cd cd 38 bd 08 f4 0e 3c 38 01 3d 3d 6e d6 b9 b8
       -0.045118142 0.008725174 0.04614374 -8.861428e-05
000180 55 79 1f 3d b8 fa 73 3d a6 32 e0 bb f9 22 60 3c
       0.03893407 0.059565276 -0.0068419753 0.013680213
000190 52 da 61 37 4b 48 50 3d 59 be f0 bb 28 d0 4b bc
       1.3461877e-05 0.050850194 -0.00734691 -0.012439765
0001a0 ed 3b 65 bd 8b 0a 96 3c 3f 6b 75 3d d4 96 6c 3d
       -0.055965353 0.018315574 0.05991673 0.05776103
0001b0 62 6b 8b 3b eb 10 e0 bc be 22 16 b9 84 2e 70 bd
       0.0042547444 -0.027351817 -0.00014318057 -0.05863811
0001c0 f3 12 e2 bc 62 d3 61 bc 0c b6 27 38 9a e7 22 bb
       -0.027596926 -0.013783308 3.9985447e-05 -0.0024857284
0001d0 e7 c6 76 3d a7 66 6e b6 13 b5 50 3d c0 50 b7 bb
       0.06024828 -3.5524515e-06 0.050953936 -0.005594343
0001e0 b6 e3 68 bd 47 fe 3d 3a cc 6d de 3c 4f fb 0a 3c
       -0.056857787 0.0007247668 0.027151965 0.008482768
0001f0 c3 1c 26 3d ff 40 59 bb ff d8 6d bd 37 6f f6 bc
       0.040554773 -0.0033150313 -0.05806827 -0.030082328
000200 9d 3a 9b bc 86 03 85 36 2c 15 6e bd 9c 4b ec 35
       -0.018948847 3.964119e-06 -0.05812566 1.7605375e-06
000210 39 8b 0c bc e2 85 a7 3c 05 46 80 3c 1e f7 81 3d
       -0.008578115 0.020449582 0.015658388 0.06345962
000220 53 be b6 3c 48 dd 44 ba 16 84 40 3c 47 df 5f bb
       0.02230755 -0.000750978 0.011750242 -0.0034160183
000230 16 fe 0c bd 1c 0f 5b 3c a6 1f 8f bc 5a bd b6 bb
       -0.034422003 0.013370302 -0.017471146 -0.0055767717
000240 50 d5 d6 bb 4d 17 3f 3b e9 87 98 bc 80 46 d2 39
       -0.0065561906 0.0029158175 -0.018619495 0.00040106848
000250 a9 ef 50 3c 2b 66 02 bc b8 6a 1e ba d3 1b 6b 3c
       0.012752452 -0.007958929 -0.0006043124 0.0143498955
000260 6b 8a 83 bd 27 91 44 b6 82 ea f2 3c 15 37 bf ba
       -0.064228855 -2.9290766e-06 0.029652838 -0.0014588559
000270 29 6b 7c 3b ed 97 8e b5 56 e6 a4 3c 61 a7 89 bd
       0.003851602 -1.0624041e-06 0.020129364 -0.06721378
000280 97 bc df 3b fb 57 83 bc c0 86 61 34 13 ce 65 bd
       0.0068279016 -0.016033163 2.100378e-07 -0.05610473
000290 11 fc 65 3d c6 6e fb bb 6c af 5d 3c 94 10 70 b5
       0.056148592 -0.0076731173 0.013530593 -8.943109e-07
0002a0 4f 66 7c 37 d0 3e 9d 3d 39 5d ab b9 ef e0 0c bc
       1.5044191e-05 0.07677996 -0.00032685118 -0.00859855
0002b0 e7 7f 4c bc 42 ad f4 3b fb bb e4 ba c7 70 31 3d
       -0.012481666 0.007466943 -0.0017451042 0.043320443
0002c0 66 29 e0 3a 99 7b 3f bb 02 86 52 3d e5 6c 80 3d
       0.0017102181 -0.0029217957 0.05139733 0.0627077
0002d0 13 34 34 bc 52 e9 5a ba b6 c1 20 ba 9f d2 ac 3c
       -0.010998744 -0.00083508075 -0.0006132381 0.021096526
0002e0 5b dc 2c 3c 1a 56 6d bd 49 8e 82 39 bf ce 3b ba
       0.010550584 -0.05794344 0.00024901543 -0.00071642915
0002f0 df 4a 7f bd 27 c9 1b 3c c7 31 85 3d 91 be 3b b9
       -0.062327262 0.009508408 0.06503635 -0.00017904701
000300 cb 44 27 3c d0 53 4d 3c a8 e3 86 bb 21 16 91 3b
       0.010209273 0.0125321895 -0.004116494 0.004427687
000310 f4 35 8e b6 a1 f6 16 3c 55 47 de bb ee 0d 97 bb
       -4.2382107e-06 0.009214074 -0.006783406 -0.004609815
000320 27 b9 45 bc 50 60 e3 3b df 1d 47 3c 1a e3 45 3c
       -0.01206807 0.0069389716 0.012153118 0.012078071
000330 53 cc af 39 de 0e 84 bb 5d 3f 44 39 b6 ac 48 bc
       0.00033530834 -0.0040300926 0.00018715621 -0.012248209
000340 27 97 d9 bb 6d ba b0 bb 0c cd dc b6 95 2e 86 bb
       -0.006640333 -0.0053933174 -6.5803815e-06 -0.0040949085
000350 18 de 48 3c 33 4c d5 b6 03 45 3f 3c 83 4f 0e bc
       0.0122599825 -6.3567654e-06 0.0116741685 -0.008685949
000360 4e 52 48 bc b1 c8 a6 ba d6 0d 08 3c af c1 9e 3a
       -0.012226654 -0.0012724606 0.00830408 0.0012112166
000370 43 5f 24 3c 13 3d b0 b9 6c 4e 4e bc 12 9c ac bb
       0.010032478 -0.0003361484 -0.012591939 -0.0052676285
000380 fc 38 10 bc 6c 42 a6 36 0b f4 4a bc c6 95 56 36
       -0.008802649 4.954918e-06 -0.012387286 3.1975665e-06
000390 81 2d d1 39 ab 49 50 3c 93 d3 43 b9 e9 5d 4e 3c
       0.0003989749 0.012712876 -0.00018675467 0.012595632
0003a0 37 a9 25 3c 08 a5 03 b9 74 b9 c5 3a 3f 67 53 3b
       0.010111145 -0.00012554612 0.0015085177 0.0032257584
0003b0 5c 17 10 bc 7c e7 a0 3a a7 c9 7a 39 9e e9 6f bb
       -0.008794632 0.0012276019 0.00023916979 -0.0036607753
0003c0 e5 91 a4 ba ca 9e 00 ba 1c 87 e5 bb b5 57 82 39
       -0.0012555687 -0.0004906474 -0.0070046317 0.0002486088
0003d0 eb dc 8d 3b 5e 1f 77 bb 4f d1 45 b9 0a 32 28 3b
       0.004329314 -0.0037707905 -0.00018865358 0.0025664591
0003e0 6a 7f 50 bc 70 bc ad b6 23 22 0d 3c d8 fc 28 bc
       -0.01272569 -5.177739e-06 0.008614096 -0.010314189
0003f0 82 43 ce 3a 8a 3c fa b5 5d b8 d9 3a 8c e2 55 bc
       0.0015736672 -1.8644071e-06 0.0016610731 -0.013054501
