BRIOS/models/model_file/brios_attention/base_brios.pt (torch, 856802 bytes, 38 tensors)

rios_f.RIOS_H.rnn_cell0.weight_ih f4 [384, 2]
0	0x36d16cd0	6.241353e-06
1	0x370cd711	8.394724e-06
2	0x3d8b96af	0.0681585
3	0x3e2dcb7d	0.16972156
4	0x3bf4e574	0.007473642
5	0x3c2c0844	0.010500018
6	0x39a2863f	0.0003099907
7	0x3b1e773e	0.002417996
8	0x3c109d3b	0.008826549
9	0x3cef1f5c	0.029189758
10	0x3c2d5bd4	0.010580976
11	0x3d006492	0.03134591
12	0x3c1af134	0.009456921
13	0x3bc3a283	0.0059703006
14	0x3db536f3	0.08848371
15	0x3d845b14	0.06462684
16	0x3ab488d7	0.0013773692
17	0xbb9f7082	-0.004865707
18	0x3d592044	0.053009287
19	0x3d599b74	0.053126767
20	0x3e983d0d	0.29734078
21	0x3eb85b18	0.36007
22	0xbc6b7326	-0.014370715
23	0x3b8f6a32	0.004376673
24	0x3b7d6561	0.0038665163
25	0xbd219c9e	-0.039456002
26	0x3a3b5442	0.0007146039
27	0x3aca28f9	0.0015423588
28	0x3ddc5f30	0.10760343
29	0x3dd31983	0.103076
30	0x3e585584	0.21126372
31	0x3ea9ccf8	0.3316419
32	0x3c75497d	0.014971134
33	0x3cbc26d3	0.022967732
34	0x3d04e52a	0.03244511
35	0xbbb751a4	-0.005594449
36	0x3e96cbf7	0.29452488
37	0x3dde9393	0.10867991
38	0xbe5d8517	-0.21632801
39	0x3de01459	0.10941381
40	0x3cea9880	0.02863717
41	0x3d533937	0.051568236
42	0x3cc04c36	0.02347384
43	0x3c86ebb9	0.016469823
44	0x3d05e519	0.032689188
45	0x3d4a9e79	0.049467538
46	0x3eac9419	0.3370674
47	0x3d59913e	0.05311703
48	0x3d89b095	0.067231335
49	0xbd802806	-0.06257634
50	0x3c3e66df	0.011621206
51	0xbc2da4c1	-0.010598362
52	0x3e5a8811	0.21340968
53	0x3dded456	0.108803436
54	0xbb1bb9f5	-0.0023761962
55	0x3d459963	0.048241984
56	0x3de46037	0.11151164
57	0x3e05ca57	0.13065468
58	0x3b81abe2	0.0039572576
59	0xbc69cab0	-0.014269516
60	0x3daab63f	0.08335542
61	0x3e101bd0	0.1407311
62	0x3e68a62c	0.2271964
63	0x3e4deb9c	0.20109409
64	0xbb919dba	-0.0044438513
65	0x3ee63e13	0.44969234
66	0x3bad7a38	0.0052941106
67	0x3b876a46	0.004132542
68	0x3d8c3672	0.06846322
69	0x3ccdc476	0.025118094
70	0x3d36ba7b	0.044611435
71	0x3c2b03f0	0.0104379505
72	0x3937de9e	0.00017535171
73	0x396d8b29	0.00022653922
74	0x3944c9ec	0.00018767238
75	0x3af4d572	0.0018679334
76	0x3d80fe30	0.062984824
77	0xbb2000d5	-0.0024414558
78	0x3810b827	3.450378e-05
79	0x397cd694	0.0002411253
80	0x3d315dae	0.04330223
81	0xbb5708e7	-0.0032811703
82	0xbb1d3e47	-0.002399342
83	0x3bc141af	0.0058977227
84	0x394be9ed	0.00019446733
85	0x390bf538	0.00013347424
86	0xbce33f76	-0.027740221
87	0x3d96e5be	0.073680386
88	0x3e846033	0.25854644
89	0x3ce15e28	0.027510718
90	0x3d1cb2c3	0.038256418
91	0x3e764bf3	0.2405241
92	0xbd5922d7	-0.05301174
93	0x3c52ed5d	0.012873975
94	0x3d8baa91	0.06819642
95	0x3dde8999	0.108660884
96	0x3ca4aad2	0.020100985
97	0x3cc3b7ce	0.023891356
98	0x3a01837e	0.00049405533
99	0x3ce66c9b	0.028127959
100	0x3a11d01e	0.0005562323
101	0x39c93643	0.00038378136
102	0x3d032991	0.032022063
103	0x3d93cf3f	0.072172634
104	0x3dd423ab	0.103583656
105	0x3d172bee	0.03690713
106	0xbb2f87af	-0.0026783755
107	0xba9cb6b0	-0.0011956301
108	0x3d175026	0.03694167
109	0x3c90797b	0.017636051
110	0x3e532400	0.20619202
111	0x3e3ac5d1	0.18239523
112	0xbb7c4acd	-0.0038496733
113	0x3a0aabeb	0.00052899
114	0x3d922834	0.071365744
115	0x3e2d8a12	0.16947201
116	0xbc1f96aa	-0.009740511
117	0xbce263bf	-0.027635453
118	0x37a7d34d	2.0006346e-05
119	0x3806361d	3.1998487e-05
120	0x3cbf71f0	0.02336976
121	0x3c86a43e	0.016435739
122	0xbdb4096c	-0.087908596
123	0xbcb38bbd	-0.021917218
124	0x3c8b19e6	0.016980123
125	0x3b75b4b6	0.0037491745
126	0x3e4ca8da	0.19986287
127	0x3e0613da	0.1309351
128	0x3cc358b1	0.023846002
129	0x3d3f5352	0.04671032
130	0x3bd5322b	0.0065062246
131	0xbc3cea07	-0.011530406
132	0x3e083cbe	0.13304421
133	0xbd536919	-0.0516139
134	0x3c20d675	0.009816756
135	0x3c883d06	0.01663066
136	0x3d3f5db2	0.046720214
137	0x3e751bbd	0.23936363
138	0x3c075af1	0.008261428
139	0x39c16d10	0.00036893087
140	0x3db9d773	0.09074297
141	0x3d1308fe	0.035897247
142	0x3d6626f3	0.05618949
143	0xbcc03477	-0.023462517
144	0x3e8c6a8c	0.2742504
145	0x3ded7346	0.11594252
146	0xbe0142b3	-0.126231
147	0x3d03b688	0.032156497
148	0x3e5557ae	0.20834228
149	0x3e434560	0.19069433
150	0x3be94b26	0.007119554
151	0xb93f4ccb	-0.00018243787
152	0x3ebe6e02	0.37193304
153	0x3e946df1	0.2899013
154	0xbbe1627d	-0.006878196
155	0xbc74a8b6	-0.014932802
156	0x3c19e1fb	0.009392257
157	0x39b1382e	0.00033801928
158	0x3b45412c	0.003009866
159	0x3bdcccc4	0.006738277
160	0x3e1702d1	0.14747168
161	0x3d17267a	0.03690193
162	0x3240a7a1	1.1213985e-08
163	0x32554c4b	1.2415579e-08
164	0x3d5b9893	0.053612303
165	0x3d15f4fe	0.036610596
166	0xbc24d90d	-0.010061515
167	0xbc405de9	-0.01174114
168	0x3bba0098	0.0056763403
169	0x3be1ba0c	0.0068886336
170	0xbc636881	-0.013879896
171	0x3cd0b813	0.025478398
172	0x3e530fa7	0.2061144
173	0xbba91f7a	-0.005161223
174	0x3e23fd92	0.16014698
175	0x3d3d1613	0.04616363
176	0x3c142d3a	0.009043986
177	0x3c039161	0.0080302665
178	0xbb446f1e	-0.0029973458
179	0xbb9bd0e4	-0.0047551263
180	0x3db647e3	0.0890043
181	0x3e0d699e	0.13809821
182	0x3d5fee02	0.05467034
183	0x3ce55d33	0.027998542
184	0xb2e51223	-2.6667356e-08
185	0x322a7c21	9.923526e-09
186	0x399db999	0.00030083655
187	0x39b38eb2	0.00034247857
188	0x3bacb044	0.005270036
189	0x3b9d07ef	0.0047922055
190	0x381a46a1	3.678224e-05
191	0x388dc02c	6.759199e-05
192	0xb5d7c202	-1.6075212e-06
193	0xb68362d5	-3.91561e-06
194	0x3cc57801	0.024105074
195	0xbd2a696e	-0.04160445
196	0x39b36efc	0.0003422423
197	0xb9b9a9d5	-0.00035412484
198	0x385a3463	5.202404e-05
199	0x39a5a3ac	0.00031593197
200	0x383f4d96	4.5610206e-05
201	0x3a8e6c17	0.0010865954
202	0x3b3f6516	0.002920454
203	0xbc80b9e5	-0.015713641
204	0x3a2d9e2d	0.00066229963
205	0x3a38aacf	0.00070444954
206	0xba9c25d6	-0.0011913131
207	0xba0f8405	-0.00054746895
208	0xbb33db28	-0.002744386
209	0x3b8570f5	0.0040723034
210	0x3d26a804	0.040687576
211	0xbcbd16f2	-0.02308223
212	0x3c342a1b	0.010996367
213	0xbdd8150e	-0.10550891
214	0xbbdd262a	-0.0067489343
215	0xbb9d2164	-0.0047952402
216	0xbcb53c5b	-0.022123506
217	0x3c6eac96	0.014567515
218	0x388cc82b	6.7130044e-05
219	0x3952696e	0.00020066436
220	0xbd163aca	-0.03667716
221	0x3cf40631	0.029788109
222	0xbca6b579	-0.020350205
223	0x3cc8cb82	0.024511103
224	0xbc8ed249	-0.017434256
225	0x3c9179b8	0.017758235
226	0xba3c1689	-0.0007174989
227	0x3b354471	0.0027659202
228	0x3dc00f51	0.093779214
229	0x3e047140	0.12933826
230	0x3bc2149a	0.005922866
231	0x3c82ddaa	0.015974838
232	0x3cd3c145	0.025848994
233	0xbc0d3b7d	-0.00862014
234	0xb9b51d09	-0.00034544643
235	0x3c72d4cf	0.014821245
236	0x3dbaf0e3	0.09127977
237	0x3cf187c8	0.02948369
238	0x3c22924a	0.009922573
239	0x3c85094e	0.016239788
240	0x3db6fd8f	0.08935081
241	0x3d39f52d	0.045399833
242	0x3d998c75	0.07497493
243	0x3cb5dbdd	0.022199566
244	0x3b1e4bba	0.0024154023
245	0x39dede23	0.00042508644
246	0x3bcfb6bb	0.006338922
247	0xbbb9c790	-0.0056695417
248	0x3d49da10	0.049280226
249	0x3c53a71d	0.012918261
250	0x3ba599bc	0.005053727
251	0x3b6c93bf	0.0036098806
252	0xbe24e1ee	-0.1610181
253	0xbd8c6a24	-0.06856182
254	0x3e068f19	0.13140525
255	0xbd9d7424	-0.07688168

rios_f.RIOS_H.rnn_cell0.weight_hh f4 [384, 96]
0	0xb2b494af	-2.1022371e-08
1	0xb5d52999	-1.5881843e-06
2	0xb61dd0f7	-2.3516457e-06
3	0xb48d0eef	-2.6274162e-07
4	0x359a840b	1.1512324e-06
5	0x355eff39	8.307284e-07
6	0xb6805454	-3.8245144e-06
7	0x36582ec0	3.221372e-06
8	0xb537af8e	-6.842828e-07
9	0xb4cf08e6	-3.856323e-07
10	0xb5e64083	-1.7155111e-06
11	0xb63f53fa	-2.8510099e-06
12	0xb6b43d45	-5.3715507e-06
13	0xb4ce1793	-3.8387643e-07
14	0xb6a478c4	-4.90164e-06
15	0xb6935add	-4.3915193e-06
16	0x35e84dfe	1.7308046e-06
17	0xb584d71a	-9.897369e-07
18	0x36c8b212	5.9811946e-06
19	0x36873c98	4.0303676e-06
20	0xb5dbbc27	-1.6371531e-06
21	0xb60058ad	-1.9125102e-06
22	0xb6380c31	-2.7425233e-06
23	0xb677d04d	-3.6927115e-06
24	0x3606bac5	2.007627e-06
25	0xb5c81c56	-1.4909408e-06
26	0xb6bbed24	-5.600641e-06
27	0x3697e1f2	4.526454e-06
28	0x34a3bb02	3.0497182e-07
29	0x3623bc6a	2.4398564e-06
30	0x366a3e57	3.4905004e-06
31	0xb5967e00	-1.1212542e-06
32	0xb639e725	-2.7701692e-06
33	0x36906394	4.303127e-06
34	0xb627f67f	-2.5028419e-06
35	0xb63b25cd	-2.7887174e-06
36	0xb45b66a9	-2.0433312e-07
37	0xb47a69bc	-2.332153e-07
38	0x369f5435	4.7483722e-06
39	0xb45b625e	-2.043175e-07
40	0xb6bac899	-5.5665846e-06
41	0xb61d3d3f	-2.3430473e-06
42	0xb4863625	-2.499884e-07
43	0x3557ac43	8.0344415e-07
44	0x35c19e37	1.4425667e-06
45	0xb55e037c	-8.2706515e-07
46	0xb63d1508	-2.8175436e-06
47	0x366b7288	3.5084395e-06
48	0x3711b5dd	8.685017e-06
49	0xb5b8ab4b	-1.3758921e-06
50	0x34983a34	2.8354555e-07
51	0xb5f1382e	-1.797225e-06
52	0xb5de008b	-1.6540447e-06
53	0x35ee3da7	1.7750325e-06
54	0x364f826a	3.0921315e-06
55	0xb635f02f	-2.7110907e-06
56	0x3021ecb5	5.890784e-10
57	0xb6d1f94c	-6.2577074e-06
58	0xb3f5ab54	-1.1439866e-07
59	0xb31be17a	-3.629382e-08
60	0xb5229b72	-6.0575906e-07
61	0x34f9efbd	4.6554297e-07
62	0x3485f19b	2.4948972e-07
63	0xb63e1b3a	-2.8328054e-06
64	0xb62da2c1	-2.5873744e-06
65	0xb4907cac	-2.69128e-07
66	0x36a9990c	5.0544095e-06
67	0x3583ea52	9.828457e-07
68	0x35e0a0ea	1.6736133e-06
69	0xb4c716a5	-3.7083115e-07
70	0xb69b0cab	-4.6208347e-06
71	0xb6d82457	-6.441532e-06
72	0xb6aa9748	-5.0840063e-06
73	0x36df2434	6.6501325e-06
74	0xb6919f20	-4.3398613e-06
75	0x34be815a	3.5484373e-07
76	0x35cb55a2	1.5149601e-06
77	0xb554c8ab	-7.9268165e-07
78	0xb60d1528	-2.1022952e-06
79	0x34858dbb	2.4876303e-07
80	0xb5ff9abe	-1.9044016e-06
81	0xb072423c	-8.813321e-10
82	0x3681deaa	3.870421e-06
83	0xb3e18b02	-1.0502664e-07
84	0xb549c845	-7.5169766e-07
85	0xb43e26f5	-1.7709301e-07
86	0x36af3a92	5.222225e-06
87	0x365baa48	3.273266e-06
88	0xb56418d8	-8.497277e-07
89	0x35913d4c	1.0821182e-06
90	0xb5e9c9e5	-1.7418612e-06
91	0x36933888	4.3875225e-06
92	0x3127d777	2.4424176e-09
93	0xb3f20de1	-1.1271528e-07
94	0xb62041eb	-2.3880227e-06
95	0xb3a53111	-7.6923364e-08
96	0xb88e611f	-6.789178e-05
97	0x3d93d775	0.072188295
98	0x3c87329b	0.016503623
99	0x3b8ae0ad	0.004238209
100	0xbc1e1956	-0.009649595
101	0xbc827eaf	-0.015929548
102	0x3b0ca443	0.0021460212
103	0xbcb2f611	-0.02184585
104	0xbb86326e	-0.004095367
105	0x3cf51894	0.029918946
106	0x3b96385c	0.0045843553
107	0x3cc008cd	0.023441697
108	0x3cb50575	0.022097329
109	0xb9300029	-0.00016784728
110	0x3cfcd9c0	0.03086555
111	0xbe2404ff	-0.16017531
112	0x3c363650	0.011121348
113	0x3c5e41fd	0.0135655375
114	0x3e0fbcab	0.14036815
115	0xbd7de36a	-0.061984457
116	0x3cb5e1d1	0.022202404
117	0xbda7dec5	-0.08196787
118	0xbdb27b40	-0.08714914
119	0xbc995066	-0.018715095
120	0x3d75b2a9	0.059984837
121	0xbd67b471	-0.056568567
122	0x3d64857b	0.05579136
123	0xbd448f3f	-0.047988173
124	0xbc9be06d	-0.019027913
125	0xbc6019bf	-0.013678013
126	0x3d4bc66c	0.049749777
127	0x3d12c6f0	0.035834253
128	0xbe17d252	-0.14826325
129	0xbd1f129f	-0.038836118
130	0x3c6f7370	0.014614925
131	0x3c944d5c	0.018103294
132	0xbab2ae15	-0.0013632203
133	0xbaa98bcd	-0.0012935341
134	0xbcfad522	-0.030619208
135	0xb9fe4921	-0.0004850114
136	0xbca9e90b	-0.020741006
137	0x3be5e92e	0.0070163226
138	0x38c0ff8a	9.202871e-05
139	0xbd6fd0c0	-0.05854869
140	0xbb83410e	-0.004005558
141	0x3de70718	0.1128065
142	0x3c9afa75	0.018918255
143	0xbe037005	-0.12835701
144	0xbc7f494d	-0.015581441
145	0x3ce3656a	0.027758319
146	0x3a973da7	0.001153876
147	0x3d8f5d5b	0.07000228
148	0x3c9f1624	0.019419737
149	0xbbf3a36c	-0.007435253
150	0xbcb05091	-0.021522792
151	0x3d905c6f	0.0704888
152	0xbd247804	-0.04015352
153	0x3ae4d0ab	0.0017457207
154	0xb930c6aa	-0.00016858676
155	0xb8b82312	-8.780336e-05
156	0x3c2c6a44	0.010523383
157	0xbc2a416f	-0.010391577
158	0xbc2ef6f6	-0.010678997
159	0x3cab3ac1	0.02090204
160	0x3d415d8d	0.047208358
161	0x3bb5ae60	0.0055444688
162	0xbd0877aa	-0.033317246
163	0x3be3d83f	0.006953269
164	0x3d26607b	0.040619355
165	0x3c247b16	0.010039112
166	0x3d1c3baa	0.038142838
167	0x3ce490ad	0.027901018
168	0xbdba36c3	-0.09092476
169	0xbce2bfde	-0.02767938
170	0xbd9d21e0	-0.07672477
171	0xbc3008d3	-0.010744291
172	0xbe4ffb95	-0.20310815
173	0xbad6a53c	-0.0016376148
174	0x3c3bb407	0.011456496
175	0xbbcddfd8	-0.006282788
176	0x3c30b86e	0.010786159
177	0x369694be	4.4876642e-06
178	0xbcafaab5	-0.021443704
179	0x3bb0bb29	0.005393405
180	0xbd8008d6	-0.06251685
181	0x3d664c69	0.056225214
182	0x3d677db4	0.056516364
183	0x3d2454e7	0.04012003
184	0x3c45f72a	0.012082854
185	0xbad1053b	-0.0015946993
186	0x3cdfab11	0.02730325
187	0xbcd04377	-0.025422795
188	0xb667f9ed	-3.4567158e-06
189	0x3aaf28c9	0.0013363595
190	0x3c419389	0.01181496
191	0x39f2d754	0.0004631827
192	0xb7f6a7c0	-2.94036e-05
193	0x3b620df5	0.0034493182
194	0x39adbd72	0.0003313828
195	0x389c102e	7.4416734e-05
196	0x3991297d	0.00027687466
197	0x39dccbfb	0.00042113647
198	0x391fe850	0.00015249965
199	0xba70d541	-0.0009187051
200	0x388db4d6	6.757087e-05
201	0x3b149c3f	0.0022676138
202	0xbb202ee9	-0.0024442023
203	0xb9f5354f	-0.0004676976
204	0x3952d0cb	0.00020104942
205	0x38055728	3.179084e-05
206	0x3aadab24	0.0013249856
207	0x3b386a0c	0.002813938
208	0xb99fddfc	-0.00030492235
209	0x39d40c6c	0.00040445046
210	0x3b301269	0.0026866442
211	0x3af2b454	0.0018516877
212	0xb8e892ba	-0.00011089952
213	0xbaf8da4c	-0.0018985956
214	0xbb25ff5c	-0.0025329208
215	0xbb877aae	-0.0041344976
216	0x3aa5ae39	0.0012640423
217	0xbad21012	-0.0016026518
218	0x3ae4677f	0.0017425864
219	0x39d3373d	0.00040286212
220	0xbb2ad20d	-0.0026065141
221	0xb98dea1e	-0.00027068047
222	0x3abe2fbb	0.0014510074
223	0x3abf29ab	0.0014584562
224	0x3abb158c	0.0014273389
225	0xba532640	-0.0008054711
226	0x3a29678a	0.0006462267
227	0x39eef997	0.00045580856
228	0xb8c7e4ca	-9.531675e-05
229	0xb84dfcc5	-4.911122e-05
230	0xba3ac775	-0.00071250583
231	0x3707d4ff	8.096219e-06
232	0xba46841a	-0.0007572785
233	0x3a0606f2	0.0005112729
234	0x3819a40c	3.6630823e-05
235	0x39e1ec6b	0.0004309149
236	0xbaaf7dd9	-0.0013388946
237	0xbb9cd156	-0.004785697
238	0xba4fd66a	-0.00079283735
239	0x3a2f9e0a	0.000669927
240	0xb9145158	-0.00014144683
241	0xb9fd8d01	-0.00048360977
242	0xb81af084	-3.694046e-05
243	0xb8d34387	-0.00010073842
244	0x3a9f4bc4	0.0012153317
245	0x38da2b74	0.00010403144
246	0xba09ec9f	-0.00052613945
247	0x3aa8bacb	0.0012873051
248	0xbaa10877	-0.0012285848
249	0xbb4e9ad9	-0.0031525402
250	0x39e3bb02	0.00043436146
251	0xb7b474c3	-2.1512044e-05
252	0x39c915e7	0.00038354026
253	0x3a991bd1	0.0011681264
254	0xb9b4d96d	-0.0003449427
255	0x3ab2c48a	0.0013638895

rios_f.RIOS_H.rnn_cell0.bias_ih f4 [384]
0	0x36dacbc3	6.5206273e-06
1	0x3eebdd9c	0.46067512
2	0x3c465b54	0.012106735
3	0x3b2e173b	0.002656414
4	0x3d008af6	0.031382523
5	0x3d8ab4fc	0.06772801
6	0x3c81e4e1	0.015856208
7	0x3da324a0	0.0796597
8	0x3bb05ec6	0.0053823916
9	0x3e2d54a9	0.16926827
10	0x3ee78ffc	0.4522704
11	0x3d8888f8	0.0666675
12	0x3dc867c3	0.09785416
13	0x3b53d047	0.0032320188
14	0x3e436058	0.19079721
15	0x3ea462b4	0.32106555
16	0x3c84498b	0.01614835
17	0x3d423825	0.047416825
18	0x3e81692b	0.2527555
19	0x3ea4e938	0.32209182
20	0x3dde96c7	0.10868602
21	0x3d3e07cf	0.046394166
22	0x3d93c605	0.072155036
23	0x3e90455a	0.2817791
24	0x3d88f269	0.06686861
25	0x3c935e89	0.017989414
26	0x3e68e843	0.22744851
27	0x3e295097	0.16534649
28	0x3e4f0e4a	0.20220295
29	0x3cf82bd1	0.03029433
30	0x3e577b56	0.21043143
31	0x3e485041	0.19561864
32	0x3eaa5c99	0.3327377
33	0x3c2cceba	0.010547334
34	0x3d59d52e	0.05318182
35	0x3d5ec94f	0.0543912
36	0x39d49f7c	0.00040554616
37	0x3aefe2a1	0.0018301794
38	0x3decb138	0.11557239
39	0x39fee4d8	0.00048617157
40	0x3d4f476d	0.050605226
41	0x3cd32859	0.025776075
42	0x39949c07	0.0002834501
43	0x3e022f43	0.12713341
44	0x3e0a609c	0.13513416
45	0x3e8d9820	0.27655125
46	0x3dfb4ed8	0.122708976
47	0x3eb09ff8	0.34497046
48	0x3dbc626d	0.09198461
49	0x3dfe7a05	0.12425617
50	0x39f7da1b	0.00047274012
51	0x3df9ca46	0.12196784
52	0x3dc909c6	0.09816317
53	0x3cc822d1	0.024430664
54	0x3d4ce9e8	0.050027758
55	0x3e56485e	0.20926043
56	0x3c4d50ea	0.012531498
57	0x3e0cc764	0.13747936
58	0x3d643de5	0.05572309
59	0x37d2bc96	2.5121768e-05
60	0x3d0470a0	0.03233397
61	0x3dc95b1f	0.09831833
62	0x3ccea4ee	0.025225129
63	0x3dd44df2	0.103664294
64	0x3d96b492	0.0735866
65	0x3c523958	0.012831055
66	0x3e268dd5	0.16265042
67	0x3c3f8663	0.011689755
68	0x3eaeaf5a	0.34118158
69	0x3c4fdc1c	0.0126867555
70	0x3deb9f6a	0.11505015
71	0x3d535120	0.05159104
72	0x3ece0229	0.40236023
73	0x3e556858	0.20840585
74	0x3edf872d	0.43657818
75	0x3c50d166	0.012745237
76	0x3f06b6d5	0.5262273
77	0x3d59aebe	0.053145163
78	0x3c4ac025	0.012374912
79	0x3c168201	0.009186269
80	0x3e33444c	0.17506522
81	0x31e604e3	6.6944366e-09
82	0x3dabf5a7	0.08396464
83	0x3cf7d828	0.030254439
84	0x3d1b5b87	0.037929084
85	0x3e013f2f	0.12621759
86	0x3e917aa4	0.2841388
87	0x3e2234b5	0.15840419
88	0x3beeb791	0.0072850664
89	0x3d93d1ad	0.07217727
90	0x3ebdcd17	0.37070534
91	0x3e0fb53b	0.14033978
92	0x32d8e7f4	2.525119e-08
93	0x39ab0fbb	0.00032627382
94	0x3ba017db	0.0048856563
95	0x386b0acd	5.6038425e-05
96	0xb63d4712	-2.8204563e-06
97	0x3d251c5c	0.04031025
98	0xba28f8f1	-0.00064457866
99	0x384b9aef	4.8543265e-05
100	0x3b0b820b	0.0021287228
101	0x3b955ddd	0.0045583085
102	0x3abc8f2f	0.0014385934
103	0xbab3e2ff	-0.0013724266
104	0x3ab60964	0.0013888297
105	0x3d00c6ea	0.0314397
106	0xbd6f888f	-0.05847984
107	0xbaee1354	-0.0018163719
108	0xbd008d25	-0.031384606
109	0xb8dcf662	-0.0001053631
110	0x3c3a97f0	0.011388764
111	0x3c07834a	0.008271048
112	0x3c6bba04	0.014387611
113	0x39005468	0.00012238475
114	0x3dcfe62e	0.10151325
115	0x3bc6e378	0.006069597
116	0xbc44b733	-0.012006569
117	0x3cf3c6fa	0.029757965
118	0x3dcbe82b	0.09956392
119	0x3c295c7b	0.0103369905
120	0x3d26816b	0.040650766
121	0x3d17cf41	0.037062887
122	0xba80dc6d	-0.0009831317
123	0xbac93ef4	-0.0015353845
124	0x3cff4451	0.031160505
125	0x3c173374	0.009228576
126	0x3c8e54b5	0.017374376
127	0xbc2f3234	-0.010693122
128	0x3a511e9b	0.0007977278
129	0x3c6c26c2	0.014413537
130	0xb90bbac6	-0.00013325652
131	0x3ac52649	0.0015041317
132	0xb69dee13	-4.70668e-06
133	0x38065579	3.2027692e-05
134	0xbc520c16	-0.012820264
135	0x378f557a	1.7086732e-05
136	0x3cac2c53	0.02101723
137	0xbb51e13a	-0.0032025115
138	0xb7c9e8a6	-2.4069403e-05
139	0x3ca202bd	0.019776696
140	0x3d802133	0.06256332
141	0x3be5973f	0.0070065553
142	0x3b6eb851	0.003642578
143	0x3d8bed14	0.068323284
144	0x3d4d35c0	0.050100088
145	0x3d84d8d0	0.06486666
146	0xb89bc19a	-7.427037e-05
147	0x3cca56a9	0.024699526
148	0x3c818655	0.015811125
149	0xbc2503ff	-0.0100717535
150	0xb9b8c7cd	-0.00035244078
151	0x3c4faaf1	0.012675033
152	0x3ccb772b	0.024837097
153	0x3db8f7b7	0.09031623
154	0xbb5ae47f	-0.0033400354
155	0xb6fd5a3a	-7.5504913e-06
156	0xba006b38	-0.00048987893
157	0x3c2d9f1f	0.010597019
158	0xba1e9ba1	-0.0006050412
159	0x3a0e9cdc	0.0005440244
160	0x3c93a334	0.018022157
161	0x3911050e	0.0001383016
162	0x3c852349	0.016252177
163	0x3bb4c837	0.0055170315
164	0x3dd1438f	0.10217964
165	0xb9ae6340	-0.00033261813
166	0x3b24f803	0.002517224
167	0x3d19a119	0.03750715
168	0x3d3cfb3a	0.046138026
169	0x3a8f9032	0.0010953008
170	0x3e34c506	0.17653283
171	0xb983360d	-0.00025026538
172	0xbd4377ec	-0.04772179
173	0x3c32f342	0.010922255
174	0xb75c4f75	-1.3131522e-05
175	0x3a94e915	0.0011360968
176	0x3d35ff0b	0.04443268
177	0xb187129a	-3.931132e-09
178	0x3c8d1981	0.017224075
179	0xb9bd741a	-0.00036135392
180	0x3d10ab52	0.035319634
181	0x3ccaa007	0.02473451
182	0x3d86dc8c	0.06585035
183	0x3d11468a	0.035467662
184	0x3b7253f7	0.0036976316
185	0x3be9bd9d	0.0071331994
186	0xbbc18a66	-0.005906391
187	0xb9f9e3b0	-0.0004766262
188	0xb26afb34	-1.367771e-08
189	0x3770d049	1.435361e-05
190	0x3b6ef8da	0.0036464245
191	0xb743886a	-1.1654667e-05
192	0xba1a641d	-0.0005889552
193	0xbd0e4197	-0.03473052
194	0x3d04f89a	0.032463647
195	0x3c1a72d4	0.009426791
196	0x3d9e00cb	0.07714995
197	0x3db0fb7c	0.08641717
198	0xbd807769	-0.06272776
199	0x3acff723	0.0015866499
200	0xbd672078	-0.05642745
201	0x3c83b252	0.01607624
202	0xbe2d5e07	-0.169304
203	0x3b5415d0	0.0032361634
204	0xbdb8ff78	-0.09033102
205	0xbc97b731	-0.01851997
206	0xbd38720d	-0.045030642
207	0xbd8c7a10	-0.06859219
208	0x3b10492b	0.0022016268
209	0xbd2e6272	-0.042574354
210	0x3e1e8996	0.15482172
211	0x3e147fc9	0.14501871
212	0x3c3e6bf7	0.0116224205
213	0xbd9dae0c	-0.076992124
214	0xbdeea6f0	-0.116529346
215	0x3de2d226	0.11075239
216	0x3e035732	0.12826231
217	0xbd62d7ec	-0.0553817
218	0xbd43b01c	-0.047775373
219	0xbc32ecc6	-0.010920709
220	0xbd37ca57	-0.0448707
221	0xbaa4853d	-0.0012551915
222	0xbb934d0b	-0.004495268
223	0xbd77228d	-0.060335685
224	0xbd9ca090	-0.07647812
225	0x3ccdc624	0.025118895
226	0xbd398bbe	-0.045299284
227	0xbd680eb6	-0.056654654
228	0x3c1b89b8	0.009493284
229	0xb9baaee8	-0.00035607
230	0x3d9f5a5b	0.07780906
231	0x3bd01490	0.0063501075
232	0xbd164312	-0.036685057
233	0xbcac3599	-0.021021651
234	0x3c09a09d	0.00840011
235	0x3cd8b004	0.026451118
236	0x3ddc435e	0.10755037
237	0xbd29c287	-0.04144528
238	0xbe1679da	-0.1469492
239	0xbd0b0b34	-0.03394623
240	0x3daf985c	0.08573982
241	0x3db1c408	0.08679968
242	0x3bf7e958	0.0075656585
243	0xbde3b0ae	-0.11117683
244	0xbdaf5934	-0.08561936
245	0x3d8d31f3	0.06894293
246	0x3cc3f3d0	0.02391997
247	0xbcc70a97	-0.024297042
248	0xbd42907f	-0.047501083
249	0x3ce92c11	0.028463395
250	0x3dc13fe5	0.09436015
251	0xbb221975	-0.0024734412
252	0xbdb57189	-0.08859546
253	0x3ca8af2b	0.02059134
254	0x3d2d9b9c	0.04238473
255	0xbc49b8ec	-0.012312155

rios_f.RIOS_H.rnn_cell0.bias_hh f4 [384]
0	0x36dacbc3	6.5206273e-06
1	0x3eebdd8b	0.4606746
2	0x3c449983	0.011999491
3	0x3b2e170e	0.0026564035
4	0x3d00f3d4	0.031482533
5	0x3d8ed8ba	0.06974931
6	0x3c81e4e1	0.015856208
7	0x3da2b492	0.07944597
8	0x3bb03089	0.0053768796
9	0x3e2d54a6	0.16926822
10	0x3ef10448	0.4707358
11	0x3dacbd8a	0.08434589
12	0x3db4a86a	0.08821185
13	0x3b53d047	0.0032320188
14	0x3e2d6394	0.16932517
15	0x3ea94770	0.33062315
16	0x3c844c01	0.016149523
17	0x3d44aa9a	0.04801426
18	0x3e7a71c9	0.24457468
19	0x3ea3702c	0.31921518
20	0x3dac3535	0.08408586
21	0x3d3eae10	0.046552718
22	0x3d93c606	0.07215504
23	0x3e904559	0.28177908
24	0x3d897980	0.067126274
25	0x3c935e87	0.01798941
26	0x3e68e83e	0.22744843
27	0x3dfdf75f	0.12400698
28	0x3e4f0ef0	0.20220542
29	0x3cf62ad4	0.030049719
30	0x3e57950b	0.21052949
31	0x3e4f4f5c	0.20245117
32	0x3ead7e07	0.33885214
33	0x3c2ccebb	0.010547335
34	0x3d6cde69	0.057829294
35	0x3d5a4cde	0.053295963
36	0x39d49f7a	0.0004055461
37	0x3aefe29f	0.0018301791
38	0x3deb7bfb	0.11498257
39	0x39fee4da	0.00048617163
40	0x3d6afd5b	0.057370525
41	0x3cd4940f	0.025949506
42	0x39949c09	0.00028345015
43	0x3df51ea0	0.11968732
44	0x3e0e60a2	0.1390405
45	0x3e8d47ba	0.27593786
46	0x3dfd57c6	0.12370257
47	0x3eaf9283	0.34291467
48	0x3dbb73f7	0.09152978
49	0x3dfe7a05	0.12425617
50	0x39f7da1b	0.00047274012
51	0x3dee3855	0.11631838
52	0x3dc90bb8	0.09816688
53	0x3ccabe4e	0.024748947
54	0x3d4ae7aa	0.04953734
55	0x3e437595	0.19087823
56	0x3c4d50ea	0.012531498
57	0x3e0cc764	0.13747936
58	0x3d61b384	0.05510284
59	0x37d2bc82	2.5121732e-05
60	0x3d0269f2	0.03183932
61	0x3dbf9ea0	0.09356427
62	0x3ccd477b	0.025058499
63	0x3df578b3	0.11985912
64	0x3d96b467	0.07358628
65	0x3c4e6060	0.01259622
66	0x3e2686fb	0.16262428
67	0x3c3f54e2	0.0116779525
68	0x3eaec6c4	0.3413602
69	0x3c4e9e03	0.012610915
70	0x3de8be7a	0.113644555
71	0x3d533b9a	0.051570512
72	0x3ed6542e	0.418611
73	0x3e3aeaa5	0.18253572
74	0x3edfa5ad	0.43681088
75	0x3c50ed91	0.012751953
76	0x3f05e0c0	0.52296066
77	0x3d5d5a22	0.054041035
78	0x3c4cccf9	0.012500041
79	0x3c168201	0.009186269
80	0x3e3308c3	0.17483811
81	0x31e604e4	6.694437e-09
82	0x3daf1679	0.08549208
83	0x3cef8a4a	0.029240746
84	0x3d1b5b87	0.037929084
85	0x3def75d8	0.11692399
86	0x3e935ec9	0.28783253
87	0x3e2235df	0.15840863
88	0x3beeb791	0.0072850664
89	0x3d93d1ad	0.07217727
90	0x3ec30679	0.38090876
91	0x3e110fb4	0.14166147
92	0x32d8e7f4	2.525119e-08
93	0x39ab0fbc	0.00032627385
94	0x3ba017db	0.0048856563
95	0x386b0acd	5.6038425e-05
96	0xb63d4710	-2.8204558e-06
97	0x3d251c62	0.04031027
98	0xba213594	-0.00061496464
99	0x384b9aea	4.8543247e-05
100	0x3b0b820b	0.0021287228
101	0x3b955de2	0.004558311
102	0x3abc8f2d	0.0014385931
103	0xbab3e2fd	-0.0013724264
104	0x3ab60a8a	0.0013888639
105	0x3d00c6ea	0.0314397
106	0xbd6f8f42	-0.05848623
107	0xb9c44682	-0.00037436566
108	0xbc8771ba	-0.016533721
109	0xb8dcf4b2	-0.000105359955
110	0xbb6ce27e	-0.0036145742
111	0x3bb51a1f	0.0055267955
112	0x3c6bb9a1	0.014387519
113	0x3910dfa8	0.00013816229
114	0x3dcf4edc	0.10122463
115	0x3bc6e378	0.006069597
116	0xbc12400f	-0.008926406
117	0x3d093628	0.033498913
118	0x3dcbdfdf	0.099548094
119	0x3c295c7b	0.0103369905
120	0x3d18394a	0.03716401
121	0x3d145b58	0.036219925
122	0xba80dc6d	-0.0009831317
123	0xbb73b42e	-0.0037186253
124	0x3cff455b	0.031161001
125	0x3c173366	0.009228563
126	0x3c8e5c1b	0.017377904
127	0x3ccca8ce	0.024982836
128	0x3a5be4cf	0.0008388282
129	0x3c6f6db0	0.014613554
130	0xb90bbacc	-0.0001332566
131	0x3ac4f9cd	0.001502806
132	0xb69dee09	-4.7066756e-06
133	0x3806557d	3.2027707e-05
134	0xbc5269a3	-0.012842569
135	0x378f5325	1.7085646e-05
136	0x3cc82e7f	0.024436234
137	0xbc3182d2	-0.010834413
138	0xb7c9e8b6	-2.4069432e-05
139	0x3cb10ae5	0.02161164
140	0x3d81846a	0.06324084
141	0x3bc0be7d	0.005882083
142	0x3b6eb851	0.003642578
143	0x3d8bebe4	0.06832102
144	0x3d4c2225	0.04983725
145	0x3d84d8d0	0.06486666
146	0xb89bc19a	-7.427037e-05
147	0x3cce683d	0.025196189
148	0x3c818655	0.015811125
149	0xbc1e6c79	-0.009669417
150	0xb9b8c7cc	-0.00035244075
151	0x3c4faaf1	0.012675033
152	0x3cc7e60d	0.024401689
153	0x3db8f7b7	0.09031623
154	0xbb63b9b5	-0.0034748141
155	0xb6fd5a78	-7.5505195e-06
156	0xba006b44	-0.00048987963
157	0x3c2dbca7	0.01060406
158	0xba1e9b9d	-0.000605041
159	0x3a0e9cdf	0.0005440246
160	0x3c93c7ff	0.018039702
161	0x39110510	0.00013830164
162	0x3c852970	0.01625511
163	0x3bb4ca55	0.005517284
164	0x3dd17f72	0.102293864
165	0xb9ae6344	-0.00033261825
166	0x3b24f803	0.002517224
167	0x3d121b8d	0.035670806
168	0x3d01efa0	0.031722665
169	0x3a8f9032	0.0010953008
170	0x3e34173b	0.17586987
171	0xb983360d	-0.00025026538
172	0xbd418fa0	-0.047256112
173	0x3c349f93	0.011024374
174	0xb75c4f1f	-1.3131444e-05
175	0x3a94e913	0.0011360965
176	0x3d34f568	0.04417935
177	0xb187129e	-3.9311336e-09
178	0x3c9c2a72	0.019063208
179	0xb9bd741a	-0.00036135392
180	0x3d10a9f7	0.03531834
181	0x3cfdff44	0.03100551
182	0x3d86ed3d	0.06588218
183	0x3d10dc9c	0.03536664
184	0x3b7253f7	0.0036976316
185	0x3be9bd9d	0.0071331994
186	0xbbc2970a	-0.0059384154
187	0x3c8434e0	0.016138494
188	0xb26afbf4	-1.367788e-08
189	0x3770d04b	1.4353612e-05
190	0x3b6ef8dc	0.003646425
191	0xb7438857	-1.165465e-05
192	0xba55576f	-0.0008138334
193	0x3c8df84b	0.01733031
194	0xbc9d3cac	-0.01919397
195	0xbc23332a	-0.009960929
196	0x3d4f79b4	0.050653175
197	0x3da2bb66	0.079459
198	0xbd849ea9	-0.064755745
199	0x3d8f9f14	0.070127636
200	0xbd038c13	-0.032116007
201	0x3c2cc88c	0.010545861
202	0xbdc81679	-0.09769911
203	0xbcf54e0f	-0.029944448
204	0xbd680d31	-0.056653205
205	0xbc397e12	-0.011321561
206	0xbdb0987f	-0.08622836
207	0xbe1a907f	-0.15094183
208	0x3d3a5235	0.045488555
209	0xbd78fba3	-0.060786854
210	0x3d4a41e4	0.049379244
211	0x3da2a577	0.07941716
212	0xbcb2b953	-0.021816885
213	0xbd9b92b9	-0.075963445
214	0xbdfa6b48	-0.122274935
215	0x3dcee36a	0.101019695
216	0xbcab2123	-0.020889824
217	0xbc1a2fc3	-0.009410801
218	0xbd319805	-0.043357868
219	0xbbbd6561	-0.0057799076
220	0xbd1bd24b	-0.038042348
221	0xbd98aa39	-0.074543424
222	0xbc8c4203	-0.01712132
223	0xbc4da43a	-0.012551362
224	0xbc6325b7	-0.013863972
225	0x3d470e50	0.048597634
226	0xbb4fd11c	-0.0031710332
227	0x3be0c3ba	0.00685927
228	0xbc6ec58f	-0.014573469
229	0x3ab9b78b	0.001416908
230	0x3d3fd3d3	0.04683287
231	0xbc31d2e9	-0.010853508
232	0xbd646333	-0.055758666
233	0x3c8c6ea2	0.017142598
234	0x3c3552ca	0.011067102
235	0x3d965e92	0.073422566
236	0xbbe6d76f	-0.0070447247
237	0xbc852112	-0.01625112
238	0xbd2fdce3	-0.042935263
239	0x3ce4d6dc	0.027934484
240	0xbd4b46ae	-0.049627952
241	0x3d06a47f	0.03287172
242	0x3c1130db	0.008861746
243	0x3b8416fb	0.00403106
244	0x3cae8408	0.021303192
245	0x3d9f86f9	0.07789416
246	0x3d4ee6ed	0.050513197
247	0xbdf2f739	-0.1186356
248	0x3cc341a4	0.02383501
249	0x3cd0b84b	0.025478503
250	0x3bec5bca	0.0072130905
251	0x3a375fc0	0.0006995164
252	0x3be6b291	0.0070403297
253	0x3da7e7b8	0.08198494
254	0xbcb90de0	-0.022589624
255	0xbd775ac9	-0.060389314

rios_f.RIOS_H.rnn_cell1.weight_ih f4 [384, 2]
0	0xb55cb6ce	-8.22224e-07
1	0xb520bbd3	-5.9877965e-07
2	0x3d5c5403	0.053791057
3	0xbca1e8c5	-0.019764313
4	0x3a90cc2d	0.0011047177
5	0x38b6b7ba	8.712658e-05
6	0x38c7d8c3	9.5294345e-05
7	0x38241f14	3.912959e-05
8	0x3b062e91	0.0020474533
9	0xba882aee	-0.0010388771
10	0x3b85a1c0	0.00407812
11	0xbc02ca75	-0.00798284
12	0x3c388f0a	0.011264572
13	0x3c560163	0.013061854
14	0xba8f9e85	-0.0010957277
15	0x379b6372	1.8523748e-05
16	0x3b5e8cc8	0.0033958424
17	0x3ab3599d	0.0013683323
18	0x3cee8830	0.029117674
19	0x3cde530e	0.027139213
20	0xbba7d314	-0.005121598
21	0xbcf2af80	-0.0296247
22	0x3b5748f9	0.0032849892
23	0x3a1a4f31	0.0005886434
24	0xbbadf811	-0.005309113
25	0xbca66b5f	-0.02031487
26	0xb77ab1c4	-1.49425505e-05
27	0xb9146d56	-0.0001415511
28	0x3b3b605f	0.0028591377
29	0xbc48afe2	-0.012248965
30	0xbdc4fb71	-0.09618271
31	0xbbf7597c	-0.007548509
32	0x3bbae9e0	0.0057041496
33	0x3b6e0152	0.0036316705
34	0xbac5f85d	-0.0015103925
35	0x39e9b286	0.00044574233
36	0x3da17725	0.07884053
37	0xbcac55ef	-0.02103707
38	0xbbcaf0a9	-0.0061932397
39	0x3b8434da	0.0040346207
40	0x3c1f4cc1	0.009722889
41	0x3ca82582	0.020525698
42	0x3b4fc442	0.0031702672
43	0xbbec0d34	-0.0072037224
44	0x3d23cec4	0.03999211
45	0xbd5b3129	-0.05351368
46	0x3a7ea1f5	0.00097134645
47	0x3c3b2aac	0.011423748
48	0x3cbd4234	0.023102857
49	0xbc1721d0	-0.00922437
50	0x3c846f9c	0.0161665
51	0xbb97882a	-0.0046243863
52	0x3b016a0a	0.0019747042
53	0xb8d1071e	-9.967222e-05
54	0x3b06798c	0.0020519225
55	0x3a8b0eac	0.0010609231
56	0xbce32b70	-0.027730674
57	0xbccc286d	-0.02492162
58	0x3c92aa88	0.017903581
59	0xbb3813ac	-0.0028087897
60	0xbd36674f	-0.044532117
61	0xbd8b7ccf	-0.06810915
62	0x3c919816	0.017772716
63	0x3e0aaac9	0.13541712
64	0xbd49f35c	-0.04930435
65	0xbcb0ce99	-0.021582888
66	0x3c943613	0.01809219
67	0x3c6c3120	0.014416009
68	0x3a08db65	0.00052206806
69	0x3a787a00	0.00094786286
70	0x3aa6c3fc	0.0012723203
71	0x3b5b9662	0.0033506383
72	0x36628587	3.3754347e-06
73	0xb7247525	-9.802437e-06
74	0x383be29b	4.4795317e-05
75	0x3898f434	7.293411e-05
76	0x3c085721	0.008321554
77	0xbb115c54	-0.0022180276
78	0x376475c8	1.3617282e-05
79	0x3717ee4a	9.055782e-06
80	0xbc3bf53e	-0.0114720445
81	0xbc1e8d53	-0.009677249
82	0x3b654f6f	0.0034989973
83	0x3bf1ede8	0.007383097
84	0x3744a084	1.1719883e-05
85	0x3711443f	8.658563e-06
86	0x3d26a894	0.040688112
87	0x3cb1c65e	0.021701034
88	0xbc6d2f4d	-0.014476609
89	0xbd80b4b6	-0.06284468
90	0x3cf10e6a	0.029425818
91	0xbb1709de	-0.0023046653
92	0xba6689cc	-0.0008794337
93	0x3b60606d	0.0034237162
94	0xbc6de7e9	-0.014520624
95	0xbd286f8b	-0.041122
96	0x3d8b7afc	0.06810567
97	0x3cb25ed7	0.021773739
98	0xbd7cff2b	-0.061766785
99	0xbd5e4488	-0.054264575
100	0x3a2aa3d5	0.0006509398
101	0x39d50026	0.00040626636
102	0xbc0cd70f	-0.008596196
103	0xbcca5129	-0.024696903
104	0xbc8c3911	-0.017117055
105	0xbca14bcf	-0.019689469
106	0x3c0c72a0	0.008572251
107	0xbc5b05cc	-0.013368081
108	0x3a9e77e3	0.0012090172
109	0x3a92fa14	0.0011213445
110	0x3c22f6b1	0.009946511
111	0x3cd7dce3	0.026350444
112	0x3c93aead	0.018027628
113	0xbac9ec4e	-0.0015405507
114	0x3ab57684	0.0013844525
115	0xbc0f795e	-0.008756964
116	0x3b3715dc	0.0027936613
117	0xbc01e8fd	-0.007929084
118	0x36ad45a1	5.1639076e-06
119	0x3615db23	2.2330285e-06
120	0xbb71aed5	-0.003687789
121	0xbab3e704	-0.0013725464
122	0x3d2205a8	0.039556175
123	0x3c039264	0.008030508
124	0xbac354d3	-0.0014902599
125	0xba764bf8	-0.00093954755
126	0x39d1bd56	0.00040004653
127	0x3aace1cc	0.0013189851
128	0x3c3bea46	0.011469429
129	0x3afb6fe4	0.0019183126
130	0xb9943a71	-0.00028272302
131	0x39310585	0.00016882092
132	0x3ddf12df	0.10892271
133	0x3d00a83e	0.03141045
134	0x3b8f0b02	0.004365326
135	0x39528f09	0.00020080445
136	0x3d06c9fc	0.03290747
137	0xbe227d53	-0.1586812
138	0xb99e5a29	-0.00030203283
139	0xb9676b23	-0.00022069788
140	0x3d185159	0.037186954
141	0x3c8b34d9	0.016992973
142	0xbce68e8e	-0.028144147
143	0xbce05c43	-0.027387744
144	0xbcb160fe	-0.021652695
145	0xbd4ae61f	-0.049535867
146	0x3c230061	0.009948821
147	0xbba7b14c	-0.005117571
148	0xbe220f51	-0.15826155
149	0xbe8bbaf2	-0.27291065
150	0x3a2e7640	0.0006655194
151	0x3a5971c5	0.0008294846
152	0x3d69305b	0.05693088
153	0xbc8f22b2	-0.017472599
154	0xbc32e8f3	-0.010919797
155	0xbd08b89e	-0.03337919
156	0x3a91de5f	0.0011128894
157	0x3a525553	0.00080235786
158	0x3a0990fe	0.0005247741
159	0x39d205f8	0.00040058768
160	0xbd4ba6ff	-0.049719807
161	0xbcb3e767	-0.021960927
162	0xb11e18e1	-2.3006168e-09
163	0xb178d20a	-3.6208143e-09
164	0xbad12eca	-0.0015959379
165	0x3ce36bab	0.027761301
166	0x3a2e1d07	0.00066418987
167	0xba3c5230	-0.0007183878
168	0x3ca39a74	0.01997111
169	0x3c742c9b	0.014903213
170	0x3c9c200d	0.019058252
171	0x3c5d51c7	0.013508267
172	0x3cd41194	0.025887288
173	0xbd0f7a83	-0.035028946
174	0x3d8b1101	0.067903526
175	0x3de03e82	0.109494224
176	0x3c0cb6a5	0.008588468
177	0x3c3f036e	0.011658533
178	0x3c46dd8d	0.012137783
179	0x3bf1f949	0.0073844534
180	0xbcdff896	-0.027340215
181	0x3c860caf	0.01636347
182	0xbd42b01c	-0.047531232
183	0xbc4de5f9	-0.012567037
184	0x31b8c419	5.3773985e-09
185	0x32008616	7.481068e-09
186	0x3880562c	6.1195664e-05
187	0x37840d08	1.5741694e-05
188	0x3c514e2a	0.012774983
189	0x3c393535	0.011304189
190	0xb580d1b5	-9.597776e-07
191	0xb6ac2282	-5.1300167e-06
192	0xb59bebb9	-1.1617004e-06
193	0xb5dd9920	-1.6510348e-06
194	0x3db80003	0.08984377
195	0x3d5d0077	0.05395552
196	0x3a0db6c3	0.0005405957
197	0xba4b7510	-0.0007761279
198	0x37ef0cf2	2.8497048e-05
199	0xb65f4c36	-3.327395e-06
200	0x3aa4919c	0.0012555602
201	0x3b0b408a	0.0021248185
202	0x3beb323f	0.0071776207
203	0x3c468e35	0.012118866
204	0x3c27c781	0.0102404365
205	0x3c557bdc	0.013030019
206	0xba2fd432	-0.000670734
207	0x39f79ab2	0.00047226768
208	0x3b114912	0.0022168797
209	0xba62faeb	-0.00086586055
210	0x3b92c197	0.004478644
211	0x3c56cf03	0.013110879
212	0xbd60b98b	-0.054864448
213	0xbda4baf5	-0.08043472
214	0x3b9750cd	0.0046177865
215	0x3bb5df1c	0.0055502784
216	0x3bb21ac9	0.005435322
217	0xbc842466	-0.016130637
218	0xb816ef5c	-3.5985708e-05
219	0xb7bbb1b4	-2.2374887e-05
220	0xbc48f686	-0.012265807
221	0xbc6f2586	-0.014596349
222	0xbda1b451	-0.07895721
223	0x3d1acb55	0.03779157
224	0x3c4f0e0e	0.012637628
225	0x3ba1042c	0.0049138274
226	0xbaf3a791	-0.0018589367
227	0xbb273aae	-0.0025517154
228	0x3da5a2e6	0.08087711
229	0xbbca5a83	-0.0061753406
230	0xbb8ad52a	-0.004236837
231	0x3bdc2853	0.006718674
232	0x3c4321f6	0.011909952
233	0x3cf69abd	0.030103082
234	0x3c7b0d65	0.015323018
235	0x3bc84e2d	0.006112835
236	0x3d204e0a	0.039136924
237	0x3ce64483	0.02810884
238	0xbb34b97d	-0.002757638
239	0xba383e2d	-0.0007028308
240	0x3cb55710	0.022136241
241	0x3ce50078	0.027954325
242	0xbb028f7f	-0.0019921956
243	0x3bfbf06a	0.0076885717
244	0x3ab2d948	0.0013645077
245	0xb8a1c098	-7.7129516e-05
246	0x3c09177b	0.008367415
247	0x3c320744	0.01086599
248	0xbd5b8b6d	-0.053599764
249	0x3d805ffd	0.06268308
250	0x3c987e6b	0.018614968
251	0x3b5a5efe	0.003332078
252	0x3d991a1b	0.07475682
253	0x3d24e3cb	0.040256303
254	0xbc99a89e	-0.01875716
255	0x3dbf3e14	0.09338012

rios_f.RIOS_H.rnn_cell1.weight_hh f4 [384, 96]
0	0xb22e8bf9	-1.0159959e-08
1	0xb4c468eb	-3.6584183e-07
2	0x335e549c	5.1765355e-08
3	0x332f1931	4.0768274e-08
4	0x349d0723	2.9248721e-07
5	0x3492372f	2.723477e-07
6	0xb4c1fa9b	-3.613139e-07
7	0x33896129	6.397233e-08
8	0x358de4ed	1.0571945e-06
9	0x3599025a	1.1400073e-06
10	0xb5161de3	-5.5922845e-07
11	0xb33ee520	-4.444621e-08
12	0xb4643f29	-2.1257132e-07
13	0x3127dcdb	2.442724e-09
14	0xb4381e6f	-1.7147407e-07
15	0xb407c56b	-1.2644675e-07
16	0xb570f30c	-8.9760647e-07
17	0x338dc4fb	6.601655e-08
18	0xb66c3be8	-3.520161e-06
19	0xb3d898a1	-1.0086047e-07
20	0x344d5ddd	1.912626e-07
21	0x3690d3fb	4.316212e-06
22	0x36a3fff7	4.887577e-06
23	0x338265eb	6.0721355e-08
24	0xb6470832	-2.965808e-06
25	0x36a05bda	4.7790645e-06
26	0x3465dc85	2.1407511e-07
27	0x34f5e4a5	4.5801167e-07
28	0x34c7d74a	3.7223282e-07
29	0x34cd63d2	3.8256854e-07
30	0x35abbfcb	1.2796312e-06
31	0x34c81260	3.7266273e-07
32	0xb4699bce	-2.1756497e-07
33	0x36245666	2.4488195e-06
34	0x3286f256	1.5709855e-08
35	0xb3eab3f1	-1.0929205e-07
36	0xb38dd283	-6.604116e-08
37	0x335c36f5	5.1272725e-08
38	0xb4bcabb9	-3.5142673e-07
39	0xb20dce2d	-8.254159e-09
40	0x346e7747	2.220887e-07
41	0xb5cb8134	-1.5162282e-06
42	0x3285951f	1.555105e-08
43	0xb4001b05	-1.1930759e-07
44	0x34287172	1.568749e-07
45	0x3494d1fd	2.7719935e-07
46	0x31b0bc93	5.1437126e-09
47	0x33d2baca	9.812864e-08
48	0x3585a1be	9.956345e-07
49	0x34218ca1	1.5045454e-07
50	0xb3ce253f	-9.5993975e-08
51	0xb5fb894f	-1.8740919e-06
52	0x34a2ed31	3.034743e-07
53	0xb4d96b1d	-4.0497335e-07
54	0x32271a34	9.726637e-09
55	0x345a4951	2.0329504e-07
56	0x368f8a30	4.2778192e-06
57	0xb3890284	-6.380017e-08
58	0xb3eb6d22	-1.09628914e-07
59	0xb27d0732	-1.4728174e-08
60	0xb43757eb	-1.7075187e-07
61	0xb514b6fa	-5.540056e-07
62	0xb47abe13	-2.3352213e-07
63	0x32cb671f	2.3679204e-08
64	0xb6300b6a	-2.6232688e-06
65	0xb1762ee0	-3.5824357e-09
66	0x360ddf59	2.1140643e-06
67	0xb603bfb2	-1.9632103e-06
68	0xb678582c	-3.7006203e-06
69	0x3419bfe7	1.4319049e-07
70	0xb53a930b	-6.9504375e-07
71	0xb56ee825	-8.8999724e-07
72	0xb6451c63	-2.937181e-06
73	0xb4e19388	-4.201686e-07
74	0x36b107de	5.275927e-06
75	0x33c38293	9.1041464e-08
76	0x3672282c	3.6084193e-06
77	0xb56e65eb	-8.881022e-07
78	0x320540d3	7.756358e-09
79	0xb3e92ec3	-1.0858414e-07
80	0xb5eed90c	-1.7795551e-06
81	0xae555f02	-4.8514977e-11
82	0x357e7459	9.479168e-07
83	0xb36987a9	-5.4372922e-08
84	0x367e4f50	3.7895115e-06
85	0xb636e4ce	-2.7253295e-06
86	0xb39a3303	-7.180463e-08
87	0xb6688154	-3.4645973e-06
88	0xb4f23acb	-4.511879e-07
89	0x34eef266	4.4507323e-07
90	0xb39d4227	-7.322915e-08
91	0xb55fd5c2	-8.338503e-07
92	0xaf749d68	-2.2247593e-10
93	0xb2c16ff1	-2.2519062e-08
94	0xb513809e	-5.494893e-07
95	0x31a2ac5b	4.734415e-09
96	0xb7c65ac2	-2.3645702e-05
97	0xbba82861	-0.0051317667
98	0x3abeb03e	0.0014548374
99	0x3a64dd73	0.0008730508
100	0x3afb8282	0.0019188675
101	0x3bea7952	0.007155576
102	0x3c5eef4d	0.013606858
103	0xb9ebd577	-0.00044981737
104	0x3b973d88	0.0046154894
105	0x3ba393d9	0.00499199
106	0xbc8a0444	-0.016847737
107	0xbb5fb556	-0.0034135184
108	0x3c316fae	0.010829849
109	0xb904cbdf	-0.00012664449
110	0x3cc1970b	0.023631593
111	0x3c0f1b7c	0.00873458
112	0xbc9eba0b	-0.019375822
113	0x3a901189	0.0010991554
114	0x3d40a19e	0.04702913
115	0x3a3fb5e2	0.00073131744
116	0xbca096ef	-0.01960322
117	0xbd2c3d1d	-0.04205047
118	0xbd32f465	-0.043690104
119	0xbb63c412	-0.0034754318
120	0x3d395fbf	0.045257326
121	0xbd441704	-0.047873512
122	0xbb35af2a	-0.0027722814
123	0x3bf71987	0.007540885
124	0x3c425464	0.011860941
125	0xbc8748bc	-0.016514175
126	0xbd95c113	-0.073122166
127	0x3c43207e	0.011909602
128	0xbd45fbd1	-0.048335854
129	0xbd0faad8	-0.03507504
130	0xba62c203	-0.0008650126
131	0x391a575a	0.00014719125
132	0xb968fa25	-0.0002221843
133	0xb9e6534b	-0.00043931077
134	0xbbe94371	-0.0071186353
135	0xb964e29d	-0.00021828194
136	0x3d001fea	0.031280436
137	0x3cc99f96	0.02461223
138	0x382d8003	4.1365634e-05
139	0xbd2f63a9	-0.042819653
140	0x3c873ac5	0.016507516
141	0xbd32e2dd	-0.043673385
142	0xba10d693	-0.0005525138
143	0x3c06c2e0	0.008225173
144	0xbcb9d294	-0.02268342
145	0x3cbc55c1	0.02299011
146	0xbb04081d	-0.0020146437
147	0x3ca46eb4	0.020072319
148	0xbc2e9642	-0.010655941
149	0xbc51f629	-0.012815037
150	0x39caaa04	0.00038655114
151	0xb9cd25c2	-0.0003912878
152	0xbd28f791	-0.041251723
153	0xbbf7dbc6	-0.007564041
154	0x3b68a545	0.00354989
155	0xb738709a	-1.0993472e-05
156	0x3ae45f11	0.0017423352
157	0xbbde1a69	-0.0067780507
158	0x3a09152f	0.0005229292
159	0xb98ebbec	-0.00027224363
160	0x3d1d1a94	0.038355425
161	0xbac87894	-0.0015294724
162	0xbbc4229e	-0.005985572
163	0xbc4c3f49	-0.01246626
164	0xbc9d64ca	-0.019213099
165	0xba490d59	-0.00076695305
166	0x3c3fef70	0.011714801
167	0xbc8aa4fd	-0.016924376
168	0x3bd2ffed	0.0064392
169	0x3a8585e5	0.0010186998
170	0xbc4aba40	-0.012373507
171	0xba4c6d98	-0.0007798313
172	0xbcf60570	-0.03003189
173	0xbc64fc6f	-0.0139762005
174	0x3a6fe9f6	0.00091519894
175	0xba57857b	-0.0008221489
176	0xbd21c51a	-0.03949461
177	0x3601be53	1.9333281e-06
178	0xbbca1233	-0.0061667203
179	0xba9e10d5	-0.001205946
180	0xbd1bdf72	-0.03805489
181	0x3d1b4d7b	0.037915688
182	0x3d043517	0.032277193
183	0xbc78b18b	-0.015179048
184	0x3c3568de	0.011072366
185	0xbb3dd183	-0.002896399
186	0x3c27984b	0.010229181
187	0xbc041118	-0.008060716
188	0x36323e9b	2.6560508e-06
189	0xb8b9b98e	-8.85605e-05
190	0x3c96deca	0.018416781
191	0x36e7447a	6.892308e-06
192	0xb603202f	-1.9539254e-06
193	0x3981d0f2	0.00024760474
194	0x37b90c3e	2.205942e-05
195	0x37de53cb	2.6503481e-05
196	0x381320c3	3.5078043e-05
197	0x3925d67b	0.00015815526
198	0x38c92256	9.5908224e-05
199	0x3881c025	6.186989e-05
200	0xb88ae457	-6.6228844e-05
201	0xb9ab1547	-0.00032631514
202	0x36a2e024	4.8540696e-06
203	0xb715ec62	-8.936129e-06
204	0x382e6a90	4.1584077e-05
205	0xb715a633	-8.919788e-06
206	0xb87c75a0	-6.019103e-05
207	0x38830292	6.2470455e-05
208	0xb7988600	-1.818221e-05
209	0xb880fbdd	-6.150429e-05
210	0xb81168a8	-3.4668163e-05
211	0x3856fa59	5.125473e-05
212	0xb81b8818	-3.7081627e-05
213	0xb98fb294	-0.00027408137
214	0xb8b30bf0	-8.537609e-05
215	0x381c4c51	3.7264374e-05
216	0x394ba1d1	0.0001941987
217	0xb9a42e9c	-0.00031315244
218	0xb8ad7f41	-8.272986e-05
219	0x380918d0	3.2686454e-05
220	0xba0f5bdd	-0.0005468706
221	0xb987c1ad	-0.00025893506
222	0xb994d4a5	-0.00028387192
223	0x3990b9b1	0.0002760417
224	0x3960a0f5	0.00021422266
225	0xb98869cc	-0.00026018766
226	0xb9086bd7	-0.00013010144
227	0xb886aeaa	-6.422152e-05
228	0xb6d847a9	-6.445644e-06
229	0xb7d108b5	-2.4918796e-05
230	0xb84269aa	-4.635161e-05
231	0xb730460c	-1.05067265e-05
232	0xb95b84de	-0.00020934964
233	0x390e6bf0	0.00013582385
234	0x36dbb169	6.547362e-06
235	0xb967f6e7	-0.00022121855
236	0x38c6a259	9.471615e-05
237	0xb8fc871a	-0.00012041461
238	0xb8a5abe7	-7.8998324e-05
239	0xb8cc0e61	-9.730156e-05
240	0xb8ef2ca5	-0.00011404724
241	0x3a13dd5a	0.0005640589
242	0x3767c15f	1.3813696e-05
243	0x398b8139	0.00026608424
244	0xb99946ab	-0.00029235086
245	0xb823c67e	-3.904709e-05
246	0x39260f2b	0.00015836644
247	0xb9080722	-0.00012972628
248	0xb9766b27	-0.00023500306
249	0x399b71b0	0.00029648608
250	0x385c36d9	5.250317e-05
251	0xb69b57e6	-4.6295927e-06
252	0xb826c36d	-3.975949e-05
253	0x39e0740d	0.00042811074
254	0xb7e4e4e3	-2.7286302e-05
255	0xb8a99351	-8.085988e-05

rios_f.RIOS_H.rnn_cell1.bias_ih f4 [384]
0	0xb6956b39	-4.4530284e-06
1	0x3dc9c84b	0.09852656
2	0x3a4e91fe	0.0007880031
3	0x386431ca	5.4405806e-05
4	0x3c06a7da	0.00821873
5	0x3ce531a4	0.027977772
6	0x3ca00dad	0.019537771
7	0xbaa43d51	-0.0012530481
8	0x3c01398a	0.007887254
9	0x3d52f481	0.05150271
10	0x3d0737e4	0.033012286
11	0x38612074	5.3674405e-05
12	0x3cc17c5d	0.023618871
13	0x3844d1a1	4.6925274e-05
14	0x3d394795	0.04523428
15	0x3d987ab8	0.07445282
16	0x3d39580e	0.04524999
17	0x3b7feced	0.003905113
18	0x3dd97b3a	0.10619207
19	0x3bd038d4	0.0063544307
20	0x3cafe771	0.021472665
21	0x3dcf709e	0.10128902
22	0x3e316cc5	0.17326649
23	0x3c953e44	0.018218167
24	0x3dbdb3ca	0.09262808
25	0x3de1fed0	0.1103493
26	0x3b0f902c	0.0021906001
27	0x3b4896a8	0.0030607376
28	0x3e0b345b	0.13594191
29	0x3d433ace	0.047663502
30	0x3e11c290	0.14234376
31	0x3dfa036c	0.12207684
32	0x3dc85889	0.09782512
33	0x3d9121c0	0.070865154
34	0xb8dc7278	-0.00010511739
35	0x3b25ca5c	0.0025297618
36	0xb7e328b3	-2.707946e-05
37	0x36552dec	3.1766203e-06
38	0xbb8de212	-0.004329928
39	0x3887838e	6.4618056e-05
40	0x3e0eaed2	0.13933876
41	0x3d0a9529	0.033833656
42	0xb78ea2c3	-1.7003511e-05
43	0x3da0285f	0.078202
44	0x3e1dfcbc	0.15428442
45	0x3df4a81c	0.11946127
46	0x3b8862ce	0.004162169
47	0x3dae1a98	0.08501166
48	0x3dd60bed	0.104514934
49	0x3e07b56f	0.13252805
50	0x3aaf2b18	0.0013364283
51	0x3db01509	0.08597762
52	0x3d3c2355	0.045932133
53	0x3cb1ac5d	0.021688635
54	0xb979d6ba	-0.00023826482
55	0x3c896ba9	0.01677497
56	0x3daf75fb	0.08567425
57	0x3db75997	0.08952635
58	0x3bb1a400	0.0054211617
59	0xb6834ed6	-3.913282e-06
60	0x3bc45012	0.0059909904
61	0x3dd47045	0.10372976
62	0x39c29303	0.00037112096
63	0x3a197848	0.000585441
64	0x3d9e6f60	0.07736087
65	0x3a5d4952	0.00084414065
66	0x3d160f64	0.03663577
67	0x3cb96fdf	0.022636352
68	0x3e855b16	0.26046056
69	0x393c1c20	0.00017939555
70	0x3cb9e76b	0.022693356
71	0x3db46b8b	0.08809575
72	0x3dde677e	0.10859583
73	0x3b7fbdb6	0.0039022989
74	0x3e7588e8	0.23978007
75	0x395b3dd4	0.000209085
76	0x3e39f721	0.18160678
77	0x3dd11ef4	0.10210982
78	0x3a37c1a0	0.00070097484
79	0x3acbd752	0.0015551841
80	0x3e09d518	0.13460195
81	0xb1dbb80c	-6.3946626e-09
82	0x3d31f9ce	0.043451123
83	0xb91805ca	-0.00014498006
84	0x3dabdfb2	0.08392276
85	0x3d892690	0.06696808
86	0x3dc5d081	0.096589096
87	0x3e35d301	0.17756273
88	0x3c8c06ea	0.01709314
89	0x3c1b8700	0.009492636
90	0x3d83f163	0.06442525
91	0x3d366044	0.0445254
92	0xb2749b4c	-1.423798e-08
93	0x37242221	9.783108e-06
94	0x3ccad623	0.024760311
95	0xb74f0f1e	-1.2341681e-05
96	0xb6a3f3eb	-4.8861743e-06
97	0x3d6672c0	0.056261778
98	0x3a1c685f	0.000596648
99	0x38c7c4fb	9.52575e-05
100	0x3bd695dd	0.006548627
101	0x3cc58b66	0.024114322
102	0x3c88d92c	0.016705118
103	0xba8fbca9	-0.0010966259
104	0x3befe1ec	0.007320633
105	0x3d237a15	0.03991135
106	0x3b95911b	0.004564417
107	0xbb829eb1	-0.0039862026
108	0x3bb73c1b	0.005591882
109	0x36b60077	5.424077e-06
110	0x3d1c8af8	0.03821847
111	0x3d7d7ced	0.061886717
112	0x3d43fb6a	0.04784719
113	0x3b27b8ab	0.0025592248
114	0x3de47b21	0.111562975
115	0x3b8b267c	0.004246531
116	0x3c6936c5	0.0142342495
117	0x3df798d7	0.12089699
118	0x3e37b540	0.17940235
119	0x3ca5ccba	0.020239223
120	0x3dc3470c	0.095350355
121	0x3e012cd8	0.12614763
122	0x3abf649e	0.001460213
123	0xbb4e3c62	-0.0031469096
124	0x3e054ded	0.13018008
125	0x3d2914c2	0.04127956
126	0x3e485e45	0.19567211
127	0x3dedbf7a	0.11608787
128	0x3db19ba2	0.08672263
129	0x3db2f847	0.087387614
130	0xba09e683	-0.0005260484
131	0x39ce682f	0.00039369005
132	0xb7535f35	-1.2598747e-05
133	0x373689c8	1.0880125e-05
134	0xbbafba7e	-0.005362808
135	0x38aefdfa	8.3442734e-05
136	0x3e10f472	0.14155748
137	0x3d13afe8	0.03605643
138	0xb795d96e	-1.7863433e-05
139	0x3da5a487	0.08088022
140	0x3dfc613c	0.123232335
141	0x3dffe10a	0.12494095
142	0x3b5e9cc0	0.0033967942
143	0x3c560568	0.013062812
144	0x3e0c4c2e	0.13700935
145	0x3dc9bc41	0.0985036
146	0x3aa701b3	0.0012741595
147	0x3dbe3b02	0.092885986
148	0x3d0ef361	0.034900073
149	0x3c497b71	0.012297497
150	0xba425510	-0.0007413188
151	0x3bbe182c	0.0058012214
152	0x3dd76962	0.10518147
153	0x3e0477a0	0.12936258
154	0x3bce9693	0.006304571
155	0xb7023710	-7.761424e-06
156	0x3b9c137a	0.004763064
157	0x3db1f8d1	0.08690036
158	0xb78d970d	-1.6878848e-05
159	0xb906bd97	-0.00012849864
160	0x3db1b99a	0.08677979
161	0x3a11ad01	0.00055570906
162	0x3cf262b2	0.029588077
163	0x3cb37b0d	0.021909261
164	0x3e82b38e	0.25527614
165	0xb8a0f983	-7.67587e-05
166	0x3c61ea4c	0.013788771
167	0x3d9d98eb	0.076951824
168	0x3e075dc3	0.13219361
169	0x3b5db6df	0.0033830923
170	0x3e24a753	0.16079454
171	0xb9989bfc	-0.00029107917
172	0x3e14e6b0	0.14541125
173	0x3e01df37	0.12682806
174	0x38dd0050	0.000105381594
175	0x3ae6e8a7	0.0017616943
176	0x3e551584	0.20808989
177	0xb1eca8d5	-6.887698e-09
178	0x3d2e2bca	0.04252223
179	0xb9b4479d	-0.0003438563
180	0x3dce982d	0.10087619
181	0x3d8844f4	0.06653777
182	0x3d67ce05	0.05659296
183	0x3e3e91bd	0.18610282
184	0x3c9010e1	0.017586173
185	0x3bb764c7	0.0055967304
186	0x3d60a601	0.054845814
187	0x3d51f50b	0.05125908
188	0xb269b424	-1.3603344e-08
189	0x3627651b	2.494379e-06
190	0x3cc9811b	0.024597695
191	0xb7265c34	-9.915839e-06
192	0x39bb23f4	0.00035694207
193	0x3daa21f4	0.08307257
194	0x3c385f47	0.011253185
195	0xbb293184	-0.0025816867
196	0x3bb4e0fc	0.0055199843
197	0x3d02f6b5	0.03197356
198	0x3dc92aec	0.0982264
199	0x3d0ba06f	0.03408855
200	0x3d5db989	0.05413202
201	0x3c99ab74	0.018758513
202	0xbe27de7a	-0.16393462
203	0xbd8a34d1	-0.06748355
204	0x3da994e5	0.082803525
205	0x3ad3e027	0.0016164825
206	0x3da69cef	0.081354015
207	0xbdebea9e	-0.11519359
208	0xbe0af0de	-0.13568446
209	0x3d299e17	0.04141053
210	0x3db16da4	0.086634904
211	0xbd3744bf	-0.044743296
212	0xbd6cbd78	-0.05779788
213	0xbe59fea1	-0.2128854
214	0xbe39b496	-0.18135294
215	0xbc41a33d	-0.011818704
216	0x3e4c0158	0.19922388
217	0xbe699706	-0.22811517
218	0x3cd3b1b5	0.025841573
219	0x3dd7d827	0.10539275
220	0xbdcfdc9a	-0.10149498
221	0xbd941181	-0.07229901
222	0xbdd64088	-0.10461527
223	0x3d1cd772	0.038291402
224	0x3d1b15a1	0.037862424
225	0xbe0921ff	-0.13391875
226	0x3ca34b0e	0.01993325
227	0x3d8609a2	0.06544806
228	0x3a93feed	0.0011291184
229	0x3b28161f	0.002564795
230	0xbaeed823	-0.0018222373
231	0x3b24d480	0.0025151074
232	0x3d75b5e2	0.05998791
233	0x3dceeca3	0.101037286
234	0xbafa91ae	-0.0019116902
235	0x3da33b37	0.07970279
236	0xbd057b2d	-0.032588173
237	0xbdd578a3	-0.104234
238	0x3d3c06c8	0.045904905
239	0x3d93a202	0.07208635
240	0x3d86baea	0.0657862
241	0x3b9eff8d	0.0048522414
242	0xbc79bf87	-0.015243418
243	0xbd4829ed	-0.04886811
244	0xbc4949dc	-0.012285676
245	0xbc51eace	-0.012812329
246	0xbd01f65b	-0.031729084
247	0x3dc479e2	0.0959356
248	0xbe2e6509	-0.1703073
249	0x3d2f97b5	0.04286929
250	0x3db30915	0.08741967
251	0x39e53fbf	0.00043725778
252	0x3d56b046	0.0524142
253	0x3e2394ff	0.15974806
254	0x3aeed447	0.0018221223
255	0x3d4bfe07	0.049802806
