BRIOS/models/model_file/brios_attention/base_brios.pt (torch, 856802 bytes, 38 tensors)

rios_f.RIOS_H.rnn_cell0.weight_ih f4 [384, 2]
00000000: 53e1 5e3c 6c4b 93bc efe6 d7be 8962 2c3e
00000010: d064 0dbe 7313 6abd ae53 9ab8 c68e 14bd
00000020: 925e 66bd d458 3c3c d902 343d 5af4 923d
00000030: f835 1abd 71fa 06bd 3a5f f1bc 35c5 83bc
00000040: 8986 943c ba62 523d f90e 6dbe 3a37 cf3c
00000050: 8aed ccbd 858d 9fbd c3e3 233d f639 c1bd
00000060: dacb 3b3d 1676 3d3c f7cd 8dbd 9955 7bbd
00000070: c63c a83c 4680 513b 54e7 353c cb78 78bc
00000080: 8f6b d3bd f48d 9abb 816f fe3c 9045 31bd
00000090: 3e59 87bd 64f0 71bd d4d8 0d3e 7b94 643d
000000a0: 3cf0 9bbe 3ab5 28bd a45d cbbd c6ff 92bd
000000b0: 4694 c53d 42c8 873c 06c8 9c3d 196c 103d
000000c0: f2e8 ec3d 3818 a63d 8a72 043d 0606 df3c
000000d0: 21d0 da3d 6a36 3c3d 6e6e a6bc c397 6ebd
000000e0: a024 6bbc 17c9 5bbc 769d 33bd a89b 43bd
000000f0: 60fb 8cbe 9880 213e 6f40 093d 062a 253c
00000100: 4088 3abe 41ba d63e 1634 d9bb b77b a0bd
00000110: de9e 77bd 3c81 19bd 0a8d 723d 0e2e 17bd
00000120: de12 813d 2a00 4cbc a32d fb3d 97e9 e63d
00000130: b20f 423d a862 0d3d 352c e03d db38 49bc
00000140: 626e 183d 715e 2c3c 3658 be3d 3f55 493d
00000150: 7b11 903b c1db 38bc cefa 243c 4145 e93d
00000160: e690 e5bd 1764 4c3e dfb4 cd3d f9cc 39bb
00000170: 068f c63d 3797 1dbd eb69 50be dd4e 62bd
00000180: 8b84 1e3e d1f1 b83c b570 85bc df98 9fbb
00000190: 08b7 44bc 3f8a 86bc a90b 4abe ad66 5dbc
000001a0: ceb2 f83c aa1f 943c 9749 123d e2eb 21bd
000001b0: 0f73 2c3d ae8c adbc 56c7 e43c cf81 94bd
000001c0: 8a52 953d 400e 96bc abfd 2e3c 5d8e 24bd
000001d0: 0411 d23d 427e d4bc b2b0 a9bc 4464 3bbc
000001e0: 131b 773d 226b 5cbc 596e df3d 9517 c53b
000001f0: 5f95 113e 455c 15bd cd75 32be 26f9 46bc
00000200: 89ee 883d 37f5 e4bc f489 17bd 908c 923c
00000210: 883e 9a3d ab4f abbb cbf4 19be 87db 883b
00000220: f967 123d ca69 5bbc bbe5 143e e5b6 1c3d
00000230: 6951 9d3c 31c2 57bd 8daf 89bc 16e9 4fbd
00000240: 6801 413d 9345 27bc a137 953d d15d f6bc
00000250: 75ad 32be ef14 2c3d 1b1c 49bc 31b9 64bc
00000260: 908e 14bc b072 eabb b1d0 a13d 230a 56bd
00000270: 85fd 92bd b478 d53b aad9 67be 126d 2a3c
00000280: 53e0 bd3d 51d0 0dbd a5d7 c2bb 3b4b 49bd
00000290: 5edc 83bd 5a67 16be d169 013e 5ad5 b4bc
000002a0: a376 163a 6656 cf3c 7117 173c b7ba 673e
000002b0: 9599 b6bd 6a12 66bd c433 4d3b 2f33 7dbc
000002c0: 1767 b5bc 8b7c bc3c add1 6b3c f129 573c
000002d0: cec6 323e 5a69 713d 8900 3b3e a88a 80bd
000002e0: 54ca 9e3d 87e5 0b3d 1ad7 6f3d 5500 923e
000002f0: 3d2d 71be f594 bcbd a57c 8abd 553b 9bbc
00000300: f0b1 cdbd e5f6 1fbb ff05 d23c 8792 abbd
00000310: f523 0f3e 3e03 a8bd ccd5 74bd 3aa5 403c
00000320: 9b72 933d 93a3 13bb 5587 8a3c 3e15 09bd
00000330: d800 0dbe 1350 95bd a122 243d 4777 debd
00000340: f114 133e a409 da3c 5dee 74be 128c d4bc
00000350: 651e f73c 0858 30bd 3b98 193e fc47 30bd
00000360: 8a09 1e3e 0338 55bd 814c d63d b0bc a8bc
00000370: db19 d73c 7249 46bc 73a8 4e3b f020 153b
00000380: 0f3b a83d 0321 09bd 814c 1a3c b7b9 ffbb
00000390: 753d 85bc f379 4b3d 526a 253e 01e0 e6bc
000003a0: 7fcd 833e 6340 d8bd ee88 9ebd ced8 b6bd
000003b0: 935b ec3e 31d9 63bd 98b1 133e d928 45bd
000003c0: d0cb 583e e23d 303c 2161 f53d 316f 973b
000003d0: 228e ba3d e906 3b3d cf80 0b3b 5d7b dd3c
000003e0: b998 30bd 525f 18bc be4f 83be 579b 1f3d
000003f0: 00b4 6d3e dddf 04bd 75a1 ad3d 20d9 fc3b
0.013603526 -0.0179803 -0.42168376 0.16834463 -0.13807988 -0.057147454 -7.358879e-05 -0.03626897
-0.056242533 0.011495788 0.04394803 0.071755126 -0.037649125 -0.032953683 -0.029464353 -0.016085247
0.018130558 0.051363684 -0.23150243 0.025294889 -0.100062445 -0.077906646 0.040012132 -0.09434883
0.045848705 0.011563798 -0.0692405 -0.06136093 0.020536792 0.0031967326 0.011102516 -0.015165518
-0.103232495 -0.004716629 0.031059029 -0.04327923 -0.066088185 -0.059067145 0.13852245 0.055805665
-0.30456722 -0.041188456 -0.0992997 -0.07177691 0.096474215 0.016574983 0.07655339 0.03525934
0.11567868 0.08110088 0.032335795 0.027224552 0.10684229 0.04595033 -0.020316329 -0.0582502
-0.014351994 -0.013414643 -0.04385134 -0.047755867 -0.27535534 0.15771711 0.033508714 0.01008082
-0.18216038 0.41938975 -0.0066285236 -0.07836097 -0.060454242 -0.037476763 0.059216537 -0.036909156
0.06302427 -0.012451211 0.12264564 0.112750225 0.04737825 0.034517914 0.10945932 -0.012281622
0.037214644 0.010520563 0.09294169 0.049153563 0.004396615 -0.011282862 0.010069562 0.11390162
-0.11209278 0.19960056 0.10044264 -0.0028350933 0.09695248 -0.038474288 -0.20352904 -0.05525099
0.15480249 0.022576245 -0.016289094 -0.0048705186 -0.012006529 -0.016423343 -0.1973101 -0.013513249
0.030358698 0.018081505 0.035714712 -0.039531596 0.042101916 -0.021185245 0.027927082 -0.072513215
0.07291134 -0.018317342 0.010680596 -0.04017483 0.10257152 -0.02593911 -0.020714138 -0.011437479
0.060328554 -0.013453277 0.10909719 0.006014774 0.14217137 -0.03646495 -0.1742775 -0.012144363
0.06686122 -0.027948959 -0.036996797 0.017889291 0.07531458 -0.005228003 -0.15034787 0.0041765603
0.035743687 -0.013391921 0.1454076 0.03826036 0.019203858 -0.05267543 -0.016807342 -0.050759397
0.04712048 -0.010209459 0.07286001 -0.030074032 -0.17448981 0.04201215 -0.012274767 -0.013960169
-0.009067193 -0.007154785 0.07901133 -0.05225576 -0.07177261 0.006514633 -0.22641626 0.010401981
0.09271302 -0.034622494 -0.005946117 -0.04914401 -0.06438516 -0.14687863 0.12638022 -0.02207439
0.0005739724 0.025309753 0.009221897 0.2262982 -0.08916012 -0.056169905 0.0031311372 -0.015454098
-0.022143884 0.023008605 0.014393252 0.013132558 0.1745865 0.05893836 0.18261923 -0.062764466
0.07753435 0.03415444 0.058554746 0.28515878 -0.23552413 -0.09208099 -0.06762055 -0.01894919
-0.100437045 -0.0024408635 0.025637625 -0.08377557 0.1397856 -0.082037434 -0.059774205 0.011758143
0.07199594 -0.0022527918 0.016910234 -0.033467524 -0.13769853 -0.072906636 0.040072087 -0.10862594
0.14363457 0.026615925 -0.23919053 -0.025945697 0.03016586 -0.043052703 0.14999478 -0.0430374
0.15433326 -0.05205537 0.10463811 -0.020597786 0.026257446 -0.012102472 0.003153351 0.0022755228
0.082143895 -0.033478748 0.009417654 -0.0078041214 -0.016264657 0.049676847 0.16153839 -0.028182985
0.2574272 -0.10559156 -0.07740961 -0.08928071 0.46163616 -0.05562705 0.14423215 -0.04813466
0.21171498 0.0107569415 0.119814165 0.0046214093 0.09109141 0.045660887 0.0021286493 0.027036363
-0.043114398 -0.00930007 -0.25646776 0.038966503 0.23213196 -0.032440055 0.08478061 0.007716313

rios_f.RIOS_H.rnn_cell0.weight_hh f4 [384, 96]
00000000: b59e 53bc bf20 d339 0350 303b 63a3 013b
00000010: b52d 09bb 1433 86ba d8e3 5c3a b29e 7b3b
00000020: e915 7f3b afd7 10bc af7f 093b bcb5 0abb
00000030: 6def 233a a9a7 3ebb 8c8f d239 c2d3 0a3a
00000040: a87c 95ba e312 c5ba bc7b d139 9a51 8c3a
00000050: 8a9f 3b3b ecd8 f03a 3d03 1dbb 7723 673b
00000060: 7876 61bb b7a8 243b a416 16bb 44e1 e53a
00000070: 3e13 c83b 2351 d33b 5a67 a1ba 80f2 e2ba
00000080: 3ecc a9bb d661 e6bb 9bc6 ddba 0244 35bb
00000090: d51e 60bb 2ea8 a03a a3a6 f7b9 98a1 45bb
000000a0: 89da 95ba 75b0 04bb 561c 64bb 10ab 133b
000000b0: b982 ab3a 3d28 72ba d0ce 32bb e214 a7bb
000000c0: eb4e 00bc a8e5 3e3a e54e 483a 7a17 a539
000000d0: ed76 523b d51b 9238 4556 d5ba b3b0 28b8
000000e0: 7c86 8bba afdf 6e3b ce7d 493b 9b28 8ab9
000000f0: 8c78 ec3a 8cb6 97ba 3207 28bb 8454 61bb
00000100: 3793 d13b 727b 6237 dc05 203c 2c83 1dbb
00000110: 30d6 f0ba fe40 9c3a 38aa 293b bc6d 0a3b
00000120: ca6f 4ebb 65bf 2b3a a285 803a cce2 433b
00000130: 25a6 5dba 5721 cbba 05ca 09ba 77a9 88ba
00000140: 1690 89b9 bc1e 823a ea9c a1ba 07e6 f538
00000150: 0bcb 8539 8d07 603b 136f 81ba 2506 ac39
00000160: 39f2 3b3a 6209 0fb9 adf0 f9b9 c9e3 1bbb
00000170: d0f4 87bb e16d a7ba b675 d23b 8f32 76ba
00000180: 983b 27bc ceb1 95bc 5d23 10bd a3d0 bbbc
00000190: 225a 2b3d d474 363c 9f02 dcbd 32a9 383d
000001a0: f366 56bd 1965 fc3d 4fd5 4c3d c441 d03c
000001b0: 5285 9dbc 3e4f f53c 5b7b 26bd 032b fdbb
000001c0: 733c 7f3c 611c 68bb 186e 7f3c 7189 03bd
000001d0: 2450 9bbc 9d64 27bd 4549 fe3c 331c 87bd
000001e0: 9797 403e b0db 3abd d4fb 223d bb4d e13a
000001f0: b53b 1cbd 722e 3b3e a5e9 f43c 26e5 103d
00000200: 4b52 a73d 98c0 993c 0564 a7bc 0ec6 363d
00000210: c391 e83c 2d24 8cbc c764 403d 1572 5d3d
00000220: ff80 483d af89 d83c 7abc 503d f4e1 abbc
00000230: 7d8e c2bd 986f 723d 33cd 043e bfd6 653d
00000240: 7d29 36bc 2528 3abc 7972 8ebc cc6d debb
00000250: 8c69 15bd 88ff 403e 7f9b 173d 676e 3bbc
00000260: a085 323d 9d1c a1bd 7fb1 d6ba 8d54 45bc
00000270: 207f 503d 57ad 973c 0f1b f0bc ad4c a4bd
00000280: 4b71 95bd 5082 d7bb 9740 2a3d 5d71 2bbc
00000290: 8aca d33c d9f3 c03c c6b7 1bbd 9df6 83bc
000002a0: f0ee 29bc 02eb 97bc 803f c63b 9ff5 cbbc
000002b0: ee13 81bc ad6d 313d d36c 4a3d d5e2 403c
000002c0: 853d 523a 0664 76bd 1394 763d 5f9e 1bbc
000002d0: 9a0e eb3a 9277 9c3d ec95 2b3d 2ab8 8cbc
000002e0: 3849 3dbc bcce eebb 4f02 183e 5f87 8ebb
000002f0: bfb5 323d 3e84 c5bc 2b99 b43d 3f48 0f3d
00000300: b4e8 7bbd ab8f b33a c15b 4e39 3c8d 40ba
00000310: 6582 993a 1823 943a 3dc5 9bbc ff7c 3f3c
00000320: bf31 853b 0ab6 373c 2147 ac3b c2a9 fc39
00000330: 925f 69bb e7a0 9dbb e2f6 dcbb ea38 603b
00000340: f303 2d3b 3859 e5ba c7c3 603b 2ce4 96bb
00000350: 8447 ed3a 7b5b a0bb 435f 0ebc 91c8 fcbb
00000360: ade2 2a3d febf 9fba d6f4 8c3b c670 e93b
00000370: b2bd fb3b e825 953d 8de2 be3b 5ba7 1f3b
00000380: ad8c d03b 8ebe 4fbc 3c44 f7bb a0f8 8b3b
00000390: 6ffc fdbb 7e48 8bba 77f6 0b3b 92c0 8c3b
000003a0: 8827 65bb b453 a53a 050c 3f3b e04e 513a
000003b0: 5ddd 31bc d808 0b3c 7e8d ac3c a57f 833b
000003c0: 5f5b fabc c77f 08bb 2d08 ba3b badc 2eba
000003d0: b59b 2ebb f893 313d 265a 1a3c 3c8f 0ebb
000003e0: 1b00 eb3b f5ce 3bbc 32c3 223c bee1 6bbb
000003f0: 0641 903b a296 1d3b ccd8 7dbc 9d99 94bc
-0.012916257 0.00040269454 0.002690316 0.0019781224 -0.0020931785 -0.0010238611 0.00084262853 0.003839415
0.0038922972 -0.0088404855 0.0020980646 -0.002116545 0.0006253634 -0.0029091632 0.00040161272 0.00052958366
-0.0011404948 -0.0015035536 0.00039955776 0.0010705472 0.0028629028 0.0018375195 -0.002395823 0.0035268941
-0.0034402888 0.0025124976 -0.0022901678 0.0017538448 0.0061058095 0.0064488812 -0.0012314126 -0.0017314702
-0.0051818183 -0.007030706 -0.0016920151 -0.0027658944 -0.0034198065 0.0012257153 -0.00047235665 -0.0030156132
-0.0011432926 -0.0020246778 -0.0034806929 0.002253238 0.0013085223 -0.00092375634 -0.0027283914 -0.005098925
-0.0078313155 0.0007282146 0.0007641151 0.00031488744 0.0032114342 6.9670066e-05 -0.0016276321 -4.0218885e-05
-0.0010644938 0.0036449244 0.0030745151 -0.00026351665 0.0018041297 -0.0011574789 -0.0025639054 -0.003438265
0.006395723 1.3499392e-05 0.009767022 -0.0024034483 -0.001837438 0.0011921225 0.0025888812 0.0021122536
-0.0031499737 0.00065516523 0.0009805451 0.002988982 -0.00084552384 -0.0015497607 -0.00052562385 -0.0010426481
-0.0002623803 0.0009927372 -0.0012330089 0.00011725356 0.00025519016 0.0034184188 -0.0009875022 0.00032810975
0.0007169578 -0.00013641038 -0.00047672298 -0.0023786894 -0.004149057 -0.0012773835 0.0064227236 -0.0009391689
-0.010207079 -0.01827326 -0.035189975 -0.022926634 0.041834004 0.011136252 -0.107426874 0.045083232
-0.052344274 0.1232397 0.050008114 0.025421984 -0.019228611 0.029945012 -0.040644985 -0.0077260747
0.015578377 -0.0035417306 0.015590213 -0.032113496 -0.018959112 -0.040867437 0.031040797 -0.065971754
0.18807827 -0.045619667 0.039790943 0.0017189303 -0.03814288 0.18279436 0.029896567 0.035374783
0.08169993 0.018768594 -0.020433435 0.044622473 0.028389817 -0.017107094 0.04697111 0.054063875
0.048951145 0.02643284 0.050960995 -0.020981766 -0.09499834 0.059188455 0.12968902 0.056113
-0.01111829 -0.01136211 -0.01738857 -0.006787991 -0.03647761 0.18847477 0.037013527 -0.011439896
0.043584466 -0.07866786 -0.0016379802 -0.012044084 0.050902486 0.018515272 -0.029309778 -0.08022437
-0.072969995 -0.0065768138 0.041565504 -0.01046404 0.025853414 0.023553776 -0.038017057 -0.016108805
-0.010371909 -0.018544678 0.0060500503 -0.024897395 -0.015756574 0.043317486 0.04942019 0.011772831
0.00080200314 -0.060153984 0.06019981 -0.009498208 0.0017933429 0.07639994 0.041891024 -0.01717766
-0.011553101 -0.0072878283 0.1484463 -0.0043496336 0.043630358 -0.02411091 0.08818277 0.03498101
-0.06150122 0.0013699433 0.00019679872 -0.00073452643 0.0011711834 0.0011301963 -0.019014949 0.011687516
0.004064768 0.011212835 0.0052575027 0.00048191665 -0.0035609943 -0.004810441 -0.006743298 0.003421361
0.002640006 -0.0017497903 0.003429638 -0.004604837 0.0018102978 -0.004893718 -0.008689704 -0.007714339
0.04172008 -0.0012187955 0.0043016477 0.0071240393 0.0076825256 0.07282621 0.005825347 0.0024361226
0.006364426 -0.012679709 -0.007545976 0.004271582 -0.0077510397 -0.0010626463 0.0021356621 0.004295417
-0.003496619 0.0012613446 0.0029151451 0.00079844706 -0.010856 0.008485995 0.021063562 0.004013019
-0.030561147 -0.0020828114 0.005677244 -0.0006670464 -0.0026643102 0.043354005 0.009420907 -0.0021752855
0.0071716434 -0.011462917 0.0099342335 -0.0035992707 0.0044022826 0.0024046083 -0.015493583 -0.018139655

rios_f.RIOS_H.rnn_cell0.bias_ih f4 [384]
00000000: fd7f ecbb c338 623e 833d 023e 7dfc a1bc
00000010: 14b3 1d3d daf0 ab3c 7bb0 a73d 5efd b73b
00000020: 4582 8d3d 747f 3c3e 6d91 3bba 1a5b d03d
00000030: df4f 103e 30fc d03d ac71 c9bc 8c3d 0dbd
00000040: cba6 823d c465 e6bc ee14 5f3d 8155 80bc
00000050: c81f 453e 17c5 d13d ff20 f83d 98b0 153d
00000060: fa8b 413e c8f9 133e 685e 99bc ddaf bfb8
00000070: 12a3 053d fedf 913d 87bf 973e dbcf 143d
00000080: 35da b43e aaf5 d93b 7f76 023d a7f8 a03d
00000090: 8146 08bc 8a47 dd3c bab1 c93d be75 b23d
000000a0: b3a6 a8bd cde9 35bc 3f64 0f3d 9d53 2f3e
000000b0: 3f6e 9b3e 6887 793c 0844 c83b 2200 2c3e
000000c0: 0138 843d e796 05bb b82a d23c 9623 013e
000000d0: 4e5b dfbb 8fbe 023d 0672 69bd 6009 083d
000000e0: 326f 63bd 5bbc 30bd 516e 973c 9da7 dc3c
000000f0: 387c 8f3d 6540 be3d 762d 6e3d abb5 dc3d
00000100: 655a 2bbd e170 2a3b a643 ae3c 3281 123e
00000110: ad5f 4ebb b143 6a3d ff4e 913d fd28 7b3c
00000120: 19d4 f2bc 51c3 8ebd 9c7c 483d f636 0ebc
00000130: 6ef3 dfbb cd5d 92bd b394 293d 51ee 663e
00000140: f6fb 823c 3df5 b93d 4c8b 8f3d 3ca1 a93c
00000150: a5c8 9f3d e09d 823e f38c 533d e62e 73b9
00000160: a22d 013d babc 7b3d 662c d23d 7a6e 3dbd
00000170: e928 59bd d197 333e 1c93 243e 2df5 033d
00000180: 274d 8c3c 71aa a8bc b0c6 0c3d 2213 4d3b
00000190: 3da1 54bd c5c7 43bc fe43 a93d d6e9 813d
000001a0: 1ae5 b9bd 7c53 663c e5b6 67bc 9a8e 5d3d
000001b0: 9eb3 80bc 78fa 10bb 8aa9 143d 3df9 a6bb
000001c0: 8ed4 b83c af61 7a3c 7501 50bc fae5 7e3d
000001d0: b9df 99bc 42a0 adbd c3e1 38b9 9996 0abd
000001e0: 286a 713a 1acd b73c 6463 04bb b233 513c
000001f0: d3f0 03ba 1779 113d dfa5 343d 012f a2bc
00000200: e4fa de3d 6398 713d fb10 cebb 9733 b6bc
00000210: c9b1 62bb 3b22 1e3c 5aa5 3ebb 3f1e f4bb
00000220: 2140 853b 4a64 ffbc af0b 4bbd 7029 383d
00000230: e925 86bd 1b40 b6bc df18 203d 56f5 cc3c
00000240: 978c 6b3d 16c9 693b 3e36 003c 2252 06bd
00000250: 5b9f 3d3d 52cd b5b9 c78e c93c 07e8 4b3c
00000260: fbb1 903c 06ce 1abd 7f16 f2bc ce21 543c
00000270: 4cac ae3c b31b fd3c ba38 3fbd c2cb 9d3c
00000280: 62db 2a3d 88bd 8abb 12e6 d3bb d60a 04bc
00000290: 5c01 b53c 0860 03bd 0cce 71bd 083f f3ba
000002a0: c33f 96bc 8a0e 1cbc 7ff8 6fbb 53d5 7c3b
000002b0: 8c0b 223c 0d36 c43c 51cb 1f3c 4f20 943c
000002c0: 9200 7e3c 8490 8a3c a3f9 f2bb d62d d13c
000002d0: dd3f 5bbc 5dfc 99bd c55a 86bc cb5e babc
000002e0: 332c 12bc 558f f03a 83e1 a6bd b34c 4ebd
000002f0: e89a e7bc 66ab 89bd 0c8b be3c 6d38 a8bc
00000300: 994d 533c 53c8 bcbd 205c 733d 9423 87bd
00000310: 3918 61bd 4632 83bc 4052 873c 4841 db3b
00000320: 19a0 76bc 9f08 91bc 3149 033d a461 8b3d
00000330: 97bf 62bd 4ae2 bf3c f122 5dbd 0280 e73c
00000340: 2b0d a9bc 374e 80bb eefb 54bc aad4 cb3c
00000350: 8002 943d ead9 863b 76c7 c1bc 2827 91bc
00000360: fcfc bc3c 2466 5abd 84d8 da3c 15ef acbd
00000370: c909 93bd 500e 4abd 05e2 7e3c fbf1 51bd
00000380: 41b1 813d f28e 88bb 2ab9 85bd 887d cdbd
00000390: 47ff c5bd 1741 dabc 0ec5 603c 146d 833d
000003a0: 5e1a ed3c 05f7 65bd 3838 d2bd 14b8 b73d
000003b0: 59e7 983d 6cd1 cc3c d78e 5d3d 9b93 59bd
000003c0: d2dc 603c 9f3b 9bbd d282 65bd 0647 8d3b
000003d0: a782 6fbd 4cb3 d43d 237d bf3d 30f3 b2bd
000003e0: 5e4f b3bd 845c b63c be42 90bd 9ada f3bc
000003f0: db63 913d 8a4a e03d 8d10 e13c 383f 34bd
-0.007217406 0.22091965 0.12718777 -0.019773716 0.03850086 0.02098887 0.08187958 0.0056149205
0.069096126 0.18407995 -0.0007155154 0.10173626 0.14092968 0.10204351 -0.024590336 -0.034482524
0.063794695 -0.028124698 0.05446332 -0.015665771 0.19250405 0.1024267 0.121156685 0.036545366
0.18901053 0.14450753 -0.018721774 -9.140347e-05 0.03262622 0.07122801 0.2963831 0.03633104
0.3532273 0.0066516 0.031851288 0.07859927 -0.008317591 0.027011652 0.09848352 0.08713864
-0.0823492 -0.011103106 0.03500771 0.1712174 0.3035755 0.015230037 0.0061116256 0.16796926
0.064559944 -0.0020384134 0.025655136 0.12611231 -0.0068163043 0.031920012 -0.056993507 0.033212066
-0.055525966 -0.04314838 0.01848522 0.026935393 0.07006115 0.09289626 0.058148824 0.10776838
-0.041834254 0.0026007222 0.021272492 0.14307097 -0.0031490133 0.05719346 0.070951454 0.015329597
-0.029642152 -0.069708474 0.04894696 -0.008680096 -0.006834439 -0.07146797 0.041401576 0.22551848
0.015989285 0.090799786 0.07008991 0.020706765 0.07801942 0.25511074 0.05164809 -0.00023191757
0.03153766 0.06145928 0.102623746 -0.046247937 -0.05301753 0.17538382 0.16071743 0.03221624
0.017126633 -0.020589085 0.03436917 0.0031291922 -0.05191158 -0.011949484 0.082649216 0.06343429
-0.09076901 0.01405799 -0.014142727 0.054091074 -0.015710648 -0.0022121947 0.036294498 -0.0050956295
0.022562291 0.015282079 -0.01269566 0.06223104 -0.018783437 -0.084778324 -0.0001763171 -0.033835027
0.0009209239 0.022436667 -0.0020200843 0.012768673 -0.0005033139 0.03551587 0.0441035 -0.019797804
0.10887697 0.058983218 -0.0062886453 -0.022241397 -0.0034590831 0.009651716 -0.0029090256 -0.0074498947
0.0040664827 -0.031175751 -0.04957169 0.044961393 -0.065501995 -0.022247365 0.03908622 0.025019329
0.057507124 0.0035672835 0.007825432 -0.03279317 0.04629455 -0.00034675986 0.024604214 0.012445456
0.017662993 -0.037794136 -0.029551743 0.012947513 0.021322392 0.030896997 -0.046684958 0.019262198
0.041713126 -0.0042340197 -0.0064666355 -0.008059224 0.022095375 -0.032074004 -0.059034392 -0.0018558213
-0.01834095 -0.009524951 -0.003661662 0.00385793 0.009890448 0.023951555 0.009753064 0.018081812
0.015503066 0.016914614 -0.007415013 0.025534552 -0.013381925 -0.075188376 -0.016400704 -0.022750279
-0.008921671 0.0018353263 -0.08148482 -0.050366115 -0.028272107 -0.06722145 0.023259662 -0.020534718
0.012896919 -0.09217896 0.05941403 -0.06598583 -0.05495474 -0.016015183 0.016518712 0.0066911317
-0.015052819 -0.017704306 0.032052223 0.06805733 -0.055358496 0.023423333 -0.0539884 0.028259281
-0.020636162 -0.003915574 -0.012999518 0.02488168 0.07227039 0.004115333 -0.02365468 -0.017718866
0.023069851 -0.053320065 0.02671457 -0.08444039 -0.07179601 -0.049330056 0.015556817 -0.05125616
0.063326366 -0.004167431 -0.06529458 -0.10033709 -0.09667831 -0.026642365 0.0137188565 0.064172894
0.028943237 -0.05614378 -0.10264629 0.08970657 0.07466001 0.025002204 0.0540913 -0.053119283
0.013724523 -0.07579731 -0.056032963 0.004311445 -0.05847421 0.10385761 0.0935004 -0.087377906
-0.087553725 0.022260912 -0.0704398 -0.029767323 0.07099124 0.10951717 0.027473712 -0.044005603

rios_f.RIOS_H.rnn_cell0.bias_hh f4 [384]
00000000: 9963 7c3d 9bd9 803e 604b 143e d0f8 50bc
00000010: 2902 913d 9169 bb3d 6993 223d ff1c f03c
00000020: b259 4e3d b570 793e c730 973d 8260 aa3d
00000030: 99fa 8f3d 0ff7 8b3d 80a7 e83c 2091 57bc
00000040: 96b2 f53c 8d15 813c 9577 2f3d cc36 243d
00000050: 5c46 7f3e a9a2 d93d 41e2 213e 67c5 c43d
00000060: 2e58 143e ad30 443d 0de4 bd3c 0ac2 ba3c
00000070: baf6 41bc 943a 763d 3d76 853e 970f 593d
00000080: d479 9e3e 5072 8b3d 9246 bf3c bced a3bc
00000090: ad47 b5bc 1dd6 6d3b 9c53 1d3d 73b6 84bd
000000a0: 6361 48bc e6ad 713c babf 783d 801e f33d
000000b0: 3d2c 883e 9cb2 1f3c d053 d2bc 733d 553e
000000c0: 3fa0 c43d 9bd0 ea3c 485c 99bc b49d a03d
000000d0: 6660 203d a3fc 4dbd 6caa d43c 2c01 8f3d
000000e0: e89f 19bd 862a 9c3c 63af f43d 0eb4 003d
000000f0: 9d1e f53c 70db e23d a2c2 303c ded9 f03c
00000100: bcbe 6c3c 4c65 0339 3dd7 b33b 1918 133e
00000110: 341e 8c3d 3ba7 6d3d aaea 7f3b 2a7a 9bbc
00000120: 9520 58bc 2167 5d3d c799 d33d 3a66 06ba
00000130: 63dd 983c d362 9e3b 9b1c 963d 7e1d 233e
00000140: 885c ac3d ef7d 923b 7028 f23c 3104 a4bd
00000150: 0418 64bd be5e 453e 88cb 9f3d 4fc0 09bc
00000160: 89c3 e83c e148 6d3d f761 273d 9199 bd3d
00000170: 526e f9bc fddb 1f3e 7eb4 193e 52d0 123d
00000180: e3df 933c 7269 1bbd 9edd 683d 877f 6e3c
00000190: fc65 3bbb be11 203d 8da3 923c a58e 693d
000001a0: 5727 25bc b4df 873d fa1d 68bc d6d8 173c
000001b0: 5062 00bd 7a54 713c 41b0 3f3d d156 593a
000001c0: 0488 e43c f957 773c 0a5f 6e3c 5aee d4bc
000001d0: dac7 503d 7630 9dbc 375d 0b3c 6eff 243d
000001e0: 9bc3 53bd e1f3 3f3c 7970 09bd d1de 513c
000001f0: 5220 04ba f109 123d b966 a0bd 15f1 3bbd
00000200: d874 c13d 9052 8d3d 2166 a1bb e69d 4fbd
00000210: e462 8bb9 ef36 d1bc 1465 febc e6ae 82bb
00000220: 65c4 213b 2ed4 5d3d 01c2 1c3d 49c1 b73b
00000230: b69d 81bd 9a17 86bd 8d42 94bd 497e 82bd
00000240: dc22 763d 97c4 9aba 94c7 fd3b 703b 423c
00000250: ad50 ea3b 5c35 3dbc 1f13 703d df56 74bc
00000260: a06b 233d 0df1 bcbc aed7 c0bc 6c5e 893c
00000270: 5a33 963c 91a6 883c 73f4 423c 77bc 9c3c
00000280: f506 6a3b dec2 84bb 71e5 d8bb bd8f b2bc
00000290: ea19 1d3c e3a3 8abc f2f2 cc3c 290a 8e3c
000002a0: 3c3a 97bc 16e8 3a3d 78ab 0c3d bebd 783b
000002b0: ec5a 0d3c 189a 2c3c f20b 703c ac8b 383c
000002c0: 676a a13c c039 5bbd 48a8 abbb e408 2ebd
000002d0: 6c50 813b 8028 6dbd 86e4 103d 8433 203c
000002e0: d12e 12bc 06db de3a a703 9abc 675a b23c
000002f0: 2825 a9bc 2470 803d 417d 4c3c db27 31bd
00000300: 758d 83bd 8f10 1f3d 4877 bbbd f028 a93d
00000310: f3fd 62bd 9579 93bd 772f 843d eb6d 97bd
00000320: 6686 913c 9078 f23c ebcb 253d f14e 4d3c
00000330: 27f8 8c3c 826c 9f3d c2fd a3bd 5ef6 97bd
00000340: 0c68 943c 4491 b13d 8f05 333c 52a1 ddbd
00000350: c8d8 75bd ec86 74bc c49e 353d 0305 ba3c
00000360: e4f3 393d 3966 8b3d d5ce 763d 9338 583d
00000370: 2fa1 173c 2029 52bd bddd 90bd 3349 b43d
00000380: 8d05 febb c475 96bd 425d 633d 1754 8cbd
00000390: d1e1 85bd aedf bcbc ae89 6abd dbe9 32bd
000003a0: 25d3 32bd 1967 01bc 4a37 1bbd 992b ca3b
000003b0: 5cf0 61bd bd55 27bd a602 a23d fd7e 223d
000003c0: 26eb b5bd 5ae3 c6bc 2c66 06bd b525 8b3d
000003d0: d2c1 05bd 6ff1 b93d a18b 73bd 6377 2abd
000003e0: af3f d1bc e526 48bc c81d 113c 2a0a 6b3a
000003f0: 94e4 193d fced 9b3d 8130 053c bac2 21bd
0.06161842 0.2516602 0.14481878 -0.012754634 0.0708049 0.091509946 0.039691363 0.029310701
0.05037851 0.243594 0.073823504 0.08319189 0.070302196 0.06834232 0.028400183 -0.013157159
0.029992383 0.015757347 0.04283865 0.04009132 0.24929184 0.10626728 0.15808965 0.09607964
0.14486763 0.047897983 0.023180032 0.022797603 -0.011838609 0.06011446 0.2606677 0.052993383
0.30952322 0.06808913 0.02334908 -0.020010822 -0.022128904 0.0036290952 0.038409814 -0.06480112
-0.01223025 0.014750933 0.06072972 0.11871052 0.2659625 0.009747174 -0.02567473 0.20824222
0.09600877 0.028663924 -0.018720761 0.078425795 0.039154433 -0.05028976 0.02596017 0.069826454
-0.037506014 0.019063246 0.11947515 0.031421714 0.029921824 0.11077011 0.010788592 0.029400762
0.0144497715 0.0001253087 0.005488305 0.14364661 0.06841698 0.05802081 0.0039049783 -0.01897915
-0.013191362 0.05405343 0.10332065 -0.0005126927 0.018660253 0.004833558 0.07329675 0.15929219
0.084160864 0.004470579 0.029560298 -0.08008612 -0.055686966 0.19274423 0.078024924 -0.008407666
0.02841355 0.05793083 0.04086491 0.09257806 -0.030448113 0.15611263 0.15010259 0.0358432
0.018051093 -0.037942357 0.056851976 0.014556772 -0.0028594723 0.03907942 0.017900253 0.057020802
-0.01008018 0.06634465 -0.014167303 0.009268006 -0.031343758 0.014729613 0.04679895 0.000829083
0.027896889 0.015096658 0.014549026 -0.025992561 0.050971843 -0.019188147 0.008506111 0.04028266
-0.051700216 0.01171586 -0.033554528 0.012809471 -0.00050402165 0.035654012 -0.07832093 -0.04588421
0.09446114 0.06900513 -0.004925505 -0.050687693 -0.00026585825 -0.02553889 -0.031054057 -0.0039881347
0.002468371 0.05415743 0.038270954 0.005607758 -0.06328909 -0.065474704 -0.07239256 -0.06371743
0.06009184 -0.0011807856 0.007744739 0.011854991 0.0071507306 -0.011548366 0.058611985 -0.01491329
0.03989756 -0.02306416 -0.023540344 0.016768657 0.018335033 0.016680988 0.011899102 0.019132836
0.0035709713 -0.0040515503 -0.0066191484 -0.021797055 0.009588698 -0.01692385 0.02501819 0.01733883
-0.018460386 0.04563149 0.034343213 0.0037954892 0.0086276345 0.010534786 0.0146512855 0.011263769
0.019704057 -0.05352187 -0.0052385665 -0.042488948 0.0039463546 -0.057899952 0.035374187 0.009777907
-0.008922295 0.001700253 -0.01880057 0.021771623 -0.0206476 0.06271389 0.012481035 -0.0432509
-0.06423465 0.03883415 -0.091536105 0.08259761 -0.055417966 -0.07200924 0.06454366 -0.07394012
0.017764281 0.029598504 0.040477674 0.012531028 0.017208172 0.07784368 -0.08007385 -0.07420038
0.01811602 0.08670285 0.010926618 -0.10821785 -0.06002119 -0.014924746 0.044340864 0.022707468
0.045398608 0.06806607 0.060255844 0.05278833 0.009254738 -0.05130875 -0.07073543 0.08803024
-0.0077521265 -0.07346681 0.05550886 -0.06851976 -0.06537212 -0.023055878 -0.057260208 -0.043680053
-0.043658394 -0.007898116 -0.037894525 0.006169748 -0.055160865 -0.04085325 0.079106614 0.039671887
-0.08882742 -0.024278332 -0.032812282 0.067943014 -0.032655545 0.09079253 -0.059459332 -0.041617762
-0.025543062 -0.012216304 0.008857198 0.0008966053 0.037571505 0.07613751 0.00812924 -0.039492346

rios_f.RIOS_H.rnn_cell1.weight_ih f4 [384, 2]
00000000: 77b5 923e 7dca 403d 1d1b 5f3c 04aa 323d
00000010: 49e0 1b3b 68f8 27bd 2791 3ebc 1311 c13a
00000020: d835 d73c b8c9 f0bc 6388 c23c 88c2 e6bb
00000030: f81a 343c 8c15 26bd 18f4 c03d 496b fcbd
00000040: b2b8 9f3d 6a55 453d 65d5 bdbd d759 88bc
00000050: d427 d63d fdd3 2abe f6d0 8cbd 91ed 32bb
00000060: 27ff 4fbb b637 17bd 95e0 aa3c e1d3 c6bc
00000070: 73c7 bb3d b9fd 17bc 94d6 523b 44e6 d23b
00000080: 5c0f 7e3b 58dd f0bc a8f7 e83c 3259 3bbc
00000090: 11b8 ff3d b368 86bc 04e4 823c f91c 1b3c
000000a0: 528d 98bd a3e9 183d 16b5 2b3d 0b9b 7ebc
000000b0: de29 9f3e 98dd d4bd ea21 eb3c e79b 33bd
000000c0: 0a5f 893d c07e 1c3e 9023 88bd c37d 403d
000000d0: a3cc 5cb9 1de4 39bd e26b 883c 2b78 eabb
000000e0: 1367 83bd 4abd 32be e16c 03bf 0af3 003d
000000f0: d4a5 8d3c b16e abbd 9c14 ab3c e677 c73c
00000100: 437f 203d a3af 893c ab7f 933d bb65 bdbd
00000110: 6039 3d3d d314 28bc a949 2d3d bda5 463c
00000120: aa5e 253e 8267 823d 0dae 76bc 45d7 803a
00000130: c5c3 523d dda6 673c ad36 9abd 0994 c43c
00000140: a429 e03d 77c3 1dbe d23e 9b3d 8b7d a4bd
00000150: a278 7cbb 8edb ecbd 7d9d f8bc 9c52 7abc
00000160: 9387 913d 2d27 54bd c2ba 9a3d c557 cdbc
00000170: 7bd6 b63d 61b7 bd3d 6d98 a23d a8f7 9ebd
00000180: 1b01 e63d b389 f03c 22af 033d 990e 74bc
00000190: 8fa0 233d 7708 173d d646 2b3b b464 123c
000001a0: 1c0d 6abd 9c34 3bbc 61ef 14be 09c5 da3d
000001b0: 590e eb3d 1901 123d 7487 94bc 7a48 53bc
000001c0: ea9c 043e 4d9c 38ba dac4 1c3d 0e22 b9bc
000001d0: 1235 1e3d 8ac4 ad3d 8ef1 193d 2a3a 61bd
000001e0: af9a af3b 9365 4f3b 4751 063c 513f fabc
000001f0: 6e33 bb3d 6e7d a23c 7b11 9dbd 4a63 84bc
00000200: 3e64 92bd 48ba 703d dd74 a3bc 2d99 d63c
00000210: 711b 99bd 1c22 823e 20aa b23c 7e4c b93c
00000220: 9ec3 1cbd 4649 ae3a 4fa6 fa3c dc55 ba3d
00000230: 2b24 873d d2e1 3ebd bed5 cebb 6aaa 613c
00000240: 6e69 983c cfce 9b3c 3deb b63d 1f08 1a3d
00000250: bf55 4d3d 1c61 543b cc9d 3d3d a127 2b3c
00000260: 989b 44bb a019 823c ac8e 873d f4bb 2ebc
00000270: 8b22 df3d 5f26 263e 9e75 703c 5e74 94bd
00000280: 5798 993b c383 c23c d3fd 5ebd 08d6 30bd
00000290: 2746 a4bc 9cbb 7ebd 804f b13d c48d b33c
000002a0: 0222 903c d187 b73c da6b b13d fa72 b5bc
000002b0: 423f 003b 8a38 15bd 3e6e ae3d 677e 92bc
000002c0: df3e 033d fd06 093d 1bb9 ad3d d4a3 ce3c
000002d0: 2357 aa3c 9e7e 26bc a823 c43c 5a2c 5dbc
000002e0: 7b46 b73d 354b bfbd 38b0 33bc 9c30 023d
000002f0: 3834 223e 90e8 73be f6b2 263d 299d 2fbc
00000300: daae 643e 389c 63be 79bb 293b 6116 563b
00000310: 16dc 00bd ad21 47bc f705 06bc 7016 6dbb
00000320: 41eb b83b 5562 3e3c 25f3 4fbc f772 80bc
00000330: d678 293d 68f3 513c 6bc1 403d 2405 5ebb
00000340: cf19 3f3c 000a 42bc dd65 303d b919 50bc
00000350: 99c7 553d 8c14 b6bb 04cd e5bc 37cd 33bc
00000360: 7ae1 24bd 67cd a4bc 5b65 f5bc a98b dabc
00000370: fe6c e63a 11e9 913b d8a1 bebc 3c7a 583c
00000380: f278 22bd 2f33 8dbc 5d7b 0839 44a2 73ba
00000390: 35b3 103c 33f7 7fbd 2c44 7cbc 47ef 0e3c
000003a0: 9178 1fbd ab03 063c b884 e23c eb09 dbbb
000003b0: 8266 8f3e 16ff 633e ba4c cabc 8ab3 ed3c
000003c0: 1673 153c 63c8 a33d 4c34 0abd 4148 cdbb
000003d0: 1be7 0ebc b46a f7b8 14bc fa3b b2c4 843b
000003e0: 08ac 083d 1624 20bd 9f23 47be 0171 3d3d
000003f0: f167 eabc 99b1 e4bc 8c00 1fbd f061 95ba
0.28654072 0.047068108 0.013617304 0.04361917 0.0023784807 -0.041008383 -0.011631287 0.001472982
0.026270792 -0.029393062 0.023746675 -0.007042233 0.010992758 -0.040547892 0.09421557 -0.123251505
0.077989 0.04817716 -0.092692174 -0.016644401 0.10456815 -0.1668243 -0.06875794 -0.0027302245
-0.0031737776 -0.036918364 0.020859042 -0.024270954 0.09168901 -0.009276801 0.0032171356 0.006436141
0.003876648 -0.02940242 0.028438404 -0.01143484 0.1248628 -0.016407346 0.015977867 0.009467357
-0.0744883 0.03733219 0.041920744 -0.015539895 0.3108663 -0.10393828 0.028702695 -0.043849852
0.067075804 0.15282726 -0.06647408 0.046994936 -0.00021057068 -0.04538356 0.016653005 -0.0071554384
-0.06416144 -0.1745502 -0.5133801 0.03148178 0.017290987 -0.08370722 0.02088385 0.024349164
0.039183866 0.016807383 0.07202085 -0.09247919 0.046197295 -0.010258871 0.042306576 0.012124476
0.16149393 0.06367399 -0.015056145 0.000982978 0.05145623 0.014138904 -0.0752996 0.02399637
0.10945442 -0.15406595 0.075803414 -0.08031758 -0.0038524051 -0.11565314 -0.030348534 -0.015278485
0.07105937 -0.051795173 0.075551525 -0.025066266 0.08927628 0.092634924 0.07939229 -0.077620804
0.112306796 0.029362535 0.03214944 -0.0148960585 0.039948042 0.036873307 0.002613475 0.008935142
-0.05714141 -0.011426117 -0.14544441 0.10682113 0.11477346 0.035645578 -0.018130995 -0.012895698
0.12950483 -0.00070423336 0.03827367 -0.022599246 0.03862483 0.084847525 0.03758388 -0.05498711
0.005359016 0.0031646236 0.008198089 -0.03054777 0.09140669 0.0198352 -0.0766935 -0.016160626
-0.07148026 0.0587714 -0.019953186 0.026196087 -0.07475937 0.25416648 0.021809638 0.022619482
-0.038272493 0.0013296984 0.03059688 0.090984076 0.06598695 -0.046602078 -0.006312101 0.01377354
0.01860496 0.019019512 0.08931587 0.0376054 0.050130602 0.0032406515 0.046293065 0.01044646
-0.0029999968 0.01588136 0.066190094 -0.010664929 0.108952604 0.16225575 0.01467648 -0.07248758
0.00468735 0.02374447 -0.054441284 -0.043172866 -0.020052982 -0.062190637 0.086577415 0.021918185
0.017594341 0.02240363 0.08663149 -0.022149552 0.0019568955 -0.036430873 0.08517121 -0.017882539
0.03204238 0.03345393 0.08482572 0.025224604 0.020793503 -0.010162024 0.023942783 -0.013499344
0.0894899 -0.093405165 -0.010967307 0.03178464 0.15840232 -0.23819184 0.040698014 -0.010718622
0.22332326 -0.22227561 0.0025899096 0.0032667147 -0.03145989 -0.012154025 -0.008180133 -0.0036176704
0.005643279 0.011620124 -0.0126922475 -0.01567982 0.041375004 0.01281438 0.047059458 -0.0033877576
0.011663868 -0.0118432045 0.043065894 -0.012701445 0.052192304 -0.0055566486 -0.02805186 -0.01097422
-0.040254094 -0.020117475 -0.029955557 -0.026677923 0.001758009 0.0044528325 -0.023270532 0.013212737
-0.039666124 -0.01723632 0.00013015927 -0.0009293894 0.008831789 -0.062491607 -0.015397113 0.00872404
-0.03893334 0.008179585 0.027651176 -0.006684532 0.28007895 0.22265276 -0.02469479 0.029016275
0.009121677 0.07997205 -0.03374128 -0.006264717 -0.008722092 -0.00011797753 0.007651815 0.004051768
0.033367187 -0.039096914 -0.19447182 0.046250347 -0.028614016 -0.027916716 -0.03881888 -0.0011396986

rios_f.RIOS_H.rnn_cell1.weight_hh f4 [384, 96]
00000000: 4638 19be ac00 db3c f974 bf3c d43b cabc
00000010: cad0 9d3d 0b71 8c3c cf8e 14be b083 77bd
00000020: 84a0 31bd bd31 153e f8b0 8bbd 9121 8a3c
00000030: 4de4 9d3c b98e 12bd 5327 8abd 6b3d 833d
00000040: a865 0e3c ff85 f63c 8751 6c3d 9f43 0abd
00000050: 6637 88b9 795b c7bd c883 49be a887 81bd
00000060: 756f 6d3e b8d2 70bd 22a4 463d 0fe5 aa3c
00000070: 24a1 a03c 5432 42bd 3938 313d 37ee 253d
00000080: 754a 743e 4712 2b3e 1813 733c cdcd a73d
00000090: 673b 4f3d 81c0 6fbb c3fa 463d 2214 073d
000000a0: 637f c9bd f384 653d c76a 7e3d addf 32bd
000000b0: d534 09be ad06 c53d ac01 4b3e 3ecc ef3d
000000c0: cf2f 93bd f914 3bbd 495e 583d 9709 22bc
000000d0: b520 7c3d cef3 4b3e c1e3 c93d 0c8a 83bb
000000e0: e339 bb3d 0d75 c9bd b332 f13c 7be6 a4bc
000000f0: e8d6 4fbd aa7b 013d 4901 ec3c 9fa5 fa3b
00000100: c94c 89bd 1a36 0e3d 8355 213e 9a77 00bd
00000110: 8cb3 0f3c 770e 06bd ae0c 96bd a095 4cbd
00000120: b253 27bd 9e26 fbbc 9d9a bc3c d09d 78bd
00000130: cb09 16bd dcd8 9f3d 4e6a 26bc 0868 2cbc
00000140: 079b 883c f8f0 2fbd bed6 03bd ebb0 80bd
00000150: a94b f7bc 55c0 f33d 10ed 143d 0a12 35bd
00000160: 1b54 f13c fb7d a7bc 4f87 223e 373f 263d
00000170: eb76 bc3d 3323 073d b190 fabd 687a 883d
00000180: c12c ea3a 7f1a 0d3b 9091 b03b 3a62 57ba
00000190: f2bb 453c 52e4 7c3b 785b 643b 9a58 e4bb
000001a0: 4292 b9bb c118 89bc 1acc aabb 24fb 033c
000001b0: 312d 9f3b 58f3 86bc d256 99bc 7ebf 6d3c
000001c0: 7640 9cb8 141d baba c1c1 b33c 442d de39
000001d0: a00f 97ba 0db2 39bc 65b8 16bc 1fdd 34bc
000001e0: e841 a33c c3e6 ae3b 41e8 933b 5522 f33a
000001f0: afe0 9a3c 869e d7bc 00de 48bb c2f4 63bb
00000200: bd81 403c c35c 083c 51a8 103c f997 ab3c
00000210: 0531 44ba 184b 9e3a 7c98 bb3c 9953 ae38
00000220: f319 bf3a 3a18 93ba 13f5 1bbc 08b9 58ba
00000230: 4b67 4ebc d881 7a3c b69f 5c3c 2ec8 8f3c
00000240: 02da ae3b b0c0 46bc 657b 1639 7cec af3a
00000250: a809 643c 5e0c c73c 0c84 fd39 5b29 c3b7
00000260: eccc 8b3c 9b4f f0bc e51e db3b c9ac 453b
00000270: 9083 2abb 6cc8 023b ebee d33b 3a59 4d3b
00000280: 3610 13bd 2dcd e7ba b044 083d 79e8 3d3b
00000290: e591 44bb 43cf 05bb b9ef c739 1092 6eba
000002a0: 9071 753b 3169 53bc dc49 d33b 426b 2ebc
000002b0: d19e f13a 4f93 553c e070 6239 c6f8 a3bb
000002c0: 8f52 88ba e190 b4bc 1ebd f7bb aa15 4cbc
000002d0: ba90 f13a eb44 893c 7d50 493c 09f1 3abc
000002e0: c7ce 2fba 4259 61bb c36d 433c adaf a93b
000002f0: a11c 1f3b 3512 1dbb 8fbf a8bb a5f1 ad3b
00000300: d035 df39 c895 6ebb ee79 673a 14ee 58bc
00000310: 99cb d63c 073e f63b 9acd 23bd 02e5 55bc
00000320: bce6 a7bc 77a1 4a3d befa 4dbc b483 1f3c
00000330: 6d55 80bb f243 51bb fc33 79bc 3c7c 3d3c
00000340: cf13 003c 6a5d af3b 736e a33c 308c 5fbc
00000350: 456b 3abc 0667 d9bc 639a 7c3b 57bc f9bc
00000360: 10c8 663d 439a babc a560 b83c 58d2 d5bb
00000370: 2373 32bc 92b9 f43c 6a8c 873c dc68 7a3c
00000380: 3138 8f3d bd5e 1d3d fb51 a03b c6f3 dc3c
00000390: eef8 bc3a e8d7 41bc 3085 8c3c a747 303c
000003a0: 7df4 733c 8ebc 813c faab 523c a4f1 6ebc
000003b0: 8750 71bc df09 d93c 19a7 573d af86 ee3c
000003c0: d14a 523c 5fce 53bc 5007 ebbb 5921 d7ba
000003d0: 291d 08bc b2de 783d 4267 b83c d504 d7ba
000003e0: e075 e03c 0eed cabc 9978 a63a e7f8 0b3b
000003f0: 774d f438 d89b 593c 0966 d8b9 0670 debb
-0.14962873 0.026733719 0.023371207 -0.024686731 0.07705839 0.017143747 -0.14507602 -0.06042832
-0.04336597 0.14569755 -0.068208635 0.016861709 0.019273901 -0.035780642 -0.06745782 0.06408199
0.008691229 0.030093191 0.057694938 -0.033755895 -0.00025981216 -0.09734244 -0.19679177 -0.063247025
0.23187049 -0.058794707 0.048496373 0.020861177 0.019608088 -0.047411278 0.04326651 0.040510383
0.23856528 0.16706191 0.014836095 0.0819355 0.05059376 -0.0036583247 0.04857899 0.032978185
-0.0983875 0.056034993 0.06211355 -0.043670345 -0.1339906 0.09620414 0.19824857 0.11708878
-0.07186853 -0.045674298 0.052824292 -0.009889982 0.06155463 0.19917223 0.09857894 -0.004014259
0.091419004 -0.09836779 0.02944312 -0.020129433 -0.05074206 0.031612076 0.028809207 0.007649138
-0.06704099 0.034719564 0.15755276 -0.03136406 0.008770835 -0.03272864 -0.07326637 -0.04994738
-0.040851302 -0.030658063 0.023022944 -0.060697377 -0.036630433 0.078050345 -0.010157181 -0.01052285
0.016675485 -0.042954415 -0.032187216 -0.062837444 -0.030187445 0.11901919 0.036358893 -0.044206657
0.02945905 -0.020445814 0.15871929 0.04058763 0.09202369 0.032992553 -0.12234629 0.06663972
0.0017866121 0.0021530685 0.005388446 -0.0008216236 0.012068735 0.0038588238 0.0034844559 -0.00696857
-0.0056631872 -0.016735436 -0.005212319 0.008055482 0.004857682 -0.016473457 -0.018718157 0.014510987
-7.4506665e-05 -0.001419934 0.021942975 0.00042376865 -0.0011525042 -0.0113339545 -0.0091992365 -0.0110390475
0.019928887 0.0053375675 0.004513771 0.001854966 0.018905966 -0.026320707 -0.00306499 -0.0034783338
0.011749682 0.008322897 0.008829192 0.02094649 -0.0007484111 0.0012076823 0.022899859 8.312538e-05
0.0014579877 -0.001122243 -0.0095188795 -0.0008267318 -0.012597869 0.015289746 0.013465812 0.017551508
0.005336047 -0.012130901 0.00014351083 0.0013421918 0.013918318 0.02429789 0.00048354303 -2.326507e-05
0.017065488 -0.029334834 0.0066870325 0.0030162802 -0.0026018359 0.0019955887 0.00646769 0.00313337
-0.03590413 -0.0017685049 0.03326863 0.0028977676 -0.0029994186 -0.0020417727 0.00038134845 -0.00091007445
0.0037451722 -0.012903498 0.0064480137 -0.010645689 0.0018434172 0.013035609 0.00021595089 -0.0050040213
-0.0010400581 -0.02204174 -0.0075603863 -0.012456337 0.0018429973 0.016756495 0.012287256 -0.011410006
-0.00067065324 -0.0034385477 0.011928025 0.005178413 0.0024278539 -0.002396715 -0.0051497887 0.0053083473
0.00042573968 -0.0036405195 0.00088301196 -0.013240356 0.02622013 0.0075147185 -0.039991 -0.013055088
-0.020495765 0.04947039 -0.012571989 0.00973599 -0.0039164335 -0.0031931368 -0.015210148 0.011565264
0.007817223 0.005351712 0.019950127 -0.013644263 -0.011378114 -0.026538383 0.003854417 -0.030485315
0.05634314 -0.022778636 0.022507021 -0.006525319 -0.010891709 0.029873643 0.016546447 0.0152837895
0.069931395 0.038420428 0.0048925853 0.026971709 0.0014417449 -0.011831261 0.017153352 0.010759271
0.0148898335 0.01583698 0.012858385 -0.014583979 -0.014728672 0.026493965 0.05264959 0.029116957
0.01283522 -0.012927621 -0.0071725026 -0.0016413137 -0.008307734 0.060759254 0.022510175 -0.0016404638
0.027399957 -0.02477124 0.0012700736 0.0021358074 0.000116492556 0.013281785 -0.00041274753 -0.0067882566

rios_f.RIOS_H.rnn_cell1.bias_ih f4 [384]
00000000: 6fd1 773e 6820 2dbd a67d 8c3d 2d8c f13c
00000010: 92bd 4f3d 2e8e 64bc 1a34 1c3e 168c fa3d
00000020: 8ce4 543d 63c7 ee3d 02db 2d3e 455b a93d
00000030: 995b e7bc 70c3 c93d 8d08 013d 9a87 8d3d
00000040: e5c6 ccbc aca2 80bd a5b9 e43d af33 4dbd
00000050: 30a3 4c3d f916 ce3d 4ee8 0c3e 388b 2c3c
00000060: 4a2c 863e 484c b33d 7c1e 963c b836 3f3d
00000070: ba33 283e 333e 103e 7b4e 513d 2bc6 1e3b
00000080: 4cd2 7e3d e250 173e 92ef af3d f697 f4bc
00000090: d5b2 f73d 958a 7b3c c1fd c93d 18a2 48bd
000000a0: 5995 6c3e 2ab0 00bc 1413 36bd 9646 34bd
000000b0: 318e c13d 8856 a53d 36e3 903d 25f2 1f3d
000000c0: 3785 473e bb58 8d3c fe14 993d c351 9fbc
000000d0: e811 d73d 9709 423e 8573 ca3d 7cbc d2bc
000000e0: 541f f93c 9d32 b13d 1cb0 c13d 1bcb 0d3e
000000f0: eb74 9a3d 8e3b 85bd b07b 063e d11a 523e
00000100: ee50 16bb 2eae f03c c02a 9b3e 7455 1e3d
00000110: c417 c13c cdd6 b53c 7383 803d 26aa 843d
00000120: 4915 633d 1d91 983c a561 a03c 8bd8 553d
00000130: b009 063d 1a4b 0d3b 1835 4c3e b160 be3b
00000140: 8d00 73bc 1d69 81bd 018d ab3d a5bc b33d
00000150: 85c8 63bc 3323 023c 10de 7dbc 8fa6 25bd
00000160: e715 0f3d 90fe ee3d 5a34 133e d05b 8f3d
00000170: 2923 eabc 0153 60bc 9556 633e 824f 9f3d
00000180: 7fa2 30be 7506 c83c b196 afbd 8207 99bc
00000190: a4a6 9c3d da7b 96bc 0223 043d 9279 cfba
000001a0: 66e7 263d b6c5 15bd a575 6c3b 3b2a bcbb
000001b0: a14e 0fbd 9617 a5bd dfe4 2bbd 1ea8 683d
000001c0: d1e0 0fbd 1a80 193d 6b77 a2bd ec11 eaba
000001d0: 0a2b 41bd 0e0f d03c 25f1 ce3d ad22 a13c
000001e0: 9c8d 5cba 8514 38bc 5809 953c 6de6 e43b
000001f0: 7177 88be 59be e5bd 9912 8b3d f2f7 45bd
00000200: e57e 763d d29f 77bd ff40 3fbd 5754 a03c
00000210: e2e3 dcbd 34d2 b9bb ca64 113b 8464 4bbc
00000220: b421 88bd bbfd 63bd e77b bb3c 061a 1c3d
00000230: df5a 873c 0060 6e3c 5265 4e3c baf1 e7bc
00000240: 87f7 debd 84d6 893c ccba a9bc d721 9e3a
00000250: 967a 163d c16d 863d 39e4 4b3b 8526 9b3b
00000260: d52e 88bc 2b7f 9c3d bf03 8dbd c540 25bb
00000270: 5f01 883c d891 3c3d 99b2 48bd ab6d 5d3d
00000280: 8f58 643d f27d 9cba 9e59 3abe 7471 1fbc
00000290: dccd d53b ab5f 1cbc 2247 e6b9 ad0a 303c
000002a0: 730d 1bbc e3fa b2bd 4c2a d7bc 8f24 fd3c
000002b0: 89e1 10bc c8f9 3e3b 70c0 03be a3d5 a1bc
000002c0: 67fd 60bb 6b25 b83b 9c32 783d a197 063c
000002d0: 674f edbb 35c0 0b3d 684e bbbb e08c c3bc
000002e0: ed4f bebb 11e5 dbbc a2c8 503c 68bd 953c
000002f0: 1c1a 563d 8d5d 9cbc 2b44 153d 1f1d 713a
00000300: 0d84 9d3d 76ff 4c3d b106 f4bd cda0 4dbd
00000310: b7bd 1cbd ec9b 833d 24ed 1ebe 6eda 4f3d
00000320: 9444 22be b6c0 243e d4f3 333e e811 dc3d
00000330: 7de9 8abc fbfa 123d bdd0 4bbd acdb 953c
00000340: 4c3b 5cbc e7ec 6b3d 7fd2 8f3c d3e9 b3bd
00000350: 8e69 8bbd 64f4 d3bd a9b6 b43d 916f a8bd
00000360: c4e5 cc3e b43b ccbb a349 3a3d 3979 973d
00000370: a8ce 48bc e0b9 a53c 6451 cb3d b9c0 6f3b
00000380: ad0f de3d d833 893c 0539 c13d 608f 8b3d
00000390: 396b 99bc 3055 8f3a 3fcb c13d a0dc 743d
000003a0: c0b4 073e 892b eb3d 99de f33c 2f11 4cbc
000003b0: ccff 2cbe 2b87 ae3d e9e3 793e a01c fd3d
000003c0: 73b5 fc3c b34e 2ebd 7b42 d43d c531 42bd
000003d0: 9d6e 2abd 0c60 933e 6724 983d 3519 a0bd
000003e0: da78 733d 32d1 b5bd ed20 4bbd 8bb0 e8bd
000003f0: 24ef 9bbc f67d 983d d4eb 17bc 019b e1bd
0.24200986 -0.042267233 0.06859903 0.029485786 0.050717898 -0.013949914 0.1525425 0.122337505
0.05197577 0.11659124 0.16978076 0.082693614 -0.02824192 0.0985173 0.031502295 0.069106296
-0.024997184 -0.06281027 0.111682214 -0.050098117 0.049960315 0.100629754 0.13760492 0.010531239
0.26205665 0.08754784 0.018325083 0.046683043 0.16425982 0.14086227 0.051100235 0.0024227004
0.062212273 0.14776948 0.08590616 -0.029857617 0.120946564 0.015352865 0.09862853 -0.04898271
0.23103847 -0.007854501 -0.044451788 -0.04401263 0.09450949 0.08073145 0.07074587 0.039049286
0.19484411 0.017254224 0.07474707 -0.019448167 0.10501462 0.1894897 0.09885315 -0.025724642
0.030410446 0.08652232 0.09457418 0.1384701 0.075418316 -0.065055 0.1313312 0.20518042
-0.0022936421 0.02937993 0.30306053 0.038655713 0.023570903 0.022197152 0.06275072 0.06477766
0.05544022 0.018623883 0.01957781 0.052208465 0.032724082 0.0021559657 0.19942129 0.0058098664
-0.014831674 -0.06318877 0.08376504 0.087762155 -0.013902788 0.007942962 -0.015494838 -0.040442046
0.034932997 0.11669648 0.1437544 0.06999934 -0.028581219 -0.013691665 0.22200997 0.07778837
-0.17249487 0.024417141 -0.08573664 -0.018680338 0.07648972 -0.018369604 0.03225995 -0.0015829077
0.040748022 -0.036565505 0.0036080864 -0.005742339 -0.034987096 -0.08061139 -0.041966315 0.056800954
-0.03512651 0.037475683 -0.079329334 -0.0017858124 -0.047160186 0.025397804 0.101045884 0.019669855
-0.00084134354 -0.011235361 0.018192932 0.0069854767 -0.26653627 -0.112179466 0.067906566 -0.048332162
0.06017961 -0.06045515 -0.046692844 0.019571466 -0.10785653 -0.00567081 0.002218532 -0.0124141015
-0.06647053 -0.055661898 0.02288623 0.038110755 0.016522823 0.014549255 0.012597399 -0.028313506
-0.10887056 0.016825922 -0.020718955 0.0012064528 0.036738 0.06563903 0.0031111373 0.0047348165
-0.016623894 0.07641443 -0.0688548 -0.0025215608 0.016602216 0.046037525 -0.04899845 0.054059666
0.05574852 -0.001193939 -0.18198249 -0.009731639 0.0065247845 -0.009544293 -0.00043922017 0.010744733
-0.009463656 -0.08739259 -0.026265286 0.030901222 -0.008842834 0.002914058 -0.12866378 -0.01975519
-0.0034330727 0.005619695 0.06059514 0.008214862 -0.0072421315 0.03411885 -0.005716134 -0.023870885
-0.0058078677 -0.026842626 0.012743147 0.018278793 0.052270994 -0.019087577 0.036441963 0.000919776
0.07691202 0.050048314 -0.11915339 -0.05020218 -0.038266864 0.06426224 -0.1552015 0.05074542
-0.15846473 0.16089138 0.17573482 0.10745603 -0.016957039 0.035883885 -0.049759615 0.018293224
-0.013441872 0.057598975 0.017556427 -0.08784833 -0.06807242 -0.10349348 0.08823902 -0.082244046
0.40019047 -0.006232703 0.04548038 0.07396168 -0.012256302 0.020230234 0.099276334 0.0036583378
0.10842834 0.016748354 0.09434704 0.06814456 -0.018727886 0.0010935422 0.09462594 0.059780717
0.13252544 0.11482913 0.029769229 -0.012455269 -0.16894454 0.08521875 0.24403347 0.123589754
0.03084824 -0.042555522 0.10364243 -0.047410745 -0.041609395 0.28784215 0.07428818 -0.07817308
0.059441425 -0.088777915 -0.049591947 -0.11361798 -0.01903493 0.074459 -0.009272534 -0.11015893
