BRIOS/models/model_file/brios_attention/test_wdsz2_attention.pt (torch, 706014 bytes, 32 tensors)

rios_f.RIOS_H.rnn_cell0.weight_ih f4 [384, 2]
0.030549757 0.008960556 0.056460653 0.09192636 0.22601688 0.3227344 0.029739263 0.013928088
0.025466181 0.043976706 0.05047672 0.034615215 0.011211513 0.0005827889 0.035976365 0.054553967
0.04378857 0.09091548 0.10322293 0.1116123 -0.031579465 0.119417906 0.04935888 0.11268586
0.0029341485 0.03488048 0.019315984 0.15431541 -0.012021721 0.08532134 0.020536892 0.008384452
0.016528025 0.080996715 0.021932125 0.07362345 0.05464295 0.056294248 0.048932455 0.056017056
0.16586272 0.34377587 0.035312887 0.055359647 0.16628832 0.058312915 0.006049921 0.023213502
0.046745744 0.06538433 0.20796032 0.06553704 0.05484657 0.07951132 0.0323163 0.048247516
0.005686456 0.047226742 0.1175146 0.0387218 0.021227783 0.016648611 0.0073400955 0.002821168
0.041178543 0.047693316 0.03735384 0.018908396 0.08235628 0.05583619 0.011928505 0.03479086
0.036254495 0.04055461 0.024742503 0.21050471 0.0057502287 0.03423893 0.07587417 -0.0052867862
0.096176185 -0.0035844538 0.029413305 0.06366477 0.010925093 0.013791954 0.035760462 0.041987497
0.0531911 0.15173914 0.1262202 0.13735613 0.062412716 0.17109868 0.08741963 0.12727448
0.058052354 0.062949024 0.023687469 0.0075574 0.044288088 0.011715331 0.0921419 0.009708775
-1.5740055e-11 -4.4634407e-11 -0.02102049 0.09399873 0.039788976 0.040060215 0.039349478 0.052099477
0.10038729 0.045672968 0.08195002 0.16629015 -0.059980847 0.015436194 0.029181333 0.029367782
0.0347441 0.042349212 0.014906048 0.04582695 0.049073085 0.09329051 0.04356744 0.13829307
0.186176 0.15639102 0.030943852 0.01594008 -0.07678569 -0.10742703 0.12624319 -0.023146939
0.04415352 0.064007394 0.024699617 0.1524482 0.07542927 0.108567506 0.007087373 0.02198952
0.02915315 0.01240303 0.117303066 -0.058051962 0.015150894 0.011913569 0.021330474 0.018566635
0.05461097 0.113549985 0.1502208 0.124494314 0.0002583485 0.0001074219 0.002945237 0.0059296642
0.32225454 0.109077 0.026699722 0.09961019 0.010066374 0.048364703 0.06985881 0.04615801
0.004998468 0.0027890487 0.11556331 0.10433373 0.040419064 0.03637556 0.116801634 0.2109494
0.050918605 0.08398544 -0.0037567466 0.0048520667 0.003937761 0.0051368764 0.05225758 0.15149555
0.051761467 0.060094334 -0.047896728 0.120144606 0.015572107 0.026871398 0.053070866 0.026304957
-0.0017288587 0.0012363589 -0.009306038 -0.013294748 0.1555516 0.20426306 -0.0063740117 -0.00021405953
0.017421745 0.019691061 0.005217094 -0.0012413893 -0.005713383 -0.0029112631 -0.02070324 0.0016992685
-0.11541083 -0.013653046 -0.024464544 -0.060038738 -0.06249712 0.044806406 0.066200234 -0.044262987
0.0047730817 -0.0026238728 0.036770493 -0.07462585 -0.005222632 0.018611265 0.003913921 -0.007875752
0.00060847483 0.011713205 -0.009313756 0.007699204 0.005538633 0.0052614533 0.02198048 -0.004763505
0.09708202 0.2500505 0.003800081 -0.0086327 0.01615868 -0.015903383 -0.0026679286 -0.0055994163
0.017379401 0.03555458 0.036332957 -0.028401313 0.029698418 -0.010033307 0.017039726 0.0029102992
-0.00030839333 0.00047708914 -0.0009791091 0.00011831086 0.0009897482 0.0021401981 -2.9298551e-05 -0.0018580948
00000000: 7c43 fa3c 4ccf 123c 4943 673d e343 bc3d
00000010: f870 673e 713d a53e c19f f33c a332 643c
00000020: 749e d03c eb20 343d adc0 4e3d afc8 0d3d
00000030: 7eb0 373c 4dc6 183a f45b 133d fb73 5f3d
00000040: a55b 333d e531 ba3d 8b66 d33d fd94 e43d
00000050: 7859 01bd 6091 f43d 892c 4a3d d8c7 e63d
00000060: d84a 403b d6de 0e3d 8e3c 9e3c dc04 1e3e
00000070: c1f6 44bc f4bc ae3d fc3c a83c f15e 093c
00000080: c865 873c 9be1 a53d 00ab b33c e4c7 963d
00000090: 49d1 5f3d cc94 663d 666d 483d 2472 653d
000000a0: ebd7 293e 6403 b03e 3fa4 103d ccc0 623d
000000b0: 7c47 2a3e 86d9 6e3d 6a3e c63b 3e2a be3c
000000c0: 7778 3f3d 38e8 853d 8df3 543e 4938 863d
000000d0: cca6 603d d5d6 a23d 195e 043d 309f 453d
000000e0: 7355 ba3b d470 413d 7fab f03d c09a 1e3d
000000f0: e3e5 ad3c ab62 883c 2f85 f03b 58e3 383b
00000100: d5aa 283d 115a 433d 5700 193d c8e5 9a3c
00000110: 69aa a83d 7db4 643d c76f 433c dc80 0e3d
00000120: 987f 143d 971c 263d cab0 ca3c 8c8e 573e
00000130: 6a6c bc3b 1f3e 0c3d eb63 9b3d c73c adbb
00000140: 05f8 c43d 28e9 6abb 2cf4 f03c ad62 823d
00000150: 29ff 323c a6f7 613c 9079 123d 15fb 2b3d
00000160: e9de 593d 8161 1b3e de3f 013e 16a7 0c3e
00000170: 7aa4 7f3d 7e34 2f3e 1009 b33d 3e54 023e
00000180: 4ec8 6d3d 6beb 803d 390c c23c 11a4 f73b
00000190: 6d67 353d a9f1 3f3c e4b4 bc3d 8e11 1f3c
000001a0: 7473 8aad e04d 44ae 2a33 acbc 6882 c03d
000001b0: c4f9 223d 2e16 243d eb2c 213d 4366 553d
000001c0: da97 cd3d 9413 3b3d 69d5 a73d f747 2a3e
000001d0: 7aae 75bd 17e8 7c3c b10d ef3c b494 f03c
000001e0: d44f 0e3d 5e76 2d3d 7f38 743c 0ab5 3b3d
000001f0: dc00 493d 180f bf3d c673 323d b39c 0d3e
00000200: eca4 3e3e f824 203e f67d fd3c c594 823c
00000210: d141 9dbd b402 dcbd e545 013e a69e bdbc
00000220: 52da 343d 4f16 833d da56 ca3c 621b 1c3e
00000230: a97a 9a3d a458 de3d 323d e83b 5e23 b43c
00000240: 96d2 ee3c 1436 4b3c 973c f03d e5c7 6dbd
00000250: 753b 783c 2131 433c 3fbd ae3c 0e19 983c
00000260: c1af 5f3d e58c e83d 7bd3 193e e0f6 fe3d
00000270: f372 8739 b247 e138 e104 413b a14d c23b
00000280: 8cfe a43e c363 df3d 60b9 da3c 6d00 cc3d
00000290: 6fed 243c 111a 463d 2312 8f3d 2e10 3d3d
000002a0: 30ca a33b 79c8 363b 75ac ec3d ecac d53d
000002b0: 768e 253d 8afe 143d b235 ef3d 1f03 583e
000002c0: 0790 503d 8f00 ac3d c033 76bb 16fe 9e3b
000002d0: 5508 813b 3e53 a83b 0b0c 563d a621 1b3e
000002e0: d503 543d 7a25 763d 5c2f 44bd 600e f63d
000002f0: 2722 7f3c 6821 dc3c d660 593d 7e7d d73c
00000300: df9a e2ba 520d a23a 5a78 18bc 37d2 59bc
00000310: eb48 1f3e 562a 513e 16dd d0bb 2b75 60b9
00000320: 0cb8 8e3c 264f a13c 28f4 aa3b 1db6 a2ba
00000330: 5537 bbbb e4ca 3ebb d799 a9bc fdb9 de3a
00000340: 835c ecbd 07b1 5fbc de69 c8bc 2eeb 75bd
00000350: fbfc 7fbd ec86 373d fd93 873d 1b4d 35bd
00000360: 8367 9c3b 48f5 2bbb a89c 163d 70d5 98bd
00000370: 9d22 abbb a776 983c 5940 803b 4c09 01bc
00000380: 0e82 1f3a bee8 3f3c b998 18bc 9b49 fc3b
00000390: 6c7d b53b 4568 ac3b 6810 b43c 2d17 9cbb
000003a0: f0d2 c63d 9e06 803e c80a 793b 2b70 0dbc
000003b0: 355f 843c d047 82bc 6ad8 2ebb 4f7b b7bb
000003c0: 3f5f 8e3c aea1 113d ded1 143d dfa9 e8bc
000003d0: 194a f33c bd62 24bc e596 8b3c b8ba 3e3b
000003e0: daaf a1b9 d221 fa39 7355 80ba a91d f838
000003f0: 70ba 813a 9142 0c3b 29c6 f5b7 518b f3ba

rios_f.RIOS_H.rnn_cell0.weight_hh f4 [384, 96]
-0.002656444 0.0023401268 0.013024436 0.006906049 0.01409383 0.016130632 -0.009940124 -0.0066803396
0.0022360976 0.0144621795 0.0025446096 0.019336112 0.00037695564 -0.02626816 -0.019096784 0.011019549
0.02063563 -0.013313609 -0.006978619 0.019524824 -0.0018454127 -0.0019626871 0.005945875 -0.013847419
-0.018585421 -0.0054081557 0.015463605 -0.022327453 -0.00232305 -0.010597018 -0.0068371077 0.006960447
0.011051281 0.0032994563 -0.021348862 0.01240091 0.014497554 -0.0002941408 -0.008662161 -0.0041484474
-0.009979765 -0.0005386571 0.0065609054 0.014425777 -0.0038103014 -0.0066908416 0.0143155875 0.0040468797
-0.0191118 -0.009220768 0.0012005667 -0.015527052 2.4731744e-07 -0.0022832726 0.0037640661 0.01885696
-0.009939318 0.01071648 0.01063247 -0.0021073138 -0.015480689 0.013361138 0.006419245 0.00910085
-0.019480607 -0.00085935154 -0.008858308 -0.011219806 -0.019945338 -0.00970232 0.018227592 -0.015554089
-0.0035638106 -0.021129036 -0.0016555681 0.0018075656 0.009043205 -0.005936582 0.0004112409 0.0002430412
-0.006700801 0.0015691512 0.0073147533 0.014287032 -0.00014176051 0.024308132 -0.017363852 -0.0057343435
0.008323749 -0.0044357367 0.0016360233 -0.005003879 0.018257743 0.011942652 -0.016456027 -0.0042278245
-0.004875411 -0.0064582885 0.056472607 0.012543452 0.027806422 0.031636283 -0.020825192 -0.017928148
0.0034083507 0.005999792 0.0037724348 0.04569996 0.00021228158 -0.03900614 -0.042812973 0.020848965
0.047377523 -0.029976903 -0.013016254 0.036878943 -0.03676188 -0.013690563 0.0070991004 -0.028883856
-0.036313176 -0.017251795 0.032137126 -0.03966626 -0.0006467534 -0.035160065 -0.016432766 0.0061217
0.019654537 0.0063719032 -0.03977388 0.025103325 0.027649483 0.013836344 -0.018682105 -0.024780117
-0.014135899 0.00085140136 0.016589696 0.02922897 -0.008804996 -0.0056029917 0.029134681 -0.0058129686
-0.036520243 -0.013680135 -0.015306509 -0.026565447 3.2992912e-07 -0.010270899 -0.00879774 0.03526081
-0.0016414534 0.028375104 0.023638988 -9.571822e-05 -0.030479593 0.027330931 0.008535891 0.04477972
-0.021286286 -0.008374998 0.014231073 -0.016282503 -0.040575143 -0.0031984826 0.031665254 -0.030672312
-0.004182477 -0.030864682 -0.0014282619 0.0016268435 0.025572535 0.008127195 0.00038817307 0.0042662797
0.0026702369 0.0040028235 0.0164691 0.031639833 -0.0015421349 0.017334942 -0.032765564 -0.023929615
0.018063763 -0.005710701 0.0004292604 0.021069195 0.03449601 0.013501797 -0.033195864 -0.0067994813
-0.023028018 0.0041961423 0.09847306 0.0075243497 0.06546832 0.08116353 -0.036605332 -0.026430868
0.035940245 0.101671435 0.056405865 0.115475394 0.021417577 -0.029094752 -0.02327239 0.056844927
0.044599228 -0.04254296 -0.014380059 0.10477124 -0.105680525 0.013173486 -0.011714457 -0.057034742
-0.11124141 0.036146246 0.026366258 -0.031834863 -0.023158526 0.005532971 -0.00013964475 0.02267367
0.052668314 0.0042821653 -0.051608425 0.065406926 0.07234894 -0.017351247 -0.029936075 3.0225883e-05
-0.018758664 -0.022031141 0.0027566638 0.07009822 0.023079613 -0.021631502 0.030103687 -0.03230678
-0.11337784 -0.03286982 -0.0029323641 -0.07344175 3.3803644e-07 -0.016488746 -0.007822312 0.10145435
-0.045711156 0.020173194 -0.008052389 -0.0067005935 -0.07586202 0.052812096 -0.019268341 -0.004488047
00000000: bc17 2ebb d05c 193b 7264 553c 234c e23b
00000010: cfe9 663c 6324 843c e7db 22bc c0e6 dabb
00000020: 7e8b 123b c7f2 6c3c 77c3 263b c466 9e3c
00000030: 21a2 c539 5330 d7bc dc70 9cbc 578b 343c
00000040: 0d0c a93c 5321 5abc e6ac e4bb 86f2 9f3c
00000050: c6e1 f1ba 6da0 00bb 9dd5 c23b 49e0 62bc
00000060: 7440 98bc e636 b1bb 0f5b 7d3c 10e8 b6bc
00000070: 503e 18bb 1d9f 2dbc d109 e0bb 7614 e43b
00000080: 6f10 353c b13b 583b cfe3 aebc 302d 4b3c
00000090: 2687 6d3c e936 9ab9 bdeb 0dbc b3ef 87bb
000000a0: 2b82 23bc ab34 0dba ddfc d63b 185a 6c3c
000000b0: 40b6 79bb d93e dbbb ed8b 6a3c b09b 843b
000000c0: 5990 9cbc b412 17bc 555c 9d3a 2d65 7ebc
000000d0: 0dc7 8434 f5a2 15bb 8dae 763b e979 9a3c
000000e0: 85d8 22bc 2d94 2f3c d033 2e3c dc1a 0abb
000000f0: b7a2 7dbc ade8 5a3c 8858 d23b bb1b 153c
00000100: cb95 9fbc 1b46 61ba 7022 11bc 47d3 37bc
00000110: 6864 a3bc 7bf6 1ebc 0852 953c 94d6 7ebc
00000120: d28e 69bb cd16 adbc a6ff d8ba d6eb ec3a
00000130: f329 143c a987 c2bb d29b d739 e0d8 7e39
00000140: 6592 dbbb faab cd3a 99b0 ef3b 2814 6a3c
00000150: 8ca5 14b9 d921 c73c a33e 8ebc 29e7 bbbb
00000160: 5560 083c a859 91bb d56f d63a 94f7 a3bb
00000170: 4391 953c 1dab 433c cace 86bc 9089 8abb
00000180: e9c1 9fbb 0da0 d3bb d24f 673d 0d83 4d3c
00000190: 4bca e33c 0c95 013d 9899 aabc 0dde 92bc
000001a0: a35e 5f3b e799 c43b f43a 773b e22f 3b3d
000001b0: e797 5e39 e7c4 1fbd a85c 2fbd 73cb aa3c
000001c0: ef0e 423d 1f92 f5bc 2042 55bc 600e 173d
000001d0: a093 16bd 624e 60bc 929f e83b d69d ecbc
000001e0: 20bd 14bd a353 8dbc 38a2 033d 1779 22bd
000001f0: e38a 29ba 0004 10bd 029e 86bc 8b98 c83b
00000200: 8d02 a13c 66cb d03b f0e9 22bd 7da5 cd3c
00000210: 2b81 e23c d5b1 623c 370b 99bc acff cabc
00000220: 429a 67bc 9430 5f3a 1de7 873c 9871 ef3c
00000230: d442 10bc 4d99 b7bb dbab ee3c b77a bebb
00000240: 4096 15bd a522 60bc 27c8 7abc c89f d9bc
00000250: 1d21 b134 4647 28bc 6524 10bc a46d 103d
00000260: 0926 d7ba e872 e83c 8da6 c13c 54bc c8b8
00000270: 57b0 f9bc 1ee5 df3c 1fda 0b3c f16a 373d
00000280: 9460 aebc 4a37 09bc 7229 693c e262 85bc
00000290: 1f32 26bd a29d 51bb 6db3 013d 8044 fbbc
000002a0: 290d 89bb eed7 fcbc 8434 bbba cf3b d53a
000002b0: 7e7d d13c ed27 053c b583 cb39 26cc 8b3b
000002c0: 24ff 2e3b 1e2a 833b 35ea 863c c598 013d
000002d0: 7621 caba 0202 8e3c 2f35 06bd 0a08 c4bc
000002e0: 75fa 933c d520 bbbb 5b0e e139 4e99 ac3c
000002f0: b04b 0d3d a436 5d3c 63f8 07bd 2fce debb
00000300: 41a5 bcbc cb7f 893b 3eac c93d d28e f63b
00000310: 4114 863d 1139 a63d 79ef 15bd 8c85 d8bc
00000320: 1436 133d 1d39 d03d d609 673d 5d7e ec3d
00000330: ea73 af3c 1e58 eebc bda5 bebc 3ad6 683d
00000340: aead 363d 8741 2ebd 579a 6bbc 4e92 d63d
00000350: 086f d8bd 9bd5 573c feed 3fbc 439d 69bd
00000360: 89d2 e3bd 160e 143d 0dfe d73c 4665 02bd
00000370: f3b6 bdbc ed4d b53b 9a6d 12b9 22be b93c
00000380: bbba 573d 6851 8c3b 5b63 53bd 11f4 853d
00000390: ae2b 943d 3424 8ebc 803c f5bc 978d fd37
000003a0: c5ab 99bc a77a b4bc 25a9 343b a88f 8f3d
000003b0: 7511 bd3c 8c34 b1bc 029c f63c 1d54 04bd
000003c0: a432 e8bd 81a2 06bd e82c 40bb a168 96bd
000003d0: 607b b534 6813 87bc 2829 00bc 4cc7 cf3d
000003e0: 9f3b 3bbd 4142 a53c 2bee 03bc a790 dbbb
000003f0: 8c5d 9bbd 7f51 583d a4d8 9dbc 7810 93bb

rios_f.RIOS_H.rnn_cell0.bias_ih f4 [384]
0.065649725 0.0853406 0.17227176 0.042765733 0.072355196 0.08862633 0.049172997 0.088430755
0.16589008 0.30185106 0.18149617 0.1658183 0.112569585 0.28889668 0.12375964 0.058287412
0.16664542 0.11244864 0.083567314 0.13498273 0.2720982 0.09475577 0.17796347 0.07397077
0.1308085 0.17826916 0.18236306 0.13277638 0.11979181 0.1718462 0.04001126 0.01691949
0.080581665 0.065934666 0.17476526 0.07009427 0.08062835 0.13403066 0.06138355 0.10557175
0.19207187 0.07926465 0.06260364 0.12364083 0.23095366 0.17044604 0.23026581 0.2997843
0.13154273 0.05013048 0.13685766 0.12491977 -5.1668878e-11 0.10898915 0.1671662 0.13294306
0.13113031 0.23228915 0.22096625 0.086051464 0.08788678 0.07749172 0.12333509 0.20109788
0.28331262 0.037645623 0.1786908 0.12266997 0.12634309 0.14675167 0.114391975 0.097418584
0.053394724 0.18473738 0.024730733 0.07014955 0.18084154 0.22264013 0.0005333375 0.011645731
0.22262952 0.24330589 0.12275545 0.1983881 0.007615213 0.22836347 0.09415588 0.21533781
0.12419302 0.025584782 0.007189704 0.20984054 0.12216438 0.24796478 0.080998965 0.05013967
0.0006993762 0.0007056643 0.10205836 0.005830813 0.032986663 0.03346936 0.015514814 0.016306499
0.01597503 0.005021653 0.0028173623 0.026502145 0.0063710874 0.03224719 0.024338681 0.021640504
0.027711257 0.012168996 0.0065288544 0.0639639 0.08530208 0.010987134 0.007202936 0.024302918
0.06198707 0.0018945066 0.009724131 0.016569503 0.0044925157 0.006972587 0.0015017402 0.008406196
0.003812452 0.000873227 0.020245789 0.029222118 0.031702776 0.0035939538 0.007943155 0.0063790074
0.01649143 0.0013018232 0.0023759173 0.015756676 -0.004813865 0.016510576 0.005848253 0.034293424
0.06572168 0.0061622155 0.012978766 0.031500943 -9.831681e-12 0.015827645 0.020005392 0.06565968
0.008240532 -0.00392599 0.013881966 0.001014783 0.035076223 0.017649053 0.0037498102 0.009942993
0.058257207 0.015199462 0.15307857 0.011132917 0.034217663 0.0041171457 0.013671347 0.04865472
0.013487669 0.0122462455 0.00062181544 0.0018419065 0.011848811 0.013635795 0.00014895815 0.0007426742
-0.0018306075 0.005879444 0.0029446667 0.010072476 0.0010989497 0.022110429 0.041088942 0.04786591
0.008658609 0.0013872674 0.0008849765 -0.011674915 0.056797117 0.0043948777 0.017424008 0.0012603836
-0.1240732 -0.107667446 -0.15802543 -0.047033295 0.12606426 0.093415335 -0.06331334 -0.09433407
-0.0075312466 0.19869386 0.05514245 0.120649174 0.08894788 -0.027596934 0.057756685 0.10630217
0.029178761 -0.049958713 -0.07157848 0.16075532 -0.17321718 0.032923248 -0.086037286 -0.07397562
-0.20961234 0.17339098 -0.080044754 0.11380723 0.0048601674 0.1461954 0.08174382 0.039356604
0.054053828 -0.017673146 0.06942554 0.119950935 0.11066195 -0.017639497 -0.0015763066 0.02064311
0.094085254 -0.099127494 0.024359452 0.0020097536 -0.077714205 -0.13399994 0.18819532 -0.16081831
-0.19603558 -0.032665346 -0.016375253 -0.09821785 -1.1222695e-06 0.0712771 -0.13543813 0.16520914
-0.08175615 0.20820677 0.014320661 -0.0029776322 -0.13317232 0.056176648 -0.084686786 -0.059195485
00000000: 5d73 863d 0dc7 ae3d 0268 303e 1f2b 2f3d
00000010: f62e 943d b981 b53d a069 493d 2f1b b53d
00000020: 17df 293e 398c 9a3e 22da 393e 46cc 293e
00000030: e28a e63d 44ea 933e b275 fd3d c8be 6e3d
00000040: 19a5 2a3e 794b e63d 5725 ab3d ea38 0a3e
00000050: 7550 8b3e 500f c23d 0e3c 363e fd7d 973d
00000060: aaf2 053e 318c 363e 62bd 3a3e 88f6 073e
00000070: 6955 f53d 73f8 2f3e d9e2 233d be9a 8a3c
00000080: 0008 a53d c108 873d aaf5 323e 968d 8f3d
00000090: 7a20 a53d 553f 093e 516d 7b3d 0036 d83d
000000a0: 7dae 443e 8155 a23d 5636 803d 6737 fd3d
000000b0: 1e7f 6c3e 6889 2e3e cdca 6b3e 547d 993e
000000c0: 23b3 063e 9e55 4d3d 6a24 0c3e f0d5 ff3d
000000d0: fc3d 63ae b435 df3d 9e2d 2b3e 3a22 083e
000000e0: 0647 063e 35dd 6d3e fa44 623e c03b b03d
000000f0: fcfd b33d fbb3 9e3d 1c97 fc3d 9aec 4d3e
00000100: 5a0e 913e 4c32 1a3d b9fa 363e 653a fb3d
00000110: 1560 013e 1246 163e 5746 ea3d 6583 c73d
00000120: 6db4 5a3d cc2b 3d3e 1b98 ca3c 91aa 8f3d
00000130: 862e 393e c6fb 633e accf 0b3a bccd 3e3c
00000140: fef8 633e 2e25 793e 3667 fb3d 4026 4b3e
00000150: 0989 f93b 1dd8 693e ccd4 c03d 8481 5c3e
00000160: e958 fe3d 2d97 d13c 9c97 eb3b 70e0 563e
00000170: 5231 fa3d 7bea 7d3e c9e2 a53d 415f 4d3d
00000180: 5856 373a 54fc 383a f903 d13d 6810 bf3b
00000190: 061d 073d 2b17 093d d931 7e3c 3595 853c
000001a0: 11de 823c ae8c a43b 7fa3 383b 071b d93c
000001b0: 8ec4 d03b a115 043d ea61 c73c 6d47 b13c
000001c0: b802 e33c 7860 473c 00f0 d53b 81ff 823d
000001d0: dbb2 ae3d 6103 343c 9b06 ec3b ea16 c73c
000001e0: 27e6 7d3d 1851 f83a f651 1f3c c4bc 873c
000001f0: f435 933b 4d7a e43b 0ad6 c43a 24ba 093c
00000200: 55da 793b 46e9 643a 7fda a53c 3963 ef3c
00000210: c5da 013d 8a88 6b3b 0224 023c fe06 d13b
00000220: 0919 873c f0a1 aa3a 47b5 1b3b 2514 813c
00000230: a0bd 9dbb 3041 873c b4a2 bf3b 4377 0c3d
00000240: 1799 863d 69ec c93b e4a4 543c 2207 013d
00000250: f4f5 2cad faa8 813c 59e2 a33c 9578 863d
00000260: 4c03 073c 97a5 80bb 2f71 633c 7802 853a
00000270: 16ac 0f3d bf94 903c 60bf 753b efe7 223c
00000280: 1c9f 6e3d 2a07 793c a1c0 1c3e d766 363c
00000290: d227 0c3d 1fe9 863b c9fd 5f3c 2c4a 473d
000002a0: 62fb 5c3c 7aa4 483c 5401 233a 206c f13a
000002b0: 8421 423c ab68 5f3c a631 1c39 06b0 423a
000002c0: fff0 efba 5aa8 c03b 4ffb 403b 0707 253c
000002d0: a20a 903a ee20 b53c e14c 283d 0b0f 443d
000002e0: d7dc 0d3c f8d4 b53a c5fd 673a 2548 3fbc
000002f0: 18a4 683d e802 903b cbbc 8e3c 7533 a53a
00000300: 171a febd c080 dcbd 6bd1 21be fca5 40bd
00000310: fd16 013e 8a50 bf3d 6daa 81bd 3932 c1bd
00000320: adc8 f6bb 6776 4b3e 0ddd 613d ea16 f73d
00000330: 4e2a b63d f712 e2bc 4692 6c3d f4b4 d93d
00000340: 4c08 ef3c 82a1 4cbd bd97 92bd 0b9d 243e
00000350: d85f 31be 87da 063d 5134 b0bd 8880 97bd
00000360: 9ea4 56be 688d 313e 81ee a3bd c413 e93d
00000370: 0a42 9f3b 3fb4 153e 4e69 a73d 6434 213d
00000380: 8c67 5d3d 46c7 90bc fa2e 8e3d d6a8 f53d
00000390: bca2 e23d b580 90bc 139c ceba bd1b a93c
000003a0: c5af c03d 5b03 cbbd 798d c73c 12b6 033b
000003b0: a028 9fbd 4837 09be 46b6 403e 8ead 24be
000003c0: 8dbd 48be 19cc 05bd 6525 86bc 7126 c9bd
000003d0: e3a0 96b5 baf9 913d 4bb0 0abe 962c 293e
000003e0: c56f a7bd 2834 553e 35a1 6a3c 6124 43bb
000003f0: 535e 08be 7c19 663d 4470 adbd f776 72bd

rios_f.RIOS_H.rnn_cell0.bias_hh f4 [384]
0.06570481 0.08553523 0.17189461 0.042927988 0.07165133 0.11341774 0.04402831 0.08843175
0.15076779 0.3016881 0.1755312 0.16582121 0.11231911 0.28818977 0.12376583 0.062157486
0.16669017 0.11184269 0.08390972 0.13486668 0.27680203 0.09296086 0.17546971 0.0729654
0.13147826 0.18422087 0.18356024 0.13277411 0.12039885 0.18413287 0.04001097 0.01689767
0.11852973 0.06587635 0.17481421 0.06759646 0.08397549 0.133977 0.064429164 0.10569607
0.19251567 0.07938321 0.06257153 0.122501545 0.23298562 0.17040537 0.22658631 0.28198203
0.13154447 0.04761342 0.13699 0.12488439 -5.1668878e-11 0.10907836 0.16726941 0.13275138
0.12948914 0.21882689 0.22114132 0.087577805 0.0878163 0.07764529 0.124568075 0.20110689
0.2838761 0.037619997 0.17874476 0.12212492 0.12411832 0.13321432 0.11438453 0.099814095
0.05342418 0.16985226 0.02472972 0.069102235 0.18063812 0.18746738 0.0005333375 0.011645731
0.21906719 0.24266647 0.121677406 0.17939124 0.007615213 0.22916102 0.09416842 0.21417587
0.12336842 0.023386845 0.007189704 0.20860429 0.1220864 0.23409152 0.08100532 0.050142944
0.0006993762 -0.00036678792 0.10205825 0.0051072035 0.03274994 0.032752007 0.0143528525 0.013657295
0.013476149 0.006498675 0.001328269 0.026262693 0.0063710874 0.03227477 0.024338681 0.02198468
0.027807293 0.012172812 0.0065288544 0.063961774 0.05969369 0.0109985275 0.007197237 0.024246637
0.061899006 0.0032852048 0.0096097095 0.016569503 0.0044925157 0.006972587 0.0015017402 0.008406196
0.003812452 0.000873227 0.020377992 0.029330507 0.031808082 0.0035939538 0.007917562 0.0064429725
0.019032966 0.0013018232 0.0023759173 0.015858185 -0.010459875 0.016510576 0.006160105 0.04078386
0.06572103 0.0061622155 0.013265067 0.027030233 -9.831681e-12 0.015819497 0.020005392 0.06565506
0.008240532 0.012347893 0.013881966 0.001014783 0.03507622 0.017649053 0.0037498102 0.012672044
0.05865327 0.015199462 0.15561335 0.011132917 0.034256343 0.004114765 0.013671347 0.04135832
0.013487669 0.012246265 0.00062181544 0.0018419065 0.011846795 0.013633302 0.00014895815 0.0007426742
-0.0018276945 0.0042533004 0.0029446667 0.010072472 0.0010989499 0.07389779 0.04108894 0.057061017
0.008658609 0.0013872674 0.0008849765 -0.011664237 0.056797147 -0.0012230454 0.015654491 0.0012603836
-0.12853967 -0.08499364 -0.18474464 -0.06813578 0.17628324 0.11231445 0.050787825 -0.08444666
-0.14104138 0.2491368 0.10144999 0.059158497 -0.0417982 -0.074145295 0.04198445 0.081426434
-0.057940427 -0.035852436 0.06508903 0.16020279 -0.21596213 -0.09108551 -0.17605834 -0.018941864
-0.20808527 0.104223795 -0.11074737 0.110423416 -0.014969764 0.16269845 0.07731603 0.026777396
0.018241744 0.04966093 -0.029294856 0.11671815 0.1334558 -0.01124361 -0.027309489 0.07351128
0.08393042 -0.11171663 -0.060647745 0.07588101 0.05605411 -0.12645903 0.10797676 -0.117098846
-0.19572954 -0.017791674 0.0050979746 -0.059252568 -1.1222695e-06 0.0738383 -0.12162398 0.17100833
-0.14586578 0.14054899 0.05790419 -0.020046543 -0.12719561 0.06412048 -0.20550989 -4.9618975e-05
00000000: 3e90 863d 182d af3d 2405 303e 42d5 2f3d
00000010: efbd 923d 8f47 e83d 0757 343d b51b b53d
00000020: df62 1a3e dd76 9a3e 73be 333e 09cd 293e
00000030: 9007 e63d 9c8d 933e f178 fd3d d998 7e3d
00000040: d4b0 2a3e c80d e53d dcd8 ab3d 7e1a 0a3e
00000050: ffb8 8d3e 4362 be3d 55ae 333e e26e 953d
00000060: 3da2 063e 65a4 3c3e 37f7 3b3e f0f5 073e
00000070: ac93 f63d 548d 3c3e 8be2 233d fc6c 8a3c
00000080: b7bf f23d 2eea 863d 7f02 333e 0370 8a3d
00000090: 57fb ab3d 4431 093e 70f3 833d 2e77 d83d
000000a0: d422 453e aa93 a23d 8125 803d 17e2 fa3d
000000b0: c893 6e3e bf7e 2e3e 3e06 683e f35f 903e
000000c0: 98b3 063e 4a06 433d 1b47 0c3e 63c3 ff3d
000000d0: fc3d 63ae 7a64 df3d ac48 2b3e faef 073e
000000e0: cd98 043e 2814 603e df72 623e fe5b b33d
000000f0: 08d9 b33d 7e04 9f3d 8c1d ff3d f7ee 4d3e
00000100: 3558 913e 6d17 1a3d de08 373e a11c fa3d
00000110: bf31 fe3d 5669 083e 7042 ea3d 556b cc3d
00000120: 50d3 5a3d c0ed 2d3e fb95 ca3c 7985 8d3d
00000130: 33f9 383e 73f7 3f3e accf 0b3a bccd 3e3c
00000140: 2653 603e 8f7d 783e 0132 f93d 56b2 373e
00000150: 0989 f93b 30a9 6a3e 5fdb c03d eb50 5b3e
00000160: 95a8 fc3d c595 bf3c 9c97 eb3b 5d9c 553e
00000170: 6f08 fa3d b0b5 6f3e 1ee6 a53d b062 4d3d
00000180: 5856 373a 714d c0b9 ea03 d13d 545a a73b
00000190: cd24 063d f826 063d 3a28 6b3c d9c2 5f3c
000001a0: 11cb 5c3c d6f2 d43b 5019 ae3a dc24 d73c
000001b0: 8ec4 d03b 8d32 043d ea61 c73c 3719 b43c
000001c0: 1fcc e33c 7970 473c 00f0 d53b 64fe 823d
000001d0: 5f81 743d 2b33 343c cdd6 eb3b e2a0 c63c
000001e0: d089 7d3d 974c 573b 0b72 1d3c c4bc 873c
000001f0: f435 933b 4d7a e43b 0ad6 c43a 24ba 093c
00000200: 55da 793b 46e9 643a bfef a63c 8846 f03c
00000210: 3149 023d 8a88 6b3b a9b8 013c 921f d33b
00000220: 06eb 9b3c f0a1 aa3a 47b5 1b3b 06e9 813c
00000230: e55f 2bbc 3041 873c b5da c93b fa0c 273d
00000240: bf98 863d 69ec c93b b955 593c 826e dd3c
00000250: f4f5 2cad e497 813c 59e2 a33c 2976 863d
00000260: 4c03 073c d14e 4a3c 2f71 633c 7802 853a
00000270: 15ac 0f3d bf94 903c 60bf 753b 689e 4f3c
00000280: 693e 703d 2a07 793c 1b59 1f3e d766 363c
00000290: 6150 0c3d 27d5 863b c9fd 5f3c 5767 293d
000002a0: 62fb 5c3c 8fa4 483c 5401 233a 206c f13a
000002b0: 0f19 423c 375e 5f3c a631 1c39 06b0 423a
000002c0: 408f efba 455f 8b3b 4ffb 403b 0207 253c
000002d0: a40a 903a b957 973d e04c 283d d0b8 693d
000002e0: d7dc 0d3c f8d4 b53a c5fd 673a 5b1b 3fbc
000002f0: 20a4 683d 984e a0ba d93d 803c 7533 a53a
00000300: e79f 03be 2511 aebd b32d 3dbe c68a 8bbd
00000310: 9883 343e 1e05 e63d e506 503d 5ff2 acbd
00000320: 276d 10be b81d 7f3e 03c5 cf3d 2e50 723d
00000330: 9734 2bbd 7dd9 97bd e3f7 2b3d e7c2 a63d
00000340: f152 6dbd 01da 12bd 664d 853d 330c 243e
00000350: 2d25 5dbe 0a8b babd a348 34be f82b 9bbc
00000360: 4e14 55be 4973 d53d 84cf e2bd ac25 e23d
00000370: be43 75bc 6c9a 263e de57 9e3d 455c db3c
00000380: b66f 953c 4269 4b3d c4fb efbc ed09 ef3d
00000390: a3a8 083e 1e37 38bc 26b8 dfbc 158d 963d
000003a0: b6e3 ab3d b0cb e4bd c569 78bd 8167 9b3d
000003b0: ff98 653d 7a7e 01be eb22 dd3d 85d1 efbd
000003c0: 536d 48be d8bf 91bc e90c a73b d2b2 72bd
000003d0: e3a0 96b5 8938 973d fe15 f9bd cf1c 2f3e
000003e0: d75d 15be 13ec 0f3e f22c 6d3d a638 a4bc
000003f0: 913f 02be 9951 833d 2f71 52be f81d 50b8

rios_f.RIOS_H.rnn_cell1.weight_ih f4 [384, 2]
0.0044220216 -0.00022450708 0.0065667573 0.0013619366 -0.19812357 -0.3650563 -0.0017544435 -0.0031801735
-0.00071227795 0.0022278489 0.004225495 -0.0018952609 0.0013083152 0.002003318 0.0015969618 0.004387598
-0.010531246 0.011584506 -0.010416375 -0.04260994 -0.024180498 -0.017560063 -0.0028068202 -0.026198834
0.0019906575 -0.0021865284 0.0034468735 0.005385511 6.0520088e-05 0.009256339 0.004339889 0.0010444308
0.005567739 0.013003439 -0.0050903047 0.0010837854 0.0033058075 -0.004235169 -0.00013599115 0.002131036
0.11803492 -0.04490365 -0.019539364 -0.031113334 0.050967164 0.05326314 0.0026929725 0.0036513095
0.002655601 -0.008096241 -0.015447588 0.0013524946 0.0068551507 -0.009872512 0.0152019765 0.009738772
-8.9737965e-05 0.0019861036 -0.008246729 -0.0046271165 0.00018910014 0.002062577 0.0021178706 -0.00071327685
-0.004489859 0.00024224826 0.002774436 -0.0026229266 -0.0039290297 -0.03104941 0.0036536641 0.00028402745
0.0012166176 -0.0023682434 -0.0046556513 0.00019625618 -0.0026107153 0.0050687543 0.0079924185 -0.0042444454
0.050759498 0.06936566 0.004147035 0.0009282096 -1.3300943e-05 -0.0021920367 0.0006993732 0.0013159756
0.025351154 -0.009039117 0.020713095 0.026499538 0.01829541 0.0133115 0.007375522 0.016256137
-0.0068404265 -0.0035931193 -0.00167843 -0.002013931 0.016768955 0.009810963 0.0018690423 0.029508999
2.131765e-11 2.9361485e-11 0.04633582 0.03303994 -0.01729882 0.015477995 -0.0021875438 -0.0009446066
0.001427149 0.002491067 -0.02271439 -0.011789511 0.025085831 0.0304609 0.004472247 0.003921569
0.0012906224 -0.00018136739 0.0040287883 0.002749804 -0.0061755353 -0.0008986976 -0.048872754 -0.04038135
0.0571761 0.0787113 0.007410036 0.014681133 -0.22173478 -0.3523591 0.01466136 0.004103343
0.0013774835 -0.0037336973 -0.0015000791 0.01127229 0.008133716 0.011842572 -0.014795505 -0.009616142
0.004322434 -0.0064306334 0.035317864 0.050261855 0.0015743207 0.0012456529 -0.0009089569 0.00020505079
0.02140716 -0.012643868 -0.074035645 -0.13565502 7.393427e-05 6.1429855e-05 -0.0005202124 -0.00085396925
-0.03866994 -0.038737368 0.0047490024 -0.012053031 1.0140775e-06 0.0032538457 -0.019408764 0.0006841172
-0.00037002235 0.0009450718 0.003225744 0.023218665 0.0020174498 0.0038459352 0.17898248 0.11000469
-0.0046200403 0.0017015113 0.0006398974 -0.00046056474 -0.00047887422 -0.00096371886 0.0339388 -0.010341034
0.006635432 -0.0022243941 0.027697846 0.04395275 0.004440437 0.015983723 0.003703487 0.0035567037
0.0016114695 0.00038627844 0.0030287579 -0.0075887456 0.040001985 -0.03274333 -0.0020947873 -0.009286552
0.002578359 0.012091029 0.0052290238 -0.0031105995 0.0009622765 -0.0011021463 -0.0059996652 0.018798633
-0.010946512 0.015178717 -0.003780721 0.012485672 -0.030200116 -0.0154381795 0.018241042 -0.020591926
0.0092033725 0.00023711425 -0.028231336 -0.03333672 -0.008928629 -0.008826408 0.007000041 -0.0044238344
-0.011826328 -0.006003124 -0.006384974 0.0034310364 0.009477708 -0.0027828512 0.0053691566 -0.008911711
0.05155021 0.037397344 -0.0055689127 -0.027320687 0.015729843 0.015377923 0.0036374102 -0.0009913533
0.009133989 0.0061654993 -0.008014208 -0.0012153775 0.0012797161 -0.041089207 0.004939086 0.0051062037
0.00559829 0.00044020623 -0.01374025 0.00041340376 0.0028656411 0.0020462987 0.0013894853 -0.004531493
00000000: 9be6 903b a969 6bb9 f42d d73b 0283 b23a
00000010: e8e0 4abe a9e8 babe 5bf5 e5ba 756a 50bb
00000020: 2ab8 3aba 1a01 123b 0576 8a3b 676a f8ba
00000030: c67b ab3a 194a 033b 2551 d13a d7c5 8f3b
00000040: 3f8b 2cbc f1cc 3d3c 71a9 2abc c387 2ebd
00000050: 2e16 c6bc 1fda 8fbc a1f2 37bb f09e d6bc
00000060: b175 023b dc4b 0fbb f1e4 613b f178 b03b
00000070: f3d6 7d38 e6a7 173c a135 8e3b 48e5 883a
00000080: 9471 b63b 600c 553c 92cc a6bb ce0d 8e3a
00000090: 3fa6 583b 2cc7 8abb d998 0eb9 daa8 0b3b
000000a0: 4bbc f13d e4ec 37bd 0411 a0bc 64e1 febc
000000b0: f2c2 503d 732a 5a3d 957c 303b cf4a 6f3b
000000c0: 9709 2e3b 19a6 04bc e117 7dbc 3046 b13a
000000d0: 2ca1 e03b 51c0 21bc b611 793c 5f8f 1f3c
000000e0: b431 bcb8 4a29 023b 4a1d 07bc 119f 97bb
000000f0: 2f49 4639 4d2c 073b f9cb 0a3b 33fb 3aba
00000100: ab1f 93bb 0604 7e39 50d3 353b 68e5 2bbb
00000110: 17bf 80bb 555b febc 5072 6f3b 85e9 9439
00000120: ea76 9f3a 8834 1bbb 6f8e 98bb 1eca 4d39
00000130: 8918 2bbb cb17 a63b a2f2 023c fd14 8bbb
00000140: 31e9 4f3d 950f 8e3d dae3 873b 1853 733a
00000150: 1d27 5fb7 46a8 0fbb 2456 373a d07c ac3a
00000160: 39ad cf3c ce18 14bc 82ae a93c 8f15 d93c
00000170: 41e0 953c 7a18 5a3c 5dae f13b 972b 853c
00000180: a825 e0bb 8a7a 6bbb c4fe dbba 28fc 03bb
00000190: 0c5f 893c 29be 203c a7fa f43a dbbc f13c
000001a0: 1583 bb2d 1822 012e a1ca 3d3d e354 073d
000001b0: 41b6 8dbc 6b97 7d3c e55c 0fbb 7a9f 77ba
000001c0: 2d0f bb3a 2b41 233b 8713 babc cb28 41bc
000001d0: cd80 cd3c 2389 f93c ed8b 923b 8180 803b
000001e0: 1a2a a93a 702d 3eb9 ed03 843b 0e36 343b
000001f0: 255c cabb 9396 6bba cc2e 48bd ea66 25bd
00000200: 7c31 6a3d 6433 a13d e3cf f23b 2389 703c
00000210: 710e 63be 6968 b4be 3336 703c 5675 863b
00000220: ad8c b43a 0cb1 74bb 4d9e c4ba 69af 383c
00000230: 4743 053c 5907 423c d968 72bc 068d 1dbc
00000240: 34a3 8d3b 10b8 d2bb 77a9 103d 60df 4d3d
00000250: 7059 ce3a 2d45 a33a 1147 6eba e702 5739
00000260: 125e af3c 3a28 4fbc 00a0 97bd 26e9 0abe
00000270: 290d 9b38 e7d3 8038 dd5e 08ba e8dc 5fba
00000280: 5f64 1ebd 13ab 1ebd 859d 9b3b 137a 45bc
00000290: 701b 8835 793e 553b 21ff 9ebc 5456 333a
000002a0: 8fff c1b9 b2be 773a 0167 533b 1235 be3c
000002b0: 3137 043b 160c 7c3b 2f47 373e 244a e13d
000002c0: b563 97bb 3f05 df3a cabe 273a f477 f1b9
000002d0: 6911 fbb9 14a2 7cba 6903 0b3d 716d 29bc
000002e0: 0a6e d93b 24c7 11bb 98e6 e23c cc07 343d
000002f0: 1681 913b 4cf0 823c 34b6 723b 9617 693b
00000300: f237 d33a 6a85 ca39 207e 463b 03ab f8bb
00000310: 1fd9 233d df1d 06bd b348 09bb 9f26 18bc
00000320: b0f9 283b 7419 463c 3b58 ab3b 33db 4bbb
00000330: 4841 7c3a e575 90ba d798 c4bb 97ff 993c
00000340: 0059 33bc 27b0 783c f9c5 77bb b490 4c3c
00000350: 3c66 f7bc 6bf0 7cbc 3d6e 953c 66b0 a8bc
00000360: bec9 163c dfa1 7839 6745 e7bc 168c 08bd
00000370: 6249 12bc a39c 10bc 9a60 e53b d0f5 90bb
00000380: 37c3 41bc dbb5 c4bb 0b39 d1bb 3ddb 603b
00000390: 6348 1b3c 7f60 36bb c0ef af3b 6d02 12bc
000003a0: 5026 533d f52d 193d 6d7b b6bb a2cf dfbc
000003b0: dfdb 803c aff3 7b3c 9e61 6e3b 4cf0 81ba
000003c0: baa6 153c f507 ca3b 064e 03bc 4d4d 9fba
000003d0: 26bc a73a 284d 28bd 0ed8 a13b f151 a73b
000003e0: dc71 b73b 7bcb e639 c91e 61bc 1dbe d839
000003f0: 7bcd 3b3b 321b 063b 641f b63a eb7c 94bb

rios_f.RIOS_H.rnn_cell1.weight_hh f4 [384, 96]
2.6032025e-05 -2.6696578e-06 -0.00012862541 -4.206512e-05 -0.00018073234 -0.00016208825 0.0001257264 0.00010014792
0.0003189168 -0.0008379228 2.9977122e-05 -0.00015630084 -8.746809e-05 9.3263734e-05 0.00017715388 -0.00013874998
-0.00017205987 0.00011447747 -0.0001249565 -0.00025652625 0.00014388132 -4.6861758e-05 3.363192e-05 0.00016671325
0.00022499841 0.0001349787 -0.00014760242 -9.9180776e-05 -5.986178e-06 9.1458234e-05 -2.2631702e-05 6.8981186e-05
1.5597776e-05 -7.421309e-06 0.00010727743 -0.00015982571 -0.00018636919 3.4214688e-06 9.5875235e-05 0.00010492929
0.00016041215 7.4107397e-06 4.2332515e-05 -0.000100548044 5.9843405e-05 -0.00014052626 -1.1667281e-05 0.00020872182
0.00025555276 -4.1458246e-05 0.00012595796 0.00019013039 -1.1661692e-08 0.00035314827 7.80912e-05 -0.0002532433
4.5647394e-05 -9.045031e-05 -0.0002741479 1.9823496e-05 0.00018510905 -0.00012649316 7.377572e-05 -0.0001158124
1.5165396e-05 6.939979e-05 0.00012870456 0.000102441896 0.00019182047 6.45306e-05 -5.9144226e-05 0.00015851411
0.00016240506 -0.0006261634 1.1121487e-06 1.1823724e-05 7.8532335e-05 0.00022152707 -2.272352e-08 -5.3388353e-06
-0.00024277122 -0.0002165076 6.734256e-05 0.00010066097 5.7447192e-05 -0.0003570916 0.0001539876 5.7686953e-05
0.00013239228 -2.0169717e-05 -2.0651712e-05 0.00010645803 -0.00021782728 0.00019763007 0.00012392698 1.3359273e-05
-0.0002089038 -0.0001499273 0.0024427206 -0.0007384628 -0.0021068293 -0.0017535416 0.0014562042 0.00140491
0.00017435958 0.0027374579 0.00053522177 -0.0011766041 0.00016384826 4.894211e-05 0.0017580444 -0.0015927316
-0.0014968488 0.001051544 0.0004556743 -0.0021511286 0.0027450738 -0.00055449386 0.00051097345 0.0016525049
0.0024444708 0.0006432023 -0.0011741428 0.0007871845 -0.00028121707 1.6313563e-05 0.00026024276 -0.0007500068
-0.00033299156 0.000103872524 0.0017171907 -0.0019493294 -0.0018991758 0.00010213638 0.0011316413 0.0012383375
0.0015125467 -9.0720714e-05 -0.0003019762 -0.001394554 0.00058851606 0.001119615 -0.0003326359 0.0022685165
0.0024605533 0.0005168048 0.0013540838 0.0019118483 4.689362e-10 0.00024712083 -0.001365852 -0.002321803
4.2134565e-05 -0.001897982 0.00024265575 5.921247e-05 0.0018907321 -0.0013970017 0.00021770474 -0.00048946886
-0.0037197033 0.001969995 -0.0005264885 -0.00017500167 0.0018336838 -0.0004750104 -0.0013214584 0.002036413
-0.00012940087 0.00046828686 3.150584e-05 0.00010725993 -0.0013031563 -0.00053899956 -0.000118724645 0.00015130235
0.00084007427 -0.0013428003 -0.0001224369 -0.0010406649 0.0003444989 -0.002502726 0.0016871956 0.0030182882
0.00026839535 0.00016955726 -0.00017699313 -0.0012701664 -0.002267945 0.00021098125 0.0018625284 2.7044678e-05
-0.0021321278 0.0028734116 -0.00029014744 0.008209328 0.019054389 0.016733382 -0.010725383 -0.016678069
-0.009952041 0.073480785 -0.0134410085 0.022440262 0.008885038 -0.022715265 -0.011672484 0.011572166
0.016525898 -0.013910269 0.0107733 0.025382018 -0.057987846 0.012234616 -0.0064168125 -0.015355818
-0.025481584 -0.009640056 0.007870333 0.0007071084 -0.00573408 -0.01197356 0.0034666064 0.006866523
0.0014102256 0.002003515 0.005896464 0.013712062 0.018584602 0.0005074865 -0.009316397 -0.008022507
-0.025426049 0.0015377598 -0.0010777024 0.0098686665 -0.00815198 -0.002150937 0.014138876 0.0052983193
-0.02638186 -0.006198506 -0.011413125 -0.027533231 3.5180068e-07 -0.021558413 -0.016894965 0.024569761
-0.010191638 0.012031089 0.012508257 -0.0025456133 -0.01858533 0.012510134 -0.0028499882 0.014902523
00000000: 595f da37 5f28 33b6 9fdf 06b9 146f 30b8
00000010: f882 3db9 3cf6 29b9 6cd5 0339 8106 d238
00000020: 4a34 a739 0ca8 5bba 6177 fb37 b0e4 23b9
00000030: 136f b7b8 9696 c338 62c2 3939 6a7d 11b9
00000040: f86a 34b9 a013 f038 c106 03b9 5f7e 86b9
00000050: d9de 1639 6e8d 44b8 0010 0d38 bfcf 2e39
00000060: 8ded 6b39 1289 0d39 b9c5 1ab9 46ff cfb8
00000070: e1dc c8b6 44cd bf38 36d9 bdb7 fea9 9038
00000080: f8d7 8237 8f04 f9b6 22fa e038 e396 27b9
00000090: 196c 43b9 639c 6536 a010 c938 7c0d dc38
000000a0: 4f34 2839 c5a9 f836 318e 3138 52dd d2b8
000000b0: 5e00 7b38 3b5a 13b9 97be 43b7 56dc 5a39
000000c0: b6fb 8539 74e3 2db8 9513 0439 bd5d 4739
000000d0: aa58 48b2 c226 b939 e5c4 a338 bec5 84b9
000000e0: 8475 3f38 24b0 bdb8 82bb 8fb9 a24a a637
000000f0: d519 4239 40a3 04b9 0ab8 9a38 4fe0 f2b8
00000100: e16e 7e37 bb8a 9138 def4 0639 13d6 d638
00000110: 6a23 4939 9a54 8738 a111 78b8 cf36 2639
00000120: 474b 2a39 1d25 24ba 2345 9535 825e 4637
00000130: bab1 a438 b849 6839 8d31 c3b2 3f24 b3b6
00000140: 6790 7eb9 5106 63b9 433a 8d38 f219 d338
00000150: 74f3 7038 0638 bbb9 bb77 2139 e5f4 7138
00000160: c8d2 0a39 2332 a9b7 373d adb7 3842 df38
00000170: 9168 64b9 eb3a 4f39 65f2 0139 a421 6037
00000180: 300d 5bb9 ce35 1db9 0d16 203b 6695 41ba
00000190: bb12 0abb 18d7 e5ba 1bde be3a f524 b83a
000001a0: 4bd4 3639 ec66 333b 204e 0c3a 4838 9aba
000001b0: afce 2b39 3147 4d38 2e6e e63a 34c3 d0ba
000001c0: e931 c4ba f6d3 893a 92e7 ee39 f3f9 0cbb
000001d0: b2e6 333b 745b 11ba d9f2 053a dd98 d83a
000001e0: 6a33 203b 939c 283a b2e5 99ba 0f5b 4e3a
000001f0: 5170 93b9 1cd9 8837 3171 8839 1b9c 44ba
00000200: 5f95 aeb9 23d6 d938 5c13 e13a a480 ffba
00000210: c4ed f8ba 0d32 d638 9553 943a b64f a23a
00000220: a540 c63a 5041 beb8 8f52 9eb9 78c9 b6ba
00000230: a546 1a3a 0cc0 923a a265 aeb9 64ab 143b
00000240: 3c41 213b 2f7a 073a 837b b13a fc96 fa3a
00000250: 74e6 0030 ff8f 8139 6306 b3ba 6429 18bb
00000260: a5b9 3038 b5c5 f8ba 6871 7e39 e85a 7838
00000270: 71d2 f73a 991b b7ba ac47 6439 b34f 00ba
00000280: 44c6 73bb 081b 013b 0c04 0aba a780 37b9
00000290: 3858 f03a d10a f9b9 c934 adba 5775 053b
000002a0: c8af 07b9 6684 f539 2325 0438 bdf0 e038
000002b0: abce aaba a64b 0dba cffb f8b8 eaa6 1e39
000002c0: 6e38 5c3a e700 b0ba 6862 00b9 eb66 88ba
000002d0: dc9d b439 c604 24bb e424 dd3a 79ce 453b
000002e0: 6ab7 8c39 2ecb 3139 3b97 39b9 b67b a6ba
000002f0: cea1 14bb d93a 5d39 1520 f43a 01de e237
00000300: 2bbb 0bbb d94f 3c3b ee1e 98b9 6b80 063c
00000310: f317 9c3c 7214 893c 84b9 2fbc 72a0 88bc
00000320: e30d 23bc 187d 963d ad37 5cbc a4d4 b73c
00000330: 8d92 113c 5d15 babc f23d 3fbc 2f99 3d3c
00000340: 5261 873c e6e7 63bc 7f82 303c f3ed cf3c
00000350: aa84 6dbd b373 483c 2044 d2bb f896 7bbc
00000360: c1be d0bc 53f1 1dbc 92f2 003c 3e5d 393a
00000370: f3e4 bbbb c02c 44bc 0130 633b 9200 e13b
00000380: 52d7 b83a 674d 033b 2037 c13b 8ea8 603c
00000390: bc3e 983c d808 053a cda3 18bc d570 03bc
000003a0: 4a4a d0bc a88e c93a b141 8dba 30b0 213c
000003b0: e28f 05bc bcf6 0cbb bfa6 673c 869d ad3b
000003c0: c51e d8bc d61c cbbb 1efe 3abc 5f8d e1bc
000003d0: 1edf bc34 459b b0bc 4f67 8abc 8646 c93c
000003e0: d4fa 26bc 0b1e 453c 6fef 4c3c 4ed4 26bb
000003f0: 4340 98bc 4ef7 4c3c dec6 3abb b629 743c

rios_f.RIOS_H.rnn_cell1.bias_ih f4 [384]
0.000959192 0.001579218 0.16997887 0.01296755 0.056754153 0.051760964 0.030278742 0.038509052
0.038250472 0.068876036 0.016986782 0.05597275 0.008055542 0.057826873 0.045305394 0.036031216
0.056076664 0.027160376 0.007731674 0.08460281 0.21863557 0.014528473 0.010735817 0.04604941
0.07826213 0.019730588 0.024487458 0.029470315 0.005616668 0.009312988 0.001713692 0.013341532
0.00440511 0.0010102745 0.030441636 0.044600893 0.05417642 0.0041314303 0.018628903 0.020601464
0.055087786 0.0015609788 0.002818966 0.029353345 0.0029351057 0.020583728 0.012557258 0.085197225
0.08184487 0.0089397095 0.034435302 0.06663909 -1.3131697e-11 0.039494768 0.027294887 0.08011609
0.010042716 0.049285464 0.016532946 0.0012708065 0.055454236 0.035229582 0.005807449 0.026267353
0.06434957 0.023169642 0.28933188 0.0125269 0.065028 0.006280786 0.027762603 0.05697884
0.019080201 0.04175887 0.0008363185 0.0021165153 0.02197176 0.06381284 0.00030563 0.0015596022
0.01335108 0.02459418 0.0037264845 0.012691199 0.003327058 0.09409356 0.063280806 0.129502
0.010874064 0.0018142983 0.001665752 0.04878305 0.07495957 0.016130975 0.039375357 0.0016948108
-6.35159e-05 -0.0017017956 0.06442702 0.0075362376 0.0512964 0.03751057 0.02339127 0.0260751
0.0042277356 0.110437766 0.0113501465 0.031456877 -0.0013699868 0.020442178 0.041243594 0.027024148
0.039861944 0.0155225545 0.005885062 0.061322253 0.11829764 0.009554256 0.00023609326 0.03342612
0.06659029 0.0046498026 0.019610286 0.021873211 0.0026084767 0.0070738844 0.00084904704 0.008359402
0.0038019673 0.00021961772 0.036748763 0.038101792 0.042333923 0.001758451 0.01265572 0.016725218
0.032369122 0.0006333418 0.0028907598 0.0205234 0.01030106 0.017820343 0.004031875 0.045079537
0.066304564 0.0059211426 0.025101436 0.04223158 -5.266907e-12 0.02604481 0.013808142 0.06388691
0.0047646686 0.0561543 0.019483691 0.00080884475 0.044392947 0.024828274 0.0016280432 0.0076437443
0.058628492 0.025318412 0.04100848 0.008727098 0.050379474 0.0043115234 0.02264769 0.0544213
0.030371435 0.05192146 5.56094e-05 0.0010911716 0.018864367 0.032043897 0.00027193967 0.00058963476
0.017843973 0.023554852 0.0017043366 0.025861837 0.0018148903 0.08695852 0.043202214 0.050202925
0.008307146 0.0005934714 0.0010860718 0.044320557 0.061360613 0.011807041 0.04032672 0.00075235806
-0.016265105 0.03604798 0.16653685 0.09078962 0.16313013 0.15567589 -0.11461857 -0.11816026
0.0078055626 0.23347215 -0.05630246 0.19358103 0.02327644 -0.2023084 -0.14106238 0.14041097
0.18769656 -0.13390797 0.048671428 0.23395033 -0.16901417 0.05511083 0.028642133 -0.15916327
-0.20908774 -0.06754415 0.11346209 -0.10461008 -0.07539129 -0.060734417 0.007689675 0.08230645
0.027617771 0.020040613 -0.0204294 0.14860384 0.17198975 -0.012980163 -0.10597851 -0.088844426
-0.106772356 0.038888846 -0.011269848 0.09719935 -0.08890974 -0.02329695 0.11969557 -0.11302035
-0.2201776 -0.049395397 -0.1390053 -0.17795554 -5.4587633e-07 -0.042811275 -0.105407305 0.22383519
-0.055233575 0.04394437 0.010919626 0.009034277 -0.1761691 0.13715866 0.013607289 0.0867654
00000000: 4972 7b3a c3fd ce3a f10e 2e3e d975 543c
00000010: 0b77 683d 4e03 543d 200b f83c abbb 1d3d
00000020: 87ac 1c3d e10e 8d3d dd27 8b3c af43 653d
00000030: 64fb 033c dfdb 6c3d 2692 393d 7895 133d
00000040: a5b0 653d 707f de3c fb59 fd3b 3d44 ad3d
00000050: 01e2 5f3e d508 6e3c 48e5 2f3c 4e9e 3c3d
00000060: e547 a03d 0ba2 a13c ec99 c83c bb6b f13c
00000070: 070c b83b 8195 183c f69d e03a 7196 5a3c
00000080: be58 903b 306b 843a bd60 f93c 6daf 363d
00000090: 18e8 5d3d f360 873b a49b 983c 67c4 a83c
000000a0: bba3 613d c299 cc3a 67be 383b 6d76 f03c
000000b0: e75a 403b 359f a83c f5bc 4d3c e27b ae3d
000000c0: 489e a73d dc77 123c 080c 0d3d 137a 883d
000000d0: e803 67ad 44c5 213d 8799 df3c e813 a43d
000000e0: 348a 243c 8edf 493d 1a70 873c 3191 a63a
000000f0: fb23 633d e54c 103d 6a4c be3b a22e d73c
00000100: b5c9 833d 43ce bd3c 4f23 943e a03d 4d3c
00000110: 662d 853d 0dcf cd3b 666e e33c a562 693d
00000120: 154e 9c3c 590b 2b3d 623c 5b3a 3cb5 0a3b
00000130: 1ffe b33c 4eb0 823d f73c a039 916b cc3a
00000140: 7dbe 5a3c bc79 c93c 0938 743b bfee 4f3c
00000150: c50a 5a3b 20b4 c03d 5e99 813d 2c9c 043e
00000160: 2129 323c c0cd ed3a 5d55 da3a bcd0 473d
00000170: 6784 993d 1b25 843c 0e48 213d 6a24 de3a
00000180: d733 85b8 c90e dfba 50f2 833d 8bf2 f63b
00000190: 2d1c 523d afa4 193d 0c9f bf3c 739b d53c
000001a0: d188 8a3b 322d e23d f7f5 393c edd8 003d
000001b0: 2191 b3ba 5b76 a73c 0bef 283d bf61 dd3c
000001c0: 4746 233d 5052 7e3c 7ad7 c03b 0b2d 7b3d
000001d0: 0846 f23d 7489 1c3c cd8f 7739 d4e9 083d
000001e0: 7d60 883d 5f5d 983b c0a5 a03c 732f b33c
000001f0: faf2 2a3b 0bcc e73b 9592 5e3a e0f5 083c
00000200: 6d2a 793b 2f49 6639 df85 163d a010 1c3d
00000210: 5666 2d3d d37b e63a f059 4f3c 5303 893c
00000220: 7c95 043d d906 263a e772 3d3b b020 a83c
00000230: c7c5 283c f8fb 913c d21d 843b 52a5 383d
00000240: b0ca 873d 2506 c23b 87a1 cd3c 05fb 2c3d
00000250: 1550 b9ac ed5b d53c 8c3b 623c 24d7 823d
00000260: f020 9c3b 0d02 663d 439c 9f3c a708 543a
00000270: 61d5 353d aa64 cb3c 1164 d53a 6078 fa3b
00000280: 6e24 703d 8f68 cf3c 82f8 273d 1afc 0e3c
00000290: b55a 4e3d ae47 8d3b a687 b93c dee8 5e3d
000002a0: 84cd f83c 99ab 543d 233e 6938 a505 8f3a
000002b0: 7289 9a3c 7640 033d 2093 8e39 b891 1a3a
000002c0: 862d 923c 1bf6 c03c 0c64 df3a 34dc d33c
000002d0: 9de1 ed3a 4f17 b23d cef4 303d 95a1 4d3d
000002e0: b21a 083c 3193 1b3a 865a 8e3a 7989 353d
000002f0: 4455 7b3d 5272 413c a12d 253d e539 453a
00000300: 663e 85bc 0ca7 133d a388 2a3e e9ef b93d
00000310: 960b 273e 8069 1f3e 24bd eabd 02fe f1bd
00000320: cec5 ff3b 5313 6f3e 699d 66bd 1b3a 463e
00000330: 3cae be3c ef29 4fbe a872 10be e5c7 0f3e
00000340: 8733 403e 2c1f 09be b15b 473d ad90 6f3e
00000350: 0d12 2dbe e5bb 613d e8a2 ea3c b2fb 22be
00000360: 191b 56be 9654 8abd d05e e83d cf3d d6bd
00000370: c066 9abd a7c4 78bd abf9 fb3b 4990 a83d
00000380: aa3e e23c 362c a43c 8f5b a7bc 9b2b 183e
00000390: 151e 303e c0aa 54bc 430b d9bd 11f4 b5bd
000003a0: 77ab dabd e949 1f3d 2ba5 38bc 7410 c73d
000003b0: 4f16 b6bd 3fd9 bebc f322 f53d 3777 e7bd
000003c0: 3d76 61be d452 4abd 6857 0ebe fa39 36be
000003d0: 5688 12b5 e05a 2fbd c9df d7bd 0d35 653e
000003e0: 9a3c 62bd 03ff 333d 3be8 323c 8104 143c
000003f0: ac65 34be 5273 0c3e 1bf1 5e3c 0fb2 b13d
