BRIOS/models/model_file/brios_attention/test_attention_batch.pt (torch, 706014 bytes, 32 tensors)

rios_f.RIOS_H.rnn_cell0.weight_ih f4 [384, 2]
00000000: 1da3 bf3c 6aa0 a83c 2788 413a ddf2 44b9
00000010: 94c1 db3c d403 4c3d f08e 003d 9eae 383d
00000020: 5605 b53d fc1c 413d b418 263d 2698 b83d
00000030: 0be0 b63c ee00 a43c 31f0 453e 8dab 303d
00000040: 05ba de3b aca0 07ba 3b00 833d 4811 183e
00000050: 6d15 fd3c 9714 083d fb2d 4c3c 4cc0 eb3b
00000060: 7475 453c d4bf 2c3c 3af3 983d 1dc2 8d3d
00000070: 38fe c038 922c 983c c12e e93a 118f 423e
00000080: 90e5 2f3e 9ed1 4f3e b769 253d 4df4 503d
00000090: 694b dd3c 8f94 ca3c 4b8b 393d bd1e 0d3b
000000a0: ef1c f5bb d36b 7e3c 532e d63c 27b9 e83c
000000b0: aa2e 273d cd12 5a3c d8ce 1b3e eff9 b53e
000000c0: 6240 063d b17f 093d 9c13 ad3d 3d41 db3d
000000d0: 8d09 393c 28d2 b1bb ce83 813b 7d4c b43a
000000e0: 58de 323d 8ccb 253d c7a0 273d a141 d33d
000000f0: 896e e73c ba1a 863c 9ebd 043d 7d2f d83c
00000100: 904f f83d 6e96 eb3c d96e 1d3d 299d a53c
00000110: aa50 9b3b f21c d03b abc6 5c3b 4074 973b
00000120: 757d bebc 925e 043e 9537 de3c 9f2f 603c
00000130: 380e cb3d 18a5 a73b 2912 8b3d 6bd4 2b3d
00000140: 1720 f53b 5b82 d13c 0050 c23c 0ed9 6f3c
00000150: b5f8 9a3d 9728 dc3c 06a0 983c cca2 be3c
00000160: 693d 6c3d 4e21 e33d e10b 993c 2793 33bc
00000170: 0b8c 543d 0793 9f3c 2740 503e a5eb 2c3e
00000180: 0013 1c3d 72e3 3a3d 5d46 863d 4ac7 353d
00000190: 3456 0f3d e886 013e 599c 2d3d 08ba ab3c
000001a0: 690d bc3c 85f6 123d 50c1 863d 4f38 8c3c
000001b0: 82ba a23c fc7f 17bc fbd1 923c 0759 f13c
000001c0: 5ca3 423d e9e1 6e3d 05af 4a3e 59bf 353d
000001d0: 475f 543d 03e7 0d3d 49a7 6fbc 99c9 183d
000001e0: a963 283e 9ff4 933d a6bd 5bbc cd2f 513d
000001f0: 0683 bb3b 1c66 f73b b0ff a63d 1ef0 b83d
00000200: 6685 cb3c 7d23 d53c fe5e ee3d 4317 df3d
00000210: 2825 8f3d 6a94 463e 4eef 473d 9824 5b3d
00000220: c947 e43d a0b4 f53d 261c 4b3b ac4a 29bb
00000230: 5067 ab3d f8f7 b23c 654b 9f3d 6f9a 54bb
00000240: 5f2e 863d a0b4 da3d 7fcc da3d e794 c03c
00000250: bb2d 1a3b 03e0 123b 46e7 f13c ad75 953c
00000260: 19ec 803d 6417 1e3e e29b 573e f373 023d
00000270: 8fa6 b93c c7e7 6c3c 48a3 9c3c 6976 523c
00000280: 10ab 013c 1413 6f3c fc13 bc3c cb5b 873c
00000290: b108 453d 4002 273e 31df 463d dc3d aa3c
000002a0: df8d aa3c 9454 5f3c 567d 1d3d 165b 913c
000002b0: 7e1e 5c3d 5f1c 873d 4cdc c63c 49ed 843c
000002c0: d79c 643d 4b0d fbba c8e1 f73c c790 dc3c
000002d0: 312a 153c af9d 853c 4c56 483d 8c8c a43d
000002e0: 9424 0d3d 16bd ae3c 2e63 443e 4de0 0f3e
000002f0: e059 943c 5c4e fc3c 01b6 243d aed9 963c
00000300: 1d3b 153d 66ed 6b3d 9ab1 6e3c 1b6b cdbc
00000310: ed5c febb bc27 2f3d 87eb a5bb c5dd 863c
00000320: bee5 98bb 82ba e839 1c98 693d aad0 1abd
00000330: 864e fa3b 69e6 e0ba 339d 8f3c 6412 cf3b
00000340: d9be 143d d826 3e3d 2744 8ebd 07fd ba3c
00000350: 0c74 e5bb 6d3b 9a3c e71c 20bc 638d d13a
00000360: e547 5d3b a5d7 12ba 3c56 34bc 947d d9ba
00000370: eda1 c2bc 96d1 3a3d e353 2ebd 4f25 8b3d
00000380: 0375 27be 6298 a63c e7d1 83bc 2280 053d
00000390: 54a5 983c 2da3 3cbc da31 753b 5555 353a
000003a0: 9d19 bebc 5847 afbc 565c ee3c 34bd be3c
000003b0: 7520 02be 48c6 60bc 1627 8d3e 1e79 833e
000003c0: 21ec 2d3d 2b02 c43b 9902 1e3d 1955 b13d
000003d0: 279e 9d3c 7715 a0bc aab7 5a3c 5651 783c
000003e0: 4116 66bc 2413 773b 16ba 413b 04be 16ba
000003f0: 5a23 133b a267 5dbc 04a5 00bc cc8c b4b9
0.023393208 0.020584304 0.0007382654 -0.0001878249 0.026825704 0.04980834 0.031386316 0.045088403
0.088389084 0.047146782 0.040550902 0.09013395 0.022323629 0.020019975 0.19329907 0.043132354
0.0067970776 -0.0005173783 0.06396528 0.14850342 0.030894006 0.03322276 0.0124621345 0.0071945544
0.012051929 0.010543782 0.07468267 0.0692179 9.2026254e-05 0.01857594 0.0017790423 0.18999888
0.17177415 0.20294806 0.04038402 0.051014233 0.027013497 0.024729041 0.045298856 0.0021533214
-0.007480256 0.015528637 0.026145136 0.0284086 0.040815987 0.0133101465 0.15215623 0.35542247
0.032776244 0.03356904 0.08451006 0.107058026 0.011293781 -0.005426664 0.00395248 0.0013755705
0.043669075 0.04047732 0.040924814 0.10315252 0.02825095 0.016370166 0.032407396 0.026389832
0.1212455 0.028758254 0.03843579 0.020216541 0.0047398405 0.006351107 0.0033687751 0.0046220124
-0.023253182 0.129267 0.027126113 0.013683229 0.099148214 0.0051161163 0.06790573 0.041950624
0.007480632 0.025574854 0.023719788 0.014639152 0.07566968 0.026874823 0.018630993 0.023270987
0.057675753 0.11090337 0.018682422 -0.010960377 0.051891368 0.019479288 0.20336972 0.16886766
0.038104057 0.045627065 0.065563895 0.04437951 0.03499432 0.12649119 0.042385433 0.02096273
0.022955613 0.03587963 0.0657984 0.017116694 0.019864324 -0.009246822 0.017922392 0.029461397
0.047519073 0.058320913 0.19793327 0.044371936 0.051848676 0.034644138 -0.014627286 0.037301634
0.16444267 0.07224392 -0.013411915 0.051070977 0.0057224063 0.007550014 0.08154237 0.09030174
0.024843883 0.026017899 0.11639212 0.10893109 0.06989509 0.19392553 0.048812203 0.053501695
0.111465044 0.11997342 0.003099212 -0.0025831861 0.08369315 0.021846756 0.07778052 -0.0032440682
0.06551813 0.10678983 0.10683536 0.023508502 0.0023525793 0.0022411353 0.029529225 0.018244589
0.06295032 0.1543861 0.21055558 0.03184886 0.02266243 0.014459557 0.019120827 0.012845614
0.00791432 0.014591951 0.022958748 0.016523262 0.048103992 0.16309452 0.048552696 0.02078145
0.020819603 0.013631005 0.038449608 0.017743628 0.053740017 0.06597208 0.024274968 0.016226428
0.055813637 -0.0019153742 0.030259028 0.026924504 0.0091042975 0.016310541 0.048910424 0.0803462
0.03445871 0.021330398 0.19178459 0.14050408 0.018109262 0.030799083 0.040212635 0.018414345
0.036433328 0.057599448 0.014568711 -0.025075486 -0.0077625425 0.042762503 -0.0050634774 0.01646317
-0.0046660593 0.00044389447 0.05702983 -0.037796654 0.0076387553 -0.0017158511 0.017531013 0.006319331
0.03631482 0.046423763 -0.06946593 0.022825731 -0.0070023593 0.018827165 -0.009772516 0.0015987571
0.0033764776 -0.00056015915 -0.011006888 -0.0016593211 -0.023758853 0.045610033 -0.04256047 0.067942254
-0.1635323 0.020336334 -0.0160913 0.0325929 0.018633522 -0.0115135135 0.0037413747 0.00069173175
-0.023205573 -0.021396324 0.029096764 0.023283578 -0.12707694 -0.013719149 0.27568883 0.25678343
0.04246152 0.0059817038 0.038576696 0.08658809 0.019240452 -0.019541485 0.013349453 0.015156111
-0.014043392 0.0037700618 0.0029560379 -0.00057503604 0.002245149 -0.0135134775 -0.007851843 -0.00034437177

rios_f.RIOS_H.rnn_cell0.weight_hh f4 [384, 96]
00000000: dda4 14bd 8d36 ca3c bce4 1dbd 80f5 943b
00000010: a9a7 d3bc 92a9 003c 57bd 023d 8b41 acbb
00000020: 9208 783b 0922 8b3b 64fc 193d a1d0 5ebc
00000030: 56ef 49bc 6918 9fba a7ff a3bc 2add ce3b
00000040: c32c d13b d4e4 363c 76c2 1e3d 5d94 673a
00000050: 502c 83bc 7ba7 d4bc 78ff 283c d904 973d
00000060: 61ef 61bc 52dc 91bc 2352 8bbc 7f0c 593a
00000070: 56e5 cf3b c96d 373a 18ca f4ba 7468 5a3c
00000080: 9a03 333c 2aaa 05bd cd3b 14bc 9abd c13b
00000090: ccf4 14bc 53bb e43c b98f 263c c46c a23b
000000a0: c5bb 27bb 8082 d43c 6d0d 3e3c 3869 bd3c
000000b0: 298d 593c 1386 043b 2917 0cbc 2b78 a6bb
000000c0: 0537 dabc 0f79 3ebc bf8a 3c3c ae1c 28bd
000000d0: 79f0 33bd af98 a83c 6fc2 2dbc 6aa6 3f3c
000000e0: 8a13 223c c1ab b3bc 71f0 0b3d f2a0 423b
000000f0: 5a51 1e3c b9e8 263b 1954 6dbc 2e40 be3b
00000100: e98d 17bd 857a 31bb df0a 90bc 1756 1a3d
00000110: d6ed f8bc 0e1a 80b9 6449 26bc ff93 163c
00000120: 41fc cfb8 fd87 2bbc 3e01 ac3a 943a ac3a
00000130: 1a77 893c 68e9 fabc 5647 d3bc e77d a1bc
00000140: 3247 7d39 984f f43c d4c3 b9bb f2d9 10bd
00000150: 5763 153c a00a 03bd 9226 2c3c 5c55 193c
00000160: ea67 f73b 5a21 cfbc 36f6 a0bc e79d 0a3d
00000170: 8b4a 353d 1bba b9bc 50de f0bc 382a 1c3d
00000180: 5ca6 80bc 1d23 413c ac28 76bc cd2b 133c
00000190: b26d c7bb 07ef c73b 5086 503c 777b 1abc
000001a0: 60ac a73a b987 8a3b 76d0 6a3c 5e59 dfbb
000001b0: 29ee 96bb 597f 1dba 6bf6 0fbc 7907 42bc
000001c0: 2585 d73b 723f 753b 9244 6c3c d134 913a
000001d0: 5b33 18bc f94b 1bbc ea5d ea3b 2b88 a83c
000001e0: f5f3 99bb 015b f4bb bce5 edbb b285 5c3b
000001f0: 721b 94bb 4666 87bb fe14 dcba f874 bb3b
00000200: a196 443b b776 58bc d227 21bb b76b 2d3a
00000210: fd68 edbb 7189 493c fc57 93bb c2f3 993b
00000220: 589f 61bb e6c8 383c 06b1 523c c145 3d3c
00000230: 94f8 003c f67c 993a 5174 e2bb 8d98 e1bb
00000240: 05b6 69bc e068 a5bb d695 093c 2f47 83bc
00000250: c2b1 92bc 4860 ad3b 6f1f 8cbb 2ae1 133b
00000260: 302c d23a dba3 22bc 9dba 583c 0b7e e13b
00000270: a87e c33b bb01 633b 5b9c cdbb 05a4 443b
00000280: 3e3d 81bc 17f9 b83a 911e 7a3b 36b6 463c
00000290: cb24 d4bc 0dc6 4ab9 0471 4dbc 323c 9f3b
000002a0: ce46 20bc 429f 36bc b410 18ba 080a 003b
000002b0: 4067 9a3b 1816 21bc e686 2ebc 4aaf 16bc
000002c0: aae3 fd3a c741 443c d74b 68bc 18d9 77bc
000002d0: d701 993b 07bb 56bc 6dcb 5f3b 8558 a03b
000002e0: 58c7 5e3b b6dd 2dbc fb68 29bc 6567 083c
000002f0: 37e9 843c 3645 48bb 8059 29bc 5976 7c3c
00000300: 31e2 d1bc 8cbe 9e3c 684c ebbc dc62 203c
00000310: ea16 e4bc e9de 9a3c dead c83c 02fe 75bc
00000320: bbb7 ffba 9e93 413a 8c2f e73c 00f5 49bc
00000330: c24c 3cbc a7b3 e1bb 32cd 6cbc 4a80 7c3b
00000340: 46d4 bd3b a78a 733c 04dc f13c 8cdc e0ba
00000350: 601f a1bb 6c1f b1bc 8a52 bd3b 0a3c 313d
00000360: 834a 83bc 227a 79bc 6426 66bc 120f 04b8
00000370: a24f 9bbb 288e 01bc fb77 08bb b848 523c
00000380: b60b 103b daac d0bc d8bd 15bc bf5c d63b
00000390: 9ca5 51bb b611 bc3c af03 fa3a 47b3 3e3b
000003a0: fc58 343b dfd3 a93c 18b8 a63c 5762 9f3c
000003b0: 867a 8d3c df0f 093a db8c 91bb 6f18 07bc
000003c0: e122 b4bc 350f 173b fb24 723b bd42 02bd
000003d0: 4f44 0bbd d1a5 713c 4459 19bc 7fbf 433c
000003e0: e145 573c 24da ebbc 8993 dc3c 6a60 1ebb
000003f0: 844c 193b 3d75 593b a3e9 43bc 732a 6c3c
-0.03629004 0.024684215 -0.038548216 0.0045458674 -0.025836783 0.007852929 0.03191885 -0.005256837
0.0037846905 0.0042460007 0.037594214 -0.013599546 -0.012325129 -0.0012138012 -0.020019365 0.006312986
0.00638351 0.011162955 0.03875967 0.00088340585 -0.01601234 -0.025958767 0.010314815 0.073739715
-0.013789983 -0.017805252 -0.01700694 0.0008279755 0.0063444776 0.0006997255 -0.0018675951 0.013330568
0.010926152 -0.032632984 -0.009047461 0.005912495 -0.009091567 0.027921354 0.010166102 0.0049568135
-0.0025594097 0.025941133 0.011599881 0.023121461 0.013278284 0.0020221516 -0.008550444 -0.005080243
-0.026637563 -0.011625542 0.011507689 -0.041042976 -0.043930504 0.020580618 -0.010605439 0.011697391
0.009892354 -0.021932485 0.03416485 0.0029697982 0.00966295 0.0025468303 -0.0144853825 0.0058059907
-0.03700057 -0.0027081084 -0.017583309 0.037679758 -0.030386847 -0.00024433475 -0.010149334 0.009190558
-9.917515e-05 -0.010469434 0.0013122929 0.0013140016 0.016780425 -0.030628875 -0.025790852 -0.019713355
0.00024154483 0.02982311 -0.0056690965 -0.0353641 0.009117923 -0.031992555 0.010507243 0.00935873
0.0075502293 -0.025284458 -0.019648653 0.033841994 0.044260543 -0.02267175 -0.029402882 0.0381262
-0.015704326 0.011788157 -0.015024345 0.008982611 -0.0060860747 0.0061014923 0.012727335 -0.00942885
0.0012792461 0.004227605 0.0143319275 -0.0068160733 -0.0046060276 -0.0006008051 -0.008786778 -0.011842602
0.0065771514 0.003742185 0.014420645 0.0011078363 -0.009289588 -0.0094785625 0.0071523087 0.020572742
-0.0046982714 -0.0074571376 -0.0072600525 0.0033649025 -0.0045198733 -0.004132065 -0.0016790924 0.005720731
0.0029997008 -0.013211898 -0.0024590385 0.0006615477 -0.0072451816 0.012300835 -0.0044965725 0.0046982476
-0.0034427252 0.011278367 0.0128595885 0.011552275 0.007871766 0.0011710215 -0.0069108387 -0.0068846405
-0.014264588 -0.0050479025 0.00839754 -0.016025154 -0.017907027 0.0052910186 -0.004276208 0.0022564628
0.0016034897 -0.0099267615 0.013228086 0.0068814806 0.0059660263 0.0034638483 -0.0062747425 0.003000499
-0.015776273 0.001411232 0.0038165192 0.012128403 -0.02589645 -0.00019338001 -0.012539152 0.0048594708
-0.009782506 -0.011146368 -0.0005800829 0.001953723 0.0047120154 -0.009831928 -0.0106522795 -0.009197066
0.0019370217 0.011978573 -0.014178238 -0.015127443 0.004669409 -0.013106114 0.003414835 0.004893365
0.003399333 -0.010611942 -0.010339971 0.008325432 0.016224487 -0.003055883 -0.01033628 0.015409076
-0.025620552 0.01937797 -0.028722957 0.009789195 -0.027842958 0.01890512 0.024496969 -0.015014173
-0.0019509712 0.00073843624 0.028220914 -0.012326479 -0.01149291 -0.0068878713 -0.014453219 0.0038528615
0.005793127 0.0148646 0.029523857 -0.0017155572 -0.0049170703 -0.021621428 0.0057776617 0.04327015
-0.01602674 -0.015226873 -0.014047239 -3.1485288e-05 -0.0047397176 -0.007907428 -0.0020823467 0.01283472
0.0021979637 -0.025473047 -0.009139501 0.006541818 -0.003198958 0.022957664 0.0019074584 0.0029098557
0.002751886 0.02073091 0.020351455 0.019456072 0.017270338 0.00052285 -0.00444184 -0.0082455715
-0.021989288 0.0023049836 0.0036948312 -0.031801928 -0.03400069 0.014749006 -0.0093596615 0.011947512
0.013139219 -0.028790541 0.026925819 -0.0024166354 0.0023391554 0.0033181452 -0.011957559 0.014414418

rios_f.RIOS_H.rnn_cell0.bias_ih f4 [384]
00000000: 92bd e13d d9aa 193d ed8f 8c3d a13f d63d
00000010: 3597 233e 2bc5 163e c81b 743d a0ef 273e
00000020: 5249 963c 100a 6c3e 77b9 a93d 8503 dd3c
00000030: 3876 983c 48ad 153e 8ded 6f3d 913d 713e
00000040: 626b 393e b9fa 8f3d 58d2 a23d 7793 993d
00000050: aa29 8a3d 4276 523d 4c58 303e 3544 8d3e
00000060: a557 a63d 15c7 403e 1e7f cd3c b57b fd3b
00000070: 50db 2c3e e465 0f3e 12c5 3a3d ff0c 9c3d
00000080: dbe2 4f3e 6633 873d b72f 773c a671 e43b
00000090: 03d9 163e 2bf2 523d bf83 333e ecb1 c43d
000000a0: 18a7 883d 6b89 393d 4bd5 463e 578b 883d
000000b0: 3d03 e63d 9c02 073d 3012 d43d afa1 7e3e
000000c0: fff8 ae3d 16ce 823e ce86 d23d a930 be3d
000000d0: 6dab c53d b6a0 8c3e dc32 0d3d fe0b 983d
000000e0: fe67 f93d 84da 4c3e 7b0d 8f3d 7366 1c3d
000000f0: 278d 893e c2e2 803d 09cf 9f3c 7a7d 173e
00000100: c901 c03d 2260 ec3d effa 873e 31c3 4d3e
00000110: c8b1 543e aba4 cd3b 22d8 9e3d 2ead 5b3e
00000120: dad1 2d3e 4869 473e 2fed 1b3c adcd 5b3d
00000130: ca63 813e 4834 8f3e 9e11 2a3d f8f4 113d
00000140: db42 473d 0101 7e3d 8b14 773e cdcf 0e3e
00000150: 4db5 063d 26c5 893d 274a c83d 2db6 343d
00000160: 3c6a cc3d fe11 4c3d 3510 183d f0dc f93d
00000170: 5eef ca3d 7618 393e 29f0 813d caeb ac3d
00000180: 8d97 8a3d f3c4 873d 520e 363d d086 b73b
00000190: 6db1 f63a 8618 ab3c 6f7e 1c3d 11dc ae3b
000001a0: c03e 2b3d 85f8 d73c 52b9 f83c 3919 f03b
000001b0: e292 0f3c 0ac0 f83a becc 923c 3827 573d
000001c0: 5657 483d 1060 433c 9719 473d b9ef 453b
000001d0: d173 dc3c ccbf c73c 9068 ba3c 4821 a03e
000001e0: 80b2 523d 5edb 3c3d e088 c33c 4c13 943c
000001f0: bb8e d63c d8b5 fb3a 70e8 e6ba 0d38 a7b8
00000200: 860a a23c 7d21 0b3d 8dab 093c 4564 353c
00000210: 2ae3 ac3c 95ad ee3c e6b1 bc3b 0c2d 2a3c
00000220: 5ef7 003c 110c f63c ef3a 163c 1459 b23c
00000230: 02c0 cc3c 90a0 aa3a 48af a03c 8fba ab3c
00000240: 5a80 503c 8258 e33c e259 553d 49fc 253d
00000250: fc83 773d 05d4 e93c e007 403c f1e4 b03a
00000260: b62d bb3b 528a 1c3e b02d d63c c433 113d
00000270: e2c5 6b3b c94f 893b d4ca 623c 3ded 713c
00000280: 73e5 2a3d c0e5 01bc 4de7 ba3c 17fa 503d
00000290: 8aa2 393c 14c0 e339 95f0 7d3d 25d4 a0bc
000002a0: 421e e23c ddca 983b bdd3 183b bdf5 cc3b
000002b0: f9eb df3a 8bee 6f3d fe9b c43c 779c a43c
000002c0: 2508 4dba 8f6f 293d 7d24 173c dcd3 213d
000002d0: b7c7 af3a c6f5 213d ba07 743a c2df 083b
000002e0: 07e1 023d ae08 c63c 1127 fe3c 6c56 32bc
000002f0: ecc9 5b3d 9137 b73b 320c 0f3d bd07 3b3d
00000300: 73d8 05be bdc4 ab3d 8f7f 4abd d641 36bd
00000310: 97f4 80bc be23 50bd 343b d93d ca17 5abc
00000320: efb3 f73a 274a b4bd 8413 b53d 4dc3 aa3c
00000330: 407a b2bc 5fb2 933d 8539 1e3c 43a3 a53d
00000340: b6b3 8bb9 acd4 abbd d835 0d3e d9ba df3d
00000350: 6bc7 9f3d adfc fdbd e0a9 043e 118b 7f3e
00000360: 198e 1abd 1bdd 06bd fc28 65bd b1ae 953c
00000370: 3891 e5bd 8026 9f3d 53cd 44bd cf6b 5bbd
00000380: 5a87 1abe 2655 8bbd de22 6fbc aa97 5e3d
00000390: a522 b53d 2c35 903d 0de7 dd3c ac65 323d
000003a0: 4b6b 73bd 37c7 1e3d 77d3 d33d b4ef ce3c
000003b0: 8fc5 d53c 64d6 bf3d 121b 693c 349c fbbd
000003c0: 6667 10bd aa96 53bd 5e37 c4bd 4765 a7bd
000003d0: ec1f 1bbe d468 ac3b 8e0c 99bd dfc1 313d
000003e0: c5e9 013d 3cba b9bd 97f8 febc de2d 08bd
000003f0: 7fdc f73d b013 c33b a961 d0bc b6d0 0fbd
0.11022486 0.03751645 0.06863389 0.10461355 0.1597565 0.14723651 0.059596807 0.16400003
0.018345509 0.23050714 0.08287328 0.026979217 0.018611059 0.14616883 0.058576155 0.23558642
0.1810737 0.070302434 0.07950276 0.0749883 0.06746228 0.05138231 0.17221183 0.275911
0.081221856 0.18825944 0.025085028 0.0077356943 0.16880536 0.14003712 0.045598097 0.07619666
0.20301382 0.066016 0.01508706 0.0069715558 0.14731221 0.05150048 0.17530726 0.096042484
0.066724956 0.045297068 0.19417302 0.06667202 0.112310864 0.032961473 0.103550315 0.24866365
0.08543586 0.25547856 0.10279618 0.09286625 0.096518375 0.27466363 0.03447233 0.07424162
0.12178038 0.20005232 0.06984993 0.03818364 0.26865503 0.062932506 0.019507902 0.1479396
0.093753405 0.115417734 0.26558635 0.20093991 0.20770943 0.0062757335 0.07756068 0.21452782
0.16974583 0.19473755 0.009516998 0.053662945 0.25271446 0.27969575 0.041520707 0.03563401
0.048647743 0.062012676 0.2412893 0.13946457 0.032887746 0.06727056 0.097797684 0.04411905
0.099812 0.049821846 0.03712483 0.122003436 0.09908937 0.18075737 0.06344635 0.08443411
0.06767187 0.06629362 0.04444725 0.0056007877 0.0018821188 0.020885717 0.038206514 0.0053362926
0.04180789 0.02636362 0.030361805 0.0073272255 0.008763047 0.001897813 0.017919894 0.052527636
0.048911415 0.011924759 0.04860839 0.00302027 0.026910694 0.024383448 0.022754937 0.31275392
0.051439762 0.046107642 0.023868978 0.018075608 0.026191106 0.0019203974 -0.0017616879 -7.973621e-05
0.019780409 0.033967484 0.008402717 0.011071269 0.021104414 0.029135505 0.005758512 0.010386717
0.007871477 0.03003505 0.009169324 0.021770991 0.0249939 0.0013017822 0.01961483 0.020962982
0.012725914 0.027752165 0.052087672 0.0405238 0.060428604 0.028543482 0.011720628 0.0013495964
0.0057122363 0.1528714 0.026144832 0.03544976 0.0035976102 0.0041904193 0.013842303 0.014766035
0.041722726 -0.007928312 0.022815371 0.051019754 0.011330256 0.00043439923 0.061997015 -0.019632408
0.027602319 0.004662855 0.0023319565 0.00625488 0.0017083875 0.0585771 0.024000164 0.02009414
-0.0007821343 0.041366156 0.009225008 0.039508685 0.001341096 0.03954103 0.00093090127 0.0020885323
0.031952884 0.02417406 0.031024488 -0.010884862 0.053659365 0.005591341 0.03492374 0.045661677
-0.1307085 0.08387134 -0.049438056 -0.04449638 -0.01574163 -0.050815336 0.10606995 -0.013311336
0.0018898229 -0.08803206 0.08841613 0.02084508 -0.021786809 0.07211756 0.009657268 0.0808778
-0.0002664604 -0.08390173 0.13790071 0.1092431 0.07801708 -0.1240171 0.12955427 0.24955393
-0.03773317 -0.032925706 -0.05594729 0.018271776 -0.11209339 0.07771015 -0.048047375 -0.05356961
-0.15090695 -0.0680335 -0.014595715 0.054343857 0.088444985 0.07041392 0.027087713 0.043553993
-0.059428494 0.038764205 0.10343068 0.025260784 0.02609518 0.09367064 0.0142276455 -0.12285653
-0.03525486 -0.051657356 -0.09580873 -0.08173614 -0.15148896 0.00526152 -0.07473098 0.04339778
0.03171708 -0.090687245 -0.031124396 -0.033246867 0.12102603 0.0059532747 -0.025437193 -0.03511115

rios_f.RIOS_H.rnn_cell0.bias_hh f4 [384]
00000000: 4ebd e13d 9edc 113d aa65 8d3d 04e9 d53d
00000010: 0d42 e93d 81c3 173e c81b 743d ba79 263e
00000020: 5249 963c f309 6c3e adc7 933d 2274 ce3c
00000030: 3876 983c 61cd 153e 57d9 7e3d dca6 703e
00000040: bcfb 323e 85e6 2c3d 67d4 a23d a66a aa3d
00000050: ad29 8a3d 412e 523d 420f 253e 9744 8d3e
00000060: cdbe a63d aa5f 383e 3d7f cd3c 9a7b fd3b
00000070: 37df 2c3e 9662 0f3e 6e1c 433d 0010 973d
00000080: fc8d 5a3e a33c 7b3d 7e30 773c a671 e43b
00000090: 9f4e 173e 3f4d 533d 7eda 323e f821 013e
000000a0: 2157 883d ade0 383d e84c 563e 578b 883d
000000b0: 0bf9 e53d 9c02 073d 283f d03d 4191 7f3e
000000c0: ea9f ae3d e481 823e 46e7 d23d c543 be3d
000000d0: 6dab c53d c99e 8c3e 6b34 0d3d 1479 993d
000000e0: 0f9a 153e efb9 3a3e b7c1 933d 3f57 8f3d
000000f0: e257 883e 5040 813d 10cf 9f3c f4b8 0d3e
00000100: f602 c03d 7a35 003e 1bd7 873e 585f 443e
00000110: ceb1 543e aba4 cd3b 2827 9e3d bbac 5b3e
00000120: 00d5 2d3e ecf7 473e 2fed 1b3c 97b8 613d
00000130: 6a2c 7e3e 4596 8a3e b433 293d e30b 123d
00000140: 43c3 483d 0101 7e3d 2539 773e b6ce 0e3e
00000150: f63b 0a3d 26c5 893d 987f e63d bb7b 333d
00000160: 1cb3 cc3d 0534 4c3d 5412 183d de11 133e
00000170: 98f3 ca3d e5d7 393e 700f 823d 9945 ac3d
00000180: 7997 8a3d 8852 e13c d3d2 263d d086 b73b
00000190: 6db1 f63a 8618 ab3c 6d7e 1c3d 08dc ae3b
000001a0: c03e 2b3d 70f8 d73c 2ec3 153d 3919 f03b
000001b0: e292 0f3c 07c3 f83a becc 923c 138b 583d
000001c0: 330e 303d 6104 473c 133b 473d b9ef 453b
000001d0: d673 dc3c ccbf c73c f355 de3b 19c7 9f3e
000001e0: 7fb2 523d fa9d 653d 019a c43c 4c13 943c
000001f0: bb8e d63c d8b5 fb3a a45c 8cba 7b39 a7b8
00000200: 2fe6 a23c 6589 113d 8dab 093c 4564 353c
00000210: 84d4 ac3c 1f28 ea3c c754 1a3b b2bb 99bc
00000220: 5ef7 003c 2b67 f33c 88fa 37bc 2157 b23c
00000230: 3949 b63c 90a0 aa3a 48af a03c 7b87 853c
00000240: 4284 503c a174 e03c 22fa 563d a441 263d
00000250: fc83 773d c192 aa3c 5ed8 333c 17e7 b03a
00000260: b62d bb3b f128 203e 7005 e93c 48cb 0f3d
00000270: 44c2 173c 855e 863b f7f6 603c 3ded 713c
00000280: c4e4 2a3d 86c0 83bc f0b7 ba3c db02 213d
00000290: 89a2 393c 14c0 e339 96f0 7d3d 25d4 a0bc
000002a0: 021c e23c ddca 983b abd2 183b bdf5 cc3b
000002b0: 4c40 3a3c b90a 6a3d 0a24 c53c 779c a43c
000002c0: 578b bcba 8f6f 293d b3e4 3b3b 11de 213d
000002d0: b7c7 af3a c6f5 213d ba07 743a c2df 083b
000002e0: 29f2 023d af08 c63c 29af 8b3c 9702 213c
000002f0: 7bca 5b3d 2d39 b73b 2da4 0f3d 283a 293d
00000300: 81d9 07be 8ae3 2e3d 3376 a9bd b174 a3ba
00000310: 5731 023d 6872 4b3c 723e d93d fe79 e5bd
00000320: 1299 42bb 4d84 00be 99ca 663b c192 15bd
00000330: a8a5 fabc d29d 19bd 793c 913d 3a67 e53d
00000340: e7cb 05be ca0a a7bd b636 0f3e f082 c83d
00000350: ae1f 843d c1fe fdbd eaf9 113e 30b1 6c3e
00000360: 70c0 aebd b8b2 f8bd b1e6 a1bd 9de4 dd3c
00000370: f6f9 18bd c17c f03d e4d4 4cbc 2092 5f3d
00000380: 8e3e 3fbd 2507 2b3d c192 3bbd 87ab 2f3d
00000390: 9f34 00bd 158d 6b3a 55e6 86bd 5a4a 9f3d
000003a0: 14d0 13bc 0bc1 eb3a 5e6b 71bd 2957 733a
000003b0: f53e 8b3d 0af9 43bc 1a01 313d 2909 22be
000003c0: b1da 81bd 0dc3 0fbe ae7e 70bd a6ba d0bd
000003d0: 7fc2 1abe 1ee6 1fbc c7d5 7dbd c623 4d3d
000003e0: 587c e2bd 2745 16be e456 9d3c 6f2e 4cbd
000003f0: 53f4 133d 59b2 34bd d7a3 3fbb 551d a3bd
0.11022435 0.035610788 0.069041565 0.10444835 0.11389551 0.14820673 0.059596807 0.16257372
0.018345509 0.2305067 0.072158195 0.02520186 0.018611059 0.14629127 0.06221899 0.23501152
0.17478842 0.042212028 0.07950669 0.08321123 0.0674623 0.051313642 0.16119102 0.27591392
0.08141861 0.18005243 0.025085086 0.0077356817 0.16882025 0.14002451 0.047634535 0.07376099
0.21343225 0.061337125 0.015087245 0.0069715558 0.14776085 0.05158734 0.1746616 0.12610614
0.066572435 0.045136143 0.20927775 0.06667202 0.11229142 0.032961473 0.10168296 0.24957754
0.08526595 0.25489724 0.10298018 0.0929027 0.096518375 0.27464893 0.034473818 0.07493797
0.1460955 0.1823499 0.072146825 0.06999063 0.2662955 0.06311095 0.019507915 0.13840085
0.09375565 0.125204 0.265313 0.19176996 0.20770952 0.0062757335 0.07722312 0.2145261
0.16975784 0.19528168 0.009516998 0.05510768 0.2482163 0.27067772 0.041309074 0.035655867
0.04901434 0.062012676 0.24142893 0.13946041 0.03374859 0.06727056 0.11254805 0.04381917
0.099951 0.049854297 0.037126854 0.14362285 0.09909743 0.18148763 0.06350601 0.08411712
0.06767172 0.027505174 0.0407284 0.0056007877 0.0018821188 0.020885717 0.038206507 0.0053362884
0.04180789 0.026363581 0.03656309 0.0073272255 0.008763047 0.0018979021 0.017919894 0.052867007
0.04298229 0.01214704 0.048640322 0.00302027 0.026910704 0.024383448 0.0067851483 0.31206587
0.05143976 0.05605886 0.023999216 0.018075608 0.026191106 0.0019203974 -0.0010708761 -7.973887e-05
0.01988515 0.03553142 0.008402717 0.011071269 0.02109743 0.028583584 0.0023549066 -0.018766258
0.007871477 0.02971228 -0.011229165 0.021770062 0.022251712 0.0013017822 0.01961483 0.016299954
0.012726845 0.027399363 0.05248464 0.040589944 0.060428604 0.02082193 0.010976879 0.0013496605
0.0057122363 0.15640618 0.028444976 0.035105973 0.009262625 0.004100623 0.013730756 0.014766035
0.041722074 -0.016083013 0.022792786 0.039309364 0.011330255 0.00043439923 0.06199702 -0.019632408
0.027601246 0.004662855 0.0023318927 0.00625488 0.011367869 0.057139132 0.024065036 0.02009414
-0.0014384788 0.041366156 0.002867025 0.03951842 0.001341096 0.03954103 0.00093090127 0.0020885323
0.031969223 0.024174063 0.017051296 0.009827278 0.053659897 0.0055915327 0.03506868 0.041315228
-0.13266565 0.042697467 -0.08274498 -0.001247069 0.031785335 0.012417413 0.106076136 -0.11204909
-0.0029693288 -0.12550469 0.0035215972 -0.03651691 -0.03059657 -0.037504025 0.07091612 0.112013295
-0.13066064 -0.08156355 0.13985714 0.09790599 0.06451355 -0.12402106 0.14255491 0.23114467
-0.08532798 -0.12143463 -0.07905329 0.02708655 -0.037347756 0.11742545 -0.012501929 0.054582715
-0.046690516 0.04175486 -0.045794252 0.04288819 -0.031300183 0.00089855614 -0.06586901 0.07777853
-0.009021778 0.0017986608 -0.058940284 0.0009282702 0.067991175 -0.011961231 0.04321394 -0.15823807
-0.0634054 -0.1403925 -0.05871456 -0.1019185 -0.15113257 -0.009759454 -0.061971452 0.050082944
-0.11058873 -0.14674817 0.019206472 -0.04984897 0.036121678 -0.044115398 -0.0029241943 -0.07964579

rios_f.RIOS_H.rnn_cell1.weight_ih f4 [384, 2]
00000000: ab9b 153d 257b fb3b b228 1dbc 2056 fbba
00000010: ae09 da3b f786 3fbc 3a74 b83b acee 4e3b
00000020: dd85 ec3a 4389 6f3b 5278 5d3d d3af e73c
00000030: 5d54 70bb dba8 f7bb 2dfd 29bb 04ea e5bc
00000040: 9677 663d 2305 f63a 6b00 6a3b 9eae d2bc
00000050: b412 923b b5ee 12bc e147 613b 44ff e2bb
00000060: b8db 2e3c 787a c5b8 edf8 273b c9b0 ca3a
00000070: 1b10 d83b 8295 80bc e708 d13c fa33 fdbc
00000080: dd34 d7bc 8bd7 093a 009c c23b 0a9a 2d3c
00000090: 56ca f2ba 9627 61bb 95e0 6b3a 1210 dabb
000000a0: b318 913c d9a8 bb3c 9b30 203c ce53 b339
000000b0: cb55 e33c ee71 11bd dc2f 8c3e d8f2 8f3c
000000c0: 9753 213c 994c 8fbc 2f29 f439 69c7 b6ba
000000d0: f8fa 99bb b4b9 7dbb 53b8 cf3b 1a43 293b
000000e0: 36c9 4a3d 6382 edbc 057b 073a 7a85 ad3a
000000f0: e4d2 f03b 12df 3c3c 68eb 403b d3ed 853b
00000100: 0d41 b23b efae b63c 3c6d 1e3c b713 9ebb
00000110: f325 ef3b 99e4 a63a 7b74 c13b 2f34 f33a
00000120: 20cc 803d 0409 8dbc d0d2 823b 3c05 c0bb
00000130: 6937 de3b 81aa 6cbc c3ce 0bbc 41d3 763c
00000140: 61bb b33b 71da ed3b 5b5f c63b ed9c a4bb
00000150: b47a 8aba 8613 d93b 5ee0 e8bb f310 0fbc
00000160: d5e0 253c dfcc 333c c386 9b3a 34e7 9d3a
00000170: 10d5 f93a c832 7a3b 4d26 c43c 1718 b9bc
00000180: 8547 553c 9d73 d5ba 2703 083c 07ca 8abc
00000190: 141b e2bc 0dd2 6bbd d71e a83b ed0a 65bb
000001a0: 1d88 623a b470 49bc a55a 3a3c f02e 603c
000001b0: 7f11 b1bb 9d9c 45bc a6f0 f43a 1648 6f3b
000001c0: 9ec6 3e3b 4466 803b 9c43 0cbe 0531 cdbe
000001d0: ffc7 0f3c 3437 e8bb 6ace c53c 354d 30ba
000001e0: af78 3a3c 9452 03bd 5831 313c e012 313b
000001f0: 7c81 e8bb e69a 31bc 3f64 b73c 5cc6 173b
00000200: 8374 a53a 8bdf 9fbb 7c5e 94bd ab14 bf3c
00000210: 8147 a3bb 073c ddbb 967b 2e3d a56b 7e3c
00000220: af17 1c3c 70d1 8abc 79dd 63b9 b80b d139
00000230: c787 173d 95da a23c eea0 2d3d 9c66 953b
00000240: 420b 1b3d d7c3 7b3c 0b94 5f3a 3239 7bbc
00000250: 408d 2c3b f4fd 93ba 5caa b8bb eb8e 2ebb
00000260: f6d2 bebc 808e 2b3d b946 3cbc 5d66 6bbc
00000270: ed87 64ba 17d9 2cbc 8a22 6f3b f46f d0bb
00000280: d2d4 a03a 987d 043a 328e 45bb 8e14 bcbb
00000290: 8912 8dbd 5d50 14be da19 b0bb 6c59 4d3a
000002a0: 2cea 8eba 363b 4abb 6e10 863b 398c e3bb
000002b0: 9169 983b 82da 8f3a 69f7 4e3a f039 a4b9
000002c0: 2847 23bd db00 0cbd f571 b8ba 7688 97bc
000002d0: 0ab7 f23b c482 2d3b 1890 d13c fc57 8c3b
000002e0: bdb3 c03b 493b 0d3b 952e d23c 6850 f03a
000002f0: c111 3c3b f73f 043c 6eb2 243b c443 9cbb
00000300: aad2 733d b968 e83a 8d5e 13bc 451a 01bc
00000310: 6914 d73b f6e2 e1bb 0ae3 d13b d195 f73b
00000320: a1e9 25bb 5794 5db9 1909 393d 3c2c bb3c
00000330: 129c 63ba cef4 2fbc 96be af3a 1de9 13bd
00000340: 34f6 ec3d 3de0 823d a266 883c 4306 65bd
00000350: 7c53 bb3b 705f 43bc 34b2 973b e93d e8bb
00000360: b560 443c ac7b d838 da2b a0ba cf23 59ba
00000370: 4480 303c 2d3c 5dbc 242a e43c 1f77 bebc
00000380: f8b6 29bd 9947 28bd b56f 75bc 25c0 573a
00000390: 5884 0a3b e785 a2bb 2824 1e3b a9a0 d8bb
000003a0: d5c8 a43c 2067 bb3c 966a 9c3b ed2e bb3b
000003b0: 4bd1 1cbd b185 56bc b2f3 923d bbbd 5f3d
000003c0: d54e c53a bddc cfbc 0b8d 773c 35b9 323d
000003d0: 0920 aeb9 1d11 c8bb 1810 213c 7922 8d3b
000003e0: 8e48 a83d 7482 873c 37a4 c6b9 d68e 10bb
000003f0: 5157 4c3c c3ad 913c 65ff 3f3a bb27 5a3b
0.03652541 0.007674592 -0.009592222 -0.0019175448 0.006653986 -0.011689893 0.0056290897 0.0031575365
0.0018045265 0.003655032 0.054069825 0.028282082 -0.0036671378 -0.007557971 -0.0025938258 -0.028065689
0.05626639 0.0018769841 0.0035705816 -0.02571803 0.004457796 -0.008968045 0.0034375119 -0.0069274027
0.010672502 -9.4165036e-05 0.002563055 0.0015464063 0.006593717 -0.01569629 0.02551694 -0.030908573
-0.026270324 0.00052582537 0.005939007 0.010595808 -0.0018523436 -0.003435587 0.0008998004 -0.0066547478
0.017711973 0.022907661 0.009777213 0.0003420398 0.02775087 -0.035509042 0.27380264 0.017571852
0.0098465895 -0.01749258 0.0004656999 -0.0013944927 -0.0046991073 -0.0038715424 0.006339112 0.002582735
0.049508296 -0.028992837 0.00051681726 0.0013238632 0.007349359 0.0115277935 0.0029437188 0.0040871887
0.0054398836 0.022300212 0.009669598 -0.0048241275 0.007298225 0.0012732922 0.005903778 0.0018554981
0.06288934 -0.017216213 0.003992416 -0.005859999 0.0067815077 -0.014444948 -0.008533183 0.015065015
0.005484984 0.0072587063 0.0060538477 -0.00502359 -0.0010565133 0.006624642 -0.007106825 -0.008732068
0.010124405 0.010974138 0.0011865724 0.0012047053 0.001906069 0.003817724 0.023944044 -0.022594495
0.01301754 -0.0016285066 0.008301533 -0.016942037 -0.027600802 -0.057573367 0.0051306295 -0.003494914
0.0008641498 -0.012294937 0.01137415 0.013683066 -0.005403697 -0.012061265 0.0018687441 0.0036511472
0.0029110084 0.003918441 -0.13697666 -0.4007646 0.00877571 -0.007086659 0.024146277 -0.0006725372
0.011381312 -0.032061175 0.010814987 0.0027019307 -0.007095514 -0.010840153 0.022386668 0.0023159003
0.0012623224 -0.0048789433 -0.07244584 0.023325285 -0.004982889 -0.0067515406 0.04259833 0.015528594
0.009527131 -0.01694557 -0.00021730912 0.00039872318 0.03699472 0.019879619 0.042389803 0.004559351
0.037852533 0.015366516 0.0008528835 -0.015333461 0.0026329309 -0.0011290894 -0.005635543 -0.0026635479
-0.023293953 0.041883945 -0.011491471 -0.014367667 -0.0008717764 -0.010549805 0.0036489093 -0.006361002
0.0012270457 0.00050541153 -0.003014457 -0.005739755 -0.06888301 -0.14483781 -0.0053741755 0.00078334543
-0.0010903529 -0.0030858046 0.004091314 -0.006944206 0.0046512564 0.0010975155 0.00078951434 -0.00031323684
-0.03986278 -0.034180503 -0.0014072048 -0.018497687 0.007407074 0.0026475647 0.025581405 0.0042829495
0.0058808015 0.002155023 0.025656978 0.001833451 0.0028697106 0.008071891 0.0025130766 -0.0047688205
0.059527077 0.0017731405 -0.008994711 -0.007879798 0.0065637124 -0.006893511 0.006405239 0.0075557013
-0.0025316256 -0.00021131463 0.04517469 0.022848241 -0.0008682619 -0.010739518 0.001340824 -0.036110986
0.11570397 0.06390426 0.016650502 -0.055914175 0.005716739 -0.01192461 0.0046293978 -0.0070874584
0.011985947 0.00010322718 -0.00122201 -0.0008283229 0.010772768 -0.013503117 0.027852125 -0.02325016
-0.04143426 -0.041083906 -0.014980246 0.0008230231 0.0021136012 -0.00495981 0.0024130438 -0.006610949
0.020115295 0.022876322 0.004773448 0.005712381 -0.038285535 -0.013093398 0.071753874 0.0546243
0.0015053401 -0.02537381 0.015109311 0.04363366 -0.00033211734 -0.0061055557 0.009830497 0.004307088
0.08216964 0.016541697 -0.00037887853 -0.0022057793 0.01247199 0.017783051 0.00073241285 0.0033287841

rios_f.RIOS_H.rnn_cell1.weight_hh f4 [384, 96]
00000000: b4b2 acba 3d5a cb3c f7b1 e3bc 7561 7fbb
00000010: 39c3 beba 1513 6f3c 9bbf c73c 5295 b73a
00000020: 0d78 673c cbbd c33c c135 e33c 93ee 7abc
00000030: 1081 4abc 6c51 4cbb 8349 5ebc a9e0 76bc
00000040: 5900 b33c df55 153c 6871 da3c 2c2e deba
00000050: 5e75 573c f4b0 a8bc 5d03 033c c13f 3d3d
00000060: 481a a3bc 999d b5bc 4575 b8bc 7c32 12bc
00000070: 30fe 93bb 732c 68ba b28d 5fbc 8e76 633b
00000080: 3c33 963b 634c dabc 043b 2fbc 1dd6 243c
00000090: 3a38 50bc 0342 c93c 8d25 8fbc 7f79 693c
000000a0: b7fb 0bbc 67de c43c 98f8 943c dd1b bb3c
000000b0: f745 a13c daaa df3a 0218 34b8 6c5f bbbc
000000c0: 89d6 aebc 969d 473c 3191 a73a 7325 ddbc
000000d0: c3d9 eebc b616 31bc 23f7 9ebc 18c9 733b
000000e0: 890b 213b 45ac 39bd 24b6 e23c 680d aeba
000000f0: 7a35 b43b 7af9 743c 8649 b6bc e551 f3ba
00000100: e400 e0bc c559 973c 844c 3f3b 9294 c73c
00000110: 498b 90bc 5c73 3239 2dad 5a39 4513 afbc
00000120: 4664 33bc 0120 9bba 3a48 c63b 645a 60bb
00000130: d93c 463b d28c b1bc 6bfc c1bc 7e6c a3bc
00000140: ab3f 863b 769c c93c da33 1cbc 8cec d7bc
00000150: 69c2 203b 3e58 c4bc 93d4 9b38 d0c8 653a
00000160: 8c3d ab3c 2e08 83bc 510b c2bc 9419 9c3c
00000170: 53fb e43c c37c cd3b c6b2 71bb c27e e53c
00000180: c7f8 1fba d5fd 863c 965c 9abc f39f 2bbb
00000190: 4584 22ba fef0 003c bc48 843c 7a39 fc3a
000001a0: 3da0 253b d7d2 893c 7b1f 9c3c 28ef 10bc
000001b0: 9034 04bc 9abd 11bb 8202 d7bb 69b0 bbbb
000001c0: 2b60 ec3b 084a 823b 44b2 923c f175 03bb
000001d0: 3fe6 613b 157e 4dbc ad34 033b 0728 f23c
000001e0: 80b5 a6bb 1796 57bc 9266 6fbc 0c73 b2bb
000001f0: 907f cfba d541 dfb9 53e0 05bc 9bab 123b
00000200: 7b00 0b3b 67f2 90bc f805 e2bb 6840 cb3b
00000210: 2351 e7bb 20e3 823c 59d9 e0bb 3685 153c
00000220: e72f 6bbb 3b89 803c 7f11 3a3c 19f7 7d3c
00000230: 7b77 423c 667e 8b3a ca6b 78ba 5685 70bc
00000240: 822a 61bc 9a4e 893b 7ae0 7a3b b928 95bc
00000250: 7ee1 a3bc 1317 f8bb 3bba 4fbc f633 363b
00000260: 8308 8a3a 6337 6cbc 9f68 9b3c ea64 973b
00000270: fdea 5a3b f946 1e3c ab36 70bc 1f57 c2b9
00000280: d98f 99bc 8041 543c 4a6d e5ba 90be 763c
00000290: dbbd 41bc 2910 6339 f787 453b 69b8 0ebc
000002a0: 15ec 02bc fe8b 1cb9 403c 8c3b 7c67 13bb
000002b0: 99f7 d83a 0473 8bbc ef26 7cbc ba44 44bc
000002c0: c935 513b d0bb 823c 7a6a e2bb 195f 94bc
000002d0: 6eb7 fa3a 5fd4 76bc 7132 b239 9663 923a
000002e0: 7cf3 543c 0508 33bc 6c80 7bbc 4d29 393c
000002f0: e72a 9c3c da55 823b 7f9b 04bb 42b1 9c3c
00000300: 2694 10ba 6ade 893c b411 a3bc 8b73 2bbb
00000310: 1116 0fba 6ce7 b13b 2927 8c3c bd87 fe3a
00000320: 32b8 0f3b 9338 8c3c ec30 a23c 5312 37bc
00000330: 69a4 0ebc 13d0 16bb 7642 06bc f573 b6bb
00000340: 51cd 183c 707c 883b 9b13 9a3c 3b2f 05bb
00000350: 3e2e 3b3b 24fb 67bc f50a 623b b741 c83c
00000360: f165 8abb 31a8 66bc 1f94 7abc 7928 c5bb
00000370: 97ae 64ba 9321 e9b9 e1f6 11bc cef6 133b
00000380: 50d2 1b3b 9078 99bc 2c74 f4bb 21f6 e43b
00000390: d6f5 b9bb 791e 8d3c e1db c9bb bbfc 193c
000003a0: 8455 4ebb 7841 873c 07be 433c d404 853c
000003b0: 9f19 5c3c 6226 ad3a ced3 9fba a78d 6cbc
000003c0: 030f 7abc 5097 533b 4be4 973a 0829 9cbc
000003d0: 7ecc abbc 4ddc ebbb bff9 5bbc 4d09 3e3b
000003e0: 0d55 513a a6e8 b6bc 3666 9f3c 9370 c23b
000003f0: e906 703b b101 2d3c da42 7ebc a946 a0b9
-0.0013175816 0.024823302 -0.027794821 -0.0038968 -0.001455403 0.014591952 0.024383357 0.0014006293
0.014127743 0.023894211 0.027735593 -0.01531567 -0.012359872 -0.003117646 -0.013567331 -0.015068212
0.021850752 0.009114712 0.026665404 -0.0016951016 0.013150541 -0.02059219 0.007996407 0.04620338
-0.019909993 -0.022169875 -0.022516856 -0.008923169 -0.0045163855 -0.0008856721 -0.013644623 0.0034708115
0.0045837443 -0.026647752 -0.010695223 0.010060814 -0.012708718 0.02456761 -0.01747396 0.014250158
-0.0085439 0.024031831 0.018184945 0.022840435 0.019686682 0.0017064468 -4.2937703e-05 -0.02287265
-0.021342533 0.0121835675 0.0012784359 -0.026995396 -0.029156571 -0.010808637 -0.019404953 0.0037198719
0.0024573526 -0.045330305 0.027674742 -0.0013279142 0.005499539 0.014952058 -0.022251856 -0.0018563835
-0.027344175 0.018475423 0.0029189894 0.024362836 -0.017644541 0.00017018378 0.00020854613 -0.021371493
-0.0109492 -0.00118351 0.0060510905 -0.0034233565 0.003024867 -0.021673594 -0.023679933 -0.019949194
0.0040969453 0.02461074 -0.009533847 -0.026357912 0.002452994 -0.023967858 7.430571e-05 0.000876558
0.020903371 -0.015995111 -0.023687037 0.019055165 0.027951872 0.0062709763 -0.003688024 0.028014544
-0.00061024394 0.016478458 -0.018842977 -0.0026187866 -0.0006199519 0.007869957 0.016147964 0.0019243204
0.0025272511 0.01682417 0.01905798 -0.008846082 -0.0080691725 -0.0022238255 -0.0065615783 -0.005727817
0.0072136126 0.0039761104 0.01790727 -0.0020059312 0.0034469513 -0.012542267 0.002002041 0.029560102
-0.0050875545 -0.013158343 -0.014611857 -0.0054458436 -0.0015830863 -0.00042582923 -0.008171159 0.0022380117
0.0021210003 -0.017693711 -0.006897684 0.006202746 -0.007059233 0.015977442 -0.0068618474 0.009125998
-0.0035886706 0.015690437 0.01135671 0.015500807 0.011869307 0.0010642528 -0.0009476511 -0.014680227
-0.013743045 0.0041902782 0.003828077 -0.018207895 -0.020004984 -0.00757111 -0.012678678 0.0027801967
0.0010531101 -0.014417502 0.018970786 0.004620184 0.0033404224 0.009660476 -0.014661471 -0.00037067474
-0.01874535 0.01295507 -0.0017503884 0.015060082 -0.01182505 0.00021654427 0.0030140856 -0.008710959
-0.007990857 -0.0001492947 0.0042796433 -0.0022492101 0.0016553282 -0.017022617 -0.015390142 -0.011979276
0.0031922928 0.015958697 -0.0069096657 -0.018111752 0.0019128153 -0.015065282 0.00033988387 0.0011168595
0.012997504 -0.010927205 -0.015350442 0.011301351 0.019063426 0.0039775195 -0.0020234284 0.019127492
-0.000551524 0.016829688 -0.019905902 -0.0026161398 -0.0005458305 0.005429199 0.017108517 0.0019419115
0.0021929857 0.01711682 0.019798718 -0.011173802 -0.008706191 -0.0023012205 -0.008194556 -0.0055680224
0.009326295 0.0041652247 0.018808177 -0.002032234 0.0028561498 -0.014158998 0.0034491394 0.024445398
-0.004223578 -0.014078186 -0.015294104 -0.0060167876 -0.00087235257 -0.00044466238 -0.008908958 0.0022577527
0.002377648 -0.018734246 -0.007460138 0.0069873487 -0.005675058 0.017226445 -0.006160245 0.009398635
-0.0031484077 0.01651071 0.0119471615 0.016237654 0.013433843 0.0013210292 -0.001219386 -0.014438069
-0.015262368 0.0032286234 0.0011588422 -0.019062534 -0.020971533 -0.0071978928 -0.013426243 0.0028997243
0.0007985391 -0.022327732 0.019457918 0.00593383 0.0036625213 0.010559485 -0.015518868 -0.00030570224

rios_f.RIOS_H.rnn_cell1.bias_ih f4 [384]
00000000: 0d44 933d 6b93 763d de77 a13d 4503 123c
00000010: 525e 253b 1c0f 2a3d c3e8 6a3d c27f 343c
00000020: 65fd ba3d 8b02 a43d 2163 9f3d 8f47 de3c
00000030: f7b0 e63c 6829 ca3b a991 c43c 28c9 3d3d
00000040: 5c95 b73d b224 0d3d 00d1 893d 11f2 b43b
00000050: c79e 473d 4018 2a3d 74e4 a33d b0ee ec3e
00000060: 8f92 7d3d a689 783d c05a 353d b285 9c3c
00000070: 25dd 993d 1e0a 9c3b 233d b63c 5a81 973b
00000080: 7615 c23c dcef 8b3d 9337 ba3c f070 9f3c
00000090: a6ad 233d b409 6a3d 4688 373d 0c80 283d
000000a0: 973b e63c fafd 583d d11a 523d 3ff2 693d
000000b0: 8e7d 283d 0521 363b 8172 1b3d 2918 763d
000000c0: 51dc 5c3d 101a 483d 585d dc3d 6925 933d
000000d0: 670b b23d f8fa 253d 2e37 1f3d d0f3 d03b
000000e0: 1642 f43b f7f9 ac3e 2aca 9d3d 803c 623d
000000f0: 6189 ac3c 41f3 033d 58ba 463d 2172 913c
00000100: 24f4 a63d 706d 693d fd91 8d3d 8255 863d
00000110: 4ba7 383d 75d2 1f3a 45f2 7e3d 156e 673d
00000120: ec78 fc3d 5746 e53b b70e 2b3c e4a0 2e3c
00000130: 0a68 ca3c 8029 d83d 2f6c 5a3d 592a 213d
00000140: d11b 893b 018f 703d 805a b43d e62d 983d
00000150: c422 3a3b 7506 603d 7456 e43a bc51 673b
00000160: 8721 833d 2d24 373d a7e8 593d 01a6 2a3d
00000170: 4923 9c3d 31af a23c 3a03 253d 5d1b a43d
00000180: 46a3 a93d 3164 683d ecd9 643d 3045 1b3c
00000190: 68de bab9 ce93 013d 0bec 3d3d 5cd7 533c
000001a0: d667 ff3d f98d 523d d28e 613d 6173 bd3c
000001b0: c4b1 a93c 4d68 f839 b912 103d 1084 843d
000001c0: b787 a23d da26 903c f349 593d 6d70 553b
000001d0: 42ea ad3d fa28 0a3d 7c62 983d e026 2a3e
000001e0: 6149 8a3d f66d 653d 73a7 2a3d b0c9 c73c
000001f0: fc41 913d b3fe 9e3b 50c3 b83c 2538 263b
00000200: e56e 16bb 7386 4c3d f960 a13c dfc8 9f3c
00000210: 9217 073d c8c2 333d 28b2 c03d ed6c 513b
00000220: 9369 063d 4fef 343d 9a69 ed3c f6ac 273d
00000230: 1a1e 143d 4ff2 273b 0c7e 4f3d dd16 123d
00000240: 39fa 0c3d 9cd0 0c3d 8d98 803d c851 583d
00000250: 40d1 7e3d 77b6 593d 65cd 0a3d b32a 9a3b
00000260: 5882 a73b 605c 1d3c 9a80 6e3d 5bd2 8c3d
00000270: 936e 393c c8bf d13c e855 1e3d 4daa 853c
00000280: 7df9 5c3d b620 813d 35a6 733d 1209 4b3d
00000290: 65c8 0a3d 92ba 71b7 993a a73c 827e b03d
000002a0: 72b3 a53d 148f d93b 8b59 df3b 6f72 203b
000002b0: 1f7d 143d aff3 b13d 9b51 2c3d 7d26 043d
000002c0: 37a9 673a dd1b 413d 8c86 1f3d f376 4c3d
000002d0: 35c4 703a 15aa 2f3d d1b6 673a 1e6c b13a
000002e0: eafa 563d 48a3 3a3d 55a1 3a3d e3ca 8c3c
000002f0: 5075 623d 2dcd a83c 9307 6f3d 2ca4 673d
00000300: 4ec3 c93d e601 063e f350 5ebe 357f 09bd
00000310: 564d 4ebb f166 8a3d 7034 2c3e 2745 013d
00000320: 1481 3f3d ef7b 4e3e b961 5e3e 86e0 dabd
00000330: 205b f3bd 9981 9fbd 7f79 32bc b43c ca3d
00000340: 0850 c7bb 5ccb 7f3d 415c 433e a489 aebd
00000350: 23d2 f23d fd71 08be dfda 6c3e b62e 1e3e
00000360: a3a7 7fbd 2146 08be 4890 00be 9599 62bd
00000370: 6cff 17be 95b0 e53c c5fe c1bc 721b 2f3d
00000380: e180 f03c c42b 4ebe f357 c8bd 15b1 943d
00000390: 8c58 01bd 5beb 363e 8c65 c1bd 3438 d43d
000003a0: 956e ccbd adc2 243e 09d9 643d 1232 303e
000003b0: 0785 ca3d 33d6 df3c d9cf 05bd a4a5 35be
000003c0: b250 30be 835a 583c ac0d 6bbe 0d6e 4fbe
000003d0: e845 68be b0eb 41bd d68e f3bd c36e 183d
000003e0: 1a05 043d 9c1e b6bd 7597 563e ddd8 61bd
000003f0: ab0b 603d d173 be3d 426a 1ebe cc00 e83c
0.07190714 0.060199182 0.07884191 0.008911912 0.0025233221 0.041518316 0.057350885 0.011016788
0.091303624 0.080082975 0.07782579 0.027133731 0.028160555 0.006169487 0.023995237 0.046334416
0.08964035 0.034458824 0.06729317 0.0055220206 0.048735406 0.041527033 0.08002558 0.46275854
0.061907347 0.060678147 0.044276 0.01910672 0.07512883 0.0047619483 0.02224595 0.004623574
0.023691874 0.06832859 0.022731578 0.019463032 0.039960526 0.05713816 0.044807695 0.04113774
0.028104587 0.052976586 0.051295105 0.05711579 0.041135363 0.0027790677 0.037950996 0.060081635
0.053921048 0.04885298 0.107599914 0.0718487 0.08693581 0.040522546 0.038870983 0.006376721
0.007454167 0.33784458 0.07704575 0.05523348 0.021061601 0.032214407 0.048517555 0.017754616
0.08152035 0.056989133 0.06912611 0.06559278 0.045081418 0.0006096729 0.062242765 0.056501467
0.123277515 0.0069969106 0.01044052 0.0106584765 0.024707813 0.105547905 0.05332583 0.039347026
0.004184224 0.05873013 0.08806324 0.074306294 0.002840207 0.054693658 0.0017420785 0.003529652
0.06402879 0.044712234 0.05320039 0.04166222 0.076239176 0.019858928 0.04028628 0.08013032
0.08283095 0.056736175 0.05587189 0.009476945 -0.0003564239 0.0316351 0.046367686 0.012929764
0.12470977 0.051404927 0.055067845 0.023126306 0.020714648 0.00047379956 0.035174105 0.064705014
0.07936042 0.01759665 0.05304904 0.0032568232 0.08491947 0.033730485 0.074406594 0.16616392
0.06752277 0.05601307 0.0416636 0.024388164 0.07092664 0.00485214 0.02255407 0.0025363055
-0.0022954282 0.04993291 0.01969956 0.019504962 0.032981463 0.04388693 0.094089806 0.0031955794
0.032815527 0.044173535 0.028981019 0.040936433 0.03616152 0.0025626605 0.050657317 0.035666335
0.03441832 0.034378633 0.06279097 0.052812368 0.062211275 0.053152528 0.033887286 0.004704797
0.0051119737 0.009604543 0.058228113 0.068760596 0.011317867 0.025604144 0.038656145 0.016316557
0.053948868 0.06305067 0.05948468 0.049569197 0.033882517 -1.4408159e-05 0.020413684 0.086178795
0.08090867 0.0066393707 0.0068160943 0.002448227 0.036252137 0.08689057 0.042070013 0.032263268
0.00088371657 0.047145713 0.038946673 0.049918126 0.00091845106 0.042886812 0.00088391925 0.001353625
0.052485384 0.045565873 0.045564014 0.017186588 0.05528766 0.020605648 0.058356833 0.05655305
0.098517045 0.13086662 -0.21710567 -0.03356858 -0.0031479201 0.06757916 0.16816878 0.03156009
0.046753958 0.20164464 0.21716966 -0.10687356 -0.11882615 -0.07788391 -0.010893225 0.098748595
-0.0060825385 0.062449798 0.19078161 -0.085223466 0.11856487 -0.13324733 0.23130368 0.15447506
-0.06241573 -0.13308002 -0.12555039 -0.05532225 -0.1484353 0.028038302 -0.023681054 0.042750783
0.02935833 -0.20133883 -0.097824 0.07260338 -0.031578586 0.17863218 -0.09443197 0.103622824
-0.09982029 0.16089888 0.055871043 0.172066 0.09888654 0.027323818 -0.032668922 -0.17738968
-0.17218283 0.013205173 -0.22954434 -0.20256825 -0.22682917 -0.04734391 -0.11892478 0.037215006
0.032231428 -0.08892557 0.20956214 -0.055138458 0.054698627 0.09299434 -0.15470222 0.028320692
