BRIOS/models/model_file/LST_train/LST_train.pt (torch, 624962 bytes, 26 tensors)

rios_f.RIOS_H.rnn_cell0.weight_ih f4 [384, 2]
0	0x3dae742e	0.08518253
1	0x3c90c8e7	0.017673923
2	0xb5429c2e	-7.2497903e-07
3	0x359a39db	1.1490732e-06
4	0xb092c983	-1.0680171e-09
5	0xb0c63f6a	-1.4424419e-09
6	0x3ea1cae5	0.3160011
7	0x3e48cba0	0.19608927
8	0x37dd30a9	2.6367912e-05
9	0x36c05dd8	5.7329707e-06
10	0xb3c95980	-9.376072e-08
11	0xb5357ae9	-6.760661e-07
12	0xb12a27ba	-2.4760838e-09
13	0x31b9db4b	5.4091394e-09
14	0x37dde113	2.6450061e-05
15	0x36bef675	5.6911326e-06
16	0xb536cb99	-6.8096557e-07
17	0x36a1451b	4.806219e-06
18	0xb035e19d	-6.616803e-10
19	0xb14f099a	-3.0127922e-09
20	0xb85a7102	-5.2080497e-05
21	0xb82ce240	-4.1218707e-05
22	0x37dee758	2.657219e-05
23	0x36bbb8c2	5.594543e-06
24	0xb3f0ffe6	-1.12224186e-07
25	0x3589e6e4	1.0274493e-06
26	0xbd3d952c	-0.04628484
27	0xbc8be47c	-0.017076723
28	0xb62643aa	-2.4775313e-06
29	0xb6e2b69e	-6.7565843e-06
30	0x37ea2c24	2.7915528e-05
31	0x3692b566	4.3722566e-06
32	0x3846211a	4.7237707e-05
33	0xb7ac1fbb	-2.0518773e-05
34	0x32b41a28	2.0966652e-08
35	0xb13eb0a0	-2.7749039e-09
36	0x37de629e	2.6510384e-05
37	0x36bc8fac	5.619562e-06
38	0x30b0622a	1.2833585e-09
39	0x31e83b94	6.758862e-09
40	0x328e0c54	1.6536582e-08
41	0xb1ac797f	-5.0196713e-09
42	0x351f46a0	5.933489e-07
43	0x35674bdd	8.61646e-07
44	0x37e04c5b	2.6738437e-05
45	0x36b4c80c	5.3877066e-06
46	0x37d7e5a3	2.573693e-05
47	0x36d0720a	6.212159e-06
48	0x37df747b	2.6637912e-05
49	0x36b7cbe5	5.4775614e-06
50	0x37e9c6c3	2.786832e-05
51	0x36937b36	4.395285e-06
52	0x37e05cf0	2.6746158e-05
53	0x36b56613	5.4061034e-06
54	0x37ea070c	2.7898255e-05
55	0x3692fcd3	4.3805717e-06
56	0x37db13c1	2.6116033e-05
57	0x36c92f77	5.9957924e-06
58	0xb17c5913	-3.672146e-09
59	0xb243b8f0	-1.1392544e-08
60	0x31057b18	1.9424018e-09
61	0xb09d274e	-1.1434425e-09
62	0x37e300fa	2.7060963e-05
63	0x36a94ba2	5.0453973e-06
64	0x37ea258a	2.7912454e-05
65	0x3693b348	4.4018125e-06
66	0xb0b70c05	-1.3318419e-09
67	0x313ad1a9	2.718574e-09
68	0xb2057f89	-7.770617e-09
69	0xb207519c	-7.87659e-09
70	0x37e174fb	2.6876563e-05
71	0x36b06338	5.2567593e-06
72	0xb4e081a6	-4.1817583e-07
73	0x3597a809	1.1299281e-06
74	0xb617b9bc	-2.2608865e-06
75	0x35c28e5e	1.4495561e-06
76	0xaf976076	-2.753528e-10
77	0xb1abfb5e	-5.005332e-09
78	0x378edfc5	1.703192e-05
79	0x3753b4be	1.2618662e-05
80	0x37e22253	2.6957283e-05
81	0x36adc20f	5.178393e-06
82	0x37f2a412	2.892505e-05
83	0xb797f200	-1.8113293e-05
84	0xafdbc5fc	-3.9976544e-10
85	0x3192e707	4.275424e-09
86	0xb42c1889	-1.6027674e-07
87	0xb56903d4	-8.6804835e-07
88	0x37daf6be	2.6102523e-05
89	0x36c814e3	5.962896e-06
90	0x30c5c7ef	1.4390461e-09
91	0x324f99e4	1.20839765e-08
92	0xb4c37d0a	-3.6412558e-07
93	0xb68acc1a	-4.136481e-06
94	0x30ebf248	1.7167361e-09
95	0x2fbf6d54	3.482038e-10
96	0x3125abe3	2.4108366e-09
97	0x30916426	1.0578602e-09
98	0x3070d5d0	8.7615337e-10
99	0x302f4de5	6.3775324e-10
100	0xbb40a632	-0.0029395935
101	0x3c9eb9a9	0.019375639
102	0x34900759	2.6827436e-07
103	0xb523c1f2	-6.100446e-07
104	0xb1281d7f	-2.4463984e-09
105	0x30c8c311	1.4607356e-09
106	0xb2427109	-1.1317987e-08
107	0xb2eea577	-2.7782091e-08
108	0x37e5a1d5	2.7374286e-05
109	0x36a01fa7	4.7720564e-06
110	0x2e9c5792	7.109614e-11
111	0x31447e4a	2.859354e-09
112	0x3ca2e797	0.019885821
113	0x3e01ed60	0.12688208
114	0x3707da44	8.097446e-06
115	0xb6b2e1b1	-5.3310873e-06
116	0x30accaed	1.2572322e-09
117	0xb1d456af	-6.179867e-09
118	0x37da217e	2.6003221e-05
119	0x36ca69c5	6.0323823e-06
120	0x3d0455a0	0.03230822
121	0x3d3619e5	0.04445829
122	0x33c5f6e9	9.21844e-08
123	0x33adfe74	8.102225e-08
124	0xb20612a1	-7.804062e-09
125	0xb20cce53	-8.195985e-09
126	0x321a07af	8.965727e-09
127	0x31949847	4.324679e-09
128	0xb332650b	-4.1535753e-08
129	0x3406f197	1.2567612e-07
130	0xb1a18173	-4.7004334e-09
131	0xb12ae2d7	-2.48672e-09
132	0x37e2409c	2.6971386e-05
133	0x36ae08dd	5.186636e-06
134	0x317da865	3.6912067e-09
135	0x32123a15	8.511525e-09
136	0xb35abfea	-5.0931625e-08
137	0x3559538d	8.096038e-07
138	0x37dcdcdd	2.6328891e-05
139	0x36c381dc	5.8265705e-06
140	0x30c985df	1.4662723e-09
141	0x3252f7db	1.2279965e-08
142	0x37e3f4f6	2.7174578e-05
143	0x36a530c4	4.9230603e-06
144	0x34d968fe	4.0495792e-07
145	0x35191eac	5.7041575e-07
146	0x37df5ffd	2.662837e-05
147	0x36b8c58e	5.5066257e-06
148	0x37db5c82	2.6149912e-05
149	0x36caa301	6.0390453e-06
150	0xb285b377	-1.5564849e-08
151	0xb3c81412	-9.3168765e-08
152	0xb3db6ab7	-1.02173935e-07
153	0x35a279c3	1.2105378e-06
154	0x37de7f33	2.6523694e-05
155	0x36bbeadb	5.600375e-06
156	0x37de3097	2.6487089e-05
157	0x36bd6cd0	5.6453064e-06
158	0xbd23c19a	-0.039979555
159	0xbd14b804	-0.036308303
160	0x37e12d01	2.6843047e-05
161	0x36b1bc4a	5.296931e-06
162	0x383e9252	4.54358e-05
163	0xb739ebff	-1.1081806e-05
164	0x37e1b734	2.69074e-05
165	0x36b0716b	5.2584123e-06
166	0x37db1c02	2.6119877e-05
167	0x36c7b88d	5.9521467e-06
168	0xb4993543	-2.8537224e-07
169	0xb4910158	-2.7009332e-07
170	0x306cfb8a	8.621376e-10
171	0x31bd34aa	5.506611e-09
172	0x3567b2bb	8.6314293e-07
173	0x3488adf2	2.5458536e-07
174	0x35a747e9	1.2463398e-06
175	0x35fcbb17	1.8829913e-06
176	0x37daf43c	2.6101356e-05
177	0x36c8787e	5.9744916e-06
178	0x37e44fd9	2.72169e-05
179	0x36a4aa0e	4.907378e-06
180	0x37db0ea3	2.611365e-05
181	0x36c8100e	5.9623335e-06
182	0x3e3102f7	0.17286287
183	0x3e16d4fd	0.14729686
184	0xb0df045b	-1.6226623e-09
185	0xb1a1c573	-4.708164e-09
186	0xb1ad6002	-5.0458775e-09
187	0xb130b27a	-2.5712823e-09
188	0x34b622e9	3.3925542e-07
189	0xb40890b3	-1.2718628e-07
190	0x3de22eb0	0.11044061
191	0x3e055736	0.1302155
192	0x3c70ca0e	0.014696611
193	0xbe2aeac5	-0.1669112
194	0xb6bda820	-5.6522113e-06
195	0xb592457d	-1.0898071e-06
196	0xb1bc91a3	-5.488077e-09
197	0x2fefcc69	4.361909e-10
198	0xbd18ebc5	-0.037334222
199	0x3afc6276	0.0019255418
200	0xb8c2e66f	-9.2935625e-05
201	0xb9c38476	-0.0003729199
202	0x3691bf83	4.3436316e-06
203	0x37385a65	1.0988301e-05
204	0xb22d4b71	-1.0087079e-08
205	0x3283d70a	1.5348196e-08
206	0xb8c326c0	-9.305542e-05
207	0xb9c3a120	-0.00037313346
208	0x346f7265	2.2300226e-07
209	0xb6718229	-3.5987562e-06
210	0xb1d5fc2b	-6.227784e-09
211	0xb29cbb3e	-1.8245938e-08
212	0xb995015b	-0.00028420505
213	0xb966bf04	-0.00022005668
214	0xb8c53c19	-9.404886e-05
215	0xb9c4136e	-0.0003739851
216	0xb695c4ab	-4.463441e-06
217	0x3665e57e	3.4257241e-06
218	0xbcf17e13	-0.029479062
219	0xbcd7dd7a	-0.026350725
220	0xb71f99ec	-9.512976e-06
221	0x36d11fc9	6.2323857e-06
222	0xb8d1e819	-0.00010009128
223	0xb9c76625	-0.0003803234
224	0x388338aa	6.257121e-05
225	0xb87a5293	-5.9681548e-05
226	0x32b45dd0	2.0997419e-08
227	0x30ae0652	1.2661963e-09
228	0xb8c4726f	-9.367323e-05
229	0xb9c4029b	-0.00037385974
230	0x31ca3734	5.8852496e-09
231	0x32c43170	2.2839885e-08
232	0x334bec48	4.7479517e-08
233	0x32d0695a	2.4262295e-08
234	0xb6c2e421	-5.8082082e-06
235	0xb41ebe79	-1.478419e-07
236	0xb8c6cf73	-9.480016e-05
237	0xb9c4d2e7	-0.00037541168
238	0xb8b83f8a	-8.785639e-05
239	0xb9c0115c	-0.00036634027
240	0xb8c64ffa	-9.4562725e-05
241	0xb9c47c92	-0.00037476845
242	0xb8d245a9	-0.000100265555
243	0xb9c74238	-0.00038005575
244	0xb8c721c0	-9.495346e-05
245	0xb9c4a628	-0.0003750783
246	0xb8d2d71d	-0.00010053648
247	0xb9c74313	-0.00038006212
248	0xb8be8826	-9.0852656e-05
249	0xb9c22826	-0.00037032476
250	0xb300b295	-2.9964742e-08
251	0xb1a4d219	-4.7969135e-09
252	0x30e998d0	1.6996413e-09
253	0xb27fa06d	-1.487943e-08
254	0xb8cb18b6	-9.684397e-05
255	0xb9c5bcba	-0.0003771538

rios_f.RIOS_H.rnn_cell0.weight_hh f4 [384, 96]
0	0x3d3732b7	0.0447261
1	0x39d548a3	0.00040680644
2	0x35a317c9	1.2151369e-06
3	0xbce99856	-0.028515022
4	0xbd30e2aa	-0.043184914
5	0xb9e8c6c1	-0.00044398571
6	0x36c35c0a	5.8221676e-06
7	0x3d30ae3d	0.043134917
8	0xba31d3c4	-0.00067835697
9	0x38278530	3.9939943e-05
10	0xbc7b81d9	-0.015350782
11	0x3d30b1fb	0.043138485
12	0xb9afb67a	-0.00033514557
13	0xbd145a31	-0.036218826
14	0x3831f0f3	4.242449e-05
15	0xbd302af5	-0.043009717
16	0x3d83bbf3	0.06432333
17	0x383df1db	4.5286357e-05
18	0xbd30d8ef	-0.043175634
19	0x3860c2ae	5.358707e-05
20	0x3834b34b	4.3082324e-05
21	0xb9d04987	-0.00039727634
22	0xbd30c733	-0.04315872
23	0x3d30caac	0.043162033
24	0x3d30d591	0.043172423
25	0xbd3068ee	-0.04306882
26	0xbd309798	-0.04311332
27	0xbd308661	-0.043096904
28	0xbd30a968	-0.04313031
29	0xb618f2bd	-2.2791057e-06
30	0xb895664a	-7.1239265e-05
31	0x3d30cb7f	0.04316282
32	0xbd305db2	-0.043058105
33	0xb8427329	-4.6360456e-05
34	0x382023be	3.818026e-05
35	0x3d30b999	0.04314575
36	0x3a0652cf	0.0005124034
37	0xb706c306	-8.03243e-06
38	0x38140d2b	3.5298213e-05
39	0x3cfd6d23	0.03093583
40	0xbd30aa07	-0.0431309
41	0x3d508cb5	0.05091544
42	0x38301b09	4.198685e-05
43	0xb9c10cd0	-0.00036821375
44	0x3d30ea2c	0.043192074
45	0xb89be9af	-7.434503e-05
46	0xb8b18c65	-8.466168e-05
47	0xb784834b	-1.5796764e-05
48	0xb8409262	-4.5912697e-05
49	0xb6e3f93b	-6.7941414e-06
50	0xbd0c4b8d	-0.03425174
51	0x395716a8	0.00020512438
52	0xb719c215	-9.164699e-06
53	0xb86c5bbb	-5.6352215e-05
54	0xbd30824f	-0.043093022
55	0xb76757e1	-1.3789134e-05
56	0x3cf0c5d5	0.029391209
57	0xbd73d947	-0.059533384
58	0x37d7619c	2.567545e-05
59	0x3d30dc45	0.043178815
60	0x3d8e34f3	0.06943693
61	0x39bed80a	0.00036400586
62	0xb7f94c91	-2.9718767e-05
63	0xb7bb12be	-2.2300865e-05
64	0xb9077ba9	-0.0001292067
65	0x377c3787	1.5033299e-05
66	0x3d30a6bb	0.043127757
67	0xb88c8306	-6.700125e-05
68	0xb9c774c1	-0.00038043226
69	0xbd3062ab	-0.043062847
70	0x375cebcd	1.31679235e-05
71	0xbd30c821	-0.043159608
72	0xba0a82da	-0.00052837806
73	0x3d308b26	0.043101452
74	0x3d30a203	0.043123256
75	0x38bbc52b	8.95358e-05
76	0x39d98384	0.00041487452
77	0x3d30a4e4	0.043126002
78	0x3d306201	0.043062214
79	0xbae9baac	-0.0017832122
80	0x3d307f56	0.043090187
81	0x3d6ad785	0.05733444
82	0x3d307805	0.04308321
83	0x3d30e2d2	0.043185063
84	0xb94bbe75	-0.0001943054
85	0xb84ae633	-4.8374943e-05
86	0x392162be	0.00015390941
87	0xb9fb00d5	-0.0004787507
88	0xbd30c0a7	-0.043152478
89	0xbd30b6b2	-0.04314298
90	0xbd30de2a	-0.043180622
91	0x3ca80050	0.020507962
92	0x37ebb24f	2.8097214e-05
93	0x37880c49	1.6218184e-05
94	0xb9e07a72	-0.00042815838
95	0x3d017110	0.031601965
96	0x36cd602e	6.120673e-06
97	0xb154f32f	-3.0988294e-09
98	0x30abe946	1.2508188e-09
99	0xb5bdb2ec	-1.413367e-06
100	0xb600800e	-1.9148024e-06
101	0x32219f64	9.407675e-09
102	0xb09a1002	-1.1209524e-09
103	0x360094ff	1.9160213e-06
104	0xb3b1ca04	-8.278951e-08
105	0xb13ccd83	-2.747442e-09
106	0xb61b38d1	-2.3129871e-06
107	0x36008612	1.9151526e-06
108	0xb2153434	-8.684811e-09
109	0xb5217cef	-6.0158976e-07
110	0x3350335e	4.8475492e-08
111	0xb6009ee7	-1.916598e-06
112	0x3602fffe	1.9520517e-06
113	0xb038322e	-6.701012e-10
114	0xb6008ec5	-1.915659e-06
115	0x30f6e6ff	1.7964509e-09
116	0x3125316e	2.4038758e-09
117	0x326a1ed1	1.36275995e-08
118	0xb6009972	-1.9162803e-06
119	0x36009451	1.9159818e-06
120	0x36008368	1.9149975e-06
121	0xb6007f51	-1.9147594e-06
122	0xb60088c6	-1.91531e-06
123	0xb6008262	-1.914938e-06
124	0xb600e75f	-1.9208162e-06
125	0x30020b68	4.7309934e-10
126	0xb0165008	-5.4683413e-10
127	0x360086f7	1.9152046e-06
128	0xb6008440	-1.9150466e-06
129	0x30c4a117	1.4306661e-09
130	0x3162cbec	3.3003245e-09
131	0x36008332	1.9149852e-06
132	0xb364ef92	-5.3303275e-08
133	0xb31f200d	-3.7049222e-08
134	0xb0a347f0	-1.1880257e-09
135	0xb38a941c	-6.453067e-08
136	0xb6009be8	-1.9164236e-06
137	0x35e44ac9	1.7009089e-06
138	0xb13e4595	-2.7688192e-09
139	0xb2c51155	-2.29417e-08
140	0x360082a1	1.9149522e-06
141	0x31f91f2a	7.2503967e-09
142	0xb2bde851	-2.2108141e-08
143	0x2fd3991c	3.8489467e-10
144	0x3147babb	2.9064455e-09
145	0xb17fd495	-3.7228223e-09
146	0x35803c7b	9.554345e-07
147	0x323a7c79	1.0854927e-08
148	0xb0869b52	-9.793928e-10
149	0xb0ac3aa1	-1.253131e-09
150	0xb6059ae5	-1.9908705e-06
151	0xb173fbb5	-3.5504233e-09
152	0xb5f2a546	-1.8078506e-06
153	0xb4a3b0de	-3.0489804e-07
154	0xafaf7c80	-3.1920777e-10
155	0x36008eb9	1.9156562e-06
156	0x36705af9	3.581574e-06
157	0xb2ef15c0	-2.7833153e-08
158	0xb00a2ffe	-5.027231e-10
159	0x3154eedb	3.0985834e-09
160	0x32258a7a	9.63575e-09
161	0x30dd113c	1.6084765e-09
162	0x360081a5	1.914895e-06
163	0x31b4c247	5.2607763e-09
164	0x332dc209	4.0456175e-08
165	0xb6008f69	-1.9156962e-06
166	0xb0e3ea74	-1.6583059e-09
167	0xb600817a	-1.9148852e-06
168	0xb330e0cb	-4.118264e-08
169	0x36009047	1.9157467e-06
170	0x3600f1a9	1.921415e-06
171	0xb1e7216a	-6.7267836e-09
172	0xb3634499	-5.2914945e-08
173	0x36008441	1.9150468e-06
174	0x360088be	1.915308e-06
175	0x35c352be	1.4552713e-06
176	0x36008a1f	1.9153883e-06
177	0x360253b0	1.9420222e-06
178	0x36008a70	1.9154068e-06
179	0x360086e3	1.9152e-06
180	0x32bc81ba	2.1945073e-08
181	0x3180e618	3.751449e-09
182	0xb27623f2	-1.4327258e-08
183	0xb212ad60	-8.537739e-09
184	0xb6008514	-1.9150948e-06
185	0xb6008621	-1.915156e-06
186	0xb600880e	-1.915268e-06
187	0xb50c53b7	-5.2275885e-07
188	0x305a7a2d	7.948156e-10
189	0xaf48d326	-1.8264909e-10
190	0xb30fdbd5	-3.3494718e-08
191	0x3551ffd6	7.823086e-07
192	0x3152187f	3.0572946e-09
193	0xacd25f97	-5.9791716e-12
194	0x2e20d620	3.656997e-11
195	0x3048f898	7.311285e-10
196	0x305b04db	7.9678636e-10
197	0xaea058f1	-7.291757e-11
198	0x2f15caa5	1.3623465e-10
199	0xb05a9ce7	-7.953091e-10
200	0xac78c6dd	-3.535331e-12
201	0x2ea93ffb	7.6965954e-11
202	0x30c39e4a	1.4233106e-09
203	0xb05aa0d7	-7.9536505e-10
204	0xad8a9d71	-1.5758702e-11
205	0xb0eda02a	-1.7289541e-09
206	0xac789ea1	-3.5330976e-12
207	0x305a8d49	7.9508716e-10
208	0xb09062b8	-1.0505437e-09
209	0x2edbc910	9.994683e-11
210	0x305adc85	7.9621315e-10
211	0xae663a49	-5.2347713e-11
212	0x2e921f02	6.6448194e-11
213	0x2ea680ff	7.57172e-11
214	0x305ad93b	7.961664e-10
215	0xb05ae1d8	-7.962888e-10
216	0xb05af2ba	-7.9652873e-10
217	0x305aa114	7.9536844e-10
218	0x305a9f54	7.9534357e-10
219	0x305aace1	7.9553614e-10
220	0x305aa5b1	7.95434e-10
221	0x2f1ff039	1.454631e-10
222	0x2de1f2cf	2.5687367e-11
223	0xb05ae423	-7.963214e-10
224	0x305a8c2f	7.950715e-10
225	0x2e46ebcc	4.5229417e-11
226	0xae92069a	-6.640484e-11
227	0xb05abc05	-7.957513e-10
228	0x2e152d6a	3.3919013e-11
229	0x2dad97e0	1.9735269e-11
230	0x2d174189	8.597908e-12
231	0xb04d758b	-7.4745604e-10
232	0x305ab14d	7.95599e-10
233	0xb0f24bc7	-1.7629355e-09
234	0x2e4f5f10	4.7150783e-11
235	0xae7343fa	-5.531218e-11
236	0xb05b0c88	-7.9689544e-10
237	0x2e80823d	5.843901e-11
238	0x2e2eca09	3.9742463e-11
239	0xae98851e	-6.935806e-11
240	0x2e6e58a4	5.4193663e-11
241	0x2e5ff7ef	5.092454e-11
242	0x30cd567d	1.4940295e-09
243	0x2de730b8	2.6283295e-11
244	0x2f138667	1.3417321e-10
245	0x2e85c546	6.0831826e-11
246	0x305a924b	7.9515833e-10
247	0x2dcf2537	2.3549702e-11
248	0xb10521b1	-1.9373199e-09
249	0xafdead19	-4.0504558e-10
250	0x2ebb253e	8.510391e-11
251	0xb05b06c8	-7.968137e-10
252	0x30e25f3d	1.6470733e-09
253	0xadebd1a0	-2.6809499e-11
254	0xaeae228b	-7.91874e-11
255	0xae965f09	-6.838092e-11

rios_f.RIOS_H.rnn_cell0.bias_ih f4 [384]
0	0x3dd02000	0.101623535
1	0x34dbb4f3	4.0923587e-07
2	0xb11f8fe4	-2.3219338e-09
3	0x3e3e9a27	0.18613492
4	0x373d01ad	1.1265668e-05
5	0x3521ea5f	6.031823e-07
6	0xb0a3f0fa	-1.1928301e-09
7	0x373b9ff5	1.11833115e-05
8	0x3621a2f0	2.4085712e-06
9	0xb20aeba4	-8.086236e-09
10	0xb81a32e8	-3.676387e-05
11	0x3738b23e	1.1008755e-05
12	0x3563f31d	8.4917866e-07
13	0x3df65de9	0.12029631
14	0x36b3b6f0	5.3559124e-06
15	0x3706cbb5	8.034452e-06
16	0x388bef90	6.6726585e-05
17	0xb384bb2a	-6.180774e-08
18	0x3739e567	1.1080271e-05
19	0xb0bb669b	-1.3635203e-09
20	0xb3104a8b	-3.359541e-08
21	0x35f28b8d	1.807102e-06
22	0x3733d933	1.0719802e-05
23	0x37461572	1.1806713e-05
24	0x373631a2	1.0859601e-05
25	0x37080fe2	8.10993e-06
26	0x3733c424	1.0714899e-05
27	0x370633c3	7.999074e-06
28	0x3742a1ad	1.1600944e-05
29	0xb03d06a6	-6.876725e-10
30	0xb24669de	-1.1549188e-08
31	0x37289f6e	1.00507e-05
32	0x37069202	8.0210175e-06
33	0xb13241b5	-2.593976e-09
34	0xb0d09870	-1.5177317e-09
35	0x372f8286	1.0461203e-05
36	0x35dccc04	1.6450654e-06
37	0x365aecf0	3.2622447e-06
38	0xb1239181	-2.3802331e-09
39	0x37f56648	2.9253904e-05
40	0x372cf30b	1.0308587e-05
41	0x3894f257	7.102329e-05
42	0x2ffb4d05	4.571136e-10
43	0xb59a0cbb	-1.1477599e-06
44	0x37420fdc	1.1566994e-05
45	0x33bff439	8.9385544e-08
46	0x36731399	3.622123e-06
47	0x301347d3	5.3580357e-10
48	0xb14fc41e	-3.0233944e-09
49	0x3126cbb0	2.4271962e-09
50	0x3c9d92d9	0.019235061
51	0x3545b325	7.364891e-07
52	0xb141db96	-2.8210017e-09
53	0xb35c6ee9	-5.1323614e-08
54	0x371d4797	9.3745975e-06
55	0x2fb0e5b1	3.217742e-10
56	0x3dc76b37	0.097372465
57	0xb05416fe	-7.7157825e-10
58	0xb1443886	-2.8553884e-09
59	0x3743abdd	1.1662921e-05
60	0x3d1cb15c	0.03825508
61	0xb276e343	-1.4370758e-08
62	0x3097c073	1.1041393e-09
63	0x3079de55	9.0901625e-10
64	0xb3e3bcfa	-1.0604886e-07
65	0x30b56829	1.3199087e-09
66	0x372cfb86	1.0310561e-05
67	0xb124c55c	-2.3977327e-09
68	0x34e4a392	4.2587322e-07
69	0x373eb31f	1.1366587e-05
70	0xb286ba8c	-1.5684485e-08
71	0x372457c9	9.795601e-06
72	0x346e73fb	2.2207671e-07
73	0x3737ab38	1.0947515e-05
74	0x3742dbfa	1.1614518e-05
75	0x338073e4	5.981545e-08
76	0x35a63435	1.2383158e-06
77	0x373a1bbf	1.1092924e-05
78	0x373b9dd6	1.1182818e-05
79	0x3db19544	0.08671048
80	0x3730b9d7	1.0533687e-05
81	0x38401627	4.5796998e-05
82	0x372f4253	1.0446255e-05
83	0x3741f1d8	1.1560005e-05
84	0xb552307d	-7.8301656e-07
85	0xb1244e31	-2.3909588e-09
86	0xb587b3a4	-1.0110566e-06
87	0x35d32966	1.5732774e-06
88	0x37428788	1.1594857e-05
89	0x3723c454	9.761268e-06
90	0x3742176e	1.1568756e-05
91	0x3e3c6ddf	0.18401287
92	0xb1d8ec4f	-6.3132926e-09
93	0x310b9203	2.031016e-09
94	0x360a5c13	2.0617197e-06
95	0x3dc222ab	0.09479269
96	0x3d979fd2	0.0740353
97	0x36d90295	6.4674045e-06
98	0xb150b8a3	-3.0372937e-09
99	0x3d7a50d0	0.061112225
100	0xba011fa1	-0.00049256725
101	0xb592fb2d	-1.095095e-06
102	0xb1c127ba	-5.6215557e-09
103	0xba010831	-0.000492218
104	0x37a6e644	1.9895968e-05
105	0xb2c5fa90	-2.3047761e-08
106	0xba1dfb85	-0.0006026554
107	0xba00e721	-0.00049172534
108	0x3681a4ea	3.863698e-06
109	0x3dc7ed02	0.097620025
110	0xb7ceff45	-2.4675983e-05
111	0xb9fe71fa	-0.00048531574
112	0xb9a7a68e	-0.00031976815
113	0xb3bc2d31	-8.7626525e-08
114	0xba00f9bc	-0.0004920026
115	0x32d1755c	2.4384171e-08
116	0xb3939563	-6.872394e-08
117	0x36a444bb	4.895582e-06
118	0xba00b73c	-0.00049101165
119	0xba01fdef	-0.00049587985
120	0xba00ca8d	-0.0004912995
121	0xb9fe7b5e	-0.0004853857
122	0xba00b5e4	-0.00049099163
123	0xb9fe531d	-0.0004850858
124	0xba018263	-0.00049403886
125	0xb18463b9	-3.8530428e-09
126	0xb31c3e98	-3.637851e-08
127	0xba0043ed	-0.0004892934
128	0xb9fe6c3b	-0.00048527293
129	0x32ece918	2.7580015e-08
130	0xb284d983	-1.5465735e-08
131	0xba008bd4	-0.00049036485
132	0xb61ba70c	-2.3194034e-06
133	0xb787ae08	-1.6174294e-05
134	0xb286ceaa	-1.5693633e-08
135	0xba287dd6	-0.00064274424
136	0xba007216	-0.00048998126
137	0xb9a78c12	-0.00031957083
138	0x32cb5066	2.3668871e-08
139	0xb6ac1880	-5.1288516e-06
140	0xba0172fd	-0.0004938094
141	0x3120b4ef	2.3385913e-09
142	0x373dd0db	1.1313906e-05
143	0xb0e03118	-1.6312098e-09
144	0x32be04c5	2.212108e-08
145	0x3364542e	5.3161948e-08
146	0x3c6a40bb	0.0142976595
147	0x35a23113	1.2084223e-06
148	0xb070cd11	-8.760291e-10
149	0xb3a9fc87	-7.91561e-08
150	0xb9ffce49	-0.00048791085
151	0xb023a50e	-5.953361e-10
152	0x3c08f197	0.008358381
153	0xb9c4a4c9	-0.00037506808
154	0xb280f269	-1.5011397e-08
155	0xba019bad	-0.0004944157
156	0x3d2d669d	0.042334188
157	0xb5a566db	-1.2323393e-06
158	0xb23113a9	-1.0307226e-08
159	0xb3378e04	-4.273717e-08
160	0xb485d8a8	-2.493082e-07
161	0xb1b37e83	-5.2239684e-09
162	0xba007976	-0.00049009116
163	0x32157d1f	8.701391e-09
164	0xb54e8e66	-7.6948197e-07
165	0xba012b96	-0.0004927454
166	0xb290135e	-1.6772614e-08
167	0xba001c5a	-0.0004887037
168	0xb5a9f5b7	-1.2662994e-06
169	0xba00e20a	-0.0004916495
170	0xba0167bf	-0.0004936419
171	0x33bca15f	8.7837854e-08
172	0xb63186d4	-2.6453536e-06
173	0xba00fdd8	-0.0004920638
174	0xba011064	-0.0004923402
175	0x3dad594d	0.084642984
176	0xba0091bd	-0.0004904529
177	0xb9c6a9e6	-0.00037892087
178	0xba008803	-0.000490308
179	0xba01725b	-0.0004938
180	0xb4d0d47c	-3.8897622e-07
181	0x32da4b31	2.5412733e-08
182	0xb4dd5510	-4.122635e-07
183	0xb65f9012	-3.331345e-06
184	0xba017a18	-0.0004939153
185	0xba001d5d	-0.0004887188
186	0xba0174f3	-0.0004938386
187	0x3c79611d	0.0152209075
188	0xb2c6281d	-2.3068475e-08
189	0xb1465958	-2.8863578e-09
190	0xb6093c0f	-2.044955e-06
191	0xbccf00a1	-0.025268855
192	0xbd4cd061	-0.050003413
193	0x38fea93d	0.00012143187
194	0x36acb267	5.146768e-06
195	0x3c0caca0	0.008586079
196	0x3a2dc15c	0.0006628239
197	0x366d5355	3.5364258e-06
198	0x365aae3d	3.2585951e-06
199	0xba2dd492	-0.0006631102
200	0xb91c6747	-0.00014915793
201	0x369a144d	4.591921e-06
202	0x3a82da1e	0.0009983217
203	0xba2da235	-0.0006623597
204	0xb94b72cb	-0.00019402352
205	0x3e0fd35c	0.14045471
206	0xb992491a	-0.00027901755
207	0x3a2bd8f8	0.0006555463
208	0xb9bab61b	-0.00035612364
209	0x36b83b5c	5.4905377e-06
210	0x3a2d9e27	0.0006622993
211	0xb6799783	-3.7192083e-06
212	0xb5de3628	-1.655605e-06
213	0xb94c1fd7	-0.00019466817
214	0x3a2d5328	0.00066118175
215	0xba2ef644	-0.00066742697
216	0xba2d5d77	-0.00066133536
217	0x3a2bb8f1	0.0006550691
218	0x3a2d6f50	0.0006616013
219	0x3a2b92e1	0.0006545019
220	0x3a2e6caa	0.00066537654
221	0xb68eb518	-4.253012e-06
222	0xb59981ea	-1.1437198e-06
223	0xba2cba9a	-0.0006589085
224	0x3a2bbf75	0.00065516616
225	0x36729e76	3.6153046e-06
226	0x36ea2aed	6.9787407e-06
227	0xba2d253c	-0.00066049746
228	0x38b66fdd	8.6992724e-05
229	0x399058d8	0.00027532014
230	0xb63b190b	-2.7879748e-06
231	0xba55eb83	-0.0008160399
232	0x3a2d0ea6	0.0006601609
233	0xb9c3f448	-0.00037375302
234	0xb697fb7b	-4.529427e-06
235	0x37c5b65f	2.3569153e-05
236	0xba2e2612	-0.0006643246
237	0xb701c47f	-7.7347495e-06
238	0xb9471f87	-0.00018989864
239	0x3696a161	4.4891353e-06
240	0x35a23b88	1.2087266e-06
241	0x36dc0b81	6.55785e-06
242	0x3d01c7e8	0.031684786
243	0xb8836275	-6.264906e-05
244	0xb6c33873	-5.8180244e-06
245	0xb6f4c4c0	-7.2946714e-06
246	0x3a2c76f3	0.0006579004
247	0x36a2ad92	4.8481825e-06
248	0xbdcca892	-0.0999309
249	0x39a2a4d6	0.0003102186
250	0x36a8ea5d	5.0340736e-06
251	0xba2e654b	-0.0006652667
252	0x3c8349f4	0.016026475
253	0x37e9a7c9	2.7853896e-05
254	0xb705e43f	-7.98056e-06
255	0x3622018c	2.4140782e-06

rios_f.RIOS_H.rnn_cell0.bias_hh f4 [384]
0	0x3dd02000	0.101623535
1	0x34dbb4f3	4.0923587e-07
2	0xb11f8fe4	-2.3219338e-09
3	0x3e3e9a27	0.18613492
4	0x373d01ad	1.1265668e-05
5	0x3521ea5f	6.031823e-07
6	0xb0a3f0fa	-1.1928301e-09
7	0x373b9ff5	1.11833115e-05
8	0x3621a2f0	2.4085712e-06
9	0xb20aeba4	-8.086236e-09
10	0xb81a32e8	-3.676387e-05
11	0x3738b23e	1.1008755e-05
12	0x3563f31d	8.4917866e-07
13	0x3df65de9	0.12029631
14	0x36b3b6f0	5.3559124e-06
15	0x3706cbb5	8.034452e-06
16	0x388bef90	6.6726585e-05
17	0xb384bb2a	-6.180774e-08
18	0x3739e567	1.1080271e-05
19	0xb0bb669b	-1.3635203e-09
20	0xb3104a8b	-3.359541e-08
21	0x35f28b8d	1.807102e-06
22	0x3733d933	1.0719802e-05
23	0x37461572	1.1806713e-05
24	0x373631a2	1.0859601e-05
25	0x37080fe2	8.10993e-06
26	0x3733c424	1.0714899e-05
27	0x370633c3	7.999074e-06
28	0x3742a1ad	1.1600944e-05
29	0xb03d06a6	-6.876725e-10
30	0xb24669de	-1.1549188e-08
31	0x37289f6e	1.00507e-05
32	0x37069202	8.0210175e-06
33	0xb13241b5	-2.593976e-09
34	0xb0d09870	-1.5177317e-09
35	0x372f8286	1.0461203e-05
36	0x35dccc04	1.6450654e-06
37	0x365aecf0	3.2622447e-06
38	0xb1239181	-2.3802331e-09
39	0x37f56648	2.9253904e-05
40	0x372cf30b	1.0308587e-05
41	0x3894f257	7.102329e-05
42	0x2ffb4d05	4.571136e-10
43	0xb59a0cbb	-1.1477599e-06
44	0x37420fdc	1.1566994e-05
45	0x33bff439	8.9385544e-08
46	0x36731399	3.622123e-06
47	0x301347d3	5.3580357e-10
48	0xb14fc41e	-3.0233944e-09
49	0x3126cbb0	2.4271962e-09
50	0x3c9d92d9	0.019235061
51	0x3545b325	7.364891e-07
52	0xb141db96	-2.8210017e-09
53	0xb35c6ee9	-5.1323614e-08
54	0x371d4797	9.3745975e-06
55	0x2fb0e5b1	3.217742e-10
56	0x3dc76b37	0.097372465
57	0xb05416fe	-7.7157825e-10
58	0xb1443886	-2.8553884e-09
59	0x3743abdd	1.1662921e-05
60	0x3d1cb15c	0.03825508
61	0xb276e343	-1.4370758e-08
62	0x3097c073	1.1041393e-09
63	0x3079de55	9.0901625e-10
64	0xb3e3bcfa	-1.0604886e-07
65	0x30b56829	1.3199087e-09
66	0x372cfb86	1.0310561e-05
67	0xb124c55c	-2.3977327e-09
68	0x34e4a392	4.2587322e-07
69	0x373eb31f	1.1366587e-05
70	0xb286ba8c	-1.5684485e-08
71	0x372457c9	9.795601e-06
72	0x346e73fb	2.2207671e-07
73	0x3737ab38	1.0947515e-05
74	0x3742dbfa	1.1614518e-05
75	0x338073e4	5.981545e-08
76	0x35a63435	1.2383158e-06
77	0x373a1bbf	1.1092924e-05
78	0x373b9dd6	1.1182818e-05
79	0x3db19544	0.08671048
80	0x3730b9d7	1.0533687e-05
81	0x38401627	4.5796998e-05
82	0x372f4253	1.0446255e-05
83	0x3741f1d8	1.1560005e-05
84	0xb552307d	-7.8301656e-07
85	0xb1244e31	-2.3909588e-09
86	0xb587b3a4	-1.0110566e-06
87	0x35d32966	1.5732774e-06
88	0x37428788	1.1594857e-05
89	0x3723c454	9.761268e-06
90	0x3742176e	1.1568756e-05
91	0x3e3c6ddf	0.18401287
92	0xb1d8ec4f	-6.3132926e-09
93	0x310b9203	2.031016e-09
94	0x360a5c13	2.0617197e-06
95	0x3dc222ab	0.09479269
96	0x3d979fd2	0.0740353
97	0x36d90295	6.4674045e-06
98	0xb150b8a3	-3.0372937e-09
99	0x3d7a50d0	0.061112225
100	0xba011fa1	-0.00049256725
101	0xb592fb2d	-1.095095e-06
102	0xb1c127ba	-5.6215557e-09
103	0xba010831	-0.000492218
104	0x37a6e644	1.9895968e-05
105	0xb2c5fa90	-2.3047761e-08
106	0xba1dfb85	-0.0006026554
107	0xba00e721	-0.00049172534
108	0x3681a4ea	3.863698e-06
109	0x3dc7ed02	0.097620025
110	0xb7ceff45	-2.4675983e-05
111	0xb9fe71fa	-0.00048531574
112	0xb9a7a68e	-0.00031976815
113	0xb3bc2d31	-8.7626525e-08
114	0xba00f9bc	-0.0004920026
115	0x32d1755c	2.4384171e-08
116	0xb3939563	-6.872394e-08
117	0x36a444bb	4.895582e-06
118	0xba00b73c	-0.00049101165
119	0xba01fdef	-0.00049587985
120	0xba00ca8d	-0.0004912995
121	0xb9fe7b5e	-0.0004853857
122	0xba00b5e4	-0.00049099163
123	0xb9fe531d	-0.0004850858
124	0xba018263	-0.00049403886
125	0xb18463b9	-3.8530428e-09
126	0xb31c3e98	-3.637851e-08
127	0xba0043ed	-0.0004892934
128	0xb9fe6c3b	-0.00048527293
129	0x32ece918	2.7580015e-08
130	0xb284d983	-1.5465735e-08
131	0xba008bd4	-0.00049036485
132	0xb61ba70c	-2.3194034e-06
133	0xb787ae08	-1.6174294e-05
134	0xb286ceaa	-1.5693633e-08
135	0xba287dd6	-0.00064274424
136	0xba007216	-0.00048998126
137	0xb9a78c12	-0.00031957083
138	0x32cb5066	2.3668871e-08
139	0xb6ac1880	-5.1288516e-06
140	0xba0172fd	-0.0004938094
141	0x3120b4ef	2.3385913e-09
142	0x373dd0db	1.1313906e-05
143	0xb0e03118	-1.6312098e-09
144	0x32be04c5	2.212108e-08
145	0x3364542e	5.3161948e-08
146	0x3c6a40bb	0.0142976595
147	0x35a23113	1.2084223e-06
148	0xb070cd11	-8.760291e-10
149	0xb3a9fc87	-7.91561e-08
150	0xb9ffce49	-0.00048791085
151	0xb023a50e	-5.953361e-10
152	0x3c08f197	0.008358381
153	0xb9c4a4c9	-0.00037506808
154	0xb280f269	-1.5011397e-08
155	0xba019bad	-0.0004944157
156	0x3d2d669d	0.042334188
157	0xb5a566db	-1.2323393e-06
158	0xb23113a9	-1.0307226e-08
159	0xb3378e04	-4.273717e-08
160	0xb485d8a8	-2.493082e-07
161	0xb1b37e83	-5.2239684e-09
162	0xba007976	-0.00049009116
163	0x32157d1f	8.701391e-09
164	0xb54e8e66	-7.6948197e-07
165	0xba012b96	-0.0004927454
166	0xb290135e	-1.6772614e-08
167	0xba001c5a	-0.0004887037
168	0xb5a9f5b7	-1.2662994e-06
169	0xba00e20a	-0.0004916495
170	0xba0167bf	-0.0004936419
171	0x33bca15f	8.7837854e-08
172	0xb63186d4	-2.6453536e-06
173	0xba00fdd8	-0.0004920638
174	0xba011064	-0.0004923402
175	0x3dad594d	0.084642984
176	0xba0091bd	-0.0004904529
177	0xb9c6a9e6	-0.00037892087
178	0xba008803	-0.000490308
179	0xba01725b	-0.0004938
180	0xb4d0d47c	-3.8897622e-07
181	0x32da4b31	2.5412733e-08
182	0xb4dd5510	-4.122635e-07
183	0xb65f9012	-3.331345e-06
184	0xba017a18	-0.0004939153
185	0xba001d5d	-0.0004887188
186	0xba0174f3	-0.0004938386
187	0x3c79611d	0.0152209075
188	0xb2c6281d	-2.3068475e-08
189	0xb1465958	-2.8863578e-09
190	0xb6093c0f	-2.044955e-06
191	0xbccf00a1	-0.025268855
192	0xbd4cd05d	-0.0500034
193	0x38fea93d	0.00012143187
194	0x36acb267	5.146768e-06
195	0x3c08661f	0.008325129
196	0x3a2dc15c	0.0006628239
197	0x366d5355	3.5364258e-06
198	0x365aae3d	3.2585951e-06
199	0xba2dd492	-0.0006631102
200	0xb91c6747	-0.00014915793
201	0x369a144d	4.591921e-06
202	0x3a82da1e	0.0009983217
203	0xba2da235	-0.0006623597
204	0xb94b72cb	-0.00019402352
205	0x3e0fd35c	0.14045471
206	0xb992491a	-0.00027901755
207	0x3a2bd8f8	0.0006555463
208	0xb9bab61b	-0.00035612364
209	0x36b83b5c	5.4905377e-06
210	0x3a2d9e27	0.0006622993
211	0xb6799783	-3.7192083e-06
212	0xb5de3628	-1.655605e-06
213	0xb94c1fd7	-0.00019466817
214	0x3a2d5328	0.00066118175
215	0xba2ef644	-0.00066742697
216	0xba2d5d77	-0.00066133536
217	0x3a2bb8f1	0.0006550691
218	0x3a2d6f50	0.0006616013
219	0x3a2b92e1	0.0006545019
220	0x3a2e6caa	0.00066537654
221	0xb68eb518	-4.253012e-06
222	0xb59981ea	-1.1437198e-06
223	0xba2cba9a	-0.0006589085
224	0x3a2bbf75	0.00065516616
225	0x36729e76	3.6153046e-06
226	0x36ea2aed	6.9787407e-06
227	0xba2d253c	-0.00066049746
228	0x38b66fdd	8.6992724e-05
229	0x399058d8	0.00027532014
230	0xb63b190b	-2.7879748e-06
231	0xba55eb83	-0.0008160399
232	0x3a2d0ea6	0.0006601609
233	0xb9c3f448	-0.00037375302
234	0xb697fb7b	-4.529427e-06
235	0x37c5b65f	2.3569153e-05
236	0xba2e2612	-0.0006643246
237	0xb701c47f	-7.7347495e-06
238	0xb9471f87	-0.00018989864
239	0x3696a161	4.4891353e-06
240	0x35a23b88	1.2087266e-06
241	0x36dc0b81	6.55785e-06
242	0x3d01c7e8	0.031684786
243	0xb8836275	-6.264906e-05
244	0xb6c33873	-5.8180244e-06
245	0xb6f4c4c0	-7.2946714e-06
246	0x3a2c76f3	0.0006579004
247	0x36a2ad92	4.8481825e-06
248	0xbdcca892	-0.0999309
249	0x39a2a4d6	0.0003102186
250	0x36a8ea5d	5.0340736e-06
251	0xba2e654b	-0.0006652667
252	0x3c8349f2	0.01602647
253	0x37e9a7c9	2.7853896e-05
254	0xb705e43f	-7.98056e-06
255	0x3622018c	2.4140782e-06

rios_f.RIOS_H.rnn_cell1.weight_ih f4 [384, 1]
0	0xbd61cebc	-0.055128798
1	0x3752b3c5	1.2558831e-05
2	0xb248fe08	-1.1699292e-08
3	0xbcd19312	-0.025582824
4	0xbb6d101b	-0.003617293
5	0x37b8830c	2.1995533e-05
6	0x33288911	3.924021e-08
7	0xbb6ca801	-0.003611088
8	0xb73c0787	-1.1207426e-05
9	0x334fc896	4.8378375e-08
10	0xbca39d24	-0.019972391
11	0xbb6d7b83	-0.0036236949
12	0xb79fd365	-1.9052715e-05
13	0xbd8a05be	-0.067393765
14	0x37a86045	2.007199e-05
15	0xbb703e9e	-0.0036658417
16	0xbb0db271	-0.0021621252
17	0xb40b525e	-1.2975349e-07
18	0xbb6df426	-0.0036308854
19	0x340a9e14	1.290976e-07
20	0x340b4404	1.2970128e-07
21	0xb78c16be	-1.669989e-05
22	0xbb6e158b	-0.0036328759
23	0xbb6def22	-0.0036305864
24	0xbb6cd084	-0.0036135027
25	0xbb6ee0e2	-0.0036449959
26	0xbb6d2cba	-0.003618999
27	0xbb6d94dd	-0.003625206
28	0xbb6c8c98	-0.0036094543
29	0x32fa8bd1	2.9167412e-08
30	0x34178b85	1.4113728e-07
31	0xbb6e2bff	-0.0036342142
32	0xbb6c2ab0	-0.0036036186
33	0x33e8f226	1.08473884e-07
34	0x33fb6ffd	1.1708469e-07
35	0xbb6e201e	-0.0036335061
36	0x37f257d8	2.8889554e-05
37	0x370af21d	8.281812e-06
38	0xb43a57f6	-1.73546e-07
39	0x3c1245d0	0.008927777
40	0xbb6e179b	-0.0036329988
41	0xbbe6ee98	-0.0070474856
42	0x33cf1509	9.643015e-08
43	0x37869176	1.604178e-05
44	0xbb6da7d9	-0.0036263375
45	0x35019882	4.8278173e-07
46	0x37ad87df	2.0686477e-05
47	0xb35dd33c	-5.164769e-08
48	0x3437414d	1.706696e-07
49	0x3408ada4	1.2729157e-07
50	0xbc23d65a	-0.009999836
51	0x34932a7a	2.741179e-07
52	0x3300dad1	3.0001335e-08
53	0x349d3f10	2.9289413e-07
54	0xbb6ba60b	-0.0035957124
55	0xb380656e	-5.9789144e-08
56	0xbd0ddf97	-0.03463706
57	0xbcda8b59	-0.026677774
58	0xb32ef8eb	-4.073892e-08
59	0xbb6da679	-0.0036262556
60	0xbd11593b	-0.035485487
61	0x3724206f	9.782713e-06
62	0x3414c9f0	1.3857039e-07
63	0x34ba2480	3.4671757e-07
64	0x3534e170	6.738328e-07
65	0x33ab606a	7.9803456e-08
66	0xbb6eacbe	-0.003641888
67	0x340a1f2c	1.2863592e-07
68	0xb61e7900	-2.3614266e-06
69	0xbb6c06d4	-0.0036014812
70	0x315d59fb	3.221088e-09
71	0xbb6d7eee	-0.0036238986
72	0x37a940ff	2.0176636e-05
73	0xbb6cfb22	-0.003616043
74	0xbb6c08e5	-0.0036016044
75	0xb5373b73	-6.825932e-07
76	0xb70f100a	-8.527199e-06
77	0xbb6d02de	-0.003616504
78	0xbb6c8302	-0.003608883
79	0xbd7f0858	-0.062263817
80	0xbb6d50f2	-0.0036211577
81	0xbbb46a89	-0.005505864
82	0xbb6e0d45	-0.0036323827
83	0xbb6e6e88	-0.00363818
84	0xb77efe02	-1.5198721e-05
85	0x33fa28fe	1.16489886e-07
86	0xb42a7302	-1.5874323e-07
87	0xb6e4a409	-6.8140257e-06
88	0xbb6c8013	-0.003608708
89	0xbb6e1f1d	-0.0036334463
90	0xbb6d8ff8	-0.0036249142
91	0x3ae89d20	0.0017747022
92	0x32a12a78	1.876218e-08
93	0x336b89bd	5.4840473e-08
94	0x370ecc2b	8.511396e-06
95	0xbd3a1947	-0.045434263
96	0xbbc8683d	-0.006115942
97	0x37272cb9	9.9643885e-06
98	0x33202c7b	3.7293358e-08
99	0x3c8b2bfc	0.016988747
100	0xbac67d7e	-0.0015143601
101	0x37a9578b	2.0187135e-05
102	0x33ef3e23	1.11406074e-07
103	0xbac904ed	-0.0015336551
104	0x36b647f1	5.4323978e-06
105	0x339eae6b	7.389175e-08
106	0x3c348d92	0.011020081
107	0xbac48afb	-0.0014995033
108	0xb5af9325	-1.3081341e-06
109	0x3d3a9113	0.04554851
110	0x36d12150	6.2325635e-06
111	0xbb117a15	-0.002219801
112	0xbb81025e	-0.00393705
113	0x3382784a	6.075477e-08
114	0xbabf5097	-0.0014596161
115	0x342ea546	1.6265139e-07
116	0xb38af1f5	-6.4701375e-08
117	0xb68c7777	-4.1862327e-06
118	0xbacd3275	-0.0015655296
119	0xbac687e7	-0.0015146703
120	0xbacb76bf	-0.001552306
121	0xbafc4e86	-0.0019249476
122	0xbad5ab62	-0.0016301686
123	0xbaf1815c	-0.0018425393
124	0xbacae101	-0.0015478433
125	0x33470a32	4.634257e-08
126	0x34098709	1.2808245e-07
127	0xbacd8e0a	-0.001568259
128	0xbafc659b	-0.0019256355
129	0x33c12299	8.993556e-08
130	0x33e2c5b8	1.055991e-07
131	0xbacbe771	-0.0015556646
132	0x37c51134	2.349224e-05
133	0x37c5ba17	2.3570885e-05
134	0xb40b6131	-1.2980742e-07
135	0x3b2fc2c7	0.0026818977
136	0xbad3b95c	-0.0016153264
137	0xbb8a2a9d	-0.0042165057
138	0x33fb5de5	1.17051776e-07
139	0x37605533	1.3371277e-05
140	0xbabdf6e7	-0.0014493138
141	0x34ee3a0d	4.4373192e-07
142	0xb7f0fe6a	-2.87287e-05
143	0xb36b8574	-5.4836576e-08
144	0x343df0b4	1.7689564e-07
145	0x33ce31a6	9.6016535e-08
146	0xbd36c967	-0.044625666
147	0x36972c7f	4.5053307e-06
148	0x334cfb8a	4.7726225e-08
149	0x342b53d7	1.5956117e-07
150	0xbae22075	-0.0017252105
151	0x33772a1e	5.7547474e-08
152	0x3ce7ab74	0.028279997
153	0x3d41c802	0.047309883
154	0x32e28508	2.6370358e-08
155	0xbacb737b	-0.0015522087
156	0x3da0f6b7	0.07859557
157	0x370004e2	7.630531e-06
158	0x334f2291	4.822738e-08
159	0x343eed9a	1.7781568e-07
160	0x35630236	8.4567307e-07
161	0x3378d481	5.793527e-08
162	0xbaca8e60	-0.0015453808
163	0x3416fa3f	1.4060878e-07
164	0xb69ec4b2	-4.7316653e-06
165	0xbad75679	-0.0016428969
166	0x31403b69	2.7973448e-09
167	0xbad44495	-0.0016194755
168	0x37a050b4	1.9111067e-05
169	0xbae634be	-0.0017563326
170	0xbac26e19	-0.0014833837
171	0xb502c3a2	-4.8713457e-07
172	0xb6dc7931	-6.5706195e-06
173	0xbadcb7b1	-0.0016839412
174	0xbafd7d95	-0.0019339795
175	0xbcd66963	-0.0261733
176	0xbad87d5c	-0.0016516852
177	0xbba635df	-0.00507234
178	0xbad403ec	-0.0016175485
179	0xbac134f7	-0.0014740516
180	0xb74efef0	-1.2337914e-05
181	0x3428cc96	1.5720647e-07
182	0x34e4961b	4.2577526e-07
183	0x369e58cd	4.7191047e-06
184	0xbad029ca	-0.0015881595
185	0xbad1166f	-0.001595212
186	0xbac113a1	-0.0014730581
187	0x3dce028b	0.10059079
188	0x3349b675	4.6964903e-08
189	0x336d9af4	5.532179e-08
190	0xb60d64a7	-2.1069225e-06
191	0xbcb21450	-0.021738201
192	0xbc171112	-0.0092203785
193	0xba0170c2	-0.00049377617
194	0xb591a938	-1.0852591e-06
195	0x3bbc1766	0.005740094
196	0x3c0ceec8	0.008601852
197	0x3a0af714	0.00053011
198	0xb8c2729d	-9.271989e-05
199	0xbc0bbe88	-0.008529313
200	0x392b8fd5	0.00016361412
201	0x3883752a	6.26839e-05
202	0xbb950727	-0.0045479718
203	0xbc0e54ca	-0.0086872075
204	0x39da8e80	0.0004168637
205	0x3c46aad4	0.01212569
206	0x3a29c241	0.00064757845
207	0x3bd6cf7a	0.006555495
208	0x3b826ba4	0.003980117
209	0x37c54202	2.3514967e-05
210	0x3c10e1c7	0.008842892
211	0x3758772d	1.2902351e-05
212	0x37228898	9.687756e-06
213	0x39de88fc	0.000424452
214	0x3c0b5c6f	0.008505925
215	0xbc0e259b	-0.008675958
216	0xbc0ab846	-0.008466786
217	0x3bf29bef	0.0074038426
218	0x3c073577	0.008252493
219	0x3bf86140	0.0075799525
220	0x3c0ab313	0.008465546
221	0xb8a7c70e	-8.0002574e-05
222	0xb89de3d5	-7.5287804e-05
223	0xbc0b64a2	-0.008507879
224	0x3bed1e68	0.0072362907
225	0x38258387	3.946156e-05
226	0x3879cadf	5.9555165e-05
227	0xbc0c8873	-0.008577454
228	0xb9ce5237	-0.00039352637
229	0xba1d277d	-0.0005994959
230	0xb88f52f5	-6.834223e-05
231	0x3d2c86e5	0.042120833
232	0x3c091454	0.008366663
233	0xbc6c1201	-0.014408589
234	0x3720239b	9.545033e-06
235	0x3a20c924	0.0006133488
236	0xbc11135b	-0.008854712
237	0x381cdfeb	3.740184e-05
238	0x3a642ef5	0.0008704507
239	0x37bd2da2	2.2551805e-05
240	0xb64451de	-2.925393e-06
241	0xb82274c0	-3.873254e-05
242	0xbaed4300	-0.0018101633
243	0xb986b99e	-0.00025696767
244	0xb715ae9f	-8.921749e-06
245	0xb84f49eb	-4.9421487e-05
246	0x3c007338	0.00783997
247	0x3920c848	0.000153334
248	0xbb52b212	-0.0032149595
249	0x3d4dee36	0.050276004
250	0xb8171260	-3.601832e-05
251	0xbc0bbb64	-0.008528564
252	0xbca07d1e	-0.01959091
253	0xb97df0c9	-0.0002421766
254	0xb8562e37	-5.1064617e-05
255	0x36c51fc5	5.874756e-06

rios_f.RIOS_H.rnn_cell1.weight_hh f4 [384, 96]
0	0xbd20a75b	-0.039222103
1	0x384eef39	4.933702e-05
2	0x3661a232	3.3622023e-06
3	0xbcbe0b4a	-0.023198742
4	0xbd9be654	-0.07612291
5	0x392075cd	0.00015302673
6	0x37638266	1.3560615e-05
7	0x3d9bb50f	0.076028936
8	0xb994f7c1	-0.0002841335
9	0x3591b039	1.0854629e-06
10	0xbdffe198	-0.124942005
11	0x3d9bcc22	0.076072946
12	0xb9035aa9	-0.00012526907
13	0x3d5c6156	0.053803764
14	0xb6b392de	-5.3517133e-06
15	0xbd9b1874	-0.075730234
16	0x3d9c459b	0.07630464
17	0x380a46ee	3.2967822e-05
18	0xbd9be369	-0.076117344
19	0xb576c0bb	-9.19226e-07
20	0x382397c0	3.9003557e-05
21	0xb918406b	-0.00014519847
22	0xbd9bccf3	-0.0760745
23	0x3d9bd149	0.07608277
24	0x3d9bd7ba	0.07609506
25	0xbd9b613f	-0.075869076
26	0xbd9b9c19	-0.07598133
27	0xbd9b7fbf	-0.07592725
28	0xbd9bae7f	-0.07601642
29	0x36b789f5	5.4698853e-06
30	0xb7199953	-9.155209e-06
31	0x3d9bd0cc	0.07608184
32	0xbd9b541f	-0.07584404
33	0x37523269	1.2528712e-05
34	0x371cfb7d	9.356879e-06
35	0x3d9bc177	0.0760526
36	0x380f7a03	3.420749e-05
37	0x380b1029	3.3155233e-05
38	0xb770be5c	-1.4349436e-05
39	0x3cfd63ad	0.030931318
40	0xbd9baef7	-0.07601731
41	0x3dae134c	0.08499774
42	0xb651ca53	-3.1261195e-06
43	0x3954fd43	0.00020312243
44	0x3d9bf1f8	0.07614511
45	0xb7d1cf19	-2.5011179e-05
46	0xb8cc1d4b	-9.732934e-05
47	0x374c24f5	1.2167952e-05
48	0xb6259b37	-2.4677263e-06
49	0x3794e82e	1.7751092e-05
50	0xbcc26c07	-0.023733152
51	0xb6cefe93	-6.1689148e-06
52	0xb6c9d872	-6.0154644e-06
53	0xb7f17db8	-2.8787981e-05
54	0xbd9b7f1d	-0.07592604
55	0xb88a2ade	-6.5883374e-05
56	0xbda7bc60	-0.081902266
57	0xbd770b88	-0.06031373
58	0x35947c32	1.1063005e-06
59	0x3d9bddfc	0.076106995
60	0xbbf1a5af	-0.0073744874
61	0x385d4af6	5.276032e-05
62	0xb75dde15	-1.3224334e-05
63	0xb81b217b	-3.698606e-05
64	0xb700615f	-7.6520655e-06
65	0x36d91382	6.469375e-06
66	0x3d9bae78	0.07601637
67	0xb66c0710	-3.5170851e-06
68	0xb9475e9e	-0.00019013367
69	0xbd9b9f75	-0.075987734
70	0x37bdb80e	2.2616263e-05
71	0xbd9bc918	-0.07606715
72	0x37ffbb78	3.0485666e-05
73	0x3d9b89a7	0.075946145
74	0x3d9b715a	0.075899795
75	0x3702ef50	7.804323e-06
76	0x394b235b	0.0001937276
77	0x3d9ba37b	0.07599541
78	0x3d9b5635	0.07584802
79	0xbd49c5ce	-0.049260907
80	0x3d9b89f5	0.075946726
81	0x3d986fc4	0.074431926
82	0x3d9b7fe7	0.07592755
83	0x3d9beb41	0.076132305
84	0xb945c794	-0.00018861733
85	0x369d6d3b	4.6916807e-06
86	0xb85bc141	-5.239365e-05
87	0xb8b33998	-8.546113e-05
88	0xbd9bc1ea	-0.076053455
89	0xbd9bb92a	-0.076036766
90	0xbd9be5dd	-0.07612202
91	0xbd697b22	-0.057002194
92	0xb6c9c571	-6.013252e-06
93	0x3734195c	1.07347405e-05
94	0xb82f1412	-4.1741943e-05
95	0xbcd41d5c	-0.025892906
96	0x38ac53d3	8.2172126e-05
97	0x3536f16a	6.8151587e-07
98	0x323e334f	1.1071122e-08
99	0xb793d909	-1.762483e-05
100	0x38555614	5.0863324e-05
101	0x35711c2f	8.982051e-07
102	0xb159196b	-3.1592104e-09
103	0xb855baf6	-5.095728e-05
104	0xb35dc619	-5.163574e-08
105	0x33088567	3.1786296e-08
106	0xb7e7b639	-2.76222e-05
107	0xb8556f41	-5.088677e-05
108	0xb5e40197	-1.6987786e-06
109	0x36def80a	6.644991e-06
110	0xb58590f4	-9.951459e-07
111	0x38575412	5.133829e-05
112	0xb86e913d	-5.6878886e-05
113	0x332ccfe7	4.0235957e-08
114	0x3855a855	5.093993e-05
115	0xb3c4a22d	-9.156461e-08
116	0xb2d0297d	-2.4233254e-08
117	0xb411f32b	-1.3592641e-07
118	0x3855fb67	5.1017294e-05
119	0xb855d191	-5.097833e-05
120	0xb8558011	-5.090243e-05
121	0x3856248d	5.1055616e-05
122	0x3855e3ba	5.0995244e-05
123	0x38560e86	5.1035102e-05
124	0x38579127	5.1395178e-05
125	0xb2237bc2	-9.515988e-09
126	0xb30c30ef	-3.2640795e-08
127	0xb8559f53	-5.093154e-05
128	0x38563ed0	5.1080075e-05
129	0xb2f4606d	-2.8449188e-08
130	0x32c3c153	2.2788901e-08
131	0xb8558b14	-5.0912684e-05
132	0x354c4515	7.609645e-07
133	0x35391543	6.894881e-07
134	0xb3bf92e5	-8.9208505e-08
135	0x37588076	1.2904513e-05
136	0x38564b92	5.1091956e-05
137	0xb8158cb3	-3.5655405e-05
138	0xb3941598	-6.895715e-08
139	0xb45e71d2	-2.0716769e-07
140	0xb8555018	-5.085775e-05
141	0xb34ca9b7	-4.7651806e-08
142	0x34cd5b8c	3.8250835e-07
143	0x33a35cbc	7.607147e-08
144	0x337a4d85	5.8278165e-08
145	0x343169e3	1.6522931e-07
146	0x38a91114	8.061729e-05
147	0xb4d63861	-3.9901627e-07
148	0xb2d79cea	-2.510065e-08
149	0x330bbd16	3.2535432e-08
150	0x386d0089	5.65057e-05
151	0x329e1e1f	1.8407318e-08
152	0xb7cf8766	-2.4739373e-05
153	0x37fab5bd	2.988695e-05
154	0x322db95c	1.0112071e-08
155	0xb855a974	-5.0940973e-05
156	0x37de2bfd	2.6484946e-05
157	0x33266dbe	3.8749697e-08
158	0x32f9533b	2.9025264e-08
159	0xb1c68cbe	-5.778559e-09
160	0x33b7bed6	8.5563144e-08
161	0xb1cde511	-5.992327e-09
162	0xb8557d8b	-5.090008e-05
163	0x336894ad	5.415193e-08
164	0xb52630ed	-6.1911015e-07
165	0x3855b272	5.0949347e-05
166	0x31ff51c9	7.4307747e-09
167	0x3855924a	5.09194e-05
168	0xb520a6c8	-5.9847343e-07
169	0xb8564dce	-5.1094037e-05
170	0xb8559454	-5.09213e-05
171	0xb32db857	-4.0447357e-08
172	0x35b5cd1b	1.3545244e-06
173	0xb855cfeb	-5.0976796e-05
174	0xb856704a	-5.1126153e-05
175	0xb8167949	-3.5875742e-05
176	0xb855b770	-5.0953997e-05
177	0xb86e2f67	-5.678777e-05
178	0xb855e257	-5.0993953e-05
179	0xb855708b	-5.088797e-05
180	0xb591524a	-1.0827291e-06
181	0x33ff06b7	1.1875584e-07
182	0xb4fa8d01	-4.6668723e-07
183	0xb2b24d74	-2.0757149e-08
184	0x3855a7cc	5.093943e-05
185	0x3855a89b	5.0940183e-05
186	0x385582c8	5.0904957e-05
187	0xb7a75d6c	-1.9951454e-05
188	0x330dfb1f	3.3057514e-08
189	0xb27240e0	-1.4101005e-08
190	0xb4cf4b7a	-3.861167e-07
191	0xb8692594	-5.5586526e-05
192	0x33738bc8	5.6704977e-08
193	0x318fd823	4.1864197e-09
194	0x2fb22de3	3.2410616e-10
195	0x33661fd6	5.3580003e-08
196	0x33f124e3	1.1229147e-07
197	0xb1adfddb	-5.0638227e-09
198	0x2fcb6440	3.6996717e-10
199	0xb3f20f46	-1.12717814e-07
200	0xb1964627	-4.37355e-09
201	0x2fb8e228	3.36301e-10
202	0x33ad777d	8.077675e-08
203	0xb3f1cc37	-1.12595835e-07
204	0x30f9cd7f	1.817554e-09
205	0xb3e7db89	-1.0796709e-07
206	0x30370946	6.658819e-10
207	0x33f2cfaa	1.1306777e-07
208	0xb4028b0b	-1.2157777e-07
209	0x2f8c854f	2.5560573e-10
210	0x33f155e9	1.1238064e-07
211	0xaf1ac8ad	-1.4077513e-10
212	0xafc446ed	-3.5702588e-10
213	0xb1269f53	-2.4246745e-09
214	0x33f1778b	1.1244182e-07
215	0xb3f16461	-1.1240696e-07
216	0xb3f148e4	-1.1235696e-07
217	0x33f237fc	1.1279187e-07
218	0x33f1edd0	1.1265695e-07
219	0x33f20e54	1.12716094e-07
220	0x33f1d5ae	1.1261305e-07
221	0xafdb2441	-3.9861628e-10
222	0xb02c008c	-6.257401e-10
223	0xb3f16134	-1.1240118e-07
224	0x33f26725	1.1287765e-07
225	0x2fa507ab	3.0018774e-10
226	0x2f28e303	1.5360162e-10
227	0xb3f1b4c1	-1.1255316e-07
228	0x3011e911	5.30819e-10
229	0xb188468c	-3.966141e-09
230	0x2fc1de8c	3.5264625e-10
231	0xb3aebaa4	-8.136456e-08
232	0x33f1c661	1.1258522e-07
233	0xb3ac0b1f	-8.011397e-08
234	0x300be186	5.0888393e-10
235	0xb1273429	-2.4331348e-09
236	0xb3f10d5b	-1.12248664e-07
237	0xb04512aa	-7.1694706e-10
238	0xaf48e21a	-1.8270221e-10
239	0x2f00bfba	1.1709647e-10
240	0x2fd31a44	3.839934e-10
241	0x2ff8787e	4.5196552e-10
242	0x3412f8b4	1.3687787e-07
243	0x31152068	2.1700775e-09
244	0x2fb4c313	3.2880418e-10
245	0xb0169900	-5.478711e-10
246	0x33f2322a	1.1278128e-07
247	0x2f1f2dcf	1.447724e-10
248	0xb407313b	-1.2590765e-07
249	0x331d0cef	3.6566174e-08
250	0xb022ce6a	-5.922859e-10
251	0xb3f12719	-1.1229549e-07
252	0x33f01cf3	1.1181137e-07
253	0x30271aca	6.0792316e-10
254	0x2ff1fa1d	4.401536e-10
255	0x2f491b5f	1.8290568e-10
