BRIOS/models/model_file/LST_train/LST_train.pt (torch, 628034 bytes, 26 tensors)

rios_f.RIOS_H.rnn_cell0.weight_ih f4 [384, 2]
000000 10 2a cb bd 8f a9 67 3d d0 b2 18 3e e0 bf d4 3d
       -0.09920132 0.056558188 0.14911962 0.1038816
000010 67 cd 96 3d 58 47 cc 3d ba e1 41 3e 1f 77 a1 3d
       0.07363396 0.09974545 0.18933764 0.07884049
000020 92 b3 d3 3b f2 9f b2 bc 2c bf e4 3d cf 1b 71 3d
       0.0064606154 -0.021804783 0.11169276 0.05886441
000030 e4 2e ae bc 93 d6 20 3c 99 8d d7 39 2c 58 d7 ba
       -0.021262594 0.0098167835 0.00041113494 -0.0016429476
000040 1a 49 40 3d a5 17 a4 3c 97 fb 4b be 33 1b 17 3d
       0.046944715 0.020030806 -0.19920193 0.036891174
000050 77 0c 07 bc 57 7b bb 3d 59 dc 43 3c 29 88 48 bc
       -0.008242718 0.091543846 0.01195439 -0.012239494
000060 52 e9 6f 3d 4c e2 9b 3d 12 5f 6b 3d 11 6d 44 bb
       0.05857212 0.07611522 0.057463713 -0.0029972235
000070 82 7c 29 3e 2a 01 15 3e 65 3d c0 3c 09 af fc 3d
       0.16551402 0.14551225 0.023466775 0.12338073
000080 e1 71 26 3e e9 d2 03 3e ae 45 be 3c 24 89 65 3d
       0.16254379 0.12873425 0.023226585 0.05603899
000090 77 d9 e0 3d 3b 37 82 bd 12 8f d3 3d 1d 58 28 3e
       0.10978978 -0.063581906 0.10330023 0.16439863
0000a0 ca 87 d2 3d b6 fc 60 bd 58 a6 72 3d aa 8c 3a 3e
       0.10279806 -0.054928504 0.05924067 0.18217722
0000b0 e3 ff d5 3a 63 3e e0 39 32 88 b8 3d 50 c1 47 3d
       0.001632687 0.0004277109 0.09010352 0.04876834
0000c0 0c 04 44 be 8b 8a 19 3d d3 b7 a5 bd e8 59 66 3d
       -0.19142169 0.03748564 -0.08091702 0.056238085
0000d0 d4 4e 07 3c 7e c6 12 3c 83 72 20 3e 52 ca 86 3d
       0.00825854 0.008958457 0.15668683 0.06581558
0000e0 b4 41 12 bd d9 7c 63 3c 5a d3 90 3b a7 f5 c5 3a
       -0.03570719 0.0138847465 0.0044197263 0.0015103117
0000f0 96 17 8a bb 09 62 d3 3d 87 cd 80 3d f9 73 39 3d
       -0.0042142374 0.10321433 0.06289201 0.045276616
000100 8c 1e fc 3b 00 40 90 3b 9e 7b 34 3d f7 e1 85 3d
       0.007694071 0.0044021606 0.044063203 0.0653724
000110 b3 62 1d 3e 7d be 2a 3d 01 30 41 3d c3 9b 36 3d
       0.15369682 0.04168557 0.04716492 0.04458214
000120 5a 61 a6 bc 36 9c 90 3c e2 31 15 bb d7 60 ae 3b
       -0.020310093 0.017652612 -0.0022765328 0.005321603
000130 d8 1c 24 bd 30 63 18 3e c9 f2 9b 3d 6f 1e d3 3c
       -0.04006657 0.14881587 0.07614667 0.025771348
000140 73 14 7a 3d 0e 78 7f bd 70 e6 32 3e 36 e4 0f 3e
       0.06105466 -0.062370352 0.17470717 0.140519
000150 fe 92 91 3c 73 71 fd 3d 10 02 c3 3d 55 cd 90 bc
       0.017770287 0.12375154 0.09521878 -0.017676035
000160 b7 04 0c 3e 51 3d 62 3d 44 0b fb 3d c6 4d da 3d
       0.13673674 0.055234257 0.12258008 0.10659365
000170 3f b8 67 3d 55 28 f9 3d 66 2c b8 bd d7 5a 17 3d
       0.056572195 0.12165896 -0.08992843 0.036951866
000180 c7 97 3a 3d 99 7e 16 3e 17 55 de 3d dd 56 34 3e
       0.045554902 0.1469673 0.10856073 0.1761126
000190 38 24 80 3b e1 d2 9b 3d a5 67 42 3e 98 53 80 bd
       0.0039105676 0.07608581 0.1898485 -0.06265944
0001a0 d3 1c 2a 3d 40 a0 26 3e 70 01 14 3e f9 e6 73 3d
       0.041531395 0.16272068 0.14453673 0.059546445
0001b0 d1 e2 fb 3d 2a 86 0c 3d cc 72 15 3e 81 6a 27 3b
       0.12299121 0.034307636 0.14594573 0.002554566
0001c0 48 9f 0c 3e 08 d4 01 3d bb a1 01 3e 42 a5 7d 3d
       0.13732636 0.03169635 0.12659352 0.06192518
0001d0 0b cf ab 3d 69 a6 08 3e 6e ae ab 3c 4a fa ff 3c
       0.083891 0.1334473 0.020957198 0.031247277
0001e0 2c b8 35 3e bb c0 1f 3d 5f ef 4c bb 6a 8e bc ba
       0.17746037 0.03900216 -0.0031270606 -0.0014385704
0001f0 38 fa 16 3d ab 4d d9 3d 97 b8 6a 3c d9 0d 1a bd
       0.03685972 0.10610517 0.014326236 -0.037610862
000200 43 08 9e bd be 10 3a 3d d5 fb d5 3d 21 78 d5 3d
       -0.077164195 0.045426123 0.10448424 0.104233034
000210 a1 c7 02 3e d0 00 55 3d 34 9b bc 3d 49 01 0c 3d
       0.12771465 0.052002728 0.0920929 0.034180913
000220 99 45 9d 3d e6 3b 56 3d 98 b1 d8 3d 01 62 8f 3c
       0.0767929 0.052303217 0.10580748 0.017502787
000230 8f bd 38 bd 25 8b 70 3c d0 ee 68 3d ee 4f 08 3d
       -0.045102652 0.014681612 0.056868374 0.033279352
000240 25 84 01 bd aa a8 a4 3d 45 4d 28 3e 9a ec ae 3d
       -0.031620163 0.080399826 0.16435726 0.08541222
000250 76 48 29 be 28 1c 94 3d 61 3f 24 3d 67 c7 d5 3d
       -0.16531548 0.07231933 0.040099505 0.104384236
000260 a9 2c a2 3d a6 8e ac 3d 85 1e df 3d a9 56 8c 3a
       0.079186745 0.084256455 0.10894493 0.0010706979
000270 73 b9 28 3d 53 1d 19 3e f5 02 28 3d 2b 76 c8 3d
       0.041192483 0.14952593 0.041018445 0.09788164
000280 c4 da ce bc 38 38 da 3c d4 7d a9 3d b8 82 dd 3d
       -0.0252508 0.026638135 0.08275953 0.10815948
000290 54 bd 88 3d 54 13 c4 3b 41 f2 01 bc 1e a3 2a ba
       0.066767365 0.0059837494 -0.007931293 -0.00065092917
0002a0 ea 6e f0 bd 55 27 ea 3d 46 39 4a bd a8 40 96 3d
       -0.11739905 0.11433283 -0.049371026 0.07336551
0002b0 82 ac c2 b8 6c 83 0a bd 0b 70 47 3d 75 d5 f6 3d
       -9.282773e-05 -0.03381674 0.048690837 0.120524324
0002c0 a7 77 5c bc b2 57 12 bc 97 42 56 3d 3d 3f f3 3d
       -0.013456262 -0.008932041 0.0523096 0.11877296
0002d0 8c 89 36 3e 3d 49 f6 3c 2f 69 e8 3d c1 e8 0b bd
       0.17825907 0.03006422 0.11348187 -0.03415752
0002e0 db 32 fa bc dc 79 56 3c 84 9c 8a 3d bd cd d3 3d
       -0.030541828 0.013090577 0.06768134 0.10341976
0002f0 19 1c 6b 3d 88 d9 38 38 b4 1e 22 3e ed 51 80 3d
       0.057399843 4.407161e-05 0.15832025 0.06265626
000300 93 3c 3f bd cf 8d 21 bc 01 4a 3f be e7 ca 11 bd
       -0.046688627 -0.00986047 -0.18680574 -0.035593893
000310 30 5a 35 3c 4d 78 a6 bc dc 79 aa bd dd 4a 4d bd
       0.011068866 -0.020321036 -0.08324024 -0.050120223
000320 60 31 5c 3d 2c 78 e1 bb 2b 11 3e 3b 2b 6d e2 bc
       0.053758025 -0.0068807807 0.0029001932 -0.027639946
000330 59 d6 a1 3c c9 78 13 3c 59 88 b0 3b ef e6 3e bb
       0.01975553 0.009000965 0.0053873477 -0.0029129346
000340 b2 fc 44 3d 83 14 23 bd 3c 52 e4 3d 5e 76 86 bb
       0.04809255 -0.039814483 0.111484975 -0.004103466
000350 f3 ad 3f 3e 75 e7 47 bc 22 11 57 3d 3c 0b cc 3b
       0.187187 -0.01220118 0.052506573 0.006226925
000360 c2 07 4a 3e 21 fe 5c bd 1f 14 1d 3c 91 95 31 bb
       0.19729522 -0.053953294 0.009587317 -0.0027097205
000370 48 f2 00 be b0 aa 05 bc 01 9a 01 3e 5f d4 01 bd
       -0.12592423 -0.008158371 0.12656404 -0.031696673
000380 f0 43 33 3e d9 54 24 3d b4 57 57 3d 51 4a 88 3b
       0.17506385 0.04011998 0.052573875 0.00415925
000390 6c b7 6d 3d 78 04 46 bb e6 2b ec 3d 72 c0 d8 bc
       0.058036253 -0.0030215066 0.115318105 -0.026458953
0003a0 d1 5e de 3d 81 ca 41 3c 31 6f e4 3d e3 ef cb bb
       0.108579285 0.011828066 0.111540206 -0.006223665
0003b0 13 5c 4a 3c ba ac 70 39 76 5b b1 3d 6b cc aa 3c
       0.012351054 0.00022952529 0.08660023 0.020849427
0003c0 ea 1c 62 be 51 fd b5 3a 50 4c c2 3d 2f a8 eb 3c
       -0.22081342 0.0013884698 0.09487212 0.02876672
0003d0 1e 65 82 bd a5 64 bf bb 19 1b 5b be 98 ee ee bc
       -0.06366943 -0.005840855 -0.21397056 -0.029166505
0003e0 ad ef 76 bb 50 c5 73 bd e1 24 85 bc 3a 9e b5 3b
       -0.003767948 -0.059514344 -0.016252937 0.0055425437
0003f0 c9 ae a0 3d 85 bb 37 bc 2e 8c e9 3d a1 5c 20 bd
       0.078458376 -0.011214142 0.1140369 -0.039150838

rios_f.RIOS_H.rnn_cell0.weight_hh f4 [384, 96]
000000 42 b9 2b 3b 70 3f bf bc 1a c8 2b ba 10 85 75 bb
       0.0026202952 -0.023345679 -0.000655295 -0.0037463345
000010 23 e4 1f 3b b8 b4 87 39 33 0f 4d bb a9 dd 27 3c
       0.0024397455 0.00025883853 -0.0031289577 0.010245719
000020 53 9f c7 bb 8b 66 61 bb 5f f9 05 3b 8d 67 f7 3b
       -0.006091991 -0.0034393396 0.0020442826 0.007550186
000030 9a f6 88 ba 30 22 4c bb 07 f3 a9 bb b7 d8 63 bb
       -0.001044947 -0.0031148307 -0.005186442 -0.0034766623
000040 8a fa 46 3c 4b ef 7e ba 64 15 b7 bb 14 7c 4b ba
       0.012144694 -0.00097249885 -0.0055872668 -0.00077623245
000050 a3 e1 be bb de b6 8b 3a 8f 1f 18 3c ab c8 29 3b
       -0.005825238 0.0010659357 0.009284868 0.002590696
000060 d8 ef 24 bc 8a 1e a6 3b 62 ad 1d 3b 67 95 3b bc
       -0.010066949 0.0050695585 0.0024059643 -0.0114491945
000070 61 11 46 ba 51 15 c3 3a 27 1c 91 3b 66 77 54 bb
       -0.000755569 0.0014883672 0.004428405 -0.00324198
000080 d5 12 6a ba 71 04 27 3b 86 55 46 bb 7a 68 a4 3c
       -0.0008929198 0.0025484825 -0.0030263378 0.02006935
000090 b9 11 b5 3a 46 61 9d bc 83 de 53 bb ce da 0b 3c
       0.0013814486 -0.019211423 -0.0032328672 0.008536054
0000a0 42 ce 6d ba 10 28 68 bc 5d 26 a3 ba 23 2c 10 ba
       -0.00090715673 -0.014169708 -0.0012447346 -0.0005499741
0000b0 b1 a7 b4 3b cf 89 a9 3b dd 3b cb ba d8 41 9d bb
       0.0055131544 0.005173899 -0.0015505512 -0.004799109
0000c0 60 c8 1a 3c 9b 4f 95 3b 4e 6e fa 38 52 02 87 b9
       0.009447187 0.004556609 0.00011941475 -0.00025750935
0000d0 db be b1 b9 83 4f 03 3c 90 c0 32 bb 62 1c 4d 3c
       -0.0003390227 0.008014563 -0.002727542 0.012518974
0000e0 ab 08 60 3c 5e 6b 32 bc 65 68 ae 3c 55 d6 c5 3a
       0.013673942 -0.010889856 0.021290014 0.0015093783
0000f0 6b f1 5f bc 37 0d fb 3a 74 93 91 ba 87 43 c9 3b
       -0.013668398 0.0019153719 -0.0011106567 0.006142083
000100 3e f3 69 ba 3e 9c b8 b8 b1 88 a4 3c d2 0a 1a 3b
       -0.00089244905 -8.802906e-05 0.02008471 0.0023504985
000110 4e a8 a2 3b bf f6 3a bc 2e 51 58 bc e6 45 fa 3b
       0.004963911 -0.011411368 -0.0132029485 0.007637727
000120 0b e3 8c bc 3d 03 0c 3c c2 8e 3d 3c 27 9d 29 bb
       -0.017198106 0.008545694 0.011569681 -0.0025881024
000130 35 c1 40 bb f8 37 c1 3b f2 d8 1b 3c a4 13 74 bc
       -0.0029412035 0.0058965646 0.009512173 -0.014897261
000140 02 e3 af 3b d4 c6 07 bc 5a a1 c1 bb 67 5a 36 ba
       0.0053676376 -0.00828715 -0.005909127 -0.000695622
000150 6f 24 9a 3b b2 2c 04 3c f5 08 78 3c de 4d 88 ba
       0.0047040503 0.008067297 0.015138854 -0.0010399183
000160 15 fc a7 bb 99 11 87 bc 95 ad 7d b8 0f 2a 3c 3c
       -0.005126486 -0.016487883 -6.048156e-05 0.011484637
000170 c7 71 e3 3a e5 6b 0e bc 15 d2 2c bb 84 7d 33 3c
       0.0017352634 -0.008692716 -0.0026370336 0.010955218
000180 ad 62 bf 3b 8c 78 a4 bd 60 9e 4e 39 50 51 68 bc
       0.0058406205 -0.08030805 0.0001970469 -0.014179543
000190 4a 40 4b 3c ea c5 c0 3b 44 c3 24 bc 70 c5 06 3d
       0.012405464 0.005882968 -0.010056321 0.032903135
0001a0 c9 79 70 bc ca 0f 61 bc c9 ee 2e 3c ba 8c ea 3c
       -0.014677473 -0.013736675 0.010677048 0.028631557
0001b0 43 56 6e bb b3 9d 1e bc 44 37 ac bc 79 82 33 bc
       -0.0036367334 -0.009681153 -0.021022446 -0.0109564
0001c0 7e 99 0c 3d dc fd b8 bb 41 06 e6 bc 94 1c d1 b7
       0.03432607 -0.005645497 -0.028079154 -2.492805e-05
0001d0 c9 c0 64 bd 5c 45 82 3b 34 06 56 3d 7c 18 40 3c
       -0.055847917 0.0039755534 0.05225201 0.0117245875
0001e0 96 7b 27 bd 1b b1 01 3d b6 f2 13 3c 1d 52 3a bd
       -0.040889345 0.03166304 0.009030035 -0.045488466
0001f0 dc de 67 bc 2d 59 94 3b b6 38 c4 3c 31 78 34 bc
       -0.014152255 0.004527232 0.023952823 -0.011014984
000200 bf 02 bc bb f3 22 e5 3b ae ed ea bb db dc 67 3d
       -0.005737632 0.0069926917 -0.007169447 0.05660711
000210 85 b1 65 3a b4 96 68 bd df f5 74 bc 38 f3 8c 3d
       0.0008762109 -0.056784347 -0.014951198 0.06882328
000220 8e 8c ab ba 73 70 dc bc e0 d3 6c bb c4 a2 85 ba
       -0.0013088153 -0.026909089 -0.003613703 -0.0010195603
000230 3b 24 4a 3d b7 08 45 3d ee cb 98 bb 85 bb a1 bc
       0.04935096 0.048104014 -0.004662982 -0.019742737
000240 b5 20 29 3d f1 89 bf 3c 87 66 74 bb 14 7f 4b ba
       0.041290957 0.023381205 -0.0037292556 -0.00077627716
000250 1c 1e f2 bb 51 3a 17 3d db ba 3c bc 96 ae 68 3d
       -0.007388843 0.03692085 -0.011519159 0.056807123
000260 35 cb 34 3d be f3 8a bd 3e 27 91 3d d1 b2 ae 3b
       0.044139106 -0.067847714 0.07087563 0.005331375
000270 1d 79 73 bd 8c 3c 6c 3c a3 f9 b0 ba 32 c7 10 3d
       -0.059441675 0.014418732 -0.0013502132 0.035346217
000280 65 ea 26 bb 51 f2 dc 3a 94 ef 9e 3d 1d 29 de 3b
       -0.00254693 0.0016856884 0.0776054 0.0067798034
000290 c9 ea f6 3c 9b 0b 40 bd 8d 4f 13 bd 70 2d 18 3d
       0.030141251 -0.046886068 -0.035964537 0.037152708
0002a0 ee 33 79 bd 48 e5 22 3d 1a 18 63 3d 22 92 8c bc
       -0.06084054 0.03976944 0.055442907 -0.017159525
0002b0 da 69 3a bc 50 9d df 3c 34 7d 87 3c 24 eb 2c bd
       -0.011377776 0.027296692 0.016539194 -0.042216435
0002c0 4b ce df 3c 52 24 96 bc 56 c6 ff bc 2d 34 cc ba
       0.027320048 -0.018327866 -0.031222504 -0.0015579514
0002d0 9d ac bf 3c 06 65 15 3d 21 4a 88 3d 57 f3 ac 39
       0.023397738 0.036473297 0.06654764 0.000329877
0002e0 91 bb e3 bb 47 3c d2 bc ea 50 58 3a 50 6f 01 3d
       -0.00694985 -0.025663508 0.0008251803 0.031600296
0002f0 60 a6 18 3b d8 23 34 bd 87 89 e3 39 af 2f 39 3d
       0.0023292527 -0.043979496 0.0004339928 0.04521149
000300 e5 5a c2 3b d7 a8 3a bd b6 dc 99 3a 19 2b 26 bc
       0.0059312456 -0.045571174 0.0011738751 -0.010142111
000310 7c 13 fc 3b 21 09 15 bb 89 43 03 bc 9e fd b0 3c
       0.0076927524 -0.0022741037 -0.008011707 0.02160531
000320 e0 a6 3a bc 41 06 12 bc 52 5d af 3b 99 62 1d 3d
       -0.011392325 -0.008912624 0.005351701 0.03842411
000330 43 30 97 ba c8 bf 99 bb f3 8a 99 bc 35 b8 4d bb
       -0.0011534769 -0.0046920516 -0.018743014 -0.0031390314
000340 a9 59 09 3d d3 a6 60 bb b7 59 92 bc 28 51 3a 3a
       0.033532772 -0.0034279122 -0.017865045 0.000710743
000350 35 89 eb bc 39 a4 9d 3a ba db 06 3c 7e 7e fa 3b
       -0.028751949 0.0012027092 0.008231098 0.0076444736
000360 10 ce ce bc 8e 48 d6 3c e9 06 ae 3b 65 ba 5e bc
       -0.025244743 0.026157644 0.0053108823 -0.013594245
000370 b8 30 f2 bb d8 87 ea 3a fb 58 ae 3c 44 03 8d ba
       -0.0073910616 0.0017893268 0.021282664 -0.001075842
000380 bc 03 4e bb a7 ca 27 3b 98 5f 09 bb 01 d4 e5 3c
       -0.0031435331 0.0025602968 -0.002096152 0.028055193
000390 c4 9b ef b9 56 dd b9 bc 51 cb 0b bc c8 19 d5 3c
       -0.00045701687 -0.022688549 -0.008532361 0.02601327
0003a0 c2 a1 a0 39 76 ee de bc d0 c2 00 bb 46 f9 a1 ba
       0.00030638097 -0.027213316 -0.0019647367 -0.0012357614
0003b0 54 80 05 3d a0 08 67 3c 9f 8b d5 ba 4f 6c 19 bc
       0.032593086 0.014101177 -0.0016292221 -0.009364202
0003c0 70 62 d4 3c 44 32 23 3c 60 34 96 b9 eb 1a af ba
       0.025925845 0.009960715 -0.00028649252 -0.0013359463
0003d0 fb b6 b5 bb 00 76 bf 3c 6a 08 f3 bb fa 2b 3c 3d
       -0.0055454946 0.023371696 -0.0074167745 0.045940377
0003e0 af fb c8 3c ec 55 63 3b b5 c5 00 3d dd 90 6d 3b
       0.024534075 0.0034688665 0.031438548 0.0036249675
0003f0 e7 9d 02 bd 0a 89 7f 3b bd 14 07 3a e2 f6 a0 3c
       -0.03188887 0.0038991594 0.00051529316 0.019648973

rios_f.RIOS_H.rnn_cell0.bias_ih f4 [384]
000000 ee 96 bb 3d 25 f4 c9 3d 01 fd c5 3d 80 a7 15 3e
       0.09159647 0.0986102 0.09667397 0.14614677
000010 1c 3c 12 bd 57 7f 3f bd 2b cb 46 3c f3 48 de ba
       -0.035701856 -0.0467523 0.0121334 -0.0016958996
000020 69 81 82 3d 07 2a e9 3c 8c 30 87 3d 58 8a ea 3a
       0.06372339 0.028462423 0.066010565 0.0017894013
000030 9c 81 48 3d 53 8c 7f ba e2 25 77 3d ae 6c 16 3e
       0.04895173 -0.0009748388 0.060338862 0.14689896
000040 3f a5 ff 3d f8 14 73 3d d0 6f eb 3c 82 1b 4b 3e
       0.1248269 0.05934617 0.02873984 0.19834712
000050 9e 52 71 3b 51 53 a7 3d 97 ae ee 39 1a 05 3b 3d
       0.0036822925 0.08170188 0.00045524977 0.045659162
000060 97 14 9e bd 2c d7 8b 3d 5a 4b 2d 3d c6 84 1c 3e
       -0.07718771 0.0682815 0.04230819 0.15285024
000070 f3 0c ff 3c 04 91 65 3a c2 8a 23 3e 23 0b 73 3d
       0.031134104 0.0008757266 0.159709 0.059336793
000080 c2 46 96 3d cb 21 f0 3d 04 73 de bb 88 bf 9e 3d
       0.07337715 0.117251955 -0.0067886133 0.077513754
000090 3b 73 ee 3c 3e a7 1b 3c ee 34 1f 3e 3b 68 a3 3c
       0.02910768 0.009500323 0.15547535 0.019947162
0000a0 f8 62 4f 3d 2e 19 58 3c 25 96 83 3d 5c b8 a2 bc
       0.050631493 0.013189597 0.06425122 -0.0198633
0000b0 d7 7e 37 3e d0 a7 be 3d ad 19 43 3e cd b4 0d 3e
       0.1791948 0.093093514 0.19052763 0.13838501
0000c0 eb 38 4f 3d fe 15 e1 3d b1 03 e9 3d 2a 20 2d bc
       0.05059139 0.10990523 0.11377657 -0.010566751
0000d0 a4 24 10 3e 11 e2 38 3c 63 18 ff 3c 17 dd 4d 3d
       0.14076477 0.011284367 0.031139558 0.050259676
0000e0 56 6f 01 3e e3 ee 68 3d 23 73 25 3e 51 a1 3e 3d
       0.12640128 0.056868445 0.16157202 0.046540562
0000f0 ce 8a 29 ba 15 ef e5 3a 13 77 28 3e 28 74 b3 3b
       -0.0006467522 0.0017542565 0.16451673 0.0054764934
000100 8f c6 cd 3d cc 29 22 3e 5c c7 96 3d 3e 28 a9 3d
       0.10047638 0.15836257 0.073622435 0.08259629
000110 82 71 14 3e d5 08 c4 3d 6e 18 26 3c e3 20 db 3c
       0.14496425 0.09571997 0.01013766 0.02674908
000120 e0 8b a2 3d 1c 72 0d 3d d0 f3 c5 3d 91 47 cc 3d
       0.07936835 0.03453265 0.09665644 0.09974588
000130 a1 dd c0 3d 8b 96 4a 3d aa b2 44 3d 08 92 7b 3d
       0.09417272 0.049459975 0.04802195 0.061418563
000140 05 b9 4a 3d f9 81 9a 3d 6f 8a 36 3d ba c9 19 3b
       0.049492855 0.075443216 0.044565614 0.0023466186
000150 e5 30 2d 3d 4d af b2 3d df 3f 8b 3c bc 78 0a 3e
       0.042282958 0.08724842 0.01699823 0.13522619
000160 c7 45 7d 3b 4c fc 1d 3e 8c 21 35 3c b2 93 3a bc
       0.0038646327 0.15428275 0.0110553615 -0.011387752
000170 23 73 b5 3c 7f 01 f8 3d e1 03 7b bb c2 eb f2 bb
       0.022149628 0.1210966 -0.0038301873 -0.0074133584
000180 98 b6 83 3b db fa 99 bd 67 8f 84 bb d5 50 08 bd
       0.0040195696 -0.0751855 -0.004045415 -0.033280212
000190 a2 2f e1 3a b0 9c 0c 3d a5 ed 0e 3b 85 89 e4 3a
       0.0017180333 0.034329116 0.0021809128 0.0017436004
0001a0 a9 58 5d bc b5 31 81 3d 0e 95 ca bc c4 87 ab bc
       -0.013509908 0.06308309 -0.024729278 -0.020938762
0001b0 5e 0c 3b 3d 66 f0 34 bb b8 83 d5 bc 9e 3e 68 bc
       0.04566609 -0.002760911 -0.026063785 -0.014175085
0001c0 da b2 4a bd dc cd 84 bc bb 59 3d 3d 6b 6e 15 3d
       -0.049486972 -0.016211443 0.04622815 0.036482256
0001d0 96 86 20 bc 55 28 88 3d 50 c1 4c 3b aa 75 a4 3c
       -0.009797713 0.06648318 0.0031243153 0.020075638
0001e0 8b ce b0 3d e3 ef 4c bc 30 09 f3 3b b7 60 55 bd
       0.08633145 -0.012508365 0.0074168667 -0.052094188
0001f0 61 ad d3 b9 c8 54 be 3b 60 a6 84 3d c1 9a 8a 3c
       -0.00040374234 0.0058084466 0.06477046 0.016919496
000200 92 9d f4 bc a7 e1 26 3d 79 19 6c bd 05 1d 36 3d
       -0.029860292 0.040742543 -0.05764148 0.04446127
000210 b9 65 da bc 8e 5c c8 3a 0d dd 96 bd 46 66 a2 bc
       -0.026659833 0.0015286373 -0.07366381 -0.019824158
000220 9c 59 b5 3c 60 f0 33 bd 80 62 72 3c 9e 44 f5 bb
       0.022137456 -0.04393041 0.014793992 -0.0074849864
000230 0b 0a c7 bb c0 d9 8b 3d 07 68 94 bd 08 fc 01 3d
       -0.0060741953 0.06828642 -0.07246404 0.031734496
000240 ac 8c 74 bd 72 09 62 bd 98 94 5c bd 93 9c d6 bc
       -0.059704468 -0.05518479 -0.053852648 -0.026197707
000250 24 a7 fa bc 4c b3 10 3d c5 25 52 3d 37 51 b3 3c
       -0.030597277 0.03532724 0.05130555 0.021889312
000260 ad 5b 90 bc 66 54 70 3d ed 06 95 3a f6 ba d6 bc
       -0.01762184 0.05867424 0.0011369862 -0.026212197
000270 7e 16 82 3d b5 ee 65 bc 75 d1 4e 3b 85 87 f5 bc
       0.06351946 -0.014033963 0.0031557952 -0.029971847
000280 4d ee 17 bd 95 bf b0 bc e3 3c 8d bc ba 66 8d 3c
       -0.037092496 -0.021575728 -0.017240947 0.017260898
000290 3a 95 b6 bc 7f d1 5a bd b4 e9 34 3c da be 89 3c
       -0.022287954 -0.053422447 0.011042047 0.016814638
0002a0 12 2f 87 3d b7 72 65 3b cc 10 a0 bd 72 32 89 3d
       0.06600775 0.0035011002 -0.07815704 0.06699075
0002b0 9b ad 9e ba 28 a7 ee 3b e2 cb 69 bd b0 af 4f 3d
       -0.0012106182 0.00728311 -0.057079203 0.050704658
0002c0 fb f7 5b bc 0b 6b 82 bd 29 93 97 3c 0d dd a9 3b
       -0.013425822 -0.06368073 0.018502789 0.005183822
0002d0 93 89 20 bd 00 f4 8d 3b 74 1a a2 3d ea 80 33 3c
       -0.0391937 0.0043320656 0.07915202 0.0109560285
0002e0 b4 9a 45 3b 8b 41 a1 bc 9d 79 0a bc b9 d6 b3 3a
       0.0030152025 -0.019684574 -0.008451846 0.0013720609
0002f0 1c 97 3c bc 49 39 a8 3c a6 88 93 bc 50 e3 70 bd
       -0.011510637 0.020535128 -0.018009495 -0.058810532
000300 0b 2c d1 3d 0d 89 20 3d ab 21 89 bc 17 5e a4 3d
       0.10213479 0.0391932 -0.016739687 0.08025759
000310 68 36 9a bd 09 05 59 3d 19 82 82 bc 20 73 85 3c
       -0.075299084 0.052983318 -0.015931176 0.016290247
000320 03 09 e8 bb 04 9a 56 3d 7b 3b 9b bd f7 10 8e 3d
       -0.0070811524 0.052392974 -0.075797044 0.069368295
000330 25 8a 86 bc 09 b2 9d bd 78 55 d5 bc db 70 7f bd
       -0.016423294 -0.07699973 -0.026041731 -0.062363487
000340 03 97 2e 3d 47 76 83 bd 20 60 f3 bd 4b 4e 64 3c
       0.042624485 -0.06419044 -0.11883569 0.013934682
000350 06 cd f2 bc 81 8c a2 bd c2 5e bb 3c 71 5a 61 3d
       -0.029638778 -0.07936955 0.022872332 0.055017892
000360 43 7e 90 bd a2 40 a2 bd cc 6c e4 bc f4 02 32 3d
       -0.070553325 -0.07922484 -0.02788391 0.043459848
000370 c0 4f 30 bd ae 20 44 bc 76 9e 52 bd 58 3f b0 bd
       -0.043044806 -0.011970682 -0.05142065 -0.08605832
000380 fe 1f 64 3d ce 96 65 bc ee 71 32 bd 72 30 dc 3c
       0.055694573 -0.014013005 -0.043565683 0.02687857
000390 2b 85 4b 3d 17 15 fd 3c dd 60 aa 3d 54 b9 16 bb
       0.049687546 0.030893845 0.083192565 -0.0022998648
0003a0 94 25 d8 bd 80 6a 7c 3d 32 23 50 3d 21 d2 db 3d
       -0.105540425 0.061625004 0.050814815 0.10733438
0003b0 20 f1 38 3c 72 06 70 3d 75 9d d8 3d de b4 60 3d
       0.011287957 0.058599897 0.105769075 0.05485999
0003c0 b7 0d 91 3b 9d b5 ae 3c 68 08 02 bd 2a b0 9b bd
       0.0044266838 0.021326834 -0.031746298 -0.0760196
0003d0 55 dd fe 3c 7c 63 d4 3d a7 47 30 3d 9b 43 ef 3c
       0.031111399 0.10370538 0.043037083 0.029207041
0003e0 aa 91 6d bd 8e 03 97 bd d1 b7 a9 bb d3 77 53 bd
       -0.058000244 -0.07373725 -0.0051793833 -0.051627945
0003f0 8d d6 4b bd 8f ae 27 bc c3 13 5c 3c 32 b6 8f 3d
       -0.04976516 -0.010234489 0.013432446 0.07017173

rios_f.RIOS_H.rnn_cell0.bias_hh f4 [384]
000000 81 97 10 3d 7b a0 46 3e 9a 6f 0f 3d f7 3d 32 3e
       0.035300735 0.19397156 0.03501854 0.1740645
000010 98 85 77 bc 19 0c c5 3c 3a af 83 3c 74 7e d4 ba
       -0.015107535 0.02405362 0.016074765 -0.0016212002
000020 39 f0 00 3e f0 b8 a5 3d 3d 65 fb 3d ef af a1 ba
       0.12591638 0.08091915 0.12275169 -0.0012335757
000030 47 df 08 3e 2b a7 2f 3b 58 6c 30 3e 40 cd f3 3d
       0.13366424 0.002680252 0.1722883 0.11904383
000040 0b 93 ac 3d 3e 4f ab 3d 6d c0 68 3c 90 a7 d4 3d
       0.08426484 0.083647236 0.014206034 0.103835225
000050 d5 b1 b6 bb 55 52 63 3d dc 7f f6 39 9e e6 92 3d
       -0.0055753984 0.05549844 0.0004701604 0.07172893
000060 20 8b 8d bd be 35 c5 3d 9a 32 e2 3b 40 cb dc 3c
       -0.069113016 0.09629391 0.006903005 0.026952386
000070 46 d5 35 3d d5 57 c0 3a 6a c8 f9 3d 72 15 1e 3d
       0.044392847 0.0014674613 0.12196429 0.03859467
000080 40 b1 ed 3d 73 79 a3 3d 7d f7 14 bd c8 5d ed 3d
       0.116060734 0.07982149 -0.036368836 0.11590153
000090 0f 52 4f 3a 38 33 c9 bb 5e 05 cb 3d 64 3c 54 3d
       0.0007908651 -0.006140139 0.09913133 0.051815405
0000a0 b8 c1 43 3d dc 9b 1c 3e ea dc 6b 3d 90 5d 22 3c
       0.047792166 0.1529383 0.057583727 0.009910002
0000b0 12 a7 29 3e 8e 65 98 3c 9e 4c 92 3d 86 3f 4c 3d
       0.16567639 0.018603113 0.0714352 0.04986527
0000c0 92 ec d2 3d 4c af b4 3d 7b 4b 23 3e 20 ee 9c 3d
       0.102990285 0.08822498 0.15946762 0.07662606
0000d0 9a b2 1d 3e 28 a8 e9 3d e2 a5 0a 3e d9 23 09 3e
       0.15400162 0.114090264 0.13539842 0.13392581
0000e0 11 e4 8d 3b 55 2c 02 3e d7 4d f0 3d 8c b5 57 3d
       0.004330166 0.12712224 0.11733597 0.05266337
0000f0 56 4e 8c 3d 6e ac 09 3c fe 6c 27 3e ce a3 8d 3c
       0.06850879 0.008402927 0.16350171 0.017290022
000100 9d 11 27 3e 8a f9 26 3e 5c 8c 80 3d d6 0a 6a 3d
       0.16315313 0.16306129 0.062767714 0.05713924
000110 b1 6a 0e 3e 3f 40 ca 3d 2e 08 9e 3c c5 00 11 3d
       0.13907887 0.09875535 0.01929101 0.035401125
000120 29 da fc 3d 5a 17 1e 3e cf e3 52 3d 97 91 43 3d
       0.12346298 0.15438595 0.051486786 0.047746267
000130 e5 bd ad 3d 99 31 89 3c 7e 85 24 3d 5f 9b a1 3d
       0.08483485 0.016747283 0.04016637 0.07890963
000140 81 c8 00 3d b2 b5 c8 3d db d4 68 3d 10 ea 23 bc
       0.031441215 0.09800281 0.05684362 -0.010004535
000150 9f 87 ec 3d 5c a6 f7 3d 07 81 3f 3d ec 48 c7 3d
       0.11549305 0.120922774 0.04675391 0.097307056
000160 2f 9d 70 3b 38 e2 1b 3e 62 f3 9d 3c 3a e1 81 bd
       0.0036714782 0.15223014 0.019281093 -0.06341787
000170 4e a7 84 3c fb 05 2a 3e dc 1f 59 3c 02 c4 95 3d
       0.016193058 0.16603844 0.013252225 0.07312776
000180 2f 05 82 3b ca ad b8 bd 22 d7 a0 bc 94 3b 10 3d
       0.003967903 -0.09017523 -0.019633833 0.035213068
000190 70 b1 92 bc f2 7f 30 3c b0 5e 45 bb bd 02 ad 3b
       -0.017906874 0.010772692 -0.0030116253 0.0052798674
0001a0 d5 06 48 bd aa 83 1b 3d dc 23 44 bc 95 ed 85 3c
       -0.04883464 0.03796736 -0.01197144 0.01634864
0001b0 64 e3 28 3d df af c6 ba 45 ba c8 bc 35 35 d7 bc
       0.04123248 -0.0015158615 -0.024502883 -0.026270488
0001c0 21 55 60 bd ab bc 0f bd b6 97 91 3d 7e 1f ca bc
       -0.054768685 -0.035092037 0.07109015 -0.02467322
0001d0 b6 e6 31 bd d6 58 46 bd 29 9c e9 ba 62 9d 75 3a
       -0.043432914 -0.048424564 -0.0017823029 0.000936946
0001e0 6c 75 fd bb 1d 2b 18 3a 4e 6a 06 3c e7 cc 23 bd
       -0.007734945 0.0005804764 0.008204056 -0.039990332
0001f0 40 ee 41 bd 51 9a e8 3b 8f d9 8b 3d ce 28 b6 bb
       -0.047346354 0.007098474 0.068286054 -0.0055590635
000200 c5 18 3c bc 83 c0 ba bc 89 4b 95 bc 0a bb 89 bc
       -0.011480515 -0.022796875 -0.018224495 -0.01681282
000210 a7 e6 26 bd 9c 09 6e 3c d8 0f 17 bd ce 46 92 3c
       -0.04074731 0.014528658 -0.036880344 0.017856028
000220 8f 2e 8f bc 60 5d 48 3d 5e 60 7f 3c 0f 02 36 3b
       -0.017478256 0.048917174 0.015586941 0.0027772223
000230 d5 f6 21 3d 0d c2 32 3d 92 5a 53 3d 5d 64 ea 3c
       0.039542038 0.043642092 0.051600046 0.02861231
000240 a9 7d 43 3d 47 e7 0e bd 51 a6 95 bd b0 04 e1 bc
       0.04772726 -0.034888532 -0.07307113 -0.027468055
000250 54 9d 52 bc c6 61 2d 3d b3 ba 84 3d 19 18 2c 3c
       -0.012854893 0.042329572 0.064809225 0.010503792
000260 3e 46 56 3a 99 4a 33 bd 21 4d 7f bd 7c 2e ef bc
       0.0008173919 -0.043772314 -0.062329415 -0.02919697
000270 40 2b aa bd ce 81 3f bc 95 de cb bc c7 1b ce bb
       -0.083090305 -0.011688663 -0.024886409 -0.0062899324
000280 33 ac ac 3c 3c 51 9a bc 37 e1 aa bd 8f e0 80 bc
       0.021078205 -0.018837564 -0.083437376 -0.015732078
000290 74 c4 a3 3d 76 03 20 3d a4 99 d1 3b 44 cc 52 bc
       0.07996455 0.0390658 0.006396489 -0.0128660835
0002a0 a2 d4 3b bc 8b d1 ac 3d 1d 84 42 3d 47 8b c4 bb
       -0.01146427 0.08438405 0.047489274 -0.0059980485
0002b0 af 02 f8 3c 92 d3 1c 3c ed 18 dc 3c 81 1e 81 3d
       0.030274717 0.009571927 0.026867354 0.06304646
0002c0 63 00 93 bc 71 61 9a bd 1b 9b 48 3d 1e be 96 3b
       -0.01794452 -0.07538117 0.048976045 0.0046003005
0002d0 e8 7e e2 bc 0d 8a 02 3d 5a ec 19 bd 1f 61 99 bc
       -0.027648404 0.031869937 -0.037578918 -0.018723069
0002e0 1b a2 d9 3a c3 19 e6 3b 6f 01 34 bc fb 03 23 bd
       0.0016604097 0.007022114 -0.01098667 -0.039798718
0002f0 c5 fd 20 3a b2 b5 1e bb 03 4a 93 bc ee 5a ef bb
       0.000614133 -0.0024217186 -0.017979627 -0.007304541
000300 b7 e2 4a 3d 7c 1e a8 3d 05 60 82 bd 03 31 87 bd
       0.04953262 0.082089394 -0.063659705 -0.06601145
000310 bb 1e a7 3d 34 6a 9a 3d 99 58 11 3d d8 44 0d bd
       0.08160158 0.07539788 0.035484884 -0.034489483
000320 8e e3 31 bd 86 84 0a bc 0a 51 96 bc 87 c5 50 3d
       -0.043429904 -0.008454448 -0.01834919 0.050969627
000330 ec d4 87 3d e7 80 7a bd 25 24 53 3d 44 6d 9e bb
       0.066324085 -0.061158087 0.051548142 -0.004834803
000340 0a 4f 25 3b a0 20 13 bc 5c 5a ef bd 20 5a 32 bd
       0.0025224113 -0.008979946 -0.116871566 -0.04354298
000350 4a 73 24 bd b6 db 35 bd 5b cb 8f bc 58 84 4c 3d
       -0.04014901 -0.044398986 -0.017553022 0.0499309
000360 04 c7 9a bd 26 91 e0 3c e8 86 16 bd 36 00 c9 3d
       -0.075574905 0.027412962 -0.03674975 0.09814493
000370 34 f8 84 bd ce 46 af bd ad dc 02 ba ee 25 39 3d
       -0.064926535 -0.08558427 -0.00049919897 0.04520219
000380 9d a4 f4 3c c4 9b db 3c ea 87 a7 bd 55 c7 70 bd
       0.02986365 0.026807673 -0.081802204 -0.058783848
000390 58 d3 a3 bd 33 18 e7 bc ad a9 4f 3d 1f ec c6 3c
       -0.07999295 -0.028209781 0.050698925 0.024282513
0003a0 79 f9 3a bd 98 3d de bc d3 9b a0 bd d8 c6 c5 3c
       -0.045648072 -0.02712898 -0.07842221 0.024142668
0003b0 e3 2b 3a bd a1 51 62 3c ba cc b8 bd fb 55 af 3c
       -0.04545201 0.013813407 -0.090234235 0.021403303
0003c0 00 83 ad bd b5 6e 98 bd 38 cb 79 bd 1a 17 8c bc
       -0.08472252 -0.07442991 -0.06098482 -0.01710086
0003d0 6a a0 53 3c fe f9 9a 3d d7 23 cd bd 32 0d b3 3d
       0.012916664 0.075672135 -0.100166015 0.08742751
0003e0 f3 64 ac bd 5c c0 39 3d b3 0f 90 bd 9f 1c 89 3d
       -0.08417692 0.045349464 -0.070342444 0.06694912
0003f0 fe 7b 0c bd bc 60 8d bb 79 64 83 3d 3b a3 d9 3c
       -0.034297936 -0.00431451 0.06415648 0.026567092

rios_f.RIOS_H.rnn_cell1.weight_ih f4 [384, 2]
000000 1e eb 0d 3c 14 3d fe 3a 56 1d e6 bc b7 12 e0 bc
       0.008662013 0.0019396865 -0.02809016 -0.027352674
000010 ac be 45 3c 6f ec 28 3b 9e 92 bc bc c2 19 85 3d
       0.0120693855 0.002577569 -0.023019131 0.064990535
000020 d1 71 fa 3b 53 7a ec bb 54 95 a8 bc 64 e5 c8 bc
       0.0076429625 -0.0072167306 -0.020579018 -0.024523444
000030 19 5c 1e b9 6b e9 54 bb 4a 9e 46 3b ef e7 02 bd
       -0.00015102363 -0.003248776 0.003030675 -0.03195947
000040 10 a2 7c 3d 5d 7a da bc 20 d8 94 3c b7 d6 af 3c
       0.061677992 -0.026669675 0.018169463 0.021464689
000050 2d 9c 6e bc 9f 93 62 3c 2e 8b 02 3d 36 ab 8c bd
       -0.014563602 0.013829141 0.031871013 -0.068685934
000060 0a eb a7 3c 7d 64 00 bd 1a 2c 3d bc 7c 9f dd bb
       0.020497818 -0.031345833 -0.011546159 -0.006763397
000070 fd cb a7 bc 09 4b 75 3c 23 ca 87 3d dc c9 22 bd
       -0.020483011 0.014971503 0.066303514 -0.03974329
000080 ea f4 9c 3c 1c 7d 27 bd 97 af 2a 3c c4 60 31 bc
       0.019159753 -0.040890798 0.01041784 -0.010826293
000090 cf 8b ad 3b f5 7a 15 bd 11 8d 24 3d 18 4e 63 bc
       0.0052962075 -0.036494214 0.040173594 -0.0138735995
0000a0 e8 10 94 bc d8 cd 03 bb c6 e6 4e 3d fb eb 69 3c
       -0.018074468 -0.0020111706 0.05051305 0.0142774535
0000b0 de cc ac 3c 65 12 25 bd ee a4 d2 3a 11 7a a3 bb
       0.021093782 -0.040300746 0.0016070881 -0.0049889167
0000c0 d0 71 1c bd 94 51 ee bb 74 52 47 3c 63 57 68 bd
       -0.038194478 -0.0072729085 0.012165654 -0.056723963
0000d0 30 67 8c 39 f1 74 47 3c c7 cc 8c 3d 6b be 72 bd
       0.00026779762 0.012173877 0.06874996 -0.059263628
0000e0 a9 e2 62 3d 6c f3 f9 bd 80 c1 25 ba dd 50 17 3b
       0.05539194 -0.12204632 -0.0006323084 0.002308897
0000f0 a9 ae 6d 3d c1 29 1c bd 33 82 e2 3b 4c 92 05 bd
       0.058027897 -0.038125757 0.0069124936 -0.032610223
000100 98 b6 c3 3c b3 71 56 3c 86 90 e6 ba ba b0 f0 3b
       0.023890778 0.013088631 -0.0017590679 0.007345286
000110 35 71 f7 bc 01 db ee bc 0a 37 7c bd 1c a8 6c 3c
       -0.030205349 -0.029157164 -0.061575927 0.014444377
000120 d4 43 c5 ba f0 a3 46 bb 67 70 09 bd 8a c8 2b 3d
       -0.0015050122 -0.0030310117 -0.03355446 0.041939296
000130 99 9b 66 ba 88 a2 55 bd 47 ed 1f 3d 76 03 40 bd
       -0.00087969896 -0.052156955 0.039044645 -0.0468783
000140 94 e3 bf bb 3c a6 cb bb fc fc 9d bd 3d e8 88 bc
       -0.005855987 -0.006214885 -0.077142686 -0.016712302
000150 39 03 37 3c 61 b6 9c 3c d6 db ae 3d 2d b4 b5 bc
       0.011170202 0.019129934 0.08538024 -0.022180641
000160 55 b3 5b bd 42 1d 77 bc ae 5c 25 3d 49 94 f1 3b
       -0.05363782 -0.015082659 0.04037159 0.0073724133
000170 75 61 41 bb ee 24 fe bc 43 75 ac 3c a5 82 e5 bc
       -0.0029507552 -0.031023469 0.021052008 -0.028016398
000180 69 b2 fb 3c 24 1d 46 bd 68 2a f6 3c 80 ba a2 3c
       0.030724721 -0.048367634 0.030049518 0.01986432
000190 2f 28 45 bc 1d 41 c1 bd a0 f4 3f 3c 53 d8 2b bc
       -0.012033506 -0.094362475 0.011716038 -0.010488587
0001a0 ea 34 56 3d e4 cb 15 3d 58 dc 52 bb e5 ec 83 bc
       0.052296557 0.0365714 -0.0032174792 -0.016104171
0001b0 ac e9 e9 bb f0 4c c5 3b b6 d1 eb 3b af d9 4b bd
       -0.0071384516 0.0060211346 0.0071966304 -0.049768146
0001c0 6b c7 bf bd c1 81 9e bc 3c 60 4b 3c b3 1c 24 bc
       -0.09364208 -0.01934898 0.012413081 -0.010016608
0001d0 84 c4 fb bc 03 9a e9 3b ef 76 54 3d 15 91 b3 3b
       -0.030733354 0.0071289553 0.051871236 0.0054799416
0001e0 1e 44 03 bd 7e 20 9b bd 15 f0 4e bc 60 fe db 3b
       -0.032047383 -0.07574557 -0.012630482 0.0067136735
0001f0 03 b9 5b 3c 41 3e 92 3b f5 08 b5 3c e9 3a 4e bc
       0.013410809 0.0044629877 0.022098998 -0.012587287
000200 b7 2a c1 3c d0 ce e1 bb 7f 3d 96 3c 4f 2d 5b b8
       0.023579938 -0.006891109 0.01833987 -5.2255866e-05
000210 87 c7 10 3d d1 cc 08 bd 1c 46 61 3c 80 3c ff bc
       0.035346534 -0.033398453 0.0137496255 -0.031156778
000220 34 17 4e 3d 97 9e d2 bc 79 25 80 bd 82 10 e7 3b
       0.050315097 -0.025710387 -0.06257147 0.0070515284
000230 b4 96 24 bc 45 26 d8 3c 8a f9 08 bd a8 36 b2 bb
       -0.010045696 0.026385436 -0.033441104 -0.0054386444
000240 f7 ee 8d b9 30 80 86 3c 9d 98 45 3d 17 8e ed bc
       -0.00027071658 0.016418546 0.048241246 -0.028998418
000250 cd 26 58 bc d4 fe 05 bd 9c c6 32 3d a1 a6 c1 bc
       -0.013192845 -0.032713726 0.04364644 -0.023639025
000260 d5 96 b6 3c 2d 39 ea bc f1 cc c0 bb ad fd 0a bd
       0.02228872 -0.028591717 -0.005883806 -0.03393333
000270 8a 3d 32 3d 9f e0 44 bb 3d 7e e5 3c 6a 36 73 bd
       0.04351572 -0.0030041111 0.028014297 -0.059378065
000280 b6 3f 0b bc 49 0a cb 3b 3e 9d 24 3d 95 c4 c7 3b
       -0.008499077 0.0061962944 0.04018902 0.0060964325
000290 0b 14 9f 3c 18 36 3f bd 27 f1 5c 3d e0 e0 08 bd
       0.019418737 -0.046682447 0.05394092 -0.033417583
0002a0 21 19 88 3d a2 00 b7 bc 41 60 e9 bc 0b ef 6d bb
       0.06645418 -0.022339169 -0.02848828 -0.003630581
0002b0 9f d9 46 3c 0c 34 b8 bb d2 af 61 3c 86 a7 c6 bc
       0.012136846 -0.005621439 0.013774829 -0.024249803
0002c0 5d 20 45 3e 3d 50 95 3c a2 26 13 bd 9e d4 f5 3b
       0.19250627 0.018226737 -0.035925515 0.0075021526
0002d0 f9 80 12 3b 79 33 c9 3b 0b 89 8e 3c b6 c0 84 bd
       0.0022354706 0.006140169 0.017399332 -0.06482069
0002e0 09 d7 80 bb be 46 26 bb 7d 41 04 3d cc 6e 11 bc
       -0.003931884 -0.0025371755 0.032289017 -0.008876514
0002f0 ad ea 86 3d bd 48 57 bd 67 e7 47 3d f0 a2 5c bd
       0.065877296 -0.052559603 0.048804667 -0.053866327
000300 85 15 28 3b 1b 19 f0 ba 31 dc 9e bc 5b 28 92 3d
       0.0025647592 -0.0018318029 -0.019392105 0.071366034
000310 5c ba 27 3b 33 fa 87 3a fa 4d 6f bd ae d4 49 3d
       0.0025593257 0.0010374248 -0.058423974 0.049275093
000320 7b 61 17 3c 76 af c2 bb c4 b3 03 3d 64 17 06 3d
       0.00923955 -0.0059413267 0.03215386 0.03273715
000330 87 73 ba 3a bf e7 dc ba 35 a4 ab 3c 15 c7 d4 bc
       0.0014225104 -0.0016853734 0.020952323 -0.025973836
000340 d0 71 6f 3d 12 73 18 bc b4 48 28 3c 43 44 ad bc
       0.05845815 -0.009304779 0.01027124 -0.021150714
000350 f5 93 37 bb 24 56 6a bc bd 31 08 3d 15 92 ab bd
       -0.0028011773 -0.014302764 0.03325056 -0.08377472
000360 05 17 e0 3c e1 4c dc bc d6 77 30 bc 0b 5a 3b bb
       0.027354727 -0.026892127 -0.010770759 -0.0028587605
000370 f2 c4 35 bd fe f1 98 3a 73 3c 4d 3d 2e 36 d0 bb
       -0.044377275 0.0011668799 0.050106477 -0.006354115
000380 04 de 7b 3c 12 62 bc bd 2b 03 5c 3c 4a 00 4c bb
       0.015372757 -0.09198393 0.01342849 -0.0031128102
000390 96 94 1e bc a9 d8 31 bd 4b 34 f6 3c 8e ba 9d bc
       -0.00967898 -0.043419514 0.030054232 -0.019253995
0003a0 f3 d3 bb bc ab e2 01 bd fe 45 97 3c b8 01 63 bd
       -0.022928214 -0.031710308 0.018465992 -0.05542156
0003b0 0c 61 dd 3c 8e 54 34 bd 24 5e 13 3b 0c c7 82 bb
       0.027023815 -0.04402595 0.0022486532 -0.0039910134
0003c0 50 1c 4e bd 21 9b 60 ba c0 f6 40 bd d3 1f b5 bd
       -0.05031997 -0.0008568038 -0.04711032 -0.088439606
0003d0 0e 85 e8 ba f2 ed 2c 3c b1 07 b6 3d 46 c6 22 bd
       -0.0017739849 0.010554777 0.08888186 -0.03973987
0003e0 ae 68 87 3c ca e3 09 bd ea 6d f6 38 b6 02 39 3b
       0.016529407 -0.033664502 0.00011750667 0.0028230376
0003f0 e1 5f 27 3d 06 81 6c bc 14 72 db 3c 8c 25 c3 bb
       0.04086292 -0.014435058 0.026787795 -0.0059554037

rios_f.RIOS_H.rnn_cell1.weight_hh f4 [384, 96]
000000 a0 45 eb 3a 0b 3d a1 ba 79 6e 0c 3a c0 3d 9c 3a
       0.0017949827 -0.0012301517 0.0005357038 0.0011920258
000010 3c cd 8e 3a fd e3 87 bc 85 75 13 3a 08 bc ac 3b
       0.0010894905 -0.016588205 0.0005625117 0.0052714385
000020 24 51 ee ba 22 ea f1 b8 d3 5f 84 ba 12 8b 7c 3b
       -0.0018182141 -0.00011535386 -0.0010099359 0.003853504
000030 fa 92 80 3a 7a 6d 0a 3b e7 8a be 3a de de b8 3b
       0.0009809427 0.0021122382 0.0014537246 0.005641802
000040 d8 63 22 3c 84 5c be ba 4a e8 db ba 17 1b 96 39
       0.0099115 -0.0014523421 -0.0016777602 0.00028630413
000050 cd 30 56 bb a8 10 c1 ba 58 8f 52 3b 01 f6 34 38
       -0.0032682896 -0.0014729695 0.0032128897 4.3144453e-05
000060 92 5b 9e 3a cb bb ca 3a 30 87 64 ba 61 49 04 bc
       0.0012081733 0.0015467344 -0.0008717654 -0.0080741355
000070 97 10 c5 3a 5d f5 a1 ba c2 0f 8d 3a dc 26 24 3a
       0.0015034851 -0.0012356449 0.0010762142 0.0006261894
000080 26 b4 33 3b ed 1d 0c bb c0 5c a3 3b 7a de 26 3b
       0.002742061 -0.0021380142 0.004985422 0.0025462196
000090 d4 d1 56 ba 76 ca 6f bb 87 47 ff 39 4a 24 85 b9
       -0.0008194719 -0.0036589182 0.00048690682 -0.00025394774
0000a0 f1 a6 01 3a 74 81 f0 ba 06 15 8d b9 ba 47 76 3b
       0.00049458357 -0.0018349127 -0.0002690928 0.0037579373
0000b0 87 13 cc 3a 8f 77 bb b9 f2 b5 b7 3a 66 fa 8c 3a
       0.0015569784 -0.00035756498 0.0014016016 0.0010755777
0000c0 31 9c 64 3b ef 15 ea 3b 3b 48 03 3b 60 aa 47 bb
       0.0034883136 0.007143728 0.0020032066 -0.0030466542
0000d0 4e 96 14 3b 35 9f f0 39 6b 87 4a 3a 9c 2f 0f 3a
       0.0022672596 0.00045894986 0.00077258673 0.00054621114
0000e0 a7 22 93 3a 07 57 24 bb 4a cb cc bb 6a 24 2a 3b
       0.0011225537 -0.0025076286 -0.00624982 0.0025961646
0000f0 63 6e bd ba 5e e2 b4 3b 15 e4 85 3a 0c 5e 5e 3a
       -0.0014452453 0.005520149 0.0010215068 0.0008482642
000100 8a 09 7a 3a 01 2d ee b9 78 53 c4 3a f1 01 51 ba
       0.00095381646 -0.00045428428 0.0014978489 -0.00079730066
000110 1b db d2 3a 1d 66 d9 ba 04 2b 01 bb ca 5b 3e 3b
       0.0016087027 -0.0016586218 -0.0019709477 0.002904641
000120 12 bb 65 bb ef 39 07 bb 37 d8 5e bb e4 0a 59 bb
       -0.003505413 -0.0020633896 -0.0034003386 -0.0033118064
000130 55 50 c6 bb f4 6c cf 3a 71 5c f4 ba 14 d6 d7 bb
       -0.006052057 0.0015825317 -0.0018643272 -0.0065867994
000140 70 b5 1e 3b a4 67 d0 bb 64 26 c0 bb c6 a2 07 3b
       0.0024217032 -0.006360011 -0.0058639515 0.0020696386
000150 e0 a7 03 3a 84 ea d6 3a f9 d8 dd 3a 47 be 9d 3a
       0.0005022269 0.0016396795 0.0016925625 0.0012034856
000160 eb e9 c8 3c 46 f5 ab b9 dd 2f fb b9 8b 8c 91 3b
       0.024525603 -0.00032798405 -0.00047910112 0.004441803
000170 60 30 d1 ba 46 53 67 bb c2 15 95 bb 7a 87 1f 3b
       -0.0015959851 -0.0035297438 -0.004549713 0.0024342225
000180 02 f5 61 bc e4 ab ee bc c7 4b 05 bc f8 57 40 bb
       -0.013791325 -0.029134698 -0.0081357425 -0.0029349308
000190 b8 b6 7b 3c 90 45 6c 3d c8 22 97 bc 60 7c 8a 3b
       0.015363388 0.057683527 -0.018449202 0.0042262524
0001a0 35 38 3d bd 69 2c 82 bc bd 60 94 3c 00 46 6c 3c
       -0.04619618 -0.015890317 0.018112535 0.014420986
0001b0 26 b6 22 bc 93 a9 6c bc 84 03 89 bb 62 0d 8e bc
       -0.009931123 -0.0144447265 -0.0041813273 -0.017340366
0001c0 01 f4 38 bc d1 3b 0e 3b 38 ea 68 bc 97 06 8b bc
       -0.011288644 0.0021703134 -0.014215998 -0.016970916
0001d0 43 d8 03 bd 77 1a 91 3b 91 02 92 3c f8 66 d6 3b
       -0.032188665 0.0044282037 0.01782349 0.0065430366
0001e0 1b 1e 85 bc 06 a6 29 3d 2e 7f c4 3b 98 cc 24 bd
       -0.016249707 0.041418098 0.0059966063 -0.04023418
0001f0 bd c4 45 3c d3 44 14 3b 1e 24 e1 bb 06 ea 47 bc
       0.012070832 0.002262403 -0.0068707606 -0.012201792
000200 87 a3 2a 3a c7 ba 0d bc 95 1d 8a bc ed 50 61 3d
       0.0006509353 -0.008650488 -0.016859809 0.055008817
000210 b0 e6 e2 3b 1b 6a 1e bd f7 9d c7 bc 85 90 bd 3b
       0.0069244727 -0.03867541 -0.024367316 0.0057850503
000220 84 42 96 3b 4c f8 ff bc 61 64 59 bc 40 f0 b7 3c
       0.004585566 -0.031246327 -0.013268561 0.022453427
000230 34 a5 c0 3c 0f e6 0b 3d 53 00 90 bc bd bc bf 3b
       0.023516275 0.034154948 -0.01757828 0.005851357
000240 01 e1 b4 3c 3c ad a0 3c 87 2e 9e 3b 02 46 d4 3b
       0.022079946 0.019613855 0.004827324 0.006478072
000250 cf 6b cd 3c 14 10 26 3d 54 54 fa 3b f8 4e 05 3a
       0.025075821 0.040542677 0.007639447 0.00050853146
000260 9f 98 0a 3d ce bc 8d bc 78 80 00 3d 08 16 a1 bb
       0.033836957 -0.017301943 0.031372517 -0.0049159564
000270 d9 fa fc bc e1 1d 1c 3c 1c a1 6a bc e0 06 8a 3c
       -0.030881332 0.009528608 -0.014320638 0.016848981
000280 80 66 7d bc 89 97 12 bc 26 ca 2d 3c af 1b 73 3c
       -0.015466332 -0.008947262 0.010607278 0.014838143
000290 a1 34 e7 3c 1f 2d a0 bc 8b 3d 93 bc ea b3 05 3d
       0.028223338 -0.019552765 -0.017973682 0.032642283
0002a0 14 bb 21 bd f2 4f 0e 3d e4 2b 8c 3d 40 8a 8b bc
       -0.039485052 0.03474421 0.06844309 -0.017033696
0002b0 ac ab 4e bb 8a 3c ea 3b f7 f4 4e bc 3f f9 4b bd
       -0.003153543 0.00714833 -0.012631646 -0.049798246
0002c0 86 0e 70 3c c4 af 0e bd b5 4e 8b bc a9 a6 c8 bb
       0.0146519 -0.034835592 -0.017005304 -0.006123383
0002d0 ad fb 89 3b 1f e5 bb 3c 85 80 1a 3b 45 a0 cd 3c
       0.0042109103 0.022936402 0.0023575139 0.025100837
0002e0 a0 ea 13 3a 48 07 63 bd bf 57 90 3a ae d4 18 3d
       0.0005642567 -0.055426866 0.0011012478 0.037312202
0002f0 e1 46 2d 3c 74 8c ac bc 78 a0 0d ba e7 f4 e2 3c
       0.010575981 -0.021063067 -0.0005402635 0.02770467
000300 db 35 b3 3a 59 7f d4 bb 65 45 f6 b5 3b 36 a0 ba
       0.0013672666 -0.0064849076 -1.8348625e-06 -0.0012223193
000310 5e 26 b4 3a 79 9a 4b bb 82 95 d1 ba 44 0d 64 3b
       0.0013744344 -0.0031067415 -0.0015989991 0.0034797946
000320 94 7e 4c bb 2c b3 0f bb c1 32 95 3a 77 0a de 3b
       -0.0031203376 -0.0021926863 0.0011382924 0.00677615
000330 52 d9 17 ba 93 53 ce b9 cd 7b d2 ba fa 8a 0a bb
       -0.0005792576 -0.0003935365 -0.0016058624 -0.0021139965
000340 1f a9 91 3b 8f 95 5a ba 9f 27 81 ba 25 31 20 ba
       0.0044452096 -0.0008338326 -0.0009853727 -0.0006110839
000350 54 76 98 bb a6 83 79 39 f4 44 5e 3b a9 15 89 3a
       -0.0046527777 0.00023795533 0.003391561 0.0010458726
000360 d4 49 3d bb 38 4b a8 3b 61 33 23 3a 23 70 6a bb
       -0.0028883116 0.00513592 0.00062256126 -0.0035772405
000370 e4 de 8f bb df 95 c1 b6 27 43 36 3b ad e0 6f ba
       -0.0043905843 -5.7692955e-06 0.0027811022 -0.0009150606
000380 21 0b 0d 37 8c 52 a3 39 af 99 c4 38 24 53 b8 3b
       8.406846e-06 0.00031151285 9.374634e-05 0.0056251455
000390 2b be e3 b8 61 8f c9 bb 17 0d c2 b9 a7 87 a7 3b
       -0.00010859625 -0.0061511253 -0.00037012316 0.0051126066
0003a0 62 d8 fd b9 94 34 87 bb f9 36 0c ba 1b 14 d6 ba
       -0.00048417138 -0.004126141 -0.0005348768 -0.0016332896
0003b0 04 a2 fa 3a 5d 62 b0 3b d9 c7 44 ba 05 dc 1b bb
       0.0019121771 0.0053828196 -0.0007506586 -0.0023782265
0003c0 20 95 e7 3a 9b 46 44 3b ef 1d 30 bb 60 8b e8 b9
       0.0017668344 0.002994931 -0.002687331 -0.0004435433
0003d0 d5 89 9d b9 c6 38 80 3b d6 eb 8d ba 6f 34 73 3b
       -0.00030048066 0.003913018 -0.0010827731 0.003711011
0003e0 99 a9 a5 3b f8 ca 02 bb ac b3 99 3b 0b 79 8c 3a
       0.005055618 -0.0019957405 0.004690608 0.0010717226
0003f0 9f 76 c9 bb 1c 22 27 3b ed c1 4e b9 56 fb 1d 3b
       -0.006148174 0.0025502509 -0.00019717934 0.0024106107

rios_f.RIOS_H.rnn_cell1.bias_ih f4 [384]
000000 e0 30 67 39 5e 76 4f bd bb f7 ef bc 8e 78 8a bc
       0.00022048084 -0.050649993 -0.029292932 -0.016903188
000010 b5 ad 75 bd 81 e9 7c 3d cb 9a d7 3c 15 1e 6c bc
       -0.059980113 0.061746124 0.026318928 -0.014411469
000020 63 8e af 3c f5 13 52 3c f3 5a 58 3d 6a 31 c4 3b
       0.0214302 0.012822141 0.05282111 0.005987336
000030 5e 6e 84 3d 8b fd a3 bc 65 4a 92 3d 87 c0 7a 3d
       0.06466363 -0.02001836 0.07143096 0.061218765
000040 68 44 98 3d 8b 63 4f bd 66 68 06 3d f7 31 12 3d
       0.074349225 -0.05063204 0.032814406 0.03569218
000050 a8 59 18 3d e0 c1 20 bc ea 7d cd 3c 1f 55 52 3c
       0.037194878 -0.009811848 0.025084455 0.012837677
000060 8e cf f5 3d ad f2 b4 3d b5 e8 e4 3b c2 25 ba 3d
       0.120024785 0.08835349 0.0069857487 0.09089233
000070 5a 89 ab 3c 1f 4a 8e 3c 69 6c 4b 3c 6b 0b a4 bc
       0.020939518 0.017369328 0.012415984 -0.020024976
000080 b8 8b e0 3c ef 04 b3 3c 7d 47 29 3b d3 c5 b4 3c
       0.027410373 0.021852938 0.0025829964 0.022066986
000090 3d 4b 22 3c 14 82 c5 3d 6c 8f a0 bc 9c 44 dd 3c
       0.0099056335 0.09643951 -0.019599639 0.027010255
0000a0 b4 2e 87 bc de b0 f3 3c 03 04 81 bd ee 4d 2f 3d
       -0.016501762 0.029747423 -0.06299593 0.04279893
0000b0 50 59 0d bd 97 f2 31 bd 57 0e b4 bc 61 0e 13 bd
       -0.034509003 -0.043444242 -0.021979494 -0.035902385
0000c0 c0 46 7b 3b 79 5f 37 3d 5b 90 ed 3d 84 cc 04 3c
       0.003834173 0.044768784 0.11599799 0.008105401
0000d0 bb de 74 3d 4f 99 ca 3c 9a fb 79 3d 11 ac 7a 3d
       0.059782725 0.024731306 0.06103096 0.06119925
0000e0 fd 75 1e 3d 67 df bd 3d ae 29 a7 3c 1e 07 98 bb
       0.03868674 0.09271126 0.020405617 -0.0046395203
0000f0 90 a0 8e 3d 2e 52 f0 3c 25 15 53 bd e2 b4 28 3d
       0.069642186 0.029336061 -0.051533837 0.04118813
000100 d5 ff 48 3c f6 d3 47 3b 78 12 57 3c d2 6b 8a 39
       0.012268026 0.0030491329 0.013126962 0.00026401744
000110 4d 50 7f 3d 3b 13 35 3d f7 50 6e 3d 74 53 14 3d
       0.06233244 0.044207793 0.058182683 0.0362124
000120 1c 68 d6 3c d5 39 ba 3d 4b 3b 58 bd d3 8b a0 bc
       0.02617269 0.09093062 -0.05279092 -0.019597923
000130 70 42 97 b9 08 d6 11 bd 3b da 87 bd 57 07 46 3d
       -0.00028850464 -0.035604507 -0.06633421 0.048346844
000140 ef 29 0e bd 4f e3 9f 3d 26 61 b2 3c 66 66 5a 3d
       -0.03470796 0.078070275 0.02177484 0.05332031
000150 0f bc a1 3c f1 f8 38 3d 59 6b 3e 3c c4 66 59 3d
       0.019742994 0.045159284 0.011622273 0.05307652
000160 9f 17 1a 3e 10 6b 9a 3d 7b 1a 97 3c b3 1f ce 3d
       0.15048073 0.07539952 0.018445244 0.1006464
000170 48 ef 8f bc 4e e6 5a 3d a1 b3 93 3d d2 58 27 3d
       -0.017570153 0.053442292 0.07211996 0.04085619
000180 4a 4f bf bc b5 cd 4c bc e3 1b a6 3c cb 4c f4 bc
       -0.023353238 -0.012500216 0.02027697 -0.029821774
000190 d2 27 3c bc b3 e1 79 3d 45 ae 09 bd 6c 73 58 3c
       -0.011484103 0.06100626 -0.033613462 0.0132111125
0001a0 43 74 94 bb 26 39 93 bd b4 43 a6 bb 37 68 65 3d
       -0.004530461 -0.071886346 -0.005073989 0.05600759
0001b0 73 2c b1 3c 22 5b 7b bb a6 b8 28 3d 22 2d dc 3c
       0.02162764 -0.003835388 0.04119172 0.02687699
0001c0 42 e6 c8 3d 8b 5f a5 3b 59 55 81 bc 97 4b a0 3b
       0.09809543 0.00504679 -0.015787767 0.0048918235
0001d0 a4 6a 85 3d 16 a7 bf bd 74 d9 8b 3d 62 da 6c bc
       0.06514481 -0.09358041 0.06828585 -0.014456363
0001e0 4c 8c 17 3d 3a 3b 50 bc b3 9f 1c bc 94 a5 f7 bc
       0.036999032 -0.012709433 -0.00955956 -0.030230321
0001f0 d3 b2 ff 3c 75 de 7b bc 9c f0 32 bd f0 25 69 bd
       0.0312132 -0.015372862 -0.043686494 -0.056920946
000200 a9 1b bf 3c f2 d0 5c 3c cd ed 61 3d 3e eb dc 38
       0.02332862 0.013477551 0.055158425 0.00010534235
000210 87 2e 8b bc 44 00 86 bc 10 dc 85 bd dd 41 a9 3d
       -0.01698996 -0.016357549 -0.06536114 0.082645155
000220 cf 4f 0d bd 83 bb 3a 3d f0 e5 9a bd 30 3e 4c 3d
       -0.03449994 0.04558898 -0.07563388 0.049863994
000230 cf 04 ea 3b dd 3c 62 3d 53 e8 49 3d 35 22 05 3c
       0.0071416865 0.055233825 0.049293827 0.008125831
000240 6c 3f 34 bd b1 a3 4c bc 2b 9c b0 3d ac 0d 3f 3b
       -0.044005796 -0.012490199 0.08623537 0.0029152436
000250 25 2f 35 3d 8d 7c b3 3d 9b ac 24 3d 7e 63 91 bd
       0.044234414 0.087639906 0.040203672 -0.07099055
000260 33 26 56 bb f5 7d 85 bb f6 5c ed 3c 25 8d 7d bb
       -0.0032676577 -0.004073853 0.028974991 -0.0038688865
000270 95 7d b8 b8 25 87 77 bd ab 34 87 bd 31 f1 49 bc
       -8.797195e-05 -0.06043162 -0.066018425 -0.012325571
000280 97 9a 15 bd 5a c5 fc bc 5e 1c 37 3d df 81 a8 3d
       -0.03652438 -0.030855823 0.044704787 0.08227896
000290 b0 d4 cc bc 90 ed 3d bd e2 55 77 bc c0 62 86 3c
       -0.025003761 -0.046369135 -0.01509616 0.01640451
0002a0 14 f5 da 3d e9 54 9f bb ed e7 25 bd 3a b6 73 3d
       0.10691276 -0.004862417 -0.040504385 0.059499957
0002b0 94 a2 9b 3c d6 ef 22 bd 00 5d 92 bb 56 7f 2d bd
       0.018998422 -0.039779507 -0.004466653 -0.042357765
0002c0 00 07 2a bd 6e 16 b2 3c d4 b0 69 bd af 41 cb bc
       -0.041510582 0.021739211 -0.057053402 -0.024811594
0002d0 0a ea 27 bd 37 b5 21 bd 6b 30 53 bc ae f7 1d ba
       -0.04099468 -0.03947946 -0.012889962 -0.0006025982
0002e0 22 19 8e 3d bb ac 95 3d 71 31 ae bc 2b 49 ee bc
       0.069383875 0.07308336 -0.02126381 -0.029087624
0002f0 c9 35 9c 3b da e0 8c 3b b4 27 81 ba fd 81 b6 3c
       0.004767154 0.0042992653 -0.0009853751 0.02227878
000300 7c 71 44 3d ee 25 07 be 78 04 82 bc 2b ec c4 bd
       0.04795979 -0.13198063 -0.015871271 -0.09615358
000310 b3 7f ea 3d ad 9a 74 3d 98 e2 45 3d 0e 5b 15 3e
       0.11450138 0.059717823 0.0483118 0.14585516
000320 37 15 51 bd 76 5c b9 bc 04 6d b9 3d d4 7d b7 3d
       -0.051045623 -0.022627097 0.09053996 0.08959547
000330 8a 61 df bd e9 65 59 bd 89 99 0f be 48 4c 8f 3c
       -0.10907276 -0.053075705 -0.14023413 0.017492428
000340 50 ac de 3d 72 dd 98 3d b0 41 c9 bc 66 74 9d 3d
       0.1087271 0.07464112 -0.024567455 0.07688217
000350 2a 5c 4e 38 25 a3 9a 3d 9a 1f d1 3d c0 98 c6 3c
       4.920006e-05 0.075506486 0.10211106 0.024242759
000360 d7 ca e1 bd 4a 3d 91 3d d0 b5 51 3c d9 8e 02 be
       -0.11025017 0.07091768 0.012799695 -0.12749805
000370 e6 64 1e bd be 9f 8f 3d a3 f1 79 bc 97 a0 b6 bd
       -0.038670443 0.0701289 -0.015255365 -0.08917349
000380 b9 80 8e bc ad ae f0 3d 09 ab d7 bd 15 dc e8 3d
       -0.017395364 0.11752067 -0.10530669 0.11370102
000390 af 40 77 3c c8 e3 89 bc 7f 07 af bd a2 df a5 3d
       0.015091105 -0.016832247 -0.08546352 0.08099295
0003a0 a0 4a fa bc 17 69 25 bd 81 cb c5 bd a9 7c 0e 3e
       -0.030553162 -0.040383425 -0.09657956 0.13914742
0003b0 64 3e 26 3c be 31 75 3d 7a 9a a0 bc 43 fa 9f bd
       0.010146711 0.05986189 -0.01960491 -0.078114055
0003c0 bc f9 d1 3c e8 99 ed 3c ac 9c ba 3d 24 2c d4 bc
       0.025631778 0.029004052 0.09111914 -0.025899954
0003d0 42 f2 d8 bd 6d fc 06 bd 74 d5 56 3d 1f 7c ef 3d
       -0.10593082 -0.032955576 0.05244966 0.11693596
0003e0 54 ca 86 3d 66 bb 5c bd 42 4d 44 3d c8 cd 31 bd
       0.0658156 -0.053889655 0.04792524 -0.04340914
0003f0 e3 70 9f 3c b5 bf ba 3a 0a 2d a1 bd 03 e6 a4 3d
       0.019463008 0.0014247807 -0.07869919 0.08051684
