BRIOS/models/model_file/LST_train/LST_train_test.pt (torch, 625122 bytes, 26 tensors)

rios_f.RIOS_H.rnn_cell0.weight_ih f4 [384, 2]
000000 87 2a 00 3d e2 2b 98 bc 53 97 8c 3d fb b4 3f bc
       0.031290557 -0.018575612 0.068648 -0.011700864
000010 2f 40 78 3d e3 4e 16 3d 06 8a cd 3c 0a 25 a5 3c
       0.060608085 0.036696326 0.025090229 0.020159263
000020 73 2e d7 3d cc d1 b7 3d 42 8c a0 3d b7 d5 42 bd
       0.10506906 0.089755625 0.07839252 -0.047567096
000030 62 b8 ae 3d 12 29 ef 3c fc 62 b5 3c 22 3b d6 bc
       0.08531262 0.029194389 0.022141926 -0.026151244
000040 da c2 4e 3e 03 d8 dd 3d 79 de 0a 3d 41 4f 77 3d
       0.20191517 0.108322166 0.033903573 0.060378317
000050 aa 4e d4 3d e6 2f d5 3d 8c ae 10 3e 64 c4 9e 3d
       0.103665665 0.104095265 0.14129084 0.07752302
000060 40 5c af bc 0d e8 0f 3d 13 c7 00 3d 16 76 9a bb
       -0.021406293 0.03513341 0.031439852 -0.004713784
000070 7f c3 c4 3d 56 3b 25 bd a2 27 fd 3c 44 c7 1d 3d
       0.096076004 -0.04033979 0.030902687 0.038520113
000080 ef 60 74 3d c8 ed b2 39 a6 a4 14 3e 09 fe d6 3d
       0.059662756 0.00034127967 0.14515933 0.10497672
000090 13 13 10 3e f6 af d2 3d ec 81 ab 3c 36 bb 92 3d
       0.14069776 0.10287468 0.020935975 0.07164614
0000a0 4a 80 80 3d 73 70 a7 3d 92 d3 f5 3c 21 0f 25 3e
       0.06274469 0.08175745 0.030008111 0.16119052
0000b0 4b ce 07 3e 37 cb 01 3e bb eb e9 bb da 48 f1 3d
       0.13262288 0.12675177 -0.007138697 0.117814735
0000c0 59 1a 91 bc 32 b0 c3 3d 88 d3 61 bc 77 70 ba bc
       -0.017712759 0.09555091 -0.013783343 -0.022758706
0000d0 f4 57 46 bc b9 47 37 3d 28 92 02 bc 4a f3 0b 3d
       -0.012105931 0.044746134 -0.007969417 0.034167565
0000e0 4a f4 a7 3d 09 4c 45 bd 36 d0 7d bc 59 32 e9 3d
       0.08200891 -0.048168216 -0.015491536 0.11386556
0000f0 9e 79 c8 3d 77 79 43 3c 00 71 07 3e d6 f8 30 3b
       0.09788822 0.011930815 0.132267 0.0027003787
000100 e8 0a 2a ba dd 02 f3 bb 84 36 13 3d 2f ef e2 3d
       -0.00064866105 -0.007416113 0.035940662 0.11080777
000110 6f 32 be 3d 3f d4 c7 3d 8e b2 41 3e 78 d1 e4 3c
       0.09286963 0.097572796 0.1891577 0.027931914
000120 e7 36 08 3e 8d bc 10 3d 5d bd 6f 3d 49 9f a4 3c
       0.13302194 0.035336066 0.0585302 0.020095484
000130 bd f6 80 3d ff fe 4a 3d 21 4a 3d 3e 45 07 c5 bc
       0.062970616 0.04955959 0.18485309 -0.024051318
000140 7a de 89 3d 4f 5f 28 3d b6 1d 7e 3c 3e 28 9d 3c
       0.06731887 0.04110652 0.015510013 0.019184228
000150 2d 35 59 3d 98 8d 67 3d 5b a2 a6 3d 7a ca d3 3d
       0.053029228 0.05653152 0.081364356 0.10341354
000160 e8 66 42 3d 3c bc ba 3c 48 f7 19 3e fa b9 13 3d
       0.04746142 0.022794835 0.15035737 0.036066033
000170 cc e8 ec 3d 3b 03 4a bc ed 25 8c bd 58 dd 6e bc
       0.1156784 -0.012329872 -0.06843171 -0.01457914
000180 2b 30 84 bc a7 44 0b 3c 68 f9 bb 3d 4d f5 7a 3d
       -0.01613625 0.008500255 0.0917843 0.061269093
000190 6d a4 34 3d ff 4f 06 bd 49 59 88 3b a9 cd 49 3d
       0.04410212 -0.032791134 0.0041610342 0.0492684
0001a0 4a db c8 3d b8 25 88 bc 2e 11 10 3e ac 2d 78 3d
       0.09807451 -0.016619548 0.14069054 0.06059043
0001b0 16 b4 70 3b 45 58 01 3c 99 4c 3d 3d 76 c6 6f 3d
       0.0036728433 0.00789458 0.046215627 0.058538876
0001c0 75 5d 8d 3d df 09 b9 3d 2d 45 64 3d 84 02 14 3e
       0.06902591 0.09035086 0.055730034 0.14454085
0001d0 ef f7 6b 3c 63 bd 8b 3c ad 78 04 3d 59 a5 88 bd
       0.014402374 0.01705808 0.032341648 -0.066721626
0001e0 f0 cb 01 3d ee e4 d8 3d 7c a5 8b 3d be 3b 99 3d
       0.03168863 0.1059054 0.06818673 0.07482098
0001f0 92 29 6c bd 14 7a 0b 3c 6d 87 15 3e 86 60 62 3d
       -0.057656832 0.008512992 0.14602442 0.055267833
000200 5f a7 a0 3c 54 18 97 3d e8 1c 09 3e eb a6 8a 3d
       0.019611059 0.07377687 0.13389933 0.06770118
000210 a0 3d bf 3d 6d 30 8a 3c 5f 4e 14 3e 97 e0 61 3d
       0.09337926 0.016868794 0.14483021 0.055145826
000220 06 d4 a0 3c 0a 6f 86 3c b9 12 ce bc 80 9b 6c 3d
       0.01963235 0.01641037 -0.025155412 0.057765484
000230 a3 f7 b4 3d 19 9f 5e bd cc 58 1a 3e 4d 31 5a bd
       0.088362955 -0.054350946 0.15072936 -0.053269673
000240 00 1e 2c 3d cc 2d b3 3c 9b b2 bb bc 1c 74 af 3d
       0.042020798 0.021872424 -0.022912314 0.08567068
000250 93 a0 ae 3c 4a 06 1d bd 04 74 e2 3d 84 27 29 3e
       0.021316802 -0.038336076 0.110572845 0.1651898
000260 6b 26 b6 3d 13 75 82 3d f5 8d a2 3c 11 26 18 3c
       0.088940464 0.063699864 0.019843081 0.0092864195
000270 35 af 6c 3d b9 00 92 3d b0 c2 d1 3d 41 bb c0 3c
       0.057784278 0.07129044 0.10242212 0.02352679
000280 37 ba 3c 3e ab 8f 39 3d 62 8d d5 3d f8 c9 0e 3e
       0.1843041 0.045303028 0.10427357 0.13944232
000290 60 70 19 bd 4f 78 03 3d 09 e8 22 bc c9 2f f5 bc
       -0.037460685 0.032097157 -0.009943017 -0.029930012
0002a0 fa a4 8e 3d 5b 59 4c 3c 2a 62 b8 3d af 96 e2 3c
       0.069650605 0.012472476 0.09003098 0.027659742
0002b0 87 92 50 3d d3 92 45 bb f3 35 cf bc a3 af c3 3d
       0.05092099 -0.0030147329 -0.02529428 0.095549844
0002c0 48 1e 24 3e 70 2e 23 3d 0b d3 e1 bd 66 c4 2f 3d
       0.16027176 0.039839208 -0.110265814 0.04291191
0002d0 81 0f 5a 3b 31 67 19 3a 9a 71 a1 3d b0 86 13 3d
       0.0033273401 0.00058518635 0.07882996 0.03601712
0002e0 b7 30 75 3d 03 57 3f 3c c7 d2 1d 3e cf 0b 07 3e
       0.05986091 0.01167846 0.15412436 0.13188098
0002f0 45 f7 8c 3d 16 5d 8c 3c 24 d6 1f be 00 9d 03 bd
       0.068831004 0.01713423 -0.15609032 -0.03213215
000300 23 fd 17 3d da 8a 51 3c fa 60 1b be a7 83 b5 3c
       0.037106644 0.012789452 -0.15173712 0.022157503
000310 24 ea dc 3d 1d 52 a7 bd 4e 00 81 3d 46 a9 31 3b
       0.10786846 -0.08169959 0.06298886 0.0027108951
000320 9d d7 9d 3d 6a 24 42 3c 1f 4d e4 3d 4c 4a 39 bd
       0.077071406 0.011849502 0.11147522 -0.04523687
000330 4d b5 d1 3d 8c d5 c0 3c 90 02 e1 bd 3c 9a eb bb
       0.102396585 0.023539327 -0.10986817 -0.007190017
000340 05 97 8d 3d 0d a3 be 3b 2c 1c dc bd 76 dc a9 3d
       0.0691357 0.005817777 -0.10747561 0.08294003
000350 80 5e 11 3e 22 f6 88 bd d4 45 e6 3d 16 33 ec bc
       0.14196205 -0.06687571 0.112437874 -0.028832953
000360 9f 54 15 be 97 b5 03 3c 2e ae 6b be 91 52 eb 3c
       -0.14583062 0.0080389 -0.23015663 0.028725894
000370 06 b4 96 3c ce b2 81 bc b2 42 8e 3d 2c 48 90 3d
       0.018396389 -0.015832331 0.06946315 0.07045016
000380 bb 2f b4 3d 6f 33 e5 bb 28 a6 23 be 9c 55 05 bd
       0.08798166 -0.0069946568 -0.15981352 -0.032552347
000390 aa b3 0d 3e db 67 4e bd b7 c6 28 3e b6 fa 29 3d
       0.13838068 -0.050392013 0.16482054 0.041498862
0003a0 92 4e d3 3b 59 f9 8b 3d 69 b9 1f 3d c1 40 11 bc
       0.0064485753 0.06834669 0.03899518 -0.008865536
0003b0 b3 86 2a 3d 56 7e 9e 39 ae 00 4b bd cb c3 95 3b
       0.041632365 0.00030230236 -0.049561195 0.0045704595
0003c0 eb bf 09 be 3f 1c 69 3d a3 b5 e4 bd 02 dd fa bc
       -0.13452117 0.056911703 -0.11167457 -0.030622963
0003d0 5f 1a 12 3e 3c 33 77 bc 62 14 f5 bb e1 d3 db 3c
       0.14267872 -0.015087899 -0.0074792365 0.02683443
0003e0 bc eb f0 bc 5d 59 16 bd 15 7a 3a 3e 13 ff c1 3c
       -0.029409282 -0.036706317 0.18210633 0.0236812
0003f0 4d d2 80 bd 51 1a ae bc e4 f4 49 be 08 81 a9 3d
       -0.06290112 -0.021252783 -0.19722325 0.08276564

rios_f.RIOS_H.rnn_cell0.weight_hh f4 [384, 96]
000000 17 79 30 bb 81 b7 2f ba 72 09 31 ba 26 3e c1 ba
       -0.0026927644 -0.00067030644 -0.00067534216 -0.0014743253
000010 ae 2a 88 3a 88 f6 05 bc 24 05 98 b9 5b 12 83 3a
       0.0010388696 -0.008176453 -0.0002899553 0.0009999977
000020 3a 09 32 b9 69 b1 c7 3a 6c 64 01 39 ef ee cd 38
       -0.0001697884 0.0015235367 0.00012339809 9.8196666e-05
000030 16 2c 1c bb f8 09 af 3a 24 32 c4 39 07 77 85 3b
       -0.0023829988 0.0013354411 0.0003742139 0.004073027
000040 b5 06 a3 ba b3 14 49 b8 c4 63 85 ba 6a 37 db ba
       -0.0012437912 -4.7941412e-05 -0.0010176827 -0.0016724889
000050 38 e4 41 39 7a af 38 38 55 78 b7 ba ab c4 03 3b
       0.00018490932 4.4032444e-05 -0.0013997654 0.0020106237
000060 5a e5 2f 3a f5 b7 8c ba c9 a9 0a 3b 56 3e 76 3a
       0.0006709896 -0.0010735976 0.0021158329 0.0009393444
000070 da 48 ae ba d2 e4 d6 b8 ac fc 21 b9 47 06 80 ba
       -0.0013296858 -0.00010246936 -0.00015448284 -0.0009767496
000080 98 ee 12 3a 4d 46 24 ba 9e 20 f5 39 c1 ad a2 b8
       0.0005605011 -0.0006266579 0.00046754343 -7.757126e-05
000090 0d ba 69 ba b2 07 31 38 9a 37 6e 3b af d3 19 39
       -0.00089159684 4.2207255e-05 0.003634906 0.00014670075
0000a0 c5 5e 48 ba 0b 37 15 38 82 bf f0 b8 c8 82 d0 b9
       -0.00076435163 3.557563e-05 -0.00011479763 -0.0003977029
0000b0 23 a4 1f bb 45 37 c3 3a c0 98 8f 3b 23 34 16 3b
       -0.0024359308 0.0014893791 0.004382223 0.002291926
0000c0 14 70 ec 3a 8c 24 a2 b9 18 b2 72 b8 f6 a5 40 b9
       0.0018038773 -0.00030926277 -5.786316e-05 -0.00018372372
0000d0 02 e4 9a b9 b7 2a dd 39 c1 df 5b 3a 47 8a 80 ba
       -0.00029543048 0.0004218423 0.0008387529 -0.0009806835
0000e0 59 98 33 b9 be 04 14 b9 e1 a3 b2 b9 0a 2b 07 3b
       -0.00017127524 -0.00014116146 -0.00034072905 0.0020625019
0000f0 d4 e4 9b b9 da 1c ad 3a ee 85 02 ba d5 07 bf b9
       -0.00029734394 0.0013207451 -0.00049790635 -0.00036436194
000100 9c fd 3b 3a 76 61 45 bb 13 93 a7 39 af 1c 1f 3a
       0.00071712746 -0.0030117906 0.000319623 0.0006069643
000110 e6 9d 8a bb 85 13 41 b9 5a 29 64 b9 07 cd 3b b8
       -0.0042302487 -0.00018413186 -0.00021759179 -4.477522e-05
000120 3b cd 92 ba bb e5 27 3b 01 fa e0 3a a0 6b 86 39
       -0.001120008 0.0025619108 0.0017164351 0.0002563866
000130 8c f6 01 39 16 b5 00 3b 40 9a 1f 3b 7a 14 19 39
       0.00012394245 0.0019639186 0.0024353415 0.00014598845
000140 ff 15 c0 39 eb 80 db ba 6b 44 56 39 05 81 43 ba
       0.00036637482 -0.0016746795 0.00020434118 -0.0007457885
000150 7c 1d 26 37 bc 30 c9 ba 36 cd 55 b8 01 24 1b 38
       9.901236e-06 -0.0015349607 -5.0974275e-05 3.698841e-05
000160 fa 0d 90 b8 40 c8 38 ba 0d c6 9f ba 1f 59 9b 3a
       -6.8690584e-05 -0.00070488825 -0.0012189761 0.0011852122
000170 6a d2 1a 3b cf af 1c 39 28 89 d8 38 9f 8c 47 b9
       0.0023623952 0.00014942813 0.0001032523 -0.00019030504
000180 25 f2 3c 3c 8b ca 6d bc 56 5f ad 3b 1f 40 1e bb
       0.011532341 -0.014513622 0.005290906 -0.0024147106
000190 e0 25 fd 3b 86 0c 09 bd 74 6b b7 bc 6f 2b 40 bb
       0.0077254623 -0.03345921 -0.022390105 -0.0029322763
0001a0 3c 13 0d bb 81 24 02 3c 6e 73 4a bb 31 c2 2e bb
       -0.0021526357 0.0079432735 -0.0030891555 -0.002666604
0001b0 75 86 04 bd c0 fc 75 3c 0d 1c 19 bb 02 16 aa 3a
       -0.03235479 0.015013874 -0.0023362667 0.001297653
0001c0 26 cf 98 bc e1 d5 de 3a 76 dd 18 bb 03 ba 78 bc
       -0.018653464 0.0017000997 -0.002332536 -0.015181067
0001d0 46 b2 2c b9 51 44 de ba 84 e7 96 3b 8d 66 4a bb
       -0.0001646961 -0.0016957616 0.0046052355 -0.003088388
0001e0 a5 f0 91 3c 31 4e 56 bb 4f a1 09 3d 78 71 05 ba
       0.017814944 -0.0032700414 0.0336011 -0.00050904555
0001f0 30 d4 02 bc 3d 7a 29 bb 94 20 2e bb fe 0c a4 bc
       -0.00798516 -0.0025860213 -0.002656971 -0.020025726
000200 47 ab 03 bb ef df e3 bb bf 95 45 3c 7e 52 35 ba
       -0.0020091103 -0.006954185 0.012059628 -0.00069168943
000210 09 6c 8e bc 9e b6 4e ba 32 cc f4 3b 02 79 9f 38
       -0.0173855 -0.00078854884 0.007470631 7.60425e-05
000220 69 eb 53 bc bd 17 f0 ba f4 06 20 bc 28 d6 6a 3b
       -0.012934544 -0.0018317621 -0.009767283 0.0035833213
000230 42 dd 6c bb 4f 63 d3 ba ec 6f 94 bc 8b 6f 15 3d
       -0.0036142622 -0.0016127619 -0.018119775 0.03648333
000240 6e 47 ec 3c bd 3b 82 ba 0a e8 9e 3b d0 de 65 bb
       0.028842654 -0.0009936016 0.0048494386 -0.0035075434
000250 a6 5a c4 ba cb 51 c0 ba 1a de 39 3d 0a 25 1a bc
       -0.0014980629 -0.0014672814 0.04537783 -0.009408245
000260 8c c3 88 3a ad e4 d2 3a a7 26 4a bb 1f 60 17 3d
       0.0010434254 0.0016089879 -0.0030845792 0.036956903
000270 d5 f9 16 bc 43 49 94 3b b6 c1 79 bb cd 22 d8 39
       -0.009214838 0.004525335 -0.0038109845 0.0004122466
000280 14 bf a2 3c f5 1c ff bb 6d 34 b6 3b 0b a0 1e bc
       0.019866504 -0.0077854344 0.005560449 -0.009681712
000290 ad 44 e8 bc b9 85 ea ba 7d 3b b4 bb be 67 25 3c
       -0.02835306 -0.0017892636 -0.0055002556 0.010095535
0002a0 de 15 9c bc 52 38 f5 3b fd f6 bd 3c a4 10 10 bc
       -0.019053396 0.0074835205 0.023189062 -0.00879303
0002b0 e6 4f fa ba 43 07 f4 3c 5a 0b 64 3c cf 77 e1 3a
       -0.0019097298 0.029788619 0.013918722 0.0017201843
0002c0 a5 6a 90 3b f6 97 fa bc 9d 02 f9 39 0e b3 2d ba
       0.0044072443 -0.030590039 0.00047494928 -0.00066261075
0002d0 2b 98 16 39 c9 5c 98 bc 38 a7 a7 3b f4 1b e8 39
       0.00014361802 -0.01859893 0.0051163696 0.00044271315
0002e0 ce b2 3b 3d 78 23 27 bb fa 57 44 bc 2a 97 c7 3c
       0.04582482 -0.0025503319 -0.011983866 0.024364073
0002f0 fe f4 0d 3d f6 6a e7 3a 4c 58 c7 3b 4c f2 4e bb
       0.03465747 0.0017655778 0.006083524 -0.0031577526
000300 31 d0 81 bc 0e c5 82 bc 41 ec 76 3c 2d b6 07 bc
       -0.015846344 -0.015963104 0.015070976 -0.00828318
000310 99 10 1e 3c 9b b7 57 bc b1 b0 9d bc 49 cb b6 3c
       0.009647512 -0.013166334 -0.019249292 0.02231373
000320 a4 49 a7 3a e0 27 9d 3c 78 82 13 bc 4a 84 8d bc
       0.0012763035 0.019184053 -0.009003274 -0.017274994
000330 70 61 0d bd f1 d5 05 3d c7 85 59 3c 1d e2 a5 3b
       -0.03451675 0.032674734 0.013276524 0.005062355
000340 47 b3 44 bc d7 19 45 3b 16 be ba 3c bc 80 b3 bc
       -0.012005634 0.0030075216 0.022795718 -0.021911971
000350 b9 10 9e bb 42 50 2c 3b 1b 97 d0 3b 06 9b ce ba
       -0.004823771 0.0026292955 0.0063656694 -0.0015762753
000360 3f ee d0 3c e4 03 83 bb 5f 01 d3 3c c3 e1 c7 3b
       0.02550423 -0.0039982665 0.02575749 0.006099911
000370 46 d4 72 bc 37 41 bd bb 6b e2 a2 ba 1f 89 b0 bc
       -0.014821118 -0.0057755965 -0.0012427097 -0.02154976
000380 fe f2 db bb ef 5f 90 bc b7 67 94 3c 26 25 60 bb
       -0.0067123165 -0.01762387 0.018115861 -0.003420183
000390 e3 2f e2 bb 13 25 85 bb cb c5 1d 3c 92 e9 78 3a
       -0.006902681 -0.0040632575 0.009629677 0.0009495254
0003a0 54 70 d2 bb 60 69 e3 3b e8 8d 29 bc 0c 26 a5 3b
       -0.006422082 0.006940052 -0.0103487745 0.005039936
0003b0 be 9e 03 bd 60 3b 17 3a 17 20 b7 bc 9b bb f1 3c
       -0.03213381 0.00057690404 -0.022354169 0.029508403
0003c0 b8 5b 01 3d a5 99 12 bc bc b3 86 3b 13 5f 0a bc
       0.03158161 -0.0089477645 0.0041107815 -0.008445519
0003d0 2d 22 2c 3b 17 93 e8 bb be 10 54 3d 3c 6e 20 bc
       0.0026265488 -0.0070976126 0.05177378 -0.009791907
0003e0 42 04 65 ba 77 67 0d 3c b3 da 33 bc 17 eb 8a 3c
       -0.0008736291 0.008630625 -0.010977435 0.016957803
0003f0 b6 52 8b bc a4 ef b3 3b c2 ce eb bb b4 7f 13 bc
       -0.017007213 0.005491214 -0.0071962783 -0.009002615

rios_f.RIOS_H.rnn_cell0.bias_ih f4 [384]
000000 cb da fa bc 84 3b 59 3d f4 1f b4 3c 6a 18 d6 3b
       -0.030621907 0.053035274 0.021987893 0.006533672
000010 e4 0a 07 3d 61 f2 32 bc f0 0b 9d 3d 09 05 b2 ba
       0.03296937 -0.010922045 0.076682925 -0.0013581823
000020 13 cb 11 3e 53 47 80 3d f3 58 6f 3d a9 c6 c8 bc
       0.14237623 0.06263604 0.058434438 -0.024508791
000030 be 2e a0 3c e1 d4 80 3d 53 15 88 bd dc df c2 3d
       0.019553538 0.062906034 -0.06644692 0.09515354
000040 c3 3e 3a 3d 92 87 7b 3c 5a 05 9e 3d a1 95 8a 3c
       0.04547001 0.015352147 0.077158645 0.016917052
000050 db f3 a1 bc 17 35 e7 3c 32 ba 6f 3d ec 4f ee 3d
       -0.0197696 0.028223557 0.05852718 0.11636338
000060 5d b1 de 3c d0 20 31 3d 5a 96 80 3c 21 bd 6f bd
       0.027184183 0.043244183 0.015696693 -0.058529977
000070 99 1b 62 3d 77 30 d9 3d 80 36 a5 3c 8b 9a 04 3e
       0.0552021 0.10604947 0.02016759 0.12949578
000080 e5 96 16 3c e7 5d 0a 3e ac 2a 2b 3d 6f ec b5 bc
       0.0091912495 0.13512383 0.041788742 -0.022207467
000090 6c eb 40 3c ad 3b 20 bd 24 ac 9e 3d df e5 63 3d
       0.011774879 -0.03911941 0.07747677 0.055639144
0000a0 05 fd 4b 3d df 95 ca bc d6 1f 85 3d 38 cc b5 3d
       0.049801845 -0.024729667 0.06500213 0.08876842
0000b0 81 3a 09 3d 6c ac 6d 3d 5f b0 b2 3c 3a 58 9d bd
       0.03350306 0.058025762 0.021812616 -0.076828435
0000c0 bc 68 e2 3c f8 0a 93 3d 86 cf 34 3d 6f d9 0e bc
       0.027637832 0.071798265 0.044143222 -0.008718832
0000d0 bf 58 88 3d f3 e8 3c 3c 28 87 c9 3c 60 c0 c9 3d
       0.06657552 0.011530149 0.02460058 0.09851146
0000e0 aa f1 2b bd b5 7f d5 3d 8e f3 a7 3b d2 12 8b bc
       -0.041978516 0.10424749 0.0051254695 -0.016976748
0000f0 df 3a 7b 3c 4b 0b 3b bc aa ec e9 3d 98 aa 0a 3e
       0.01533386 -0.011416267 0.11422093 0.13541639
000100 ff 36 36 3d fe f8 83 3d 97 fd bb bc 86 d5 6e bd
       0.044486042 0.06443976 -0.02294807 -0.0583091
000110 b0 ae 31 3c 04 2f 48 3c ce 81 6f bd 95 a8 79 3d
       0.010844871 0.012218241 -0.0584734 0.060951788
000120 3c 77 83 bc 00 a6 82 3d fe 6e 9f bc bd f6 42 3d
       -0.016048066 0.06379318 -0.019462105 0.04759859
000130 84 7f 05 bb b1 c9 f6 bb f2 8a a4 3c 27 28 d9 bc
       -0.0020370195 -0.0075313677 0.020085786 -0.026508404
000140 aa 22 20 3c 2f e3 dc 3d 83 33 dc bd 47 aa c8 bc
       0.00977389 0.10785519 -0.107520126 -0.024495257
000150 e3 be 4c 3c 5a 06 e4 3d 66 71 2d bc 4c 24 c9 bc
       0.012496683 0.11134024 -0.010586118 -0.02455344
000160 d6 7d 01 3e a1 73 89 3d b9 4f fd 3b 92 13 0a 3d
       0.12645659 0.067115076 0.007730451 0.03371007
000170 74 21 8d bc 03 7b 82 3d a5 2a a9 3b c1 99 3f 3b
       -0.017227866 0.06371119 0.0051625543 0.0029235932
000180 e4 91 c9 3b a9 82 05 bc 4c 2a 91 3c bd 5c 63 bb
       0.0061514247 -0.008148828 0.017720364 -0.0034692727
000190 f7 6d a5 bc 00 ce d4 bc a3 02 f6 3c 4c 8b 80 bd
       -0.020194037 -0.025977135 0.030030554 -0.06276569
0001a0 50 52 d0 bc bf 5b dd 3c eb 10 75 ba 42 fb 8b bc
       -0.025429875 0.027021287 -0.0009348529 -0.017087582
0001b0 7e e2 09 bd 7d 92 5c bb 6c ae 55 3c 75 4d 74 bd
       -0.033663265 -0.003365665 0.013042074 -0.05964418
0001c0 2e 6e 82 bc 03 7f 87 3b 5c d7 bd 3c 0b 55 21 bd
       -0.015921678 0.004135014 0.02317398 -0.039387744
0001d0 a0 bc b3 bb a4 ce 13 bc c9 22 f5 bb 83 77 f2 3b
       -0.0054851323 -0.009021435 -0.0074809534 0.007399501
0001e0 79 9a 35 bc ca fe 73 bd 23 d8 28 3d af f1 ba bc
       -0.011084192 -0.059569158 0.04122175 -0.022820322
0001f0 bb b9 f5 bc bf e9 03 bc b8 4a b8 bd 13 86 a1 bc
       -0.02999579 -0.008051335 -0.089986265 -0.019717252
000200 ca e9 98 3c c6 22 4f 3d 4d 4f 3f bd 63 70 a5 3d
       0.018666167 0.050570272 -0.046706486 0.08078077
000210 a4 43 ac 3c b8 d5 8f 3b 2c 78 bb 3c 1e fa 5d 3d
       0.021028347 0.004389491 0.02288445 0.05419361
000220 ea 2e 31 3d 99 d3 86 3d 94 31 9c 3c 78 d9 12 3d
       0.04325763 0.06583328 0.01906661 0.035851926
000230 4c 41 4a 3d fb 46 24 bc 70 07 af bd 1e cb 45 3c
       0.04937868 -0.010026689 -0.085463405 0.012072353
000240 14 89 50 3c e9 8e a9 bc d0 90 9b 3c b5 c7 84 3d
       0.0127279945 -0.020698028 0.01898995 0.064834036
000250 75 bf 99 3d 67 10 a8 3d 6d c8 30 bd 30 1d 3a 3d
       0.07507221 0.082062535 -0.04315989 0.04543799
000260 3f 1f 9d bd 8f 15 3b bd c9 99 60 bc 21 6f 3e 3d
       -0.07671975 -0.045674857 -0.01370854 0.0464927
000270 66 e2 1b bd 1a df a4 3c da 5a 5e 3c 22 3a d8 3c
       -0.038057707 0.020125914 0.013571465 0.026394907
000280 5e c8 08 3c 46 c9 9a 3c 3b 3a da 3c 6c 09 22 3d
       0.0083485525 0.018894803 0.026639095 0.039559767
000290 ff 64 a6 bb 88 04 86 bd 9f a9 7f bd 79 21 8a 3d
       -0.0050779576 -0.06543833 -0.062417623 0.06744666
0002a0 e3 10 2c 3c e2 d7 ad bc d8 2a f8 3c a9 f9 51 bd
       0.010502073 -0.021221105 0.030293867 -0.051263485
0002b0 3a f0 0f bd b5 69 9b 3d 3c b6 9e 3c 68 7b e2 3c
       -0.035141207 0.075885214 0.019374005 0.027646735
0002c0 16 c7 ad bd cc bf 2c bd 9a 44 6e bc bc 6a 67 3b
       -0.08485238 -0.0421751 -0.014542723 0.0035311421
0002d0 ec d4 86 bd a9 ce ab 3c 0b 87 cc bb be 95 28 3d
       -0.065835804 0.020972567 -0.0062416843 0.04115843
0002e0 f1 91 6d bd 55 1a d1 3c cd ac 14 3d 94 be 0b 3d
       -0.05800051 0.025525251 0.03629761 0.034117296
0002f0 aa ee 6e ba a4 dd 28 3d 36 5e f5 bc 4c 26 22 3d
       -0.0009114543 0.041226998 -0.02995215 0.039587304
000300 b5 85 ac bd 73 df 9b 3d 5f cd 73 3d f8 24 98 bd
       -0.0842394 0.07610979 0.05952203 -0.07428926
000310 82 02 17 3c b6 b9 83 bd 50 a2 98 3d 1b f1 80 3d
       0.0092169065 -0.06431906 0.07452834 0.06295987
000320 9c 5c 12 bc c0 07 4c 3d d0 d7 d3 bd b2 cb 1f 3d
       -0.008933213 0.04981208 -0.10343897 0.03901262
000330 88 d7 33 3d b9 cd 18 3c 28 d3 16 3d 0d ec c4 bc
       0.04390672 0.009326392 0.036822468 -0.024038339
000340 63 13 1a bc af 06 b1 3d dc 9e 67 3d b3 88 7e bd
       -0.009404036 0.08643853 0.056547984 -0.062142085
000350 ba c3 3c bd 33 fc 15 3d 7b df aa 3c ed f5 e1 3b
       -0.046085097 0.03661747 0.020858517 0.0068957717
000360 c5 da 2c 3d 9e 2c ed 3a 7b d0 60 bd 74 5c 54 bd
       0.042200822 0.0018094962 -0.054886322 -0.051845983
000370 ec aa 84 ba af 0b b5 3c 31 5c db 3d 83 82 51 3d
       -0.001012174 0.022100298 0.107109435 0.051149856
000380 b2 f1 a8 3c 3c 74 af 3a 3e c1 d8 3d bd cb d8 3d
       0.020623062 0.0013386081 0.10583733 0.10585735
000390 88 a1 73 3c 3a 8f 97 bd 9f d0 81 3d 4c c8 67 3d
       0.014870055 -0.07400365 0.063386194 0.056587502
0003a0 b3 14 92 3d cc d7 b7 bd 51 99 3c 3d 99 1d 7d bc
       0.07132854 -0.08976707 0.04604465 -0.015448951
0003b0 fd 90 9e 3d 9b dc cf 3a 2f be bc bd 2e 41 a3 bd
       0.07742498 0.0015858592 -0.09215962 -0.079714164
0003c0 38 7e 93 3d 71 bb d5 3b 20 a5 4b bd 0d 3d a9 3d
       0.07201809 0.006522589 -0.049718022 0.08263598
0003d0 7d 35 8c bd 8f d8 02 bd 48 34 af bd 34 22 1c bd
       -0.068461396 -0.031944808 -0.08554894 -0.038118556
0003e0 dd f8 d8 3b 2f 15 f8 bc ee 29 13 bc c7 bb 8c bd
       0.0066214637 -0.030283539 -0.008982165 -0.06871753
0003f0 fb 60 ae bc d5 11 90 3d a0 02 b6 3d ab 4c e8 3d
       -0.021286478 0.07034651 0.088872194 0.11342748

rios_f.RIOS_H.rnn_cell0.bias_hh f4 [384]
000000 59 b1 09 bd 48 ea f6 3d 41 da c4 bc ec 56 29 3d
       -0.033616398 0.12056404 -0.024029853 0.04134266
000010 6e 42 97 3c db 11 2e bc 3a d3 6c 3d 8f 0a 29 bb
       0.018464293 -0.010624374 0.05781863 -0.0025793647
000020 29 f0 28 3d e5 c8 ab 3d fe 5b 83 3d 3f 68 8b 3d
       0.04124466 0.08387927 0.064140305 0.06806993
000030 05 9f 13 bb ed c3 ae 3c fc 7c 16 3d 89 31 ea 3d
       -0.0022525203 0.021333659 0.03674029 0.11435229
000040 e9 23 a8 3c c9 5f f5 bc 05 41 d6 3d ec a9 dc 3d
       0.020524936 -0.0299529 0.1046162 0.107745975
000050 ae 67 aa bb 96 a0 ff 3d 6a ac e2 3d 77 13 ef 3c
       -0.005200348 0.12481801 0.110680416 0.029184086
000060 0f 8e d6 3d 39 e7 85 3d 93 56 4d 3c 97 6c 30 3d
       0.10476314 0.06538243 0.012532848 0.04307231
000070 bf 40 8f bd cd e4 a0 3b 8c 3b 28 bc 18 14 69 3c
       -0.06994771 0.0049100877 -0.010268103 0.014225982
000080 d9 3d 89 bc cc 87 0f 3e 93 82 32 bd eb a0 ac 3d
       -0.016753124 0.14016646 -0.043581557 0.0842913
000090 9d 8f 02 3e ac d1 22 3d 7e 9b e3 bc d6 28 8b 3d
       0.12750097 0.03975074 -0.027784105 0.06794898
0000a0 f5 23 21 3c dc 99 f0 b9 22 e7 cf 39 b2 9d b5 3d
       0.009835233 -0.00045891 0.00039654324 0.088679686
0000b0 7b b7 ee 3b 98 64 da 3d 9a 83 5f 3d 36 a8 76 bd
       0.007285056 0.10663718 0.054568864 -0.060219012
0000c0 34 f3 95 bc 20 c7 17 3e 0c cc 26 bd 69 7e 2f bc
       -0.018304445 0.14822054 -0.040721938 -0.010711291
0000d0 0c 1d a5 3d 2a b9 fb 3c a9 4f a9 bc 3e a3 14 3c
       0.08062181 0.030727942 -0.020667868 0.009072123
0000e0 9e 6e cb bc 3c 09 ae 3d d9 2a 55 bc e7 c2 29 3c
       -0.02483302 0.08497855 -0.013010704 0.01036141
0000f0 5b 78 02 3e 43 6a 32 3d 40 f8 b7 3d 63 b4 06 3e
       0.12741224 0.04355837 0.08982897 0.1315475
000100 5e 81 fa 3d e4 b7 8a 3d b8 b2 0a bc ec d0 e5 3d
       0.12231706 0.067733556 -0.008465461 0.11221489
000110 50 d1 0b bc 5b f3 96 3c 8a ca 4b bd da 1c ad 3d
       -0.008533791 0.018426588 -0.049753703 0.084527686
000120 b5 3b 5d bc 40 e7 d7 3d 2d ba 0c bd 4f ce d1 3d
       -0.013503005 0.10542154 -0.03435724 0.10244428
000130 da 5f 13 3d 15 e8 64 3c 26 8e 01 bd a7 2a a3 bc
       0.035980083 0.013971348 -0.031629704 -0.0199178
000140 41 6c f6 3b e6 82 82 bc 9c be 08 3d 37 e3 01 3d
       0.007520229 -0.015931558 0.033384904 0.03171083
000150 c3 2e b2 3c 75 2d d7 3d 0c 0d cc bb fc f2 58 3b
       0.021750813 0.10506717 -0.0062271412 0.0033103814
000160 96 6e 09 bc 5c dc f0 bc b0 9e aa 39 9f c3 78 3d
       -0.008388182 -0.02940195 0.00032543158 0.060733434
000170 c9 1a 13 bd 2a 3c 27 3d b8 cd 37 bb 18 c9 7d bc
       -0.035914216 0.04082886 -0.0028046202 -0.015489839
000180 8c b9 c0 3b 84 8d e2 bc db 2c e3 3a 6c c5 ad bc
       0.005881494 -0.02765537 0.0017332094 -0.021212302
000190 8f cf 83 3c e7 e4 26 3d ea d8 21 bc 3e 23 3e 3c
       0.016090183 0.040745642 -0.0098783765 0.011605082
0001a0 f0 95 42 bd 60 21 a5 bb 6a 4c ea 3b eb 0d b0 bc
       -0.047506273 -0.005039379 0.0071502225 -0.021491012
0001b0 05 40 34 bd 2f ae 6b bd f3 27 72 3d 8e 60 61 bd
       -0.044006366 -0.05753916 0.05912013 -0.055023722
0001c0 fa 0c 64 bc 8c eb 03 bd 58 80 aa bc 38 dc 1f 3d
       -0.0139191095 -0.032207057 -0.020813152 0.039028376
0001d0 32 7b 0b 3c 4c ce 3b bd 2d 69 07 3d 9e 73 8b 3c
       0.008513259 -0.045851037 0.033059288 0.017022904
0001e0 fc 72 01 bd 95 42 13 bd f0 a8 ac 3c d0 94 23 bd
       -0.0316038 -0.03595217 0.02107665 -0.03993684
0001f0 d4 8f 51 bd ab 40 90 bd 03 37 80 bd fe 00 db bb
       -0.051162556 -0.070435844 -0.06260493 -0.006683468
000200 5e 52 4f 3c a4 10 34 3c 8d 2a 2d bd 48 12 53 bd
       0.012653915 0.010990296 -0.042276908 -0.051531106
000210 10 90 4c 3d 01 f5 5d 3c e3 f9 c4 3c 82 b6 6e 3d
       0.049942076 0.013547183 0.024044937 0.05827952
000220 d5 ca 62 3d e5 f9 33 3d ca a1 45 bc 8c 96 70 bd
       0.055369217 0.04393949 -0.012062499 -0.058737323
000230 41 34 36 bd d0 10 30 bb bc 66 67 3d b1 8a 9a bd
       -0.044483427 -0.002686549 0.05649446 -0.075459845
000240 68 bc 9a bb 37 bd 43 bd 95 10 34 3d 65 87 1d 3d
       -0.004722167 -0.04778787 0.043961126 0.0384592
000250 0f 23 79 bd 3c 01 05 3d 51 69 bc 3b 14 e0 38 3b
       -0.06082445 0.03247188 0.0057498594 0.0028209733
000260 0d 06 bf bc c6 89 a2 3c b1 99 92 bb 10 34 c6 bc
       -0.023318315 0.019841086 -0.004473888 -0.024194747
000270 0d ae 3a bb 30 cb 49 3d 84 78 98 bd 41 82 ce bc
       -0.002848509 0.04926604 -0.074448615 -0.025208594
000280 8a 8b 9a bd 2b c1 a2 3c c0 16 72 bd c5 ca b8 3c
       -0.07546146 0.0198675 -0.059103727 0.022557626
000290 7f 8b 15 3b c9 4e 26 bd 3b fa 0b 3d 9d 1a be 3c
       0.0022818742 -0.04060248 0.034174185 0.02320605
0002a0 d6 63 05 3d 68 42 2f 3d ef 01 f9 3b 17 1d af bd
       0.032565914 0.04278794 0.0075991075 -0.0855047
0002b0 06 fc 30 3d ec 57 94 bd 5d 1d 52 3d 18 02 b3 3c
       0.0432091 -0.07243332 0.051297534 0.021851584
0002c0 1a f3 2d 3d 81 5e a0 bd d6 70 1f ba f3 9c 8d 3b
       0.042468168 -0.07830525 -0.00060821825 0.0043216883
0002d0 46 7d 87 3d ab 5b 81 3c 07 30 49 bc 47 bf 22 bd
       0.06615691 0.015790781 -0.012279517 -0.039733198
0002e0 0a 24 21 bd 7c 40 f8 bc 84 a5 f3 3c a2 00 95 bd
       -0.03934101 -0.030304186 0.02974201 -0.07275511
0002f0 d7 ee 8f 3b ba 22 81 3d 32 e5 48 3d f3 36 d4 3c
       0.0043924856 0.06305452 0.049046703 0.025905108
000300 5b 7e af 3d 66 7e 9f bd 21 50 aa bd 69 28 4c bd
       0.08569022 -0.077877805 -0.083160646 -0.049843226
000310 56 be a2 3d 25 0c b1 bd e8 4a ba 3c 2c 2f 86 3d
       0.0794646 -0.086448945 0.022740796 0.06551966
000320 b9 cd 2f bc c8 bf 18 bd 31 d2 71 3d 4f c2 2e bd
       -0.0107302 -0.03729227 0.059038345 -0.042665776
000330 81 2e 95 bc 92 57 7a 3d 2e 91 a4 bd 00 4a c5 bd
       -0.018210651 0.06111867 -0.08035503 -0.09633255
000340 d3 0c c6 bd 5a bc 51 3d 98 ce b3 bc ca 7c 0e 3d
       -0.09670415 0.051205017 -0.021949098 0.034786977
000350 c1 6f 9e 3d ad f3 bf 3d 1c a4 c0 3c 8b 29 1d bd
       0.07736159 0.09372649 0.023515753 -0.038369697
000360 3e 50 36 3d 58 53 b8 bd 26 82 0c bd f8 49 6a bd
       0.04451012 -0.090002716 -0.034303807 -0.05719945
000370 5d a6 da 3c 1e 83 01 3c 3e 9b 8c 3d 3f eb 25 bd
       0.026690656 0.007904796 0.068655476 -0.04050755
000380 46 32 d0 bc f1 da 2e bd b7 4e 88 3d e3 44 7e bd
       -0.025414597 -0.042689268 0.06655639 -0.062077414
000390 0f d2 5a bd c0 8d d9 3d c1 1b 19 3c 56 99 c7 3c
       -0.053422984 0.1062274 0.009344996 0.024365108
0003a0 ca 43 49 bd 9b 81 be bc 56 5e cd ba 9c 66 1b 3d
       -0.049136914 -0.02325516 -0.0015668373 0.037939653
0003b0 d5 3a 92 bd ab 4a 7c 3d 11 55 b6 3d 8d 76 01 3c
       -0.071401276 0.061594646 0.08902944 0.0079018
0003c0 4b 20 51 3c 52 ea 6b bc 2f ab 98 bd c7 9d 4e 3d
       0.012764047 -0.014399128 -0.07454526 0.050443437
0003d0 b9 fa 37 3d d9 76 d2 3d d9 1a ba 3d c9 b3 64 3d
       0.044916842 0.10276575 0.09087152 0.05583552
0003e0 d8 02 80 bd 0f df 3f bd 6a e9 02 bd f9 47 58 3d
       -0.062505424 -0.046843585 -0.031960882 0.052803013
0003f0 e2 8d d5 3c d9 a8 3e bd 6a 01 f0 3c d5 84 36 3d
       0.026068632 -0.046547744 0.02929755 0.044560272

rios_f.RIOS_H.rnn_cell1.weight_ih f4 [384, 1]
000000 53 bd 85 bd a8 5a 91 bc dd 76 10 bd ef 77 d0 3b
       -0.06530251 -0.017743424 -0.035269607 0.0063619534
000010 c5 34 78 3c d3 15 80 bb 82 cd 05 3c 42 4f 30 3d
       0.0151493 -0.0039088516 0.008166673 0.043044336
000020 bf 2b 44 3d 1b 4c 76 3c b7 0f b3 bb da ef 68 bc
       0.047893282 0.015032793 -0.00546452 -0.014217341
000030 0e 3a 31 bd dd 82 61 ba ea 87 67 bd 53 15 bc 3c
       -0.043268256 -0.0008602569 -0.056526102 0.022959387
000040 a7 30 50 3d 39 08 d1 3c 84 a6 1d bc f3 cd 12 3d
       0.05082765 0.025516616 -0.00962222 0.03584094
000050 37 aa 99 3d 08 44 bb 3c 43 aa a0 3c 08 e6 88 3c
       0.07503169 0.022859588 0.019612437 0.01671125
000060 13 86 8b 3b 82 76 8a bd ec ff 3f bb f0 c1 8f bc
       0.0042579263 -0.06760885 -0.0029296828 -0.017548531
000070 26 2d a1 bd 46 a5 8c 3d 91 b8 6a 3c f9 ea 02 bc
       -0.078699395 0.06867461 0.014326231 -0.007990592
000080 11 c6 bf b9 60 00 81 bd 17 59 08 3d 25 1c 57 3d
       -0.0003657793 -0.062989 0.033288088 0.052517075
000090 35 eb cd 3d 0f cc 11 3c 17 30 08 bd 1f 55 9c bb
       0.10054628 0.008898749 -0.033248987 -0.0047708894
0000a0 fa 27 a7 3d c6 da 61 bc 73 40 e6 3c 56 0a 58 bd
       0.08161922 -0.01378507 0.028106904 -0.052744232
0000b0 c3 f3 4a 3d a2 65 d1 bc 9f 06 55 3d f5 0b a9 3d
       0.049548876 -0.025561158 0.052008267 0.08254234
0000c0 85 c8 d8 3d cc b1 0f bd 23 e4 1e 3d 84 a6 2c bd
       0.10585121 -0.03508167 0.038791787 -0.04215099
0000d0 1d 95 fb bc e2 d2 10 3c 39 ef 12 bd f6 9d 06 bd
       -0.030710751 0.008839341 -0.03587267 -0.032865487
0000e0 78 dd c8 bc 68 c7 20 3b eb b6 17 bd 70 e0 b4 3c
       -0.024519667 0.0024532918 -0.03703968 0.022079676
0000f0 25 e4 50 3d 71 c6 f6 bc f6 51 20 bc 8d 1b b5 3c
       0.050998826 -0.030123921 -0.009785166 0.022107864
000100 a3 54 90 3d 49 dc 23 3d e0 23 4c bd ba 7c b9 bd
       0.07047393 0.040005002 -0.0498389 -0.09056993
000110 7b 07 1c 3d 4c 3e e0 3b 05 0f 20 3d 86 57 2d bd
       0.03809307 0.006843364 0.039076824 -0.042319797
000120 79 f6 95 bb ab a5 45 bd 22 e2 74 3d 99 a8 9e bd
       -0.004576501 -0.048253696 0.05978597 -0.07747001
000130 bd 53 3a 3d 1d e9 f1 3b ee 05 ca bc 69 49 0b bc
       0.045490015 0.0073825256 -0.02466103 -0.008501389
000140 34 e1 71 bd b8 25 6f bd 84 5d 42 bd cb 9c a0 3c
       -0.05905266 -0.05838558 -0.047452465 0.019606015
000150 49 29 64 bd 56 10 b3 3d 2a 0c 17 bc 9b 9d 17 3d
       -0.055703435 0.0874335 -0.009219209 0.03701554
000160 39 1b ea bc a1 46 ab 3c 21 19 cd 39 7e af c1 bc
       -0.028577434 0.020907702 0.0003911937 -0.023643252
000170 7e b7 a2 bc a3 85 a1 bc 0c 77 c6 bc eb 69 f9 bb
       -0.019862887 -0.019717043 -0.024226688 -0.0076115034
000180 3d 6a eb bc e8 72 38 bc 2a 77 75 bb bd a1 b9 bd
       -0.028737182 -0.011257865 -0.003745506 -0.09064052
000190 6a f5 3f bc b1 ca bf 3c 2e d1 a1 3d d1 6a 9c bc
       -0.011716226 0.02341208 0.07901226 -0.019093903
0001a0 d4 0a a3 3c 60 65 fa 3a fd b9 8a bc 22 76 9f bc
       0.019902624 0.0019103698 -0.01693439 -0.01946551
0001b0 9e be 30 3b ad 49 64 bb 04 ac bb 3b 05 db 84 bc
       0.0026969085 -0.0034833953 0.005727293 -0.016217718
0001c0 f7 63 47 3c a4 2c 45 bd 25 74 02 3c 15 d5 2e 3d
       0.01216983 -0.048138276 0.007962261 0.04268368
0001d0 17 be 7d bd 73 7a 8b bd 05 44 e7 ba 36 ea 26 3d
       -0.061948862 -0.06810465 -0.0017644173 0.040750705
0001e0 5b 86 99 bc 38 76 87 bd e2 e1 7d bd 8d 55 25 bd
       -0.018740823 -0.06614345 -0.061982997 -0.04036479
0001f0 d9 f9 6c bc f5 5d 76 3d 0c 00 82 bd 11 e2 33 bd
       -0.014463865 0.0601482 -0.06347665 -0.043916766
000200 ae 38 05 bd 8a 55 61 bd e9 b0 d6 3b 29 99 67 bd
       -0.032524757 -0.055013217 0.006551851 -0.05654255
000210 39 a7 e5 3c 47 3f 7f ba c9 f3 66 bc 98 e3 06 3c
       0.02803384 -0.0009736907 -0.014096209 0.0082329735
000220 15 c2 2c 3c 26 04 e4 bc 07 72 16 3d 80 c2 0d bd
       0.01054432 -0.02783401 0.03672984 -0.034609318
000230 c9 2b c7 3d c5 2e 5f bc 7d c6 94 bd 7d 7f 5b 3d
       0.09725148 -0.013621991 -0.07264421 0.05358838
000240 e4 63 3e 3d bb 80 5b bd 9d f1 24 3c 51 5c 99 bb
       0.046481982 -0.053589564 0.010067371 -0.0046801944
000250 0d fe ad 3d 6e 0b 55 bd c4 a8 b5 3d 9e 73 64 bd
       0.08495722 -0.052012853 0.0887008 -0.055774324
000260 59 83 2e bb 48 ca 6e bd 35 fc 1f bd 93 48 26 3d
       -0.0026628582 -0.05829838 -0.039058883 0.040596556
000270 97 70 a7 3c e7 f1 18 bd 68 bf c8 ba 97 cb 4d bc
       0.02043943 -0.03734007 -0.0015315833 -0.012560747
000280 4c 0a 80 3d c9 4d 1c bc 6f 8e 1f bd e2 ed bf 3c
       0.06251964 -0.00954003 -0.038954195 0.023428861
000290 d9 26 44 bc c5 a0 f9 bb 9b 04 36 bb fb b3 03 3d
       -0.011972153 -0.007618042 -0.0027773741 0.032154065
0002a0 af 16 8c bb f4 37 1a bd 23 13 e3 3c e1 a6 6f bd
       -0.004275165 -0.037651017 0.027719086 -0.058508758
0002b0 2f f3 c2 3c 01 de 99 bc 1c 50 48 bd 65 c5 c4 bc
       0.0237976 -0.018782618 -0.048904523 -0.024019906
0002c0 bf 9c 95 bd bd ce 8d bd 0e e6 84 bd 74 2b a7 3a
       -0.073052876 -0.06924198 -0.06489192 0.0012754039
0002d0 05 26 41 3d 7e 07 4c 3d ad e3 a6 bc 13 fb a0 bb
       0.0471554 0.049811833 -0.020372236 -0.004912743
0002e0 23 6d 93 3d 05 38 3a bc 36 08 e9 3c 7f 65 48 3d
       0.071985506 -0.011365895 0.028446298 0.04892492
0002f0 67 35 d0 3d 8a 98 a4 3c 98 77 32 3a f5 4d 31 bd
       0.10166436 0.020092268 0.0006807982 -0.043287236
000300 b9 f3 06 bd 68 15 29 3d 0a 4b 8c 3d 59 7b 47 bd
       -0.032947276 0.04128018 0.0685025 -0.048701618
000310 ae 47 61 3d b5 5f f2 3c 51 51 a7 3c 83 2f 25 bd
       0.055 0.029586652 0.020424517 -0.040328514
000320 96 e8 d8 bc e0 a2 d8 bb 9f dd b6 3c 82 fc 16 bc
       -0.026478093 -0.006611213 0.022322474 -0.009215476
000330 07 45 17 3d 25 db f1 bc fa 89 d1 3c b3 b6 b4 3d
       0.036931064 -0.029523442 0.025578488 0.088239096
000340 41 0d d5 bc 5a f5 95 bd 53 44 5b 3d 1c d5 0c bc
       -0.026007297 -0.07322188 0.053531956 -0.008595731
000350 5f 72 c3 bd 88 f6 62 bd 44 51 ba 3d 1a bd a7 bd
       -0.09543299 -0.05541089 0.090975314 -0.08190365
000360 0e 51 9e bc c2 0e 96 3d 5e 9c 86 bd a5 19 dd 3c
       -0.01932576 0.073270336 -0.065727934 0.026989767
000370 92 20 19 3d 5e e2 68 3d e2 80 6f 3d 0c c1 62 bd
       0.037384577 0.056856506 0.05847252 -0.055359885
000380 ca 60 38 3c d3 72 57 bb b5 9e 8d bc 23 a6 d0 bd
       0.011253545 -0.0032874837 -0.017287591 -0.10187938
000390 ce 96 c3 3c 53 69 21 bc 43 22 c8 3d e6 91 c5 3c
       0.02387562 -0.009851771 0.0977216 0.024117421
0003a0 64 34 02 3d e6 dd 77 bd 13 a3 1f 3c bb 0d 66 3d
       0.031788245 -0.060514353 0.00974347 0.05616544
0003b0 5b fa 4a bd 01 b2 ed bb 0d c4 94 3d 34 78 30 3c
       -0.049555164 -0.0072538857 0.07263956 0.010770846
0003c0 39 33 0c bc cf 74 47 bd 62 59 e4 3c 12 1d 3f bd
       -0.008557134 -0.04869538 0.027874652 -0.046658583
0003d0 36 6e ff 3c 7e 74 8f bd bd 84 c3 bc d7 8c 17 bd
       0.031180482 -0.07004641 -0.023867005 -0.03699955
0003e0 cc 2d 9d 3d e8 ce 29 3d 81 7e 92 3d e3 d9 d1 3c
       0.07674751 0.041457087 0.07153035 0.025616592
0003f0 26 e6 96 bc 62 8e 95 bd 2d c6 88 bd 02 a6 bc bb
       -0.01842029 -0.07302548 -0.06678424 -0.0057570944

rios_f.RIOS_H.rnn_cell1.weight_hh f4 [384, 96]
000000 f2 8c 22 bd 64 8e 5f bd a8 05 26 3d c5 9d 16 bc
       -0.039685197 -0.054579154 0.040532738 -0.009192889
000010 c9 b4 40 3c 71 0b 8e bd 89 51 4e bd 20 41 65 3d
       0.011761853 -0.06935776 -0.050370727 0.05597031
000020 17 84 30 3c e3 ff 4e 3d 70 f2 07 bd 5f fa 07 bd
       0.01077368 0.050537 -0.03319019 -0.033197757
000030 89 b9 5e bd a8 92 82 3d ee b1 07 3d 0e a4 da 3a
       -0.05437616 0.06375629 0.03312867 0.0016680972
000040 12 2d 8a bd 86 a6 46 3d 6a e3 65 3d 20 7a 4d bd
       -0.06746878 0.048498653 0.056125082 -0.050165296
000050 8b 78 ee 3b 59 f0 2a 3c d9 52 01 3d e5 be 2c 3a
       0.0072775534 0.01043328 0.03157315 0.0006589725
000060 22 c5 7b 3d 7b 68 a8 bc 51 c4 7b 3d 35 4c a6 3c
       0.061467297 -0.020557633 0.06146652 0.02030001
000070 fe d0 65 bd 24 3f ec bc 5c f0 33 bd 2e bf 7c bd
       -0.056107514 -0.028838702 -0.043930396 -0.06170576
000080 b2 5b f9 bc e5 f1 62 bd d5 74 0a 3d 57 71 d6 38
       -0.030439232 -0.05540647 0.033802826 0.000102254264
000090 5a c8 5b bd 59 db c9 bb 1f 15 7f 3d 95 2e 74 3c
       -0.053657867 -0.0061601815 0.062276002 0.014903684
0000a0 9f 12 35 bd a8 71 0b 3d c1 7e 1b bd ae 67 06 bc
       -0.04420721 0.034043938 -0.03796268 -0.00820343
0000b0 40 2f 8d bd 3f fa eb bb 7e d9 6d bd 0b 80 7e 3d
       -0.06893778 -0.0072014625 -0.058068745 0.06213383
0000c0 bb eb 86 3d b8 56 8c bc b0 e8 c2 3c 95 cc e9 bc
       0.06587931 -0.017131194 0.023792595 -0.028539935
0000d0 97 c0 9c 3c 3f dc c8 bc 9b 3a 94 3d bc 88 00 bd
       0.019134803 -0.024519084 0.072377406 -0.0313804
0000e0 88 66 d7 ba a8 cf 85 3c 62 89 74 bd 12 a6 61 3d
       -0.0016433755 0.01633437 -0.05970133 0.055090018
0000f0 9f 75 52 bd 07 95 00 3d 84 a5 07 bb 07 08 40 bd
       -0.051381703 0.031392124 -0.002069802 -0.046882655
000100 5c e1 15 3d c4 6f 35 bd 3d 48 9e 3c 50 77 51 bd
       0.036591873 -0.04429604 0.019321555 -0.051139176
000110 88 7c f9 3c ac 72 15 bc 49 83 1a bd e4 e2 51 3d
       0.030454889 -0.009121578 -0.03772286 0.05124177
000120 3d 80 64 bd 7f ea 33 3d ab ab 7a 3d 7a 4a fe bc
       -0.05578636 0.043924805 0.06119887 -0.031041373
000130 f7 72 1f bc d9 45 72 3d b6 5b a1 3d 09 b7 dd 3c
       -0.009732 0.059148643 0.078788206 0.027064817
000140 88 1f 05 3d f8 ac 6b bd 30 45 2a 3d c8 9e a1 3c
       0.032500774 -0.057538003 0.04156989 0.019729033
000150 12 00 eb 3b e3 35 73 bd f7 fa 27 3d 97 44 00 3c
       0.0071716392 -0.059377562 0.041010823 0.007828853
000160 bf b4 70 3d 8f 9b 0d bd 27 9e 83 bd 10 b5 8e 3d
       0.058766123 -0.03457218 -0.064266495 0.06968129
000170 5d ef 94 3d c7 b0 02 3c 96 32 03 3d d3 e7 1c bd
       0.072722174 0.007976717 0.032030664 -0.038307022
000180 94 35 e4 bc b7 e8 72 bc 9d 92 c8 3c 7e 7b 09 bd
       -0.02785758 -0.014825991 0.024483973 -0.033565037
000190 68 4c 95 3c 6f d7 8b bc 37 c8 8e bb ec 6e 9b 3c
       0.01822491 -0.0170705 -0.0043573636 0.01897379
0001a0 49 f9 27 3c 56 b1 e6 3a 2a 1a 44 bc be f8 dd bc
       0.010252305 0.0017600458 -0.011969129 -0.027096149
0001b0 72 b9 8e bc be 6a 6c bc 8c c7 df 3b 80 3b 97 3c
       -0.017422412 -0.014429746 0.0068292078 0.018460989
0001c0 96 c6 17 bb 55 31 86 bc 07 ab af 3c ca 00 70 bc
       -0.0023159138 -0.016380945 0.021443857 -0.014648626
0001d0 f7 9b 00 3c 97 a7 8e bb 32 94 9a 3b c5 c9 d9 bb
       0.007849685 -0.0043534744 0.0047173733 -0.0066463673
0001e0 8c d2 0f 3c a8 5a 61 3b 53 7a 75 3c 31 01 0a 3d
       0.008778226 0.003438631 0.014982778 0.033692542
0001f0 02 35 d2 bc 4b 68 8a 3a e8 72 44 bc 36 e4 18 bc
       -0.025660042 0.0010559646 -0.011990286 -0.0093317535
000200 ae 3d 90 bc cd e2 18 bc 4c 97 8e 3c 15 b0 3a 3c
       -0.017607536 -0.009331417 0.017406128 0.01139452
000210 39 44 89 3c f1 31 f7 3b c3 3a 8c 3a 9e 7a e3 3b
       0.016756164 0.0075437953 0.0010698665 0.0069421073
000220 74 64 71 bc 66 62 df bb 1a 3f 0d bc 6d 01 8a 3c
       -0.014733423 -0.00681715 -0.008621002 0.016846383
000230 7b a6 f3 bb 5b b9 ec 3b 0b 74 41 bc 36 88 3c 3c
       -0.0074356175 0.0072242445 -0.011807452 0.011507085
000240 70 62 58 bc 97 10 d4 bc 0b 22 be 3a cc 1f 20 3a
       -0.013207063 -0.025886817 0.0014505995 0.0006108254
000250 e4 05 f1 bb f8 20 a3 3b d7 b5 9f 3c 3f 6a b1 bc
       -0.0073554385 0.0049782954 0.019495888 -0.021657107
000260 a5 30 25 bc 75 d3 b1 3c 46 a6 f7 3b 07 a8 92 3c
       -0.010082399 0.021707276 0.007557663 0.017902387
000270 c1 9b b2 bb d7 a6 07 bc 47 c4 5e bc 82 40 1e 3c
       -0.005450696 -0.008279524 -0.013596601 0.009658935
000280 cc 5f 75 bc e1 41 df bc bc 98 cf 3b f3 31 94 bc
       -0.014976453 -0.027253093 0.006335346 -0.018090224
000290 65 27 29 3d ed 2a ac bc c4 fb 0c ba 62 6c a6 3c
       0.041297335 -0.021016562 -0.0005378092 0.020315353
0002a0 09 b3 63 3c f1 40 3d 3c 78 96 a6 bb 47 34 9f ba
       0.013897666 0.011551128 -0.0050838552 -0.0012146317
0002b0 40 6e f7 ba 0c 8f c2 3c eb bd 0b bc 4a ff 25 3c
       -0.0018877462 0.02374985 -0.008529167 0.010131666
0002c0 3b 52 1e bc 9b 28 4d bc 29 3c 8f 3c 18 57 e1 3c
       -0.00966316 -0.012521888 0.017484741 0.02750735
0002d0 9e 8e 16 ba c2 01 d2 bc d0 10 e1 3b 4a 30 a1 bb
       -0.00057432975 -0.025635604 0.0068684593 -0.0049190866
0002e0 f3 86 1c 3d 03 2b b8 3b f9 19 3e bc c2 be 97 3c
       0.038214635 0.005620362 -0.011602872 0.018523578
0002f0 d3 ce 4e 3c bd 2a c7 3a 8e f0 c0 3c 03 02 63 3b
       0.012622553 0.0015195232 0.023552205 0.003463865
000300 f0 a1 d9 bb 4d 26 83 bc 62 93 8d 3c fd c7 2e bb
       -0.006641619 -0.016009474 0.017282192 -0.0026669495
000310 a0 95 9a 3c 53 49 25 bd 8a ad 28 bc 9a f2 e9 3c
       0.018870175 -0.04035313 -0.010295281 0.028558064
000320 bd af b3 3b 15 d4 bb 3c f8 c3 32 bc f8 d7 9d bc
       0.005483596 0.022928277 -0.01091098 -0.019268021
000330 98 60 eb bc 2a bf 8e 3c 11 52 3e 3c 53 1e 24 3c
       -0.028732583 0.017425139 0.011616246 0.0100169955
000340 7b 03 03 bd d9 f0 a4 3b b2 ff 93 3c ed c3 9b bc
       -0.03198574 0.005033594 0.018066261 -0.019014323
000350 db 84 7d 3b bb 9d ea ba c4 13 06 3c 0b cd a8 ba
       0.0038683924 -0.001789979 0.008183423 -0.001287849
000360 dc bf ed 3c ee d4 25 3a 3f 7f b2 3c c2 c4 dd 3b
       0.02902215 0.00063259795 0.021789191 0.00676784
000370 32 6e c3 bb 74 e4 b9 bb cc 83 7e bc ed f5 eb bc
       -0.005964064 -0.0056729857 -0.0155343525 -0.02880379
000380 36 4c 1f bc e8 32 60 bc e5 85 ae 3c ae 19 c8 39
       -0.00972276 -0.013684012 0.02130408 0.00038166106
000390 7a 54 ad bc 0c 6f 76 3b a2 6a c3 3c 1c 88 43 3b
       -0.021158446 0.003760281 0.023854557 0.0029835766
0003a0 35 4a 5c bc 0d 78 a4 3b a5 28 dd bb 48 e8 b4 3b
       -0.013445427 0.005019194 -0.00674923 0.005520854
0003b0 e8 44 08 bd 92 fc ce bb f6 a6 4f bc 5e 4f b6 3c
       -0.03326884 -0.00631673 -0.012674084 0.022254642
0003c0 fd 98 07 3d 4c e0 69 bc f5 15 00 3c c0 3a 97 bb
       0.033104885 -0.014274668 0.007817735 -0.004615158
0003d0 7e bb 74 bb b9 3d f1 b9 f1 2d d1 3c b2 96 ad bc
       -0.00373432 -0.0004601309 0.025534602 -0.021190021
0003e0 4b a4 9c bb a7 83 4f 3c 57 0c 59 bc e8 9e ec 3c
       -0.0047803274 0.012665666 -0.013247571 0.028884366
0003f0 81 20 5a bc 19 8a 19 3b fb c7 29 bc d5 e3 a4 bb
       -0.013313414 0.002342826 -0.01036262 -0.0050320425

rios_f.RIOS_H.rnn_cell1.bias_ih f4 [384]
000000 1c 41 86 3d c8 3d 22 3d 36 b4 24 3d a9 12 91 3d
       0.065553874 0.0396097 0.040210925 0.07083637
000010 05 82 67 3c 8b f1 e8 3d 14 66 84 3d d0 e1 5a 3d
       0.01413012 0.11374196 0.06464782 0.053438008
000020 89 2a c2 b9 74 3d 93 3b 3b 88 5e 3d a4 f2 85 3d
       -0.00037034255 0.00449341 0.05432914 0.06540421
000030 28 6a 42 3c f7 b6 2f 3d 3d 3d 5c 3d 0e b0 22 3d
       0.01186613 0.0428991 0.05376934 0.03971868
000040 97 e8 66 bc 86 bb 31 3d fa 0d 46 bc 02 fd 5c 3c
       -0.01409354 0.043391727 -0.012088293 0.013488056
000050 38 c9 b8 3d 80 dc c7 b9 c4 7e 5f 3d 75 80 2d 3c
       0.090227544 -0.00038120523 0.054564252 0.010589709
000060 44 22 df 3d c9 c6 29 3c 46 df ed 3d 7d e6 cf bc
       0.108952075 0.0103623355 0.11614852 -0.02537846
000070 c1 12 7b bc 63 51 3f bd 46 42 03 3d 4d 1b 48 bd
       -0.0153242955 -0.046708476 0.032045625 -0.04885416
000080 57 4c 9c bb cb e5 2f 3d 0e c2 35 bd e8 00 51 bd
       -0.0047698426 0.042943757 -0.044374518 -0.051026255
000090 ea af de 3c 8d 5b 67 3c 07 97 18 3d 88 17 92 bc
       0.027183492 0.0141209485 0.037253406 -0.017833486
0000a0 18 36 5c 3c 58 c7 5d 3d f4 aa f2 bc 14 e3 d0 3d
       0.013440631 0.054145187 -0.029622532 0.10199562
0000b0 18 85 17 bc df 0f 82 bc 92 02 e4 bc 7c 68 aa 3d
       -0.009248041 -0.015876709 -0.027833257 0.0832071
0000c0 1e 2f 57 3d 54 f8 63 3d 65 5a 36 3c d1 7e 61 3c
       0.05253517 0.055656746 0.01112995 0.013763146
0000d0 05 a4 68 3d 9f 6d bc bc 17 c2 c2 3d c8 f7 b9 3d
       0.056797046 -0.02300149 0.09509676 0.09080464
0000e0 fe cb 92 bc 66 01 af 3d 70 4a 2d bc c2 c6 4e 3d
       -0.017919537 0.085451886 -0.010576829 0.05048252
0000f0 35 e4 18 bc 61 3e 4e 3d 95 c4 07 bb 5d d7 89 3d
       -0.009331753 0.050352458 -0.0020716537 0.067305304
000100 a2 d6 4a bd 3d c4 c3 3d 2c d8 47 bd a1 db 1a bd
       -0.049521096 0.09558914 -0.048790142 -0.03780711
000110 7a b8 22 3e 5c 04 4f 3d f6 85 11 3d be e0 2a 3c
       0.15890685 0.050541267 0.035528146 0.010429559
000120 85 7e b9 3c eb 0b cf 3c 47 10 8c 3a 95 01 22 bc
       0.022643337 0.025274238 0.0010686003 -0.0098880725
000130 aa ee 87 bd 40 6f d4 3d e9 58 a3 3d 63 a5 de 3d
       -0.066373184 0.10372782 0.07975943 0.10871389
000140 23 80 18 3d ff 6d b6 3d 67 1b 36 3d 71 9e 99 3d
       0.037231576 0.08907699 0.044459727 0.075009234
000150 a5 5b da ba 87 c5 9b ba bd 9e b6 bc 46 8e 96 bc
       -0.0016659392 -0.0011884429 -0.02229249 -0.018378388
000160 70 33 5c 3d 8f 01 86 3d 15 a2 c0 3b d8 83 e4 bc
       0.053759992 0.06543266 0.0058786967 -0.0278949
000170 3e ad 9f bc c9 b1 65 bb 14 2e 97 bb 04 5c 8e 3c
       -0.019491788 -0.0035048595 -0.0046136472 0.01737786
000180 f1 a5 9a 3c f5 64 6c 3d d3 8c 09 3b 2a 11 2a 3c
       0.018877955 0.057713468 0.0020988479 0.010380069
000190 d4 0f 93 bd 67 8a 5f 3d 03 d5 bc bc 3f a7 94 3b
       -0.07180753 0.05457535 -0.02305079 0.004536539
0001a0 cf ee 0f bd e2 d0 b4 3d 35 1e 2a bc f9 63 26 3c
       -0.035139855 0.08828904 -0.0103831785 0.010155671
0001b0 47 ef 8d 3c ec d6 84 3d 6a 3e 0d bd 0f 3c bb 3d
       0.01732601 0.064863056 -0.03448335 0.09142315
0001c0 bb 68 c1 3d ed 9a ca 3d 1b ba c2 3d 56 53 90 3d
       0.09443804 0.09892831 0.09508153 0.07047145
0001d0 01 32 e3 3b 75 ce d2 3b 53 c0 37 3d bd 2a 18 ba
       0.006933451 0.006433303 0.04486115 -0.00058047083
0001e0 07 f2 26 bd 9c af 43 3d 41 d5 67 b9 36 41 30 3d
       -0.04075816 0.047774896 -0.0002210932 0.04303094
0001f0 02 0a ea bc df 21 97 bd 3d 9b f7 3c 8c 23 89 3d
       -0.028569225 -0.07379507 0.03022539 0.06696233
000200 99 35 c9 bb 17 cb ef 3c b6 e6 44 3d 99 8b 9a 3d
       -0.0061404225 0.029271645 0.048071586 0.075461574
000210 46 82 80 3d c1 bc 08 bd 04 76 5f 3d ea 85 5b 3d
       0.06274848 -0.033383135 0.054555908 0.053594507
000220 1f 60 16 3d f1 ee 83 3d 2d 4e c6 bc fa 66 b3 3d
       0.036712762 0.06442059 -0.024207199 0.087598756
000230 fb 2b d8 3d 3e b0 49 3c dc b5 bd 3a ea 9b c6 3d
       0.105552636 0.012310086 0.0014473754 0.09697707
000240 5e e6 cb ba 37 66 91 bc 67 ac 06 bd 95 6d c9 3b
       -0.0015556326 -0.017748935 -0.03287926 0.0061470964
000250 08 dc 84 bc b3 15 ae 3d 1d f2 a7 3d 0d be 35 3d
       -0.0162182 0.085002325 0.08200476 0.0443707
000260 53 1a 3c 3d d9 b1 dd 3b 73 58 0d 3d f5 4d 37 3b
       0.045923542 0.006765586 0.03450818 0.002797005
000270 bd cd a4 bb d8 04 21 bd 1a 0e b6 3b 50 c2 5b 3d
       -0.0050294087 -0.03931126 0.0055558803 0.053652108
000280 d4 4e ec bc ab b3 86 3b a5 1e 46 bd cc ca e6 3d
       -0.028846182 0.0041107736 -0.04836907 0.11269149
000290 a0 b3 bd 3d e0 d8 07 3d 17 e3 74 3d 65 a2 e1 bc
       0.092627764 0.033165812 0.059786882 -0.027543256
0002a0 47 76 28 bd ca c3 00 bd 63 8b 80 3b 98 5a a4 3c
       -0.041128423 -0.03143672 0.003922866 0.02006273
0002b0 ee c6 20 3d 7b 3c 42 3c 52 a5 41 bd 45 f2 62 39
       0.039252214 0.01185524 -0.047276802 0.00021643292
0002c0 74 43 a9 3d 74 79 8d 3d ec 5e a5 3c 44 7a ba bc
       0.08264819 0.06907931 0.020186864 -0.022763379
0002d0 21 46 0f bc 77 b5 0d 3c 33 7e eb 3c 26 1f 23 bd
       -0.008744747 0.008649222 0.0287467 -0.039824627
0002e0 5a 2e 69 3d 92 ef ac 3d d1 9d 17 3d 1c bc ad 3d
       0.05692897 0.08444132 0.03701574 0.08483145
0002f0 29 2b d6 3d 28 87 67 3d ae 45 d4 3c 58 b3 05 b9
       0.10457451 0.05652538 0.025912132 -0.00012750679
000300 b1 88 fa bc 69 76 80 3d 6c 81 29 bd 52 1c b7 bd
       -0.030582758 0.06272585 -0.041383192 -0.089409485
000310 fa c3 df 3d cf a0 bb bd 01 e9 1e bd a4 a9 ac bd
       0.109260514 -0.09161531 -0.03879643 -0.08430794
000320 db 5e 61 3b f1 bd f7 bc 07 a3 68 bd 1c 10 a4 bd
       0.0034388814 -0.030241938 -0.0567961 -0.08010885
000330 1a 90 95 bd 2f ad c8 3d 35 9b ad 3d aa 85 39 3d
       -0.07302876 0.09798657 0.08476869 0.045293488
000340 35 83 56 3d ff 15 9a 3d 23 b8 e1 3d 3d 28 df 3d
       0.052371223 0.07523727 0.110214494 0.10896347
000350 2a e0 e5 3d 63 9e 4b bd 63 d6 5c bd 2d 49 a0 3d
       0.112243965 -0.049711596 -0.053915393 0.07826457
000360 8f 29 cb 3d 1b ea 2d bd e0 0d 1d 3d 7b 8e cb 3d
       0.09920036 -0.04245959 0.03834331 0.09939285
000370 73 6b 01 bc 41 45 e4 bc 1d 45 d4 bc 1f 1f fe bd
       -0.007899153 -0.027865054 -0.025911862 -0.1240828
000380 6d 1a 02 3c ce 61 f7 bd 08 2d 5d bd 13 3d 89 3d
       0.007940871 -0.12079202 -0.053998023 0.06701102
000390 9d ad 7c 3b 31 27 09 3b 37 c1 99 bd d7 fb f1 3d
       0.003855563 0.00209279 -0.07507556 0.11815613
0003a0 06 25 02 3e ea 3b 04 bb d1 97 8b 3d 1b fd 91 3d
       0.12709436 -0.0020177313 0.06816066 0.07128354
0003b0 7b 1f dd bd 4b 27 ce 3d dc 9b 3e 3c b8 c1 81 3d
       -0.1079702 0.10066088 0.011633839 0.06335777
0003c0 21 21 81 3d c7 ae 17 3c 59 88 22 3d 2e 7c 20 bd
       0.06305147 0.009257979 0.039680813 -0.039180927
0003d0 6e a7 39 bd 04 01 9c 3d c5 24 13 3e 54 23 0f be
       -0.04532569 0.07617381 0.14369495 -0.1397832
0003e0 56 47 d9 3b 50 dc ea 3b df 7a 50 bd bd 03 10 bc
       0.0066308184 0.0071673766 -0.05089843 -0.008789954
0003f0 77 3f 8c 3d a7 7a 12 3d 1c f2 82 bd fb a9 1d 3a
       0.068480425 0.0357615 -0.06393835 0.0006014404
