BRIOS/models/model_file/LST_train/NDVI_train.pt (torch, 628066 bytes, 26 tensors)

rios_f.RIOS_H.rnn_cell0.weight_ih f4 [384, 2]
-0.0011064545 -0.00061939383 -0.00024028208 -0.00015944822 -0.02906324 -0.0314506 -0.0057663675 -0.007113587
0.04515513 0.013524848 -0.0020325424 -0.033662133 -0.031033726 -0.032445606 0.07577486 -0.06819899
-0.024539467 -0.008504024 -0.007740125 0.004626944 -0.0009999716 -0.0021369248 -2.668858e-05 -1.3489419e-05
-0.00031925042 -0.0005310746 -7.362285e-05 -0.00020229538 -5.460097e-05 -0.00016850581 -0.0038226915 -0.015736064
-0.022653857 -0.015506559 -0.003906301 -0.0032249838 -0.014689279 -0.017314577 -5.8255035e-05 -0.00012684136
-0.018328268 -0.060876716 -0.044490404 -0.012622694 -0.0065312143 -0.037171554 -2.3493324e-06 -1.4581695e-06
-0.012415239 -0.010520184 -2.0238367e-05 -0.00013585572 -0.0022018787 -0.015642928 -0.0024322884 -0.017408598
-0.0014649382 -0.0016518001 4.436941e-05 4.7726524e-05 -0.046125513 0.013719529 -0.0017244439 -0.0015719061
-0.00023386593 -0.00037501997 -0.0064093377 -0.03379836 -0.0064084055 -0.0121583985 -0.003923073 -0.0037314822
-0.019871218 -0.014238635 -0.0025161675 -0.0014342515 -8.800358e-06 -1.6511622e-05 0.028179275 -0.02064736
-0.00094866345 -0.010151805 -0.0016000548 -0.012352862 -0.002294231 -0.0069187027 0.012907563 -0.044800576
0.07569069 -0.049171444 0.00055632147 -0.001356383 -0.0024008206 -0.0012549988 -0.03564083 -0.030674614
-0.00014023195 -5.9388836e-05 -0.004400156 -0.035092734 -0.010448988 -0.008287025 -0.01670464 -0.07477832
-0.001882933 -0.006132833 -0.0056800405 -0.006473825 0.012041468 -0.0448148 -0.011091138 -0.016757777
-0.00048601127 -0.0006221255 -0.0021732952 -0.0015604072 -0.009560443 -0.023669165 -0.0017906645 -0.003994776
-0.006929763 -0.0068836124 -0.0155821005 0.0042320257 0.021099564 -0.0164059 -0.016686829 -0.046780095
-0.00025585562 0.0004841591 2.1539092e-06 9.677201e-06 2.6907126e-05 4.3061755e-05 -0.016160341 -0.012597891
0.056853786 -0.046956383 -0.004949148 -0.010152489 -0.0069334833 -0.014849298 -0.0017660892 -0.00711379
3.9340073e-05 4.5680918e-05 0.004867901 -0.025043529 -0.0058462536 -0.0024455867 3.082557e-08 -3.1603832e-07
0.0060722455 -0.024963075 -0.0030057647 -0.0024083373 -5.590721e-08 -4.0228336e-08 -0.014509233 -0.057013497
9.1784195e-06 1.3890797e-06 0.00018722496 -0.008268622 -0.00994901 -0.006717348 0.025997497 -0.024955967
-0.05342776 -0.02316946 3.55011e-05 2.649684e-05 0.023000456 0.024018064 -0.001255594 -0.011507776
-3.8115807e-08 -3.5807066e-08 -0.00025982226 -0.000598826 0.06802528 -0.09011521 -0.0030614776 -0.0039580576
-0.000620926 -0.00076541846 -0.01920339 -0.034606367 5.438155e-06 -1.0588187e-05 -0.015052891 -0.008707672
-0.012414429 0.005419182 -0.0020593388 0.0017258547 -0.014625282 0.0046169786 0.0037407922 0.015787495
-0.020346142 -0.051006846 -0.11260195 -0.0002998567 -3.5708294e-05 -0.013864407 -0.031903774 0.0048629786
0.032786068 0.047309328 -0.063932694 0.04384525 -0.0039173192 0.002231098 -0.00068062014 -0.00015726866
0.00017986752 -0.0002850558 -0.00037240822 -0.00020068623 -0.0008016672 0.00025543454 -0.008062413 0.0024800708
-0.026709653 0.004682789 0.00013835143 0.007141388 0.0043916963 0.019990267 3.6407848e-05 1.4707039e-05
-0.04367721 0.018612407 -0.15436168 0.03989208 -0.0514074 -0.048545886 1.270585e-07 2.2371293e-07
-0.0005537467 0.023604063 -0.0020835574 0.00091297383 -0.013102966 -0.015931068 0.045411743 -0.028762022
0.011293218 0.011023301 -0.00038292262 -0.00042333457 -0.2639128 0.070750624 0.0020796484 -0.0030901416
00000000: 7406 91ba d15e 22ba 3bf4 7bb9 8e31 27b9
00000010: 0816 eebc 58d2 00bd ccf3 bcbb 1819 e9bb
00000020: 96f4 383d 5397 5d3c 6734 05bb 4ee1 09bd
00000030: 713a febc afe5 04bd da2f 9b3d e9ab 8bbd
00000040: fe06 c9bc 7654 0bbc e0a0 fdbb 9f9d 973b
00000050: 7b11 83ba a60b 0cbb 4ae1 dfb7 9d50 62b7
00000060: 1161 a7b9 d037 0bba f765 9ab8 411f 54b9
00000070: 5803 65b8 efb0 30b9 1f86 7abb ebe8 80bc
00000080: 9594 b9bc 390f 7ebc 6e00 80bb 405a 53bb
00000090: 4dab 70bc 4dd7 8dbc de56 74b8 b800 05b9
000000a0: 2a25 96bc dd59 79bd 923b 36bd 6acf 4ebc
000000b0: cc03 d6bb 3341 18bd 39a9 1db6 53b6 c3b5
000000c0: 4969 4bbc da5c 2cbc 90c5 a9b7 7e74 0eb9
000000d0: 654d 10bb 9925 80bc 0767 1fbb 7a9c 8ebc
000000e0: 2b03 c0ba 3781 d8ba 4b19 3a38 f72d 4838
000000f0: 1bee 3cbd e0c7 603c bc06 e2ba 6b08 ceba
00000100: e839 75b9 549e c4b9 6c05 d2bb 2670 0abd
00000110: 9afd d1bb 0534 47bc 1f8d 80bb e28b 74bb
00000120: f7c8 a2bc 2a49 69bc 49e6 24bb 7ffd bbba
00000130: 40a5 13b7 7082 8ab7 39d8 e63c a724 a9bc
00000140: baaf 78ba c253 26bc eeb8 d1ba a963 4abc
00000150: cf5a 16bb 49b6 e2bb 3e7a 533c cf80 37bd
00000160: b803 9b3d ff67 49bd 1ad6 113a a9c8 b1ba
00000170: 1657 1dbb c67e a4ba 1efc 11bd 5449 fbbc
00000180: 3a0b 13b9 4718 79b8 2f2f 90bb 66bd 0fbd
00000190: 3b32 2bbc 4dc6 07bc 2bd8 88bc 6025 99bd
000001a0: bfcc f6ba eff5 c8bb a21f babb 6122 d4bb
000001b0: 9449 453c b98f 37bd 9bb7 35bc 9b47 89bc
000001c0: 54cf feb9 2316 23ba d86d 0ebb 9486 ccba
000001d0: 68a3 1cbc d6e5 c1bc bbb4 eaba 9ce6 82bb
000001e0: 1113 e3bb ed8f e1bb 114c 7fbc ceac 8a3b
000001f0: fed8 ac3c aa65 86bc d1b2 88bc 7c9c 3fbd
00000200: 5c24 86b9 bcd6 fd39 e18b 1036 435b 2237
00000210: 9db6 e137 359d 3438 b162 84bc 6267 4ebc
00000220: 84df 683d 5655 40bd 762c a2bb a056 26bc
00000230: 4632 e3bb 784a 73bc 1f7c e7ba cc1a e9bb
00000240: 1501 2538 8399 3f38 ea82 9f3b 1628 cdbc
00000250: ee91 bfbb 2346 20bb 1365 0433 faab a9b4
00000260: b0f9 c63b 5d7f ccbc 5dfc 44bb 32d5 1dbb
00000270: a11e 70b3 86c7 2cb3 22b8 6dbc fc86 69bd
00000280: 03fd 1937 6a70 ba35 d151 4439 1d79 07bc
00000290: 2c01 23bc 331d dcbb b4f8 d43c 7570 ccbc
000002a0: 11d7 5abd e1cd bdbc 04e7 1438 8845 de37
000002b0: 746b bc3c 88c1 c43c be92 a4ba 1c8b 3cbc
000002c0: c6b4 23b3 49ca 19b3 c138 88b9 88fa 1cba
000002d0: d750 8b3d 538e b8bd 12a3 48bb 98b2 81bb
000002e0: a3c5 22ba 5da6 48ba 6e50 9dbc 68bf 0dbd
000002f0: 6579 b636 eba3 31b7 67a0 76bc a0aa 0ebc
00000300: e465 4bbc 6593 b13b f9f5 06bb 1336 e23a
00000310: e19e 6fbc 064a 973b 1428 753b c754 813c
00000320: f4ac a6bc 8eec 50bd da9b e6bd 1636 9db9
00000330: 7dc5 15b8 8a27 63bc 88ad 02bd 9f59 9f3b
00000340: af4a 063d 6dc7 413d 25ef 82bd 1497 333d
00000350: db5c 80bb 9d37 123b a56b 32ba 7ce8 24b9
00000360: d29a 3c39 8b73 95b9 c93f c3b9 4d6f 52b9
00000370: fa26 52ba d8eb 8539 3618 04bc af88 223b
00000380: 34ce dabc 1572 993b 6e12 1139 4e02 ea3b
00000390: 38e8 8f3b a1c2 a33c a1b4 1838 40be 7637
000003a0: e0e6 32bd 0c79 983c fd10 1ebe e165 233d
000003b0: 9190 52bd 0dd8 46bd 936d 0834 be35 7034
000003c0: 5029 11ba 4f5d c13c 4b8c 08bb a354 6f3a
000003d0: d3ad 56bc df81 82bc aa01 3a3d 559e ebbc
000003e0: 3007 393c 139b 343c 01c3 c8b9 01f3 ddb9
000003f0: 941f 87be b4e5 903d b64a 083b f983 4abb

rios_f.RIOS_H.rnn_cell0.weight_hh f4 [384, 96]
0.00079274795 -0.00064321165 -0.00026154288 0.0006783561 -0.00018374696 0.0004571683 0.00059510034 -3.1774704e-05
0.00055483205 -0.00015052792 -5.3797074e-05 -0.0004193695 -0.00019357544 0.00029815844 0.00071617827 -7.454844e-05
0.00028009934 -0.0006003949 0.00069775607 -8.855489e-05 -0.00050508877 -0.0007333938 0.0007310628 5.5653595e-06
-0.00062494265 0.00032335977 -0.00055253867 0.0002907396 -0.0007427899 0.00013858797 -0.00055628637 0.00039996684
0.00017233267 0.00010172604 0.0002563453 -0.00043848177 0.00023126438 -8.3744584e-05 -9.930262e-05 0.0004003562
0.0005505012 -0.00024762723 -6.1355364e-05 0.000413769 4.9307928e-05 0.0002159377 -0.00043962337 0.00044981166
-8.4322266e-05 8.151688e-05 -0.00059172406 -0.000501603 -0.0006943541 -5.7465197e-05 2.8004315e-05 0.00019252634
-0.00014974228 -0.00076323346 0.00043184147 4.7748978e-05 8.404099e-05 0.0001283145 -8.054059e-05 3.038463e-05
0.0008841404 0.0005582834 5.855391e-05 0.00015210049 0.00025426934 -0.00052059576 0.00054564496 0.00011179943
5.056221e-06 0.00062009215 0.0003073663 0.00011872052 0.00039874887 0.00023314945 -3.936451e-05 -0.0005120832
-0.00040647687 -0.00042561482 -0.00011281411 0.00023067831 -0.00026314775 0.0006050338 -0.0008227299 0.00021783225
-7.4553216e-05 0.00021536315 -0.00028359282 -7.719509e-06 0.00085702207 0.00058093335 -1.791381e-05 -0.0004288895
0.00024521063 -0.00027441158 -0.00012855751 0.0002905794 -7.311406e-05 0.00023385278 0.00019675323 5.733563e-06
0.0001880573 -0.00026210985 -9.656192e-05 4.681096e-05 -0.000112343856 0.0001180474 0.00032119176 -0.00013351905
8.939587e-05 -0.00026496427 0.00030423218 -7.155655e-05 -0.00011584857 -0.00061561126 0.00033446067 5.3124477e-06
-0.00023764273 0.00018145805 -0.00022969463 0.000186836 -0.000343165 5.306455e-05 0.00019782179 0.00016620634
5.368285e-05 0.00015586935 0.00013355323 -0.00014852679 0.00011561185 -8.065145e-05 -6.30015e-05 0.00037774307
0.00023114102 -0.000107861044 -6.900344e-05 0.00018126924 3.613522e-05 9.662108e-05 -0.00014939802 0.00025293615
1.1759637e-05 6.5846136e-05 -0.00028044364 -0.00034494797 -0.000309965 -2.9342917e-05 -6.740951e-05 6.172586e-05
-0.00010752241 -0.0003284566 0.00020226787 -8.5977445e-05 4.4807228e-05 0.00013651284 -0.0001181684 -4.782615e-05
0.00017755658 0.00028158288 2.319055e-05 7.12718e-05 0.00011233137 -0.00022646663 0.00024536872 0.000119035976
0.00028358988 0.00030942183 0.0002890498 8.976982e-05 0.00015424092 0.00012860977 -1.171861e-05 -0.00026627973
-0.00019937103 -0.00018404833 -9.662447e-05 0.00016565814 -0.00014675906 0.00025741727 -0.0003688778 0.00019165792
-4.8405735e-05 5.4331267e-05 -0.00023413621 -3.8824426e-05 0.00036994382 0.00014317477 0.00010039438 -0.00017000397
0.011320795 -0.0028783479 0.0010362102 0.0019766532 0.0007784595 -0.0068075913 -0.0014889892 0.00048710202
0.0080292225 0.012585204 0.0018989244 0.00048175076 -0.0002298234 0.004609042 0.00094782485 0.0015061614
-0.0030902377 -0.0015045583 0.0015370906 -2.889529e-05 -0.0021712352 0.020021072 9.254906e-05 2.8500708e-05
-0.0051602987 -0.005086053 -0.0024406193 -0.0070198043 0.0007588686 0.0018387346 -0.03376907 0.0012734799
0.0003923941 0.00013503029 0.004740068 -0.00918267 0.0036993735 0.000345011 6.277503e-05 -0.01999266
0.00972306 0.00012004672 0.0004839138 0.006772521 -0.0005358171 0.00036032707 -0.0040087095 -0.0033310668
-0.0004473342 -0.0011991026 0.009246506 0.003352821 -0.0010833327 -0.001995553 0.0016767901 -0.0032295408
0.00027671488 -0.0016386439 0.0005354803 0.0005703191 0.00093922915 0.0064112553 -0.008949015 0.00070029363
00000000: 6ad0 4f3a 349d 28ba b11f 89b9 b5d3 313a
00000010: 33ac 40b9 17b0 ef39 8200 1c3a d445 05b8
00000020: 2672 113a 08d7 1db9 2ba4 61b8 d2de dbb9
00000030: 83fa 4ab9 2652 9c39 e9bd 3b3a e456 9cb8
00000040: 4cda 9239 d263 1dba 9ee9 363a 8bb6 b9b8
00000050: ef67 04ba 3a41 40ba cba4 3f3a 13be ba36
00000060: 31d3 23ba 9d88 a939 3ed8 10ba 696e 9839
00000070: c9b7 42ba ed51 1139 bfd3 11ba a4b2 d139
00000080: 33b4 3439 c055 d538 1566 8639 07e4 e5b9
00000090: 8f7f 7239 08a0 afb8 b040 d0b8 e6e6 d139
000000a0: 834f 103a f7d3 81b9 e9ab 80b8 23ef d839
000000b0: fccf 4e38 566d 6239 407d e6b9 b3d4 eb39
000000c0: 2cd6 b0b8 0bf4 aa38 ee1d 1bba 027e 03ba
000000d0: 5105 36ba c906 71b8 cfea ea37 e5e0 4939
000000e0: 2304 1db9 bb13 48ba c868 e239 1346 4838
000000f0: 2a3f b038 298c 0639 e6e7 a8b8 7fe2 fe37
00000100: a8c5 673a c459 123a c897 7538 2a7d 1f39
00000110: 744f 8539 9778 08ba 9d09 0f3a dd75 ea38
00000120: 9ca8 a936 ae8d 223a 0226 a139 98f9 f838
00000130: 2b0f d139 9479 7439 521b 25b8 523d 06ba
00000140: 671c d5b9 0e25 dfb9 9d96 ecb8 3de2 7139
00000150: 18f7 89b9 229b 1e3a 78ac 57ba e669 6439
00000160: 7459 9cb8 1bd3 6139 2faf 94b9 0a83 01b7
00000170: c7a9 603a c749 183a 9d45 96b7 93dc e0b9
00000180: 9d8f 8039 e6de 8fb9 65cd 06b9 e858 9839
00000190: d054 99b8 6136 7539 8b4f 4e39 ee62 c036
000001a0: 3f31 4539 ca6b 89b9 4981 cab8 e356 4438
000001b0: 269a ebb8 3790 f738 a165 a839 3f01 0cb9
000001c0: 0b7a bb38 e7ea 8ab9 5a81 9f39 a110 96b8
000001d0: baf3 f2b8 f960 21ba 8d5a af39 9441 b236
000001e0: bc2f 79b9 c645 3e39 2fda 70b9 68e9 4339
000001f0: d4ea b3b9 a091 5e38 626e 4f39 ad47 2e39
00000200: 8529 6138 dc70 2339 6c0a 0c39 dbbd 1bb9
00000210: a474 f238 6b23 a9b8 ac1f 84b8 d10b c639
00000220: 725e 7239 7533 e2b8 f1b5 90b8 1713 3e39
00000230: e68f 1738 0ca1 ca38 baa7 1cb9 849c 8439
00000240: 424b 4537 e016 8a38 8208 93b9 22da b4b9
00000250: cc82 a2b9 6f25 f6b7 355e 8db8 d272 8138
00000260: a87d e1b8 b334 acb9 de17 5439 ca4e b4b8
00000270: 65ef 3b38 e324 0f39 2dd1 f7b8 f098 48b8
00000280: 7b2e 3a39 6aa1 9339 5489 c237 c277 9538
00000290: 7293 eb38 ac77 6db9 d5a4 8039 f4a2 f938
000002a0: caae 9439 e539 a239 9c8b 9739 ce42 bc38
000002b0: bbbb 2139 6cdb 0639 0c9b 44b7 769b 8bb9
000002c0: 410e 51b9 19fd 40b9 dea2 cab8 85b4 2d39
000002d0: 56e3 19b9 f6f5 8639 f165 c1b9 c8f7 4839
000002e0: 4307 4bb8 c1e1 6338 7682 75b9 69d7 22b8
000002f0: 05f5 c139 2f21 1639 d38a d238 1843 32b9
00000300: db7a 393c aaa2 3cbb 72d1 873a bd8a 013b
00000310: 8811 4c3a 3712 dfbb 302a c3ba ba61 ff39
00000320: 008d 033c 2c32 4e3c 54e5 f83a 7e93 fc39
00000330: c0fc 70b9 7207 973b 7377 783a 646a c53a
00000340: 9685 4abb 9934 c5ba 3478 c93a 2a64 f2b7
00000350: 484b 0ebb 3b03 a43c e616 c238 ce14 ef37
00000360: b917 a9bb e8a8 a6bb ccf2 1fbb 6306 e6bb
00000370: cfee 463a b201 f13a 7051 0abd e5ea a63a
00000380: 3fba cd39 eb96 0d39 9352 9b3b e972 16bc
00000390: 3071 723b 98e2 b439 16a6 8338 a6c7 a3bc
000003a0: 784d 1f3c 98c1 fb38 d0b5 fd39 06ec dd3b
000003b0: 1476 0cba 48ea bc39 7e5b 83bb 074e 5abb
000003c0: 2e88 eab9 352b 9dba a87e 173c 01bb 5b3b
000003d0: 9dfe 8dba d3c7 02bb bdc7 db3a b4a6 53bb
000003e0: 0b14 9139 c4c7 d6ba 7a5f 0c3a 7881 153a
000003f0: 9a36 763a 8215 d23b e49e 12bc e993 373a

rios_f.RIOS_H.rnn_cell0.bias_ih f4 [384]
-0.0006766236 -0.0004141808 0.010735577 5.042992e-05 0.16092794 0.03608547 0.05551501 0.11377286
0.053275492 0.009960854 -0.0011806485 -4.244027e-06 -0.00018546893 -1.0381763e-05 -0.00017634501 0.008207217
0.0028909391 -0.001113902 0.0037449962 -3.7026177e-05 0.045907166 0.064143896 0.015793722 -3.827435e-06
0.0030708977 -0.0001433275 0.0060995803 0.010487796 -0.0008413234 7.5909265e-05 0.06772553 -0.0012438934
-0.00010120197 0.017289849 0.0014797986 -0.00095611205 0.0041946582 -0.00057900714 -1.7869446e-06 0.06253646
0.00027213647 0.0038059056 0.00024690753 0.05383697 0.11382552 -0.0004893225 -0.0010768736 0.018587291
-0.00017502972 0.025698608 0.00037342712 0.08168687 0.007025997 -0.0005527244 0.045898568 0.015830366
-0.0002472211 0.0009957673 0.0076162857 -0.0010831186 -6.003369e-05 0.059402548 0.022182554 0.035783097
-0.0011539453 -3.5579877e-05 3.252738e-05 0.0014277548 0.052476376 -0.0014237391 0.002492979 -0.00025099446
-2.8053293e-05 0.0120423185 -0.0009740831 -9.81827e-07 0.016449641 -0.000928596 -8.53148e-08 0.048021395
0.00018279279 0.018252088 0.001000344 0.026841722 0.024201714 6.212649e-05 0.0194521 0.0037015593
-6.600076e-08 -0.00017773299 0.1285375 0.00030424382 -0.00079447473 0.015514339 1.0613049e-05 0.0073131155
-0.002178667 -0.0018705452 -0.0029035003 -0.0069456496 0.042547137 -0.026273647 0.018354656 -0.0026181159
0.018411236 0.0019038615 -0.00019502638 -0.0023471746 -0.00016630013 -0.0005819321 -0.0020598138 -0.004171141
-0.0055487347 -0.006183247 -0.015687026 1.9059408e-07 -0.00025135462 0.02099554 -0.0019184344 -1.337156e-07
0.0065616295 -0.00095676654 0.000885969 -0.033009686 0.0018459988 -0.00057720765 0.030281642 -0.0023702416
-2.2524646e-05 -0.0017688 -0.005971645 -0.0008258604 0.0010579451 -0.0014315237 -7.433569e-06 -0.0018797606
-0.0030079314 0.0004109061 -0.0024190438 -0.009558812 0.0032146736 -0.00016078635 -0.0009471492 0.0015311629
5.9876264e-05 -0.014442992 -0.002091599 -0.008099402 0.004654111 -0.00275055 -0.0034331284 0.003808621
-0.000117180454 -0.010421001 -0.004042421 -0.00066021655 -0.0013061689 0.008532112 0.010685984 -0.0060686897
0.01232044 -0.0013458931 -0.0040678554 -0.0024131348 0.0010009379 -0.00700929 -0.009456805 -0.00065806595
-0.0012491426 -0.0045445305 -1.6912973e-06 -7.095914e-06 -0.009227125 -0.0007322376 -5.050663e-07 -0.002856345
-0.0022915846 -0.0005339584 -0.0018692194 -0.005974438 -0.001687821 -0.0012786363 0.0380706 -0.0015967918
-1.0594667e-06 -8.789662e-05 -0.0004814188 -0.002327517 -0.0032121344 0.007095617 -0.000244871 0.0049417797
0.025978765 -0.01646783 0.018479757 0.008255089 -0.020541916 -0.040283818 -0.04801563 -0.028897358
0.09748475 -0.012864086 -0.013396702 0.004098273 -0.007959242 0.0064526605 0.0072559705 0.09082601
-0.049906164 -0.003545642 -0.014215043 -0.0033510365 -0.01449225 0.07864849 0.026412465 0.011031462
-0.0026217152 -0.008369366 0.08380827 0.0596605 -0.012021813 0.0035503993 -0.050847434 -0.042299844
0.023077818 -0.05053906 0.061513003 -0.024078613 -0.000465548 -0.067039855 -0.006342903 0.083272085
-0.027364278 0.060427297 -0.030017864 -0.04961023 -0.051578067 0.026323784 -0.00506938 -0.019521423
0.013782291 0.012217522 -0.001534627 0.07052806 0.09764341 -0.0016575482 0.028127866 -0.07569987
0.024219103 -0.06622879 0.02906217 0.007439466 -0.0424486 0.06322135 -0.089872085 0.05662013
00000000: 715f 31ba 6826 d9b9 46e4 2f3c b784 5338
00000010: 4bca 243e 5cce 133d b563 633d bf01 e93d
00000020: 6737 5a3d da32 233c fdbf 9aba ea67 8eb6
00000030: 707a 42b9 552d 2eb7 41e9 38b9 9077 063c
00000040: e975 3d3b 5900 92ba 9c6e 753b 8e4c 1bb8
00000050: 2709 3c3d e05d 833d d661 813c 6b6d 80b6
00000060: 1d41 493b 2f4a 16b9 fdde c73b 01d5 2b3c
00000070: 428c 5cba 7a31 9f38 afb3 8a3d 230a a3ba
00000080: 653c d4b8 71a3 8d3c cdf5 c13a 98a3 7aba
00000090: 5873 893b 83c8 17ba f3d6 efb5 1e13 803d
000000a0: 8aad 8e39 806c 793b 5e73 8139 2884 5c3d
000000b0: 5b1d e93d e145 00ba e225 8dba 6044 983c
000000c0: 2f88 37b9 e385 d23c 8ac8 c339 724b a73d
000000d0: 563a e63b b5e4 10ba 2300 3c3d afae 813c
000000e0: 749d 81b9 6884 823a 0992 f93b 6ef7 8dba
000000f0: afcc 7bb8 1650 733d 30b8 b53c 4c91 123d
00000100: fb3f 97ba 9a3b 15b8 026e 0838 8023 bb3a
00000110: 78f1 563d c29c baba 3f61 233b e897 83b9
00000120: fd53 ebb7 254d 453c 9c59 7fba 52c7 83b5
00000130: 66c1 863c 066d 73ba 4f36 b7b3 15b2 443d
00000140: 11ac 3f39 6785 953c fa1d 833a 2ce3 db3c
00000150: ac42 c63c e849 8238 035a 9f3c dc95 723b
00000160: 4dbc 8db3 d65d 3ab9 569f 033e ea82 9f39
00000170: 4c44 50ba db2f 7e3c b30e 3237 dca2 ef3b
00000180: f8c7 0ebb 152d f5ba a748 3ebb 5598 e3bb
00000190: e845 2e3d d53b d7bc 815c 963c b294 2bbb
000001a0: 29d3 963c fe8a f93a ff7f 4cb9 0ed3 19bb
000001b0: da60 2eb9 cd8c 18ba f1fd 06bb 11ae 88bb
000001c0: 29d2 b5bb d69c cabb 1482 80bc 1aa6 4c34
000001d0: 3fc8 83b9 d7fe ab3c fa73 fbba 7793 0fb4
000001e0: f002 d73b 84cf 7aba 6040 683a 2a35 07bd
000001f0: 71f5 f13a c04f 17ba 3511 f83c 0e56 1bbb
00000200: 4ff3 bcb7 14d7 e7ba caad c3bb 8e7e 58ba
00000210: bfaa 8a3a f7a1 bbba df6d f9b6 4d62 f6ba
00000220: b720 45bb e26e d739 d288 1ebb 909c 1cbc
00000230: 46ad 523b c298 28b9 1b4a 78ba 4db1 c83a
00000240: a623 7b38 4da2 6cbc 3513 09bb 5bb3 04bc
00000250: 8381 983b 9242 34bb 56fe 60bb 0f9a 793b
00000260: c7be f5b8 d9bc 2abc 4976 84bb 6212 2dba
00000270: c133 abba 46ca 0b3c 4414 2f3c dcdb c6bb
00000280: acdb 493c ae68 b0ba a54b 85bb af25 1ebb
00000290: e731 833a 30ae e5bb b7f0 1abc 0f82 2cba
000002a0: 45ba a3ba 49ea 94bb 8800 e3b5 7019 eeb6
000002b0: 5e2d 17bc a2f3 3fba e493 07b5 8431 3bbb
000002c0: 692e 16bb 57f9 0bba 9800 f5ba 38c5 c3bb
000002d0: e039 ddba ea97 a7ba ebef 1b3d 714b d1ba
000002e0: 0033 8eb5 2355 b8b8 f066 fcb9 4189 18bb
000002f0: ac82 52bb 5982 e83b 0762 80b9 a7ee a13b
00000300: 6bd1 d43c 8be7 86bc dc62 973c 5a40 073c
00000310: 8547 a8bc a500 25bd 0aac 44bd 27ba ecbc
00000320: 16a6 c73d e3c3 52bc d77d 5bbc ce4a 863b
00000330: 7b67 02bc d770 d33b 7ec3 ed3b fd02 ba3d
00000340: 686a 4cbd 005e 68bb 36e6 68bc 109d 5bbb
00000350: e770 6dbc 7612 a13d f45e d83c 4ebd 343c
00000360: 15d1 2bbb aa1f 09bc aca3 ab3d 925e 743d
00000370: 23f7 44bc d1ad 683b 6645 50bd 9a42 2dbd
00000380: b10d bd3c 0c02 4fbd 0ff5 7b3d 8340 c5bc
00000390: cb14 f4b9 314c 89bd 20d8 cfbb 8e8a aa3d
000003a0: 0d2b e0bc 9d82 773d 06e8 f5bc 1934 4bbd
000003b0: 8643 53bd faa4 d73c 0b1d a6bb 64eb 9fbc
000003c0: 1ecf 613c 002c 483c 8a25 c9ba 0471 903d
000003d0: 45f9 c73d 1742 d9ba 696c e63c 8908 9bbd
000003e0: 2467 c63c f6a2 87bd ca13 ee3c c4c6 f33b
000003f0: 95de 2dbd 327a 813d db0e b8bd 82ea 673d

rios_f.RIOS_H.rnn_cell0.bias_hh f4 [384]
-0.0006766236 -0.0004141808 0.01073472 5.042488e-05 0.16097565 0.035901465 0.055465437 0.11787432
0.0532755 0.009960856 -0.0011806486 -4.2440774e-06 -0.00018546903 -1.0381763e-05 -0.00017634503 0.008283731
0.0028909387 -0.001113902 0.0037451722 -3.702622e-05 0.046089586 0.06414226 0.015664363 -3.827435e-06
0.003071242 -0.0001433275 0.006132385 0.0104912305 -0.0008413503 7.5909265e-05 0.0677267 -0.0012438934
-0.00010120218 0.017301131 0.0014797939 -0.0009561121 0.0041940687 -0.00057900656 -1.7869385e-06 0.060562663
0.00027399042 0.0035446354 0.0002469328 0.05384144 0.1257453 -0.00048932043 -0.0010768739 0.018585453
-0.00017502975 0.026083138 0.00037342712 0.08363656 0.006786188 -0.0005527244 0.046706233 0.015926147
-0.00024722036 0.000995767 0.0076162857 -0.0010831184 -6.0282484e-05 0.059402555 0.022057164 0.036183655
-0.0011539451 -3.5579877e-05 3.2527383e-05 0.0014277518 0.050267465 -0.0014239252 0.002492841 -0.00025099562
-2.8054917e-05 0.012043907 -0.00097415753 -9.818252e-07 0.016442081 -0.000928596 -8.53148e-08 0.048976813
0.00018279291 0.01607865 0.001000345 0.026989894 0.024205869 6.212649e-05 0.019800691 0.0037013928
-6.6001476e-08 -0.00017773265 0.12184509 0.00030415392 -0.00079447473 0.015357654 1.0613049e-05 0.0073131146
-0.0022606722 -0.0018700279 -0.0029062324 0.0015758678 0.053460237 -0.025362123 0.01907034 -0.00590674
-0.018112903 0.0014762814 -0.00019569871 -0.0023471746 -0.00016630022 -0.0005819323 -0.0020597056 -0.003942705
-0.005513282 -0.006068657 -0.021874184 1.9061392e-07 -0.00027335074 0.02178333 -0.017641641 -1.3371903e-07
-0.0011779544 -0.0009567664 0.0022844458 -0.017839072 -0.005836428 -0.00057720765 0.030463943 -0.0024032942
-2.2524913e-05 -0.0017688003 -0.0059718927 -0.0011279453 -0.0025445425 -0.0014311246 -7.433514e-06 -0.029503996
-0.0039255302 0.0005145041 -0.0024190643 -0.0020732232 0.0049479725 -0.00016078817 -0.0013014551 0.0022396275
5.9876264e-05 -0.008676954 -0.0020868042 -0.008798447 0.00694153 -0.0025049723 -0.0025855894 0.004741658
-0.00011718076 -0.004468103 -0.006091665 -0.0006752703 -0.00131697 -0.0006462931 0.00667297 -0.0057173707
0.012319832 -0.0013458934 -0.0040678554 -0.004720134 0.0015709834 -0.0063520414 -0.008363624 -0.0006569633
-0.001249256 -0.0052326713 3.1068892e-05 -7.096931e-06 -0.009098186 -0.0009622509 -5.050684e-07 -0.0028271098
-0.0022915844 0.00090583245 -0.0016693808 -0.0051061492 -0.000641565 -0.0012786362 0.032670133 -0.0017476261
-1.0594619e-06 -8.789631e-05 0.0058946963 -0.001680979 -0.0032159009 0.008799396 -0.000244871 0.004870266
0.013939879 -0.017082691 0.067030616 -0.0091762 -0.068759784 0.011157107 -0.07895018 -0.0492629
0.06567908 0.059528947 0.024839934 0.0041007176 -0.015852826 0.006451396 0.009963128 0.01304326
-0.042626157 -0.034699943 0.013472482 0.002364935 -0.007176226 -0.02289263 -0.0073483 0.0009339792
0.00016647794 -0.011974572 0.012013505 0.013709563 -0.008683004 0.0035522205 -0.012589222 -0.02081675
-0.0050680335 -0.029279083 -0.022521462 0.010278042 -0.0006043692 -0.041240923 -0.004058491 -0.016491111
-0.020295685 0.06380403 0.08980822 -0.01151478 -0.06356122 -0.006317639 -0.038730484 -0.074769236
0.02989754 0.0967825 0.07247152 -0.011470368 0.07276458 -0.0690283 0.061587013 -0.07649181
-0.045346238 0.0049769785 -0.10437049 0.00072024757 0.011261867 0.067324296 -0.00256081 0.071990564
00000000: 715f 31ba 6826 d9b9 aee0 2f3c 4d7f 5338
00000010: cdd6 243e 6a0d 133d ba2f 633d 1768 f13d
00000020: 6937 5a3d dc32 233c febf 9aba 5968 8eb6
00000030: 777a 42b9 552d 2eb7 42e9 38b9 7cb8 073c
00000040: e775 3d3b 5900 92ba 9071 753b 9a4c 1bb8
00000050: 6fc8 3c3d 045d 833d 8d52 803c 6b6d 80b6
00000060: e446 493b 2f4a 16b9 2df2 c83b 69e3 2b3c
00000070: 108e 5cba 7a31 9f38 4cb4 8a3d 230a a3ba
00000080: 823c d4b8 1abb 8d3c a5f5 c13a 99a3 7aba
00000090: 666e 893b 79c8 17ba bdd6 efb5 8e10 783d
000000a0: 5fa6 8f39 1d4d 683b c276 8139 d788 5c3d
000000b0: 60c3 003e bd45 00ba e425 8dba 8540 983c
000000c0: 3188 37b9 4eac d53c 8ac8 c339 a549 ab3d
000000d0: ac5e de3b b5e4 10ba 094f 3f3d 8d77 823c
000000e0: 5b9d 81b9 6584 823a 0992 f93b 6cf7 8dba
000000f0: d3d7 7cb8 1850 733d 3ab1 b43c 5035 143d
00000100: f93f 97ba 9a3b 15b8 036e 0838 6723 bb3a
00000110: 42e5 4d3d 00a3 baba ef5e 233b 1098 83b9
00000120: 7a57 ebb7 cf53 453c 9b5e 7fba 42c7 83b5
00000130: 8bb1 863c 066d 73ba 4f36 b7b3 e99b 483d
00000140: 19ac 3f39 5fb7 833c 021e 833a e919 dd3c
00000150: 634b c63c e849 8238 0f35 a23c 1193 723b
00000160: b2bc 8db3 bf5d 3ab9 eb89 f93d d976 9f39
00000170: 4c44 50ba ab9e 7b3c b30e 3237 daa2 ef3b
00000180: c927 14bb b91b f5ba 7d76 3ebb 598d ce3a
00000190: 1ff9 5a3d 3ac4 cfbc 6739 9c3c 548d c1bb
000001a0: 8361 94bc c97f c13a 7934 4db9 0ed3 19bb
000001b0: e060 2eb9 d18c 18ba 20fc 06bb cf31 81bb
000001c0: c3a8 b4bb 96db c6bb 7d31 b3bc 8eab 4c34
000001d0: 8450 8fb9 f472 b23c 3485 90bc 6894 0fb4
000001e0: 9765 9aba 82cf 7aba a4b6 153b 3f23 92bc
000001f0: 823f bfbb c04f 17ba 858f f93c 9680 1dbb
00000200: e2f3 bcb7 17d7 e7ba deaf c3bb 90d7 93ba
00000210: 57c2 26bb 9394 bbba 666d f9b6 5db2 f1bc
00000220: bca1 80bb c9df 063a 2a89 1ebb eade 07bb
00000230: 9a22 a23b 3f99 28b9 9695 aaba b7c6 123b
00000240: a623 7b38 c829 0ebc c4c2 08bb 5d27 10bc
00000250: c675 e33b 762a 24bb fe72 29bb e95f 9b3b
00000260: f1be f5b8 2a69 92bb 979c c7bb 9f04 31ba
00000270: 2e9e acba ff6b 29ba eea8 da3b c858 bbbb
00000280: 1fd9 493c b068 b0ba a54b 85bb 5bab 9abb
00000290: 75e9 cd3a c924 d0bb 9507 09bc 1038 2cba
000002a0: 13be a3ba d476 abbb f84f 0238 2c22 eeb6
000002b0: 8f10 15bc 913f 7cba 0994 07b5 0847 39bb
000002c0: 682e 16bb 6375 6d3a 20cf daba 7c51 a7bb
000002d0: b32e 28ba e997 a7ba 1ed1 053d 9a10 e5ba
000002e0: d532 8eb5 f954 b8b8 4c28 c13b 4c54 dcba
000002f0: ddc1 52bb 582b 103c 0762 80b9 c196 9f3b
00000300: 1764 643c 00f1 8bbc 5947 893d c657 16bc
00000310: eed1 8cbd 4ccc 363c a2b0 a1bd e5c7 49bd
00000320: c182 863d a0d4 733d 1e7d cb3c 505f 863b
00000330: c9dd 81bc 3b66 d33b 633c 233c 66b3 553c
00000340: c498 2ebd 8721 0ebd afbb 5c3c 06fd 1a3b
00000350: 8c26 ebbb 5389 bbbc 02ca f0bb 48d6 743a
00000360: 9590 2e39 ff30 44bc 4bd4 443c 139e 603c
00000370: 2943 0ebc 5fcc 683b 0643 4ebc e487 aabc
00000380: bf11 a6bb b0da efbc ee7e b8bc 3c65 283c
00000390: 886e 1eba 3eec 28bd 17fd 84bb 5e18 87bc
000003a0: 2343 a6bc b0ab 823d 5fed b73d 7da8 3cbc
000003b0: 632c 82bd 3204 cfbb dba3 1ebd 9d20 99bd
000003c0: b0eb f43c e735 c63d f36b 943d 36ee 3bbc
000003d0: 9905 953d b65e 8dbd aa42 7c3d bda7 9cbd
000003e0: fabc 39bd ec15 a33b 32c0 d5bd ffce 3c3a
000003f0: b283 383c 52e1 893d 43d3 27bb ca6f 933d

rios_f.RIOS_H.rnn_cell1.weight_ih f4 [384, 2]
-0.0017206848 -0.00932107 0.017902642 -0.0061116456 -0.00093963667 0.0002247683 0.02136977 0.004638783
-0.015285199 -0.015903547 0.058781277 0.087113135 -0.0236082 0.011894723 -0.0040744864 0.009968411
0.0033740862 -0.024888055 0.020885047 0.037266392 0.008706521 0.0033155652 -0.045330416 -0.058399785
0.00033396212 0.0005159218 -0.0021761428 -0.003755178 0.020856678 -0.000669826 -0.001712445 0.0040626675
-0.007102995 0.0023685927 0.014491182 0.015853941 0.016111668 -0.0007257879 0.00014192931 0.00032881016
-0.0034618606 -0.0027012175 0.030107616 0.00018452441 0.010248768 -0.001032273 -1.3724238e-06 -2.454291e-07
0.01119792 0.0057572713 -0.0067047896 0.0012171941 0.02004809 0.007472801 0.009414449 -0.06499633
0.008742203 -0.006775037 -0.0016191917 -0.011608082 -0.10392065 -0.040550414 0.0015666324 -0.003007324
-0.0004298728 -0.0008121695 -0.0018952243 0.0013486976 -0.00910749 -0.012025225 0.0068139154 0.018293055
-0.0021652153 -0.0029841503 0.0023042997 -0.005095866 -1.647448e-05 5.4053675e-05 0.038066167 -0.020895952
0.006346526 0.0034550042 0.0024190643 0.0034049398 -0.0002572712 0.00094613066 0.004775354 -0.0017582008
0.005923248 -0.00070782524 -4.11153e-05 -0.0001748435 0.032412063 0.022169767 -0.004988353 -0.0032361564
0.001143045 0.00211045 -0.015414154 -0.015251362 -0.025704551 -0.07894932 -0.012385723 0.002389941
0.0064174444 0.004538366 0.0011000942 0.010801967 -0.00036892388 0.0062627573 0.002328815 0.0024826284
0.0002906402 0.00014819235 0.013410884 -0.00068163243 0.0013384735 -0.023416951 0.00012503834 0.00103166
0.0005669506 0.0037516092 0.025636096 -0.003667037 -0.13018727 -0.05871333 -0.0010582167 0.0056438493
0.015117889 -0.0125559885 -0.001770388 -0.026286218 0.027984738 -0.00059287855 -0.008149669 0.009175503
0.0078037083 0.006898242 -0.0045239935 -0.020145357 -9.0269205e-05 -0.01120543 0.0009878164 -0.0015674015
-0.056903165 -0.045593467 0.042848434 -0.06459686 -0.043225672 -0.019263124 -4.688764e-05 6.563594e-06
0.001552474 -0.0060028792 -0.0057272525 -0.0060471687 -4.4225535e-06 1.3445484e-07 -0.0016505335 0.0033208714
0.0095455125 0.006065012 0.014577341 -0.0018081334 -0.027300064 -0.030076515 0.022408152 -0.010880184
0.0003220149 -0.00525402 0.005499685 -0.0013256599 -0.072923705 -0.0885811 0.0016550284 0.0034407992
-1.108813e-05 3.660158e-06 -0.0011328965 -0.0023279814 0.037444264 -0.049751114 0.0070159356 0.003617009
0.013171432 0.007627879 0.08319398 0.10578592 0.005662496 0.0029647476 -0.005408195 -0.0008747136
0.012932919 -0.014043608 0.008673329 -0.0148421135 -0.00074085745 -0.0011409505 0.0135611165 -0.0047234315
-0.12762663 0.1093451 0.11968079 0.08465513 -0.017458731 0.020053772 -0.006076571 -0.00025414856
-0.018714335 -0.04026456 -0.027193919 -0.118006006 -0.0003161142 -0.005911506 -0.0013736871 -0.00058278773
-0.0005453333 7.8100136e-05 -0.00010957472 -0.0015016532 0.012254956 -0.008556962 -0.0035145578 0.0031148626
-0.009732724 -0.0093747815 0.016568381 0.02336672 -0.005041277 -0.017607972 9.1244656e-05 0.00022951183
0.0008978276 -0.0031442714 0.042651735 0.012359353 0.019472852 0.012055772 -1.4514638e-06 -4.5868407e-07
-0.010166034 -0.019276176 -0.008060467 -0.002762549 0.024883745 0.007618997 0.07176106 -0.11323268
0.00843855 0.00022419267 -0.0065845316 -0.014426913 0.00915507 -0.107592486 0.0011784263 -0.003911901
00000000: 9a88 e1ba 67b7 18bc 90a8 923c 3344 c8bb
00000010: f351 76ba c8af 6b39 a80f af3c ef00 983b
00000020: c56e 7abc 2848 82bc a3c4 703d 5f68 b23d
00000030: fc65 c1bc 16e2 423c 4583 85bb 8c52 233c
00000040: c61f 5d3b 09e2 cbbc 1e17 ab3c a5a4 183d
00000050: cca5 0e3c f449 593b 63ac 39bd 9d34 6fbd
00000060: a317 af39 ed3e 073a 9e9d 0ebb 6f19 76bb
00000070: a0db aa3c 4397 2fba 1f74 e0ba 2020 853b
00000080: 3ec0 e8bb 643a 1b3b 6c6c 6d3c 20e0 813c
00000090: 9efc 833c cd42 3eba dcd2 1439 2764 ac39
000000a0: 62e0 62bb e906 31bb 3fa4 f63c e57c 4139
000000b0: 73ea 273c 564d 87ba 1f34 b8b5 85c3 83b4
000000c0: 7b77 373c 7ea7 bc3b dab3 dbbb 428a 9f3a
000000d0: e43b a43c 66de f43b 103f 1a3c cc1c 85bd
000000e0: 753b 0f3c 2101 debb 0f3b d4ba d32f 3ebc
000000f0: 5ad4 d4bd 3118 26bd 7657 cd3a 8616 45bb
00000100: 8d60 e1b9 c6e7 54ba 2d69 f8ba c8c6 b03a
00000110: 9537 15bc 7305 45bc 4447 df3b 51db 953c
00000120: 49e6 0dbb bc91 43bb bc03 173b 39fb a6bb
00000130: ad32 8ab7 b1b7 6238 45eb 1b3d fd2d abbc
00000140: 85f6 cf3b 5a6d 623b 2a89 1e3b 6925 5f3b
00000150: 5be2 86b9 c105 783a 937a 9c3b 6e73 e6ba
00000160: ce17 c23b 598d 39ba 3873 2cb8 3256 37b9
00000170: 83c2 043d 5f9d b53c 5675 a3bb b215 54bb
00000180: 3ad2 953a 7a4f 0a3b a68b 7cbc d9e0 79bc
00000190: 5a92 d2bc 2eb0 a1bd 7ded 4abc 8ea0 1c3b
000001a0: 6d49 d23b 93b6 943b 0931 903a bcfa 303c
000001b0: 206c c1b9 d137 cd3b 089f 183b 98b3 223b
000001c0: 1161 9839 1564 1b39 53b9 5b3c 94af 32ba
000001d0: b86f af3a e8d4 bfbc b91c 0339 c438 873a
000001e0: 699f 143a 8fdd 753b ca02 d23c ac52 70bb
000001f0: d04f 05be 647d 70bd dcb3 8aba 0af0 b83b
00000200: 06b1 773c a2b7 4dbc 5d0c e8ba 3256 d7bc
00000210: 4040 e53c 686b 1bba 3086 05bc d954 163c
00000220: 40b6 ff3b a60a e23b 023e 94bb e007 a5bc
00000230: e94e bdb8 fb96 37bc 9e79 813a 4471 cdba
00000240: 4b13 69bd 37c0 3abd d781 2f3d 5c4b 84bd
00000250: 670d 31bd b3cd 9dbc 38a9 44b8 d83c dc36
00000260: 627c cb3a cdb3 c4bb adab bbbb 5427 c6bb
00000270: 7265 94b6 aa5e 1034 b756 d8ba faa2 593b
00000280: c864 1c3c 02bd c63b cdd5 6e3c e4fe ecba
00000290: 62a4 dfbc 0663 f6bc 4d91 b73c cd42 32bc
000002a0: 1cd4 a839 ea29 acbb b436 b43b c4c1 adba
000002b0: 0659 95bd 026a b5bd 8aed d83a 087f 613b
000002c0: 2807 3ab7 09a1 7536 b37d 94ba 0c91 18bb
000002d0: 285f 193d d3c7 4bbd efe5 e53b 570b 6d3b
000002e0: fdcc 573c 49f3 f93b 9b61 aa3d 4aa6 d83d
000002f0: 768c b93b 364c 423b 3a37 b1bb 094d 65ba
00000300: 98e4 533c 2917 66bc 941a 0e3c 562c 73bc
00000310: 1a36 42ba f28b 95ba 722f 5e3c 04c7 9abb
00000320: 8eb0 02be 53f0 df3d 341b f53d ab5f ad3d
00000330: 9d05 8fbc cf47 a43c f91d c7bb 3e3f 85b9
00000340: ce4e 99bc 74ec 24bd c8c5 debc 22ad f1bd
00000350: 21bc a5b9 4eb5 c1bb 4a0d b4ba 39c6 18ba
00000360: b3f4 0eba b1c9 a338 7bcb e5b8 1fd3 c4ba
00000370: 03c9 483c 8032 0cbc 7f54 66bb b922 4c3b
00000380: 0176 1fbc af98 19bc 6aba 873c 906b bf3c
00000390: 4c31 a5bb 983e 90bc 9a5a bf38 1da9 7039
000003a0: 315c 6b3a 1f10 4ebb 96b3 2e3d e27e 4a3c
000003b0: 8885 9f3c 9385 453c ebcf c2b5 0f41 f6b4
000003c0: 708f 26bc 12e9 9dbc 0d10 04bc e20b 35bb
000003d0: ffd8 cb3c c7a8 f93b 76f7 923d 89e6 e7bd
000003e0: d841 0a3c 4315 6b39 0ec3 d7bb dc5e 6cbc
000003f0: 26ff 153c 7359 dcbd 6d75 9a3a 672f 80bb

rios_f.RIOS_H.rnn_cell1.weight_hh f4 [384, 96]
-0.049410224 0.040358406 0.000606698 -0.0416729 0.015435414 0.0006605071 0.008504534 -0.0018863226
-0.034684353 0.018161904 -0.005620278 0.0035904285 -0.0013502412 0.002061967 -0.045078892 0.0016112133
-0.0029900405 0.04015976 -0.046592504 0.00012626807 -0.0019513881 -0.0016832987 -0.051145323 7.624262e-05
0.039112262 0.0033855145 0.03602688 0.0060537937 0.053995594 -0.010792462 0.017127112 -0.018088466
0.0015170944 -0.0007127516 0.0029562423 -0.0010984454 -0.024521803 0.0030003246 -0.0002428441 -0.0010275474
-0.0035612537 0.008891546 0.00055032934 -0.0044126376 -0.0014219268 0.0006902959 0.021936914 0.0046874643
-0.0006141472 -0.00090221566 0.008834031 -0.0014276541 0.045556836 0.009620263 0.0029672307 0.0142356325
-0.00050328835 0.052705236 -0.017395359 -0.0010473336 -0.0014443939 -0.0034235662 -0.011014265 0.0011778943
0.0091563435 -0.013984098 -0.016619563 -0.021687914 0.00086010166 0.028978199 -0.030365447 0.0026570614
0.0037161931 -0.007056216 -0.0046872217 -0.0002097611 -0.018134315 -0.02322183 0.00015966648 0.000896375
0.03029902 0.02658315 -0.0040108995 -0.014716271 -0.00735939 -0.03488385 0.009621834 0.0027106171
0.0001283606 0.0022238188 -0.0062183808 -0.007363774 -0.0027792302 -0.013648324 0.0019020562 0.030611852
-0.028105535 0.030620998 -0.00060061883 -0.028874917 -0.003712404 -0.009290063 0.00016010685 0.00052527647
-0.021400822 -0.018469457 -0.008790681 -0.002509573 0.0005941133 0.00020120032 -0.03245426 8.1272374e-05
-0.0074471068 0.023754228 -0.032185156 0.00012282279 -0.0005610215 0.0019183967 -0.034793027 4.5942415e-05
0.030026043 0.002668558 0.028775869 0.03012182 0.035549838 -0.009805489 0.010409311 -0.014818126
-1.7323611e-05 5.7341615e-05 0.0050968323 -0.0060169445 -0.01589535 0.0006256097 -0.00012094089 -0.0114830965
-0.0057051624 0.0056411684 0.0010329395 -0.005381827 0.0015012731 0.00015815061 0.022225648 0.006685027
-0.001014474 -0.00063813647 0.01082371 -0.0021133537 0.02987583 0.006210252 -0.00046250975 0.016119232
-0.00011168574 0.03483764 -0.015429638 -0.002004144 0.0005435591 0.009927293 -0.027619982 0.0006109776
-0.007925323 0.0022752155 -0.0123376725 -0.009972546 -0.0026451997 0.015498497 -0.023445792 0.0006132133
0.010039166 -0.01660586 0.012066919 -0.0001750585 -0.01393681 -0.017468909 0.00025324672 -0.0007957465
0.021729497 0.027822703 0.0001135692 -0.020824147 -0.009412653 -0.02692483 -0.019624645 0.0034644657
9.2420574e-05 -0.00027165585 0.0075188307 -0.0097283805 0.0019625782 -0.02790502 0.0057809767 0.031676933
-0.00033779888 0.00031638535 0.00013052847 -0.00025198847 -0.002098501 -0.0013681233 -0.00038586927 0.00035152503
-0.000106663465 -0.001217525 -0.00027557425 -0.00031972423 8.610869e-05 0.00073255936 -0.00030248615 -1.4110587e-05
-0.00058053125 1.7266979e-05 -0.0002979855 -3.6355457e-05 -3.357147e-05 -0.0007437148 -0.00022671456 1.2167989e-05
0.0003605729 -0.00024812378 3.2955373e-05 0.0018558913 0.00026920284 -4.874596e-05 -3.7559705e-05 -0.0001120596
3.1887448e-05 -2.6160473e-05 0.00034393766 -3.8774277e-05 3.3828688e-05 -0.0002321645 -3.499215e-05 -0.00038652236
-0.00047119881 8.403314e-05 -6.177286e-05 -0.0003763139 -0.0004963256 -1.6319878e-05 0.00017317568 -3.1078891e-06
0.0001306591 0.00030992908 -7.589754e-05 6.658315e-05 0.00015100552 -3.053132e-05 5.2742955e-05 0.0001735815
-6.48469e-05 0.00040029557 -7.3833035e-06 -3.8780403e-05 0.00034836406 -7.7478064e-05 -0.0007653277 0.00021475599
00000000: 6062 4abd db4e 253d d00a 1f3a 34b1 2abd
00000010: d2e4 7c3c e225 2d3a 9a56 0b3c 7c3e f7ba
00000020: 2e11 0ebd 46c8 943c 4f2a b8bb 654d 6b3b
00000030: 94fa b0ba 1122 073b a5a4 38bd 592f d33a
00000040: 8ef4 43bb 8f7e 243d c8d7 3ebd d466 0439
00000050: b8c5 ffba 22a2 dcba c27d 51bd 72e4 9f38
00000060: 2e34 203d 82df 5d3b ec90 133d e75e c63b
00000070: 7c2a 5d3d ded2 30bc 284e 8c3c 432e 94bc
00000080: 3ed9 c63a f3d7 3aba 84bd 413b b6f9 8fba
00000090: f3e1 c8bc 18a1 443b f7a3 7eb9 c5ae 86ba
000000a0: ec63 69bb d9ad 113c fa43 103a e397 90bb
000000b0: f25f baba f9f4 343a 0bb5 b33c 4d99 993b
000000c0: b9fe 20ba ab82 6cba 9dbc 103c 1f20 bbba
000000d0: ce99 3a3d 4f9e 1d3c df75 423b 923c 693c
000000e0: 1cef 03ba 72e1 573d b680 8ebc af46 89ba
000000f0: d151 bdba e95d 60bb 2d75 34bc 9363 9a3a
00000100: 7d04 163c 8f1d 65bc c025 88bc daaa b1bc
00000110: 7278 613a b063 ed3c f5c0 f8bc 1822 2e3b
00000120: 608b 733b d437 e7bb 4497 99bb 51f3 5bb9
00000130: 6a8e 94bc b53b bebc 256c 2739 b5fa 6a3a
00000140: a735 f83c e8c4 d93c dd6d 83bb 841c 71bc
00000150: 0a27 f1bb 5ee2 0ebd e6a4 1d3c 9ca4 313b
00000160: 8998 0639 7dbd 113b 8fc3 cbbb d04b f1bb
00000170: bf23 36bb 389d 5fbc 6a4e f93a b5c5 fa3c
00000180: 943d e6bc e3d8 fa3c d972 1dba 178b ecbc
00000190: ce4b 73bb 5935 18bc 5be2 2739 b5b2 093a
000001a0: c750 afbc 424d 97bc ca06 10bc a677 24bb
000001b0: 45be 1b3a 4df9 5239 c2ee 04bd c670 aa38
000001c0: dc06 f4bb 3a98 c23c 95d4 03bd fec9 0039
000001d0: 8411 13ba b672 fb3a 2283 0ebd 4bb2 4038
000001e0: 2df9 f53c f9e2 2e3b 5fbb eb3c 09c2 f63c
000001f0: b59c 113d 34a7 20bc d18b 2a3c bac7 72bc
00000200: 2c52 91b7 1782 7038 5403 a73b ca29 c5bb
00000210: f736 82bc f5ff 233a a5a1 fdb8 9923 3cbc
00000220: 5ff2 babb 8dd9 b83b b363 873a 095a b0bb
00000230: 5ec6 c43a 3bd5 2539 9012 b63c 120e db3b
00000240: 19f8 84ba 9d48 27ba ee55 313c 3180 0abb
00000250: 28be f43c 5f7f cb3b 027d f2b9 7b0c 843c
00000260: d338 eab8 eab1 0e3d 98cc 7cbc f557 03bb
00000270: a27d 0e3a 16a6 223c 4d43 e2bc 032a 203a
00000280: 37d9 01bc c81b 153b f323 4abc e463 23bc
00000290: 165b 2dbb 68ed 7d3c 6411 c0bc 0cc0 203a
000002a0: 507b 243c 0309 88bc 54b4 453c e98f 37b9
000002b0: 3857 64bc f51a 8fbc 33c6 8439 a599 50ba
000002c0: 0f02 b23c 70ec e33c 002c ee38 6797 aabc
000002d0: 8737 1abc 7691 dcbc ddc3 a0bc 170c 633b
000002e0: ebd1 c138 086d 8eb9 8660 f63b c963 1fbc
000002f0: 999e 003b 1299 e4bc 596e bd3b acbf 013d
00000300: 991a b1b9 86e0 a539 78de 0839 521d 84b9
00000310: 0187 09bb 9a52 b3ba 7f4e cab9 e44c b839
00000320: 83b0 dfb8 5c95 9fba f37a 90b9 a9a0 a7b9
00000330: 4095 b438 3a09 403a 0197 9eb9 82bc 6cb7
00000340: cb2e 18ba 8ed8 9037 f03a 9cb9 607c 18b8
00000350: 17cf 0cb8 dbf5 42ba 3aba 6db9 1d25 4c37
00000360: 470b bd39 9c16 82b9 9039 0a38 6141 f33a
00000370: cb23 8d39 9374 4cb8 6d89 1db8 8a01 ebb8
00000380: e3be 0538 3073 dbb7 8852 b439 90a1 22b8
00000390: 47e3 0d38 2f71 73b9 89c4 12b8 27a6 cab9
000003a0: 3c0b f7b9 f33a b038 0d8c 81b8 ff4b c5b9
000003b0: d91b 02ba ace6 88b7 7e96 3539 2191 50b6
000003c0: 8901 0939 fa7d a239 2e2b 9fb8 8ea2 8b38
000003d0: 3c57 1e39 c10e 00b8 5138 5d38 6e03 3639
000003e0: 6afe 87b8 c3de d139 18be f7b6 24a8 22b8
000003f0: a2a4 b639 b87b a2b8 46a0 48ba 1f30 6139

rios_f.RIOS_H.rnn_cell1.bias_ih f4 [384]
0.11343935 0.08089601 0.0023878973 0.07072276 0.3852712 0.115822636 0.13587107 0.0017574789
0.05553597 0.2608799 0.022668786 0.25861588 0.0051196422 0.012414554 0.08639884 0.005537575
0.035198674 0.07050767 0.08190307 -9.801537e-06 0.010386982 0.092483275 0.09719834 -2.514026e-06
0.083876826 0.03695029 0.07531552 0.21712756 0.100115724 0.016212285 0.27488983 0.023304645
0.0025888423 -0.00027431798 0.033898145 0.12159965 0.056000933 0.010434837 -7.292875e-05 0.12603277
0.02397745 0.013004588 0.00048231304 0.01403725 0.0077088815 0.00044601006 0.08200545 0.028081682
0.0036962298 0.017611334 0.13006963 0.01488696 0.06338245 0.019313248 0.014605976 0.074809976
0.0010514129 0.115426235 0.025358187 0.0013790462 0.0058529926 0.1675673 0.23875734 -0.0017338677
0.09359662 0.10953191 0.07310114 0.0536418 0.016654344 0.052535716 0.05074767 0.009250365
0.2753663 0.2098241 0.115232274 -7.332199e-05 0.017014839 0.04683517 -1.400591e-05 0.006381995
0.06339996 0.09453903 0.039995577 0.106885515 0.026535146 0.06261238 0.23654804 0.0056116427
-3.4393608e-05 0.0077066547 0.21496332 0.01801704 0.03893535 0.16368599 0.014442057 0.1902906
0.10898777 0.08039283 -0.005937867 0.069893636 -0.10869414 0.125083 0.032406133 -0.0228706
0.05514965 0.056050953 0.009700181 -0.0020403513 0.0010113921 0.009096679 0.084000155 -0.0016981589
0.023457795 0.037762642 0.08054466 -0.00018899314 -0.020339567 0.10430834 0.098557055 -2.6699063e-06
0.07486045 0.029864842 0.058003906 0.111270644 0.117580555 0.012822543 0.2730044 0.018686239
0.00020905907 -0.005361227 0.032090254 0.010495015 0.057010937 0.007822806 -0.00012574329 0.14558601
0.01840712 -0.002883514 -0.00070482487 0.011139557 -0.011543667 -0.00021966839 0.05658545 0.014313197
0.0010359546 0.003939447 0.077826135 -0.0046264725 0.07150106 0.010528831 -0.0058920924 0.0583833
9.1639624e-05 0.113589734 0.02546425 0.00020917832 0.0015468884 0.19990471 0.08179165 -0.008495521
0.14357847 0.069823034 0.07100045 0.04264065 -0.0017449703 0.049664043 0.049968116 0.00010094655
0.1196361 0.07697825 0.08555616 -9.86682e-05 0.007884527 0.043043476 -1.6070597e-05 -0.009620897
0.042560827 0.06954967 0.037958354 0.05732172 0.010691342 0.058396015 0.06196034 0.0021850243
-3.3502976e-05 0.00088221877 -0.013692471 0.008388671 0.04577786 0.0407912 0.0011921445 0.16612914
-0.10811035 0.13710545 0.022398788 -0.1083886 -0.1533264 -0.064330086 -0.10838438 -0.05757731
-0.037250496 -0.0135886995 -0.08462364 -0.4490768 0.028868992 -0.08054493 -0.17962736 0.013549093
-0.12678903 0.036022495 -0.15375616 0.0061029852 0.018502017 0.0026349514 -0.17881942 9.37404e-05
0.12588206 -0.01326141 0.12472432 0.08506118 0.20437978 -0.045403797 -0.0179323 -0.090490885
-0.039378732 -0.020898374 0.088877216 -0.037360623 0.002326415 -0.055034935 -0.008807344 -0.05010522
-0.08354945 0.026985541 0.031751186 -0.050369278 0.03630436 0.011226708 0.06083613 -0.024524473
-0.03240934 0.05927244 0.15288118 -0.026084732 0.15389486 0.005903846 -0.09385149 0.050204366
0.00685223 0.19091028 -0.054279536 -0.025050674 -0.024062496 0.065727666 -0.2053846 -0.012855851
00000000: e452 e83d cfac a53d 457e 1c3b 18d7 903d
00000010: 4442 c53e 6b34 ed3d c921 0b3e 355b e63a
00000020: af79 633d 0d92 853e e4b3 b93c 4d69 843e
00000030: acc2 a73b 6a66 4b3c e0f1 b03d 8c74 b53b
00000040: 7c2c 103d 5366 903d ccbc a73d 4871 24b7
00000050: 292e 2a3c df67 bd3d ec0f c73d a3b6 28b6
00000060: 9dc7 ab3d 3059 173d 063f 9a3d b056 5e3e
00000070: 7909 cd3d a0cf 843c 5cbe 8c3e 62e9 be3c
00000080: 91a9 293b 56d2 8fb9 c8d8 0a3d 3d09 f93d
00000090: 3c61 653d e1f6 2a3c 53f1 98b8 bc0e 013e
000000a0: 5b6c c43c 3211 553c f6de fc39 7efc 653c
000000b0: c99a fc3b 75d6 e939 79f2 a73d 8e0b e63c
000000c0: 723c 723b a545 903c f930 053e 70e8 733c
000000d0: a8ce 813d d136 9e3c e74d 6f3c f935 993d
000000e0: 90cf 893a 9764 ec3d f9bb cf3c 1dc1 b43a
000000f0: 76ca bf3b c396 2b3e ce7c 743e f242 e3ba
00000100: 96af bf3d 4452 e03d 0db6 953d 81b7 5b3d
00000110: b16e 883c b12f 573d cadc 4f3d d88e 173c
00000120: d0fc 8c3e 21dc 563e e6fe eb3d 72c4 99b8
00000130: b462 8b3c 3cd6 3f3d edfa 6ab7 0e20 d13b
00000140: d7d7 813d ae9d c13d 67d2 233d cbe6 da3d
00000150: 3c60 d93c eb3a 803d a639 723e dfe1 b73b
00000160: db41 10b8 1b88 fc3b 581f 5c3e 7998 933c
00000170: ac7a 1f3d 4d9d 273e 619e 6c3c 8adb 423e
00000180: fb34 df3d ffa4 a43d 7092 c2bb 6524 8f3d
00000190: 099b debd c215 003e 4bbc 043d 205b bbbc
000001a0: 99e4 613d af95 653d 82ed 1e3c 6ab7 05bb
000001b0: b090 843a 3d0a 153c 4608 ac3d c294 deba
000001c0: 902a c03c 00ad 1a3d 99f4 a43d 762c 46b9
000001d0: 2a9f a6bc 9c9f d53d 48d8 c93d a42c 33b6
000001e0: 7050 993d 1da7 f43c 8195 6d3d dde1 e33d
000001f0: 13ce f03d a515 523c 3cc7 8b3e e213 993c
00000200: de36 5b39 3bad afbb 1271 033d 49f3 2b3c
00000210: 4d84 693d 3a2b 003c f5d9 03b9 8014 153e
00000220: 87ca 963c 56f9 3cbb ffc3 38ba b082 363c
00000230: a621 3dbc c956 66b9 25c6 673d e681 6a3c
00000240: dec8 873a 7a16 813b 4f63 9f3d aa99 97bb
00000250: 266f 923d 1e81 2c3c 7412 c1bb 5423 6f3d
00000260: a62e c038 bca1 e83d 679a d03c e156 5b39
00000270: f6c0 ca3a d2b3 4c3e 6182 a73d cc30 0bbc
00000280: 3c06 133e 61ff 8e3d af68 913d f6a7 2e3d
00000290: 7db7 e4ba 866c 4b3d 5eab 4c3d 44b3 d338
000002a0: c603 f53d c6a6 9d3d 1138 af3d 16ec ceb8
000002b0: 1a2e 013c 5b4e 303d 58cf 86b7 f7a0 1dbc
000002c0: 4354 2e3d 0f70 8e3d 387a 1b3d 2eca 6a3d
000002d0: bd2a 2f3c a930 6f3d 20ca 7d3d a032 0f3b
000002e0: 8c85 0cb8 b344 673a 6356 60bc a370 093c
000002f0: 9181 3b3d ac14 273d bb41 9c3a c21d 2a3e
00000300: f668 ddbd 5f65 0c3e aa7d b73c d8fa ddbd
00000310: 9901 1dbe 7ebf 83bd a1f8 ddbd 2fd6 6bbd
00000320: fa93 18bd 23a3 5ebc 294f adbd 65ed e5be
00000330: aa7e ec3c bef4 a4bd 3cf0 37be 04fd 5d3c
00000340: fcd4 01be 538c 133d 4172 1dbe 8dfb c73b
00000350: 8b91 973c 26af 2c3b 701c 37be 7e96 c438
00000360: 3ae7 003e 6346 59bc 776f ff3d 8e34 ae3d
00000370: ef48 513e 55f9 39bd c2e6 92bc 4953 b9bd
00000380: 984b 21bd 1133 abbc 4205 b63d 7407 19bd
00000390: c476 183b 506c 61bd ae4c 10bc 223b 4dbd
000003a0: f91b abbd c810 dd3c 880d 023d 0450 4ebd
000003b0: e1b3 143d 3af0 373c 4e2f 793d 8ce7 c8bc
000003c0: a8bf 04bd a8c7 723d e28c 1c3e a6af d5bc
000003d0: 9d96 1d3e 0d75 c13b 3635 c0bd 18a3 4d3d
000003e0: ac88 e03b fc7d 433e 3854 5ebd 1237 cdbc
000003f0: b61e c5bc 3a9c 863d 5750 52be 59a1 52bc
