BRIOS/models/model_file/train_largedata/base_brios_280_epoch.pt (torch, 628066 bytes, 26 tensors)

rios_f.RIOS_H.rnn_cell0.weight_ih f4 [384, 2]
00000000: a1f2 ae3d c6ad 51bc 4052 48b4 15c4 e9b3
00000010: a0e6 14b5 1bac 9eb5 6dbd dab8 6877 3338
00000020: f8e8 2e38 e85e a4b8 72c2 c837 3c41 abb8
00000030: 7655 9eb4 0775 8e36 0699 1c3d 615d 693d
00000040: eee6 1738 20dc 5937 05d2 bb3a 3a42 1d3c
00000050: 2142 88b3 56b2 89b2 da78 3ab6 523d c8b6
00000060: 8288 3a3d c786 d53d dc37 6b34 608d 4434
00000070: cd0d b6b1 42d5 adb3 4382 4637 9e54 4337
00000080: a96d c1b7 d5c6 6037 2f37 7237 f498 84b8
00000090: 8bc3 2838 5993 0fb8 04b8 11b3 97a6 82b2
000000a0: a378 7334 9f6d ef34 36e9 0eb7 b80e 5bb7
000000b0: 3460 0eb2 b712 6832 a0c9 4b37 a40b 4537
000000c0: 9218 5037 0776 4637 53b0 8b34 62c5 29b4
000000d0: d8d0 c5bd bc12 5f3d 6c5a 8733 3af7 21b4
000000e0: c15d 6d38 1b4e 1138 8448 26b5 786d 83b4
000000f0: 4fed 4a37 d0b3 4437 d176 623a 3930 8e3a
00000100: 86b6 4b37 9df1 4437 05fc 49b7 c1c3 b837
00000110: 55bb d8b2 922e 91b2 f1ba 4737 10c6 4337
00000120: 6c2f 803b 71a5 a23b 09cb 1d38 581b 74b8
00000130: eaab c036 06f7 dab7 7c11 0a3a 1bcc f839
00000140: f085 dab2 9cae 7f32 1bf7 a936 0551 0034
00000150: 0713 9735 0d6e e2b3 186d 80b5 bb13 e333
00000160: afba 1fb3 d310 8532 b3c7 1b3d 7de8 403e
00000170: 5219 41ba 5ac8 003a 85a0 df37 2bd8 9339
00000180: 08fe a738 37eb 4cb9 adef 253c 83c6 b9bc
00000190: 464b 7e38 6659 8fb8 d255 cdbb 3b94 103d
000001a0: 018b 4eb9 ad2e 5d38 9c97 f738 064b 51b8
000001b0: 56dd 7c39 79a3 6839 0cf5 983a c041 943a
000001c0: de04 8136 6dcb 5f36 8e58 793d 219c 1e3e
000001d0: c483 81b4 bb90 0937 b51d b33d 1060 523d
000001e0: c634 4e37 01a7 4537 2ee3 7c38 48cb 64b8
000001f0: d901 ff37 7f18 9937 92ce 19b4 e83e e4b3
00000200: 5563 4c37 5a27 4537 6031 25b8 a56f 2238
00000210: 78e8 c5bd e05b cbbd 6eb0 d035 d0d6 ec33
00000220: 6802 b7b8 4ed9 8438 03ed 89bd ad00 613d
00000230: 9d2b 11b6 64fc 67b6 7ab0 2fb8 f0d2 5438
00000240: 44a7 44b6 ff48 47b5 cfac b2b9 bf07 0e39
00000250: e480 ed37 e644 0ab8 8265 ccb9 934d 4a3a
00000260: 6bf8 caba 48b0 f3bc ce90 03b6 245b 76b5
00000270: 5bc9 233a 0ee9 0339 17c1 063c ffd4 463a
00000280: add4 c435 33f6 a3b6 4a23 9838 8b20 b3b8
00000290: 38bd 3f3d 3c36 3dbe 9e7e 5637 fe68 4837
000002a0: eda8 03b8 fee7 2638 c182 e3b5 3253 5fb5
000002b0: dea7 b737 ebd3 2e38 d223 4e37 e6b0 4537
000002c0: 759d 98ba 2953 803a b68e 82b7 8285 55b7
000002d0: e313 77b6 7d1c 20b6 5f8f d837 dc6b 9a37
000002e0: 9702 c038 d3a8 b8b8 987f 9bb3 3d79 9cb2
000002f0: bc60 e8b7 d3f3 2337 fe64 063d ac7a 213d
00000300: 6ab2 5e3d c8b6 03be cb84 a937 d4a7 dab7
00000310: 397c cfb8 ec8c 01b9 653a 86ba 93e1 ae3a
00000320: 8691 a3ba b592 0a3b adf5 fab9 ee49 8e3a
00000330: 6802 d0b8 f3a2 b4b5 3b6f 5abd 7513 2a3d
00000340: 1085 35ba f89f 59b9 085e 83bb 2698 dd3c
00000350: 8a3c eeb3 db34 8733 d63a 87b8 f229 a4b6
00000360: a956 ecbd 9295 09be cd4a acb7 e902 9eb7
00000370: b223 b7b7 f06c 62b7 95cd a2b9 e13f a4b8
00000380: 82c1 23b8 a4ae be39 8c5a 6537 f918 7639
00000390: 492d 7eba d13c 8cbb 50e8 70b8 7a81 9fb8
000003a0: 4f8c d4b8 0fc9 f5b8 3dc1 8cb8 8081 fab8
000003b0: a2ba f333 0c01 8f32 1f06 a4b9 610a a5b8
000003c0: 6626 a5b9 331d a5b8 8e8d b4b7 dc31 bfb7
000003d0: f1c5 33bb 89a3 373c 89b7 83b8 a35f 0eb7
000003e0: eda6 f1ba c328 033a a423 ea37 1182 c9b7
000003f0: 3ad2 a3b9 9a52 a4b8 78a3 36bb dee3 d2ba
0.085423715 -0.0127977785 -1.8656374e-07 -1.0885575e-07 -5.54699e-07 -1.1822007e-06 -0.00010430333 4.278813e-05
4.1701802e-05 -7.837807e-05 2.3932404e-05 -8.166066e-05 -2.9491974e-07 4.2455536e-06 0.038231872 0.05697382
3.6216275e-05 1.298546e-05 0.0014329558 0.009598309 -6.345022e-08 -1.6029997e-08 -2.7786505e-06 -5.967603e-06
0.04554034 0.10426097 2.1906402e-07 1.8305354e-07 -5.298466e-09 -8.0947316e-08 1.1832049e-05 1.1642607e-05
-2.3058457e-05 1.3397735e-05 1.44371725e-05 -6.32274e-05 4.0236435e-05 -3.4231085e-05 -3.3927805e-08 -1.5209748e-08
2.2675026e-07 4.459698e-07 -8.518158e-06 -1.3056844e-05 -8.287362e-09 1.3508433e-08 1.2146687e-05 1.1744825e-05
1.2403487e-05 1.18292e-05 2.601906e-07 -1.5811159e-07 -0.096589744 0.054461226 6.302875e-08 -1.5084234e-07
5.659252e-05 3.4643435e-05 -6.1945343e-07 -2.44803e-07 1.2095391e-05 1.1724376e-05 0.0008638921 0.0010848112
1.214224e-05 1.1738765e-05 -1.20392115e-05 2.2025664e-05 -2.5230898e-08 -1.69014e-08 1.190485e-05 1.1669021e-05
0.003911903 0.00496357 3.7620808e-05 -5.81996e-05 5.7420593e-06 -2.6102654e-05 0.00052668876 0.00047454317
-2.5439448e-08 1.4882655e-08 5.0653593e-06 1.1950404e-07 1.1255914e-06 -1.0543963e-07 -9.568494e-07 1.05741e-07
-3.718986e-08 1.5490889e-08 0.038032245 0.18838687 -0.0007366139 0.0004912667 2.665842e-05 0.00028199083
8.0104975e-05 -0.0001954258 0.010127944 -0.022677666 6.0628423e-05 -6.835423e-05 -0.006266334 0.035297614
-0.00019697474 5.2733976e-05 0.00011806117 -4.9899354e-05 0.00024115047 0.00022186142 0.0011669709 0.0011311099
3.845066e-06 3.3347999e-06 0.060875468 0.15489246 -2.4123995e-07 8.199534e-06 0.087459005 0.051361144
1.2290844e-05 1.1780999e-05 6.029306e-05 -5.4548756e-05 3.039923e-05 1.8250428e-05 -1.4324385e-07 -1.062852e-07
1.2182475e-05 1.1751277e-05 -3.938505e-05 3.8727787e-05 -0.096634805 -0.09929633 1.5548555e-06 1.10286805e-07
-8.726568e-05 6.334727e-05 -0.067346595 0.054932285 -2.163207e-06 -3.4568593e-06 -4.1887608e-05 5.074119e-05
-2.9303637e-06 -7.42395e-07 -0.00034079558 0.00013545061 2.8312621e-05 -3.296593e-05 -0.0003898554 0.0007717248
-0.0015485411 -0.029747143 -1.9604809e-06 -9.177477e-07 0.0006247961 0.00012579953 0.008224747 0.00075848395
1.4665035e-06 -4.88644e-06 7.254498e-05 -8.541447e-05 0.046811312 -0.1847772 1.2784874e-05 1.1945374e-05
-3.139016e-05 3.9793544e-05 -1.6950872e-06 -8.319504e-07 2.189347e-05 4.1682197e-05 1.2286897e-05 1.1783302e-05
-0.0011643606 0.0009790409 -1.5563663e-05 -1.2726874e-05 -3.6817444e-06 -2.385844e-06 2.5815969e-05 1.8408457e-05
9.155756e-05 -8.80525e-05 -7.240959e-08 -1.8215923e-08 -2.77016e-05 9.772327e-06 0.032811157 0.03942363
0.054369368 -0.12862694 2.0208206e-05 -2.6065776e-05 -9.8936674e-05 -0.00012354896 -0.0010240792 0.0013342373
-0.0012479282 0.0021144573 -0.00047866759 0.0010855773 -9.918661e-05 -1.345847e-06 -0.053328734 0.041522462
-0.000692443 -0.00020754326 -0.004009012 0.02705009 -1.10937506e-07 6.296042e-08 -6.448261e-05 -4.892464e-06
-0.115399666 -0.13435963 -2.053883e-05 -1.8836423e-05 -2.1831922e-05 -1.3496014e-05 -0.00031052218 -7.832028e-05
-3.9042447e-05 0.0003636974 1.3670546e-05 0.00023469691 -0.0009696079 -0.004279711 -5.7436817e-05 -7.605828e-05
-0.00010135082 -0.000117199605 -6.711714e-05 -0.0001194505 1.13495176e-07 1.6647867e-08 -0.00031285078 -7.869746e-05
-0.00031499862 -7.873252e-05 -2.1523589e-05 -2.2792192e-05 -0.0027431215 0.011208423 -6.280753e-05 -8.486127e-06
-0.0018436589 0.00050033274 2.791157e-05 -2.4021634e-05 -0.00031246414 -7.835515e-05 -0.002786843 -0.0016089638

rios_f.RIOS_H.rnn_cell0.weight_hh f4 [384, 96]
00000000: 8a73 68bd d6a8 3bbd 99eb 913d e9a9 0f3b
00000010: 822d ad3d 70d7 663d 142d 4b3d b279 58bb
00000020: 6bc2 babd 4990 bf3c 72ec 6a38 46c9 df3c
00000030: bca0 023d 6cd8 3c3d 1ddd 633d a608 babd
00000040: 7ad7 353d fde9 ecbc 16af b6bc 9273 333d
00000050: ea2e 873d 5f60 0f3d 3b9f 6a38 2d22 babd
00000060: 102b babd 2544 03bd 6d8e fc3c dc7f 813d
00000070: f2ec 9b3d 1d44 713d d610 ba3d 6440 bebd
00000080: b525 babd 345b 6c3d 4fe7 ceb6 1718 ba3d
00000090: ab68 a4bb c956 913c 03ea 9e3b f978 6ebd
000000a0: 5a9a 2838 792c 873d 580c d83c 98dd 07bd
000000b0: 26ef 7db8 dc9b 453c 21cc f9bc 8acf 26bd
000000c0: 4013 84bd cff9 78bd a1f1 e43c 9273 613a
000000d0: f348 6dbd cd15 3cbd c53b 37bc 7557 f23c
000000e0: 01ab 3e3d be2c 99bc ad99 bbbc 3240 483d
000000f0: d00e babd ff56 edbd 6127 91bb 7826 f338
00000100: 671c babd 5513 473c 3ee1 4b3d b543 84b8
00000110: 3af1 483b 7eae 423d b2ee 9c3b f238 2abd
00000120: 6250 903d d598 47bc 0ec6 e53c 10bc 67bb
00000130: 62c9 aebd 2cdc 8dbd 1d20 1e3d 3ecf 2fbd
00000140: 35c7 babd 11c1 9ebd eadd c33c 2017 babd
00000150: 6406 1dbd 174e 203c 0159 12bd 0b10 babd
00000160: 79f2 c4bc 841f 77bc 1b98 833d a46a 09bd
00000170: 7750 95bd 2e23 08b8 b664 63ba ad5e db3d
00000180: 733a 0434 a7fc 2b34 5ae7 0fb3 a86e 04b5
00000190: 2025 5834 2c63 84b3 4e06 61b4 add0 e534
000001a0: 6c6e a534 9a5c e633 f252 112f 35ae 3cb4
000001b0: 791c fbb4 94ea bbb4 248e 85b4 4875 da34
000001c0: 27c1 a7b2 a4de feb4 1768 09b4 2de9 d2b4
000001d0: 10c8 aab4 af92 0934 a5a0 072f 695e da34
000001e0: 394e da34 3635 8934 841a 75b4 ab5d 01b5
000001f0: 454b 97b4 9324 62b4 5465 dab4 68ff 6e34
00000200: 7a6e da34 ea75 aa32 0cf5 70ad 4266 dab4
00000210: 2528 7e32 6d7c 0ab4 9709 22b4 2524 dbb2
00000220: 835f 472f cc93 36b4 3f4c 82b4 12c2 9c34
00000230: aff5 33af e7ea ceb4 664a 2fb2 a5d7 3fb4
00000240: 503b 8634 b1c4 0a33 c6f8 1534 8129 5cb2
00000250: 4c23 2e32 47be a734 ccc0 e8b4 f198 3bb3
00000260: 763c beb4 9a44 6bb4 e86f a534 228a de33
00000270: 0985 da34 30e1 ab34 4534 10b5 98f6 65af
00000280: da6b da34 398c 3db3 792c 78b4 1eb6 9332
00000290: da0e 4e33 bfcd f3b3 f176 3e33 9cd8 b4b4
000002a0: 21b7 a334 4538 3233 77a7 ca34 0c07 dab3
000002b0: 8e43 ee33 107d 6634 ddfd 3631 0678 ac32
000002c0: 4e35 ef34 8956 48b2 d897 84b4 c334 da34
000002d0: c5f7 f234 8d74 97b4 27ed 4034 e068 da34
000002e0: 164f abb3 9f0c 61b3 7181 7eb4 c10f 9834
000002f0: 3202 1735 1ec1 7cae 9cba e934 6a4b 9ab3
00000300: 8ec1 8635 8c24 db35 e0fd eab4 e4f2 beb5
00000310: 35f8 d733 9be1 cdb4 dd3c dbb5 6033 c535
00000320: e827 0f36 6f7b 7234 5996 61b0 93dc 54b4
00000330: b609 15b6 3ce9 1bb6 e98f b8b5 58a1 2036
00000340: 4cad 7533 c62f f7b5 4b80 0fb4 bab7 e7b5
00000350: 6d77 16b6 53bc bd35 3224 4caf 9692 2036
00000360: 4d88 2036 d64f c135 5480 3db4 dd00 4eb6
00000370: b37d dfb5 26e6 01b6 7c96 20b6 e15e 0136
00000380: 6d9a 2036 c209 2db4 c3ab 1730 6797 20b6
00000390: eb37 2535 678b 9ab4 29d7 a9b5 832e 1e35
000003a0: bc26 e42f 247a d6b5 3100 2cb5 88db 0536
000003b0: 459e 0a2f e064 c9b5 c30d a1b4 fa59 60b3
000003c0: 978d b135 c42d 0d34 7634 ee34 cd99 05b5
000003d0: 473e c534 3c52 c035 943a 8eb5 fb65 5eb5
000003e0: e23e 2fb6 0f4d 2e34 e0eb e135 1d70 8933
000003f0: 48a9 2036 f09b 0b36 95b0 21b6 cc83 902c
-0.05675081 -0.04581531 0.07125015 0.0021921343 0.084559456 0.0563578 0.049603537 -0.003303152
-0.091191135 0.02338423 5.6010154e-05 0.027317654 0.03189157 0.046104833 0.055630792 -0.09083681
0.044394948 -0.028920168 -0.022300284 0.04381139 0.06600745 0.035004016 5.5938242e-05 -0.0908855
-0.09090245 -0.03204741 0.030829633 0.06323215 0.07613553 0.05890285 0.090852425 -0.09289625
-0.09089223 0.057704166 -6.1662063e-06 0.09086626 -0.00501736 0.017741578 0.0048496737 -0.058220837
4.0198072e-05 0.06600279 0.026373073 -0.033170313 -6.0542625e-05 0.012061086 -0.030492844 -0.04072527
-0.06448984 -0.06078511 0.027947249 0.000860029 -0.057930898 -0.04591923 -0.011183684 0.029582718
0.0465498 -0.018698093 -0.022900427 0.048889346 -0.090848565 -0.11588859 -0.004429743 0.00011594308
-0.090874486 0.012150605 0.049775355 -6.306862e-05 0.003066136 0.04752969 0.004789197 -0.041558214
0.07046582 -0.012182434 0.028048541 -0.0035359897 -0.085345045 -0.0692676 0.038604844 -0.04292225
-0.09120027 -0.07751668 0.023909528 -0.09086442 -0.038336173 0.009784243 -0.035729412 -0.09085091
-0.024041401 -0.0150831975 0.06425496 -0.033548966 -0.07290738 -3.245769e-05 -0.000867437 0.10711417
1.2314722e-07 1.601753e-07 -3.3505195e-08 -4.933486e-07 2.0130074e-07 -6.164768e-08 -2.0957052e-07 4.2806406e-07
3.0813987e-07 1.0727054e-07 1.3217141e-10 -1.757224e-07 -4.677311e-07 -3.5002142e-07 -2.48766e-07 4.0690998e-07
-1.9529194e-08 -4.747318e-07 -1.2796987e-07 -3.9285206e-07 -3.1810532e-07 1.2812482e-07 1.2335251e-10 4.0674357e-07
4.066258e-07 2.5556955e-07 -2.282705e-07 -4.819255e-07 -2.8180708e-07 -2.1061196e-07 -4.067939e-07 2.2258394e-07
4.0686047e-07 1.9844226e-08 -1.3696832e-11 -4.0680067e-07 1.4793874e-08 -1.2897517e-07 -1.5090914e-07 -2.5511392e-08
1.8132877e-10 -1.7003839e-07 -2.4269863e-07 2.919847e-07 -1.636724e-10 -3.8541404e-07 -1.0203257e-08 -1.7866712e-07
2.50026e-07 3.230952e-08 1.396721e-07 -1.2815122e-08 1.0136159e-08 3.124462e-07 -4.3353646e-07 -4.367843e-08
-3.543425e-07 -2.1911038e-07 3.0815067e-07 1.0362807e-07 4.070246e-07 3.2015078e-07 -5.372024e-07 -2.0915036e-10
4.0684137e-07 -4.4132523e-08 -2.3112979e-07 1.719587e-08 4.797662e-08 -1.1352994e-07 4.4346e-08 -3.3685217e-07
3.049436e-07 4.149503e-08 3.774728e-07 -1.0152698e-07 1.1095027e-07 2.1465917e-07 2.662879e-09 2.0078016e-08
4.4556003e-07 -1.1661208e-08 -2.4697397e-07 4.0644053e-07 4.525629e-07 -2.8210744e-07 1.7967669e-07 4.068197e-07
-7.977194e-08 -5.2398374e-08 -2.3702684e-07 2.832367e-07 5.625508e-07 -5.746969e-11 4.3535408e-07 -7.1849016e-08
1.004011e-06 1.6327408e-06 -4.3770615e-07 -1.4226794e-06 1.0056866e-07 -3.8348375e-07 -1.6334485e-06 1.4692596e-06
2.133189e-06 2.2582911e-07 -8.206818e-10 -1.9824283e-07 -2.2208383e-06 -2.323256e-06 -1.3750952e-06 2.3935772e-06
5.720112e-08 -1.8416838e-06 -1.3364586e-07 -1.7264313e-06 -2.2421257e-06 1.4136407e-06 -1.8566551e-10 2.3927182e-06
2.3921195e-06 1.4402856e-06 -1.7648682e-07 -3.0696895e-06 -1.6651378e-06 -1.9356462e-06 -2.3929451e-06 1.9277725e-06
2.3931746e-06 -1.611543e-07 5.517757e-10 -2.3929986e-06 6.154866e-07 -2.8786164e-07 -1.2654101e-06 5.892727e-07
4.150048e-10 -1.597979e-06 -6.407527e-07 1.9946328e-06 1.2607256e-10 -1.5005025e-06 -2.99986e-07 -5.2235897e-08
1.3228736e-06 1.3148298e-07 4.4369125e-07 -4.977017e-07 3.6739422e-07 1.4329048e-06 -1.0596873e-06 -8.2849846e-07
-2.6113635e-06 1.6233047e-07 1.6832455e-06 6.399953e-08 2.3940393e-06 2.0803382e-06 -2.4093654e-06 4.1073586e-12

rios_f.RIOS_H.rnn_cell0.bias_ih f4 [384]
00000000: 4091 2f3d 42c8 14b5 f9f5 57b6 c20d 23b8
00000010: 07c4 c2b7 b0ad 10b8 60b0 f035 dddc d93d
00000020: f175 8e37 eeb2 d33b 7f58 ec33 8aa6 50b6
00000030: 71d4 223e c23b 1132 983d 8534 71fd 4837
00000040: 74e0 72b7 c0a0 36b7 c7bb 73b8 376d d2b1
00000050: d524 b635 3dcf 25b7 64d9 0ab3 1940 4e37
00000060: 0d3f 5237 11e4 7535 2c2c c83d 589d 7d33
00000070: 4763 14b7 08b8 8bb5 1b35 4d37 1274 4e3a
00000080: 0fff 4d37 a7cb adb7 f40d 32b3 ab23 4a37
00000090: a176 813b a5e8 fbb6 dab0 4cb7 d264 a539
000000a0: dae9 45b2 b4d7 b0b5 36f0 8335 06fe e1b5
000000b0: 3f5f b3b3 4d87 df3d c53f 963a 50d9 3f38
000000c0: 43a8 1538 2dc1 ee3d c846 60b7 da21 823d
000000d0: ec63 2039 d07b 9237 c600 fe38 603e 4e3a
000000e0: f7eb 8d36 8f20 303e 81f6 b835 08df 983d
000000f0: 4a54 5037 5358 84b6 1e8a ba36 94f2 ccb3
00000100: 74af 4e37 9ba0 eeb7 4182 4a3e 37de 2236
00000110: e31c ddb8 3107 083e f6a2 06b6 355f 1cb8
00000120: 777e 2bb7 399a e3b8 9c5a 72b7 1769 273a
00000130: bb42 f03d f76c b3b5 a075 0839 0115 be3b
00000140: 0041 9636 9011 0037 370f 223e 8afa 5737
00000150: ca1a a0b6 1a0a 64b6 5ddf d236 8a08 5037
00000160: 5998 9f39 e2c7 67b7 bcda 8fb6 449c 9fb7
00000170: cd6d abb7 5df4 33b3 8e38 92b7 0b66 043e
00000180: 09a9 8dbd 3612 2db8 1848 3ab9 277e 00ba
00000190: dc95 ecb8 3ed3 0fb9 3d70 f8b8 02f2 dd3a
000001a0: 6c46 63b8 b850 623c 8d44 a033 4693 1db9
000001b0: 0193 43bc aa2c 9db8 b887 b2b8 9f27 d9b8
000001c0: 5aea 3039 5e3c 34b9 d279 47ba 3544 00b9
000001d0: 99a2 f2b8 dc4b 1cb9 dcc0 dd33 cd70 d8b8
000001e0: 955a d7b8 33d2 2ab8 ce36 993a 47d0 a9b8
000001f0: 0677 223a c5f8 95b8 0463 d8b8 0c76 a93b
00000200: 89e3 d7b8 1355 d7b8 b1e6 45b4 d267 d8b8
00000210: ac37 fa3b f81c 51b9 78bd 3437 27d3 c43a
00000220: 0d84 b433 f166 91b8 656b 52b9 8678 78b8
00000230: 6c05 c433 8b7a b6bc dd11 ac3b cd79 c63a
00000240: 6728 4f39 e7d8 0cbd 1651 8a39 f423 0bbd
00000250: 7a10 213b 1c04 3f39 99a0 88b9 d02c b13b
00000260: 759e 08b9 5a33 0d3b dc3a fab8 9c87 d93b
00000270: 8c70 d8b8 c720 35b9 a3ad a0b8 8beb a134
00000280: bc3c d8b8 ff50 44b8 9deb eebc d263 a0b8
00000290: 10f0 e339 6be3 90bd b0dd 07b9 412f 4e3a
000002a0: 8dc5 a7b8 6e26 9c3a 0d30 e7b6 2843 36ba
000002b0: 795d f6bc 0532 aeb8 8fcd 303b 6c54 413c
000002c0: e03f e1b8 0dc7 ad39 97f7 c03d 6544 d6b8
000002d0: 4075 aab9 dde8 f7b8 178b 98b8 81ed d7b8
000002e0: fe94 363b ab45 dbb8 10ec c6b8 83fa ef39
000002f0: c40e 06b9 fcf3 b5b3 c927 4db8 88a2 a4bc
00000300: d44e f03c c01e f7b4 047b b338 40a6 4db9
00000310: 63d7 d1ba b0a1 23ba 118c 4cb9 8201 973c
00000320: 7921 d839 51ff dc3b ee7b a1b7 4684 46b9
00000330: 6232 99bc 722d f2b8 297a 0038 f845 7d39
00000340: af80 d5b7 c1c8 393a 950d 7dba 0328 19b9
00000350: 1ef4 24b9 a06b b438 4632 12b7 5c60 7e39
00000360: 7459 7f39 72cd 2339 40c3 8ebc 15ed 14b9
00000370: 4118 c6ba e6d1 19b9 f741 7eb9 e851 de3b
00000380: 8f69 7e39 929a d038 0c59 9437 1486 7db9
00000390: 20fd c6bb 1820 303a 467d a7b9 c86c 7a3b
000003a0: ca05 22b6 2da7 5739 52d8 50b9 45e0 b638
000003b0: 6bf1 2237 64b8 29be 8c16 393b d14a 933a
000003c0: 66bf 1f3b fb2e e8bd 9eec e0ba 06e3 7d3c
000003d0: 624d 5bba 0bb5 273b 7cb6 65bb 3e77 dbbb
000003e0: a446 33b9 d1db c23e 032d 4639 2fd9 313c
000003f0: 5107 7f39 50de 553a ca96 a2b9 aac2 f536
0.04286313 -5.542571e-07 -3.2180671e-06 -3.887504e-05 -2.3217885e-05 -3.4494034e-05 1.7932725e-06 0.106378295
1.698264e-05 0.006460539 1.1005704e-07 -3.1091354e-06 0.15901352 8.453698e-09 2.4817996e-07 1.1979938e-05
-1.4476584e-05 -1.0885473e-05 -5.8110596e-05 -6.1242207e-09 1.3570776e-06 -9.883018e-06 -3.2328344e-08 1.2293481e-05
1.2531656e-05 9.160149e-07 0.0977405 5.9049256e-08 -8.844602e-06 -1.0409867e-06 1.2231317e-05 0.0007875572
1.2278338e-05 -2.071804e-05 -4.1456545e-08 1.2048443e-05 0.0039509092 -7.5074663e-06 -1.2200524e-05 0.0003154637
-1.1520081e-08 -1.31758e-06 9.830171e-07 -1.6837737e-06 -8.352662e-08 0.109144785 0.0011463097 4.5740337e-05
3.5681074e-05 0.11657939 -1.33679205e-05 0.06354113 0.00015296013 1.7462211e-05 0.00012111808 0.0007867571
4.2295974e-06 0.1719992 1.378081e-06 0.07464415 1.2417391e-05 -3.944189e-06 5.559311e-06 -9.543615e-08
1.2319408e-05 -2.8446599e-05 0.1977625 2.4269227e-06 -0.00010543482 0.13283993 -2.0062412e-06 -3.7281967e-05
-1.0221839e-05 -0.0001085293 -1.4445421e-05 0.0006386204 0.11731478 -1.3368252e-06 0.0001301379 0.0058008437
4.4779154e-06 7.633484e-06 0.15826117 1.2873332e-05 -4.7714902e-06 -3.3980527e-06 6.2844906e-06 1.2399754e-05
0.0003044035 -1.3815212e-05 -4.287196e-06 -1.9027044e-05 -2.0435918e-05 -4.1898932e-08 -1.7430892e-05 0.12929551
-0.069170065 -4.1263374e-05 -0.000177652 -0.00049016107 -0.000112812704 -0.00013716237 -0.000118464675 0.0016933086
-5.4186603e-05 0.01381319 7.46305e-08 -0.0001502755 -0.011936904 -7.494663e-05 -8.512981e-05 -0.00010354746
0.00016871971 -0.00017188626 -0.00076094 -0.0001223244 -0.000115697454 -0.00014905579 1.03261954e-07 -0.000103206934
-0.00010268871 -4.072692e-05 0.0011689307 -8.097343e-05 0.00061975454 -7.1512106e-05 -0.00010318126 0.005171543
-0.000102943806 -0.00010267845 -1.843098e-07 -0.00010319021 0.007636031 -0.00019942585 1.077295e-05 0.0015016542
8.405923e-08 -6.933313e-05 -0.00020067168 -5.9240054e-05 9.1279475e-08 -0.02227523 0.005251153 0.0015142501
0.0001975611 -0.03438654 0.00026381825 -0.033969834 0.0024576471 0.0001821671 -0.00026059596 0.0054069534
-0.00013029 0.00215455 -0.000119318924 0.0066384804 -0.00010320646 -0.00017273716 -7.661737e-05 3.0159967e-07
-0.00010310995 -4.6805475e-05 -0.029165084 -7.6479875e-05 0.00043475674 -0.070746265 -0.00012957188 0.0007865318
-7.999977e-05 0.0011913308 -6.8899303e-06 -0.0006952756 -0.030073868 -8.3062834e-05 0.0026977991 0.011799913
-0.00010740734 0.00033145436 0.09422224 -0.00010217055 -0.00032512285 -0.00011821252 -7.273832e-05 -0.000102962375
0.0027859802 -0.000104557104 -9.485346e-05 0.00045772278 -0.00012784736 -8.47285e-08 -4.891286e-05 -0.020097032
0.029334463 -4.602971e-07 8.5582986e-05 -0.00019612256 -0.0016009625 -0.000624205 -0.00019507135 0.018433336
0.0004122367 0.0067443033 -1.9250405e-05 -0.00018932027 -0.018700782 -0.00011547924 3.063135e-05 0.00024154026
-2.5451502e-05 0.00070871046 -0.0009653208 -0.00014606123 -0.000157312 8.6031156e-05 -8.713983e-06 0.00024259224
0.00024352019 0.00015621426 -0.017427087 -0.000142027 -0.0015113429 -0.0001466941 -0.00024247901 0.0067846663
0.00024262651 9.947004e-05 1.768444e-05 -0.00024177908 -0.0060726553 0.00067186495 -0.00031946058 0.0038211811
-2.414325e-06 0.00020566276 -0.00019917011 8.72021e-05 9.712162e-06 -0.16574246 0.0028242199 0.0011237507
0.0024375557 -0.11337086 -0.0017160361 0.015496021 -0.0008365718 0.0025590088 -0.0035051396 -0.0066975644
-0.00017097086 0.38058332 0.0001889952 0.010855003 0.0002432142 0.00081584323 -0.00031011394 7.324231e-06

rios_f.RIOS_H.rnn_cell0.bias_hh f4 [384]
00000000: 4091 2f3d 42c8 14b5 f9f5 57b6 c20d 23b8
00000010: 07c4 c2b7 b0ad 10b8 60b0 f035 dddc d93d
00000020: f175 8e37 eeb2 d33b 7f58 ec33 8aa6 50b6
00000030: 71d4 223e c23b 1132 983d 8534 71fd 4837
00000040: 74e0 72b7 c0a0 36b7 c7bb 73b8 376d d2b1
00000050: d524 b635 3dcf 25b7 64d9 0ab3 1940 4e37
00000060: 0d3f 5237 11e4 7535 2c2c c83d 589d 7d33
00000070: 4763 14b7 08b8 8bb5 1b35 4d37 1274 4e3a
00000080: 0fff 4d37 a7cb adb7 f40d 32b3 ab23 4a37
00000090: a176 813b a5e8 fbb6 dab0 4cb7 d264 a539
000000a0: dae9 45b2 b4d7 b0b5 36f0 8335 06fe e1b5
000000b0: 3f5f b3b3 4d87 df3d c53f 963a 50d9 3f38
000000c0: 43a8 1538 2dc1 ee3d c846 60b7 da21 823d
000000d0: ec63 2039 d07b 9237 c600 fe38 603e 4e3a
000000e0: f7eb 8d36 8f20 303e 81f6 b835 08df 983d
000000f0: 4a54 5037 5358 84b6 1e8a ba36 94f2 ccb3
00000100: 74af 4e37 9ba0 eeb7 4182 4a3e 37de 2236
00000110: e31c ddb8 3107 083e f6a2 06b6 355f 1cb8
00000120: 777e 2bb7 399a e3b8 9c5a 72b7 1769 273a
00000130: bb42 f03d f76c b3b5 a075 0839 0115 be3b
00000140: 0041 9636 9011 0037 370f 223e 8afa 5737
00000150: ca1a a0b6 1a0a 64b6 5ddf d236 8a08 5037
00000160: 5998 9f39 e2c7 67b7 bcda 8fb6 449c 9fb7
00000170: cd6d abb7 5df4 33b3 8e38 92b7 0b66 043e
00000180: 09a9 8dbd 3612 2db8 1848 3ab9 277e 00ba
00000190: dc95 ecb8 3ed3 0fb9 3d70 f8b8 02f2 dd3a
000001a0: 6c46 63b8 b850 623c 8d44 a033 4693 1db9
000001b0: 0193 43bc aa2c 9db8 b887 b2b8 9f27 d9b8
000001c0: 5aea 3039 5e3c 34b9 d279 47ba 3544 00b9
000001d0: 99a2 f2b8 dc4b 1cb9 dcc0 dd33 cd70 d8b8
000001e0: 955a d7b8 33d2 2ab8 ce36 993a 47d0 a9b8
000001f0: 0677 223a c5f8 95b8 0463 d8b8 0c76 a93b
00000200: 89e3 d7b8 1355 d7b8 b1e6 45b4 d267 d8b8
00000210: ac37 fa3b f81c 51b9 78bd 3437 27d3 c43a
00000220: 0d84 b433 f166 91b8 656b 52b9 8678 78b8
00000230: 6c05 c433 8b7a b6bc dd11 ac3b cd79 c63a
00000240: 6728 4f39 e7d8 0cbd 1651 8a39 f423 0bbd
00000250: 7a10 213b 1c04 3f39 99a0 88b9 d02c b13b
00000260: 759e 08b9 5a33 0d3b dc3a fab8 9c87 d93b
00000270: 8c70 d8b8 c720 35b9 a3ad a0b8 8beb a134
00000280: bc3c d8b8 ff50 44b8 9deb eebc d263 a0b8
00000290: 10f0 e339 9de2 90bd b0dd 07b9 412f 4e3a
000002a0: 8dc5 a7b8 6e26 9c3a 0d30 e7b6 2843 36ba
000002b0: 795d f6bc 0532 aeb8 8fcd 303b 6c54 413c
000002c0: e03f e1b8 0dc7 ad39 97f7 c03d 6544 d6b8
000002d0: 4075 aab9 dde8 f7b8 178b 98b8 81ed d7b8
000002e0: fe94 363b ab45 dbb8 10ec c6b8 83fa ef39
000002f0: c40e 06b9 fcf3 b5b3 c927 4db8 8ca4 a4bc
00000300: 009a 193d c01e f7b4 047b b338 40a6 4db9
00000310: 63d7 d1ba b0a1 23ba 118c 4cb9 a074 923c
00000320: 7921 d839 51ff dc3b ee7b a1b7 4684 46b9
00000330: ef95 27bd 722d f2b8 297a 0038 f845 7d39
00000340: af80 d5b7 c1c8 393a 950d 7dba 0328 19b9
00000350: 1ef4 24b9 a06b b438 4632 12b7 5c60 7e39
00000360: 7459 7f39 72cd 2339 2a07 f7bc 15ed 14b9
00000370: 4118 c6ba e6d1 19b9 f741 7eb9 e851 de3b
00000380: 8f69 7e39 929a d038 0c59 9437 1486 7db9
00000390: 20fd c6bb 1820 303a 467d a7b9 c86c 7a3b
000003a0: ca05 22b6 2da7 5739 52d8 50b9 45e0 b638
000003b0: 6bf1 2237 d900 41be 8c16 393b d14a 933a
000003c0: 66bf 1f3b c612 d5bd 9eec e0ba 9875 6e3c
000003d0: 624d 5bba 0bb5 273b 7cb6 65bb 3e77 dbbb
000003e0: a446 33b9 9223 c13e 032d 4639 3e17 8e3c
000003f0: 5107 7f39 50de 553a ca96 a2b9 aac2 f536
0.04286313 -5.542571e-07 -3.2180671e-06 -3.887504e-05 -2.3217885e-05 -3.4494034e-05 1.7932725e-06 0.106378295
1.698264e-05 0.006460539 1.1005704e-07 -3.1091354e-06 0.15901352 8.453698e-09 2.4817996e-07 1.1979938e-05
-1.4476584e-05 -1.0885473e-05 -5.8110596e-05 -6.1242207e-09 1.3570776e-06 -9.883018e-06 -3.2328344e-08 1.2293481e-05
1.2531656e-05 9.160149e-07 0.0977405 5.9049256e-08 -8.844602e-06 -1.0409867e-06 1.2231317e-05 0.0007875572
1.2278338e-05 -2.071804e-05 -4.1456545e-08 1.2048443e-05 0.0039509092 -7.5074663e-06 -1.2200524e-05 0.0003154637
-1.1520081e-08 -1.31758e-06 9.830171e-07 -1.6837737e-06 -8.352662e-08 0.109144785 0.0011463097 4.5740337e-05
3.5681074e-05 0.11657939 -1.33679205e-05 0.06354113 0.00015296013 1.7462211e-05 0.00012111808 0.0007867571
4.2295974e-06 0.1719992 1.378081e-06 0.07464415 1.2417391e-05 -3.944189e-06 5.559311e-06 -9.543615e-08
1.2319408e-05 -2.8446599e-05 0.1977625 2.4269227e-06 -0.00010543482 0.13283993 -2.0062412e-06 -3.7281967e-05
-1.0221839e-05 -0.0001085293 -1.4445421e-05 0.0006386204 0.11731478 -1.3368252e-06 0.0001301379 0.0058008437
4.4779154e-06 7.633484e-06 0.15826117 1.2873332e-05 -4.7714902e-06 -3.3980527e-06 6.2844906e-06 1.2399754e-05
0.0003044035 -1.3815212e-05 -4.287196e-06 -1.9027044e-05 -2.0435918e-05 -4.1898932e-08 -1.7430892e-05 0.12929551
-0.069170065 -4.1263374e-05 -0.000177652 -0.00049016107 -0.000112812704 -0.00013716237 -0.000118464675 0.0016933086
-5.4186603e-05 0.01381319 7.46305e-08 -0.0001502755 -0.011936904 -7.494663e-05 -8.512981e-05 -0.00010354746
0.00016871971 -0.00017188626 -0.00076094 -0.0001223244 -0.000115697454 -0.00014905579 1.03261954e-07 -0.000103206934
-0.00010268871 -4.072692e-05 0.0011689307 -8.097343e-05 0.00061975454 -7.1512106e-05 -0.00010318126 0.005171543
-0.000102943806 -0.00010267845 -1.843098e-07 -0.00010319021 0.007636031 -0.00019942585 1.077295e-05 0.0015016542
8.405923e-08 -6.933313e-05 -0.00020067168 -5.9240054e-05 9.1279475e-08 -0.02227523 0.005251153 0.0015142501
0.0001975611 -0.03438654 0.00026381825 -0.033969834 0.0024576471 0.0001821671 -0.00026059596 0.0054069534
-0.00013029 0.00215455 -0.000119318924 0.0066384804 -0.00010320646 -0.00017273716 -7.661737e-05 3.0159967e-07
-0.00010310995 -4.6805475e-05 -0.029165084 -7.6479875e-05 0.00043475674 -0.07074473 -0.00012957188 0.0007865318
-7.999977e-05 0.0011913308 -6.8899303e-06 -0.0006952756 -0.030073868 -8.3062834e-05 0.0026977991 0.011799913
-0.00010740734 0.00033145436 0.09422224 -0.00010217055 -0.00032512285 -0.00011821252 -7.273832e-05 -0.000102962375
0.0027859802 -0.000104557104 -9.485346e-05 0.00045772278 -0.00012784736 -8.47285e-08 -4.891286e-05 -0.020097993
0.03750038 -4.602971e-07 8.5582986e-05 -0.00019612256 -0.0016009625 -0.000624205 -0.00019507135 0.017877877
0.0004122367 0.0067443033 -1.9250405e-05 -0.00018932027 -0.040914472 -0.00011547924 3.063135e-05 0.00024154026
-2.5451502e-05 0.00070871046 -0.0009653208 -0.00014606123 -0.000157312 8.6031156e-05 -8.713983e-06 0.00024259224
0.00024352019 0.00015621426 -0.030154783 -0.000142027 -0.0015113429 -0.0001466941 -0.00024247901 0.0067846663
0.00024262651 9.947004e-05 1.768444e-05 -0.00024177908 -0.0060726553 0.00067186495 -0.00031946058 0.0038211811
-2.414325e-06 0.00020566276 -0.00019917011 8.72021e-05 9.712162e-06 -0.1884798 0.0028242199 0.0011237507
0.0024375557 -0.104039714 -0.0017160361 0.014554404 -0.0008365718 0.0025590088 -0.0035051396 -0.0066975644
-0.00017097086 0.3772245 0.0001889952 0.017345067 0.0002432142 0.00081584323 -0.00031011394 7.324231e-06

rios_f.RIOS_H.rnn_cell1.weight_ih f4 [384, 2]
00000000: d2fb 2d3c d6b5 073c 6de8 a1bb d702 0abd
00000010: 58f0 313c 7f4c fb39 052a 183d f099 8e3c
00000020: 57b6 8c3c e8d0 04bc a133 56bb fd80 27bc
00000030: 77be 0f3d 9018 e83b b02c da3c 2317 5c3b
00000040: 38da 32bb 8e25 7b3b 6b37 853b f0a7 1d3b
00000050: d863 9d36 82a0 1cb5 9f52 2fbc 8ee9 403c
00000060: 4138 b33c e3d8 16bd e9cf 5b3c bacd d4bc
00000070: 5807 97bc 5555 18bd 16a0 f8bb 0f2d 69bc
00000080: 7e53 903c 94e3 743b 65ee c3bc a9b3 37bd
00000090: 0338 24bc 7e63 11bd 9882 883c f879 833c
000000a0: 9020 2038 d751 f0bc 5e98 89bc ae21 71bd
000000b0: 85a2 54b5 94d9 6533 fe4e f7bb aa9c 60bc
000000c0: 15a8 d9bb cfbb 58bc 8325 c1bb 7ab2 ccbb
000000d0: b978 d2bc 9c6f 60bd f193 13bc 31f1 dbbc
000000e0: d036 e9bc f3e1 68bc a02b 4fbd cea9 41bd
000000f0: 63cb ecbb 8d03 68bc 329a 833b db57 47bc
00000100: 812d e6bb 347a 5bbc 59aa c83b a3f1 1cbd
00000110: 1520 be35 1539 1635 b653 edbb e4a2 66bc
00000120: 0309 2fbc 2aeb 3dbd 5d92 8abd 3fb1 ed3b
00000130: 23ad 3cbc 7aee 81bc bb80 093d 6797 f93b
00000140: 5876 11b6 c995 01b5 c76d 3fbc 71ee 34bc
00000150: 6d87 03bd a05b d5bb f856 43ba e88f 8cbc
00000160: 7564 4334 b85a 3235 98f8 e439 b8de dbbc
00000170: 3c97 a93c bb80 b43b 290e c63b 79c9 2cbc
00000180: 1204 cebb 7125 4fbc 845e 6cbc 018b b1bc
00000190: 35a7 0abc 0950 97bc e785 3c3d 0df9 21bb
000001a0: 2c8f 7b3c 2271 003b 9efb d43a 77c9 5c3c
000001b0: 0f6b 2dbd 500d 12bd 1c18 b2bb f654 86bb
000001c0: 6203 6e3c 75cf 823c 37d1 94bc 69a5 76bd
000001d0: 8b65 773c b41d ee3b b495 30bd f01d dd3c
000001e0: 48c5 eebb 46e3 60bc 0e64 d03c b144 6739
000001f0: 85e1 63bc 2793 87bc 6dd5 08b7 4cd9 6cb5
00000200: a799 e8bb 8884 5dbc 5389 ab3a 354c a6bc
00000210: dad4 4c3c a797 813d c02c f83a aac3 cebc
00000220: aca7 443d a55c 01bc 5e15 42bc 2fd1 383c
00000230: 58f1 553a beb9 86bc 87fc d93c 8d37 533d
00000240: 5537 013c 6d12 cbbc 1f72 5c3c 3a0c 88bc
00000250: 8572 393d 7d72 c73c 1aef 4b3b 7fd0 c2ba
00000260: 11f7 1a3d 2e72 363c c5b3 563c fec2 77bb
00000270: e946 a3bc b23a afbd d011 533c bdcd a1bc
00000280: f2bf 3c3c 803c 343b e917 41bb 0d9b 48bc
00000290: 8c2a 443e 93e0 363d 1c0f b4bb 39fd 55bc
000002a0: ccaa 4abc b41f 10bc 3a1a 99bb 91eb 21bc
000002b0: fe06 933b b71f cf3b e54b debb 0efd 5cbc
000002c0: b7e9 deb9 8e86 ab3b 83d3 e83b e219 cbbb
000002d0: 2317 4d3c aa08 a2bc a830 1c3c 0052 913a
000002e0: 25f1 c23b cb92 08bc 613a 2335 5f68 28b6
000002f0: 0c6b eb39 78db 4e3b f064 e3bc 1e3b 97bd
00000300: 3aab 6c3c ecee 883d 2edd c339 e9e4 90bb
00000310: 274c 64bc ef24 8ebd 4a1e 873c 6469 8abc
00000320: 20b7 443c 89ff 9a3c c83e b8bc 4b18 ec3c
00000330: a433 6e3c 3c04 693d a30d cabb 160b 9f3d
00000340: fcfb f83b 45fe b73b 9486 8f3d 2593 f73b
00000350: b4bd c636 1268 c135 9163 f43b 1d09 76bd
00000360: 4c12 f4bb d4d0 b0bd 84be 88bc 725e 15bd
00000370: 5f56 6e3a 83d3 deba 1c79 b83b b0b9 83bb
00000380: 93a2 a6bc 40d1 f03c dc4c db3c 6f09 16bc
00000390: 816e 393c 8e6e f5bc f9a2 75bd 6d71 27bc
000003a0: 39e0 453d 83d8 b6bb 348e 993c 1f7f 073d
000003b0: b5bf 9cb3 2470 4935 3b2c b33b 5afa 82bb
000003c0: 6120 b73b 3651 7fbb f263 4dbc 2e93 22bd
000003d0: 6487 473d 3609 643d 499c 7cbb daba 55bd
000003e0: d04c d43a 32dc 293c f3b9 0a3d fe79 62bd
000003f0: dd48 af3b ea95 8dbb 4693 8d3c 42c4 603b
0.010619121 0.008283099 -0.0049410374 -0.033694115 0.010860525 0.00047931445 0.037149448 0.017407387
0.01717679 -0.008106448 -0.0032684582 -0.010223624 0.03509375 0.007083006 0.026632637 0.0033583126
-0.0027290713 0.0038321945 0.004065444 0.0024056397 4.690588e-06 -5.83481e-07 -0.010700851 0.011774434
0.02187741 -0.036827933 0.013416269 -0.025977004 -0.018436119 -0.037190754 -0.007587443 -0.014231934
0.017617937 0.0037367092 -0.023917386 -0.04484907 -0.01002312 -0.035495274 0.016663834 0.01604937
3.81773e-05 -0.0293359 -0.016796287 -0.05887001 -7.921265e-07 5.3516104e-08 -0.0075472584 -0.013709227
-0.0066423514 -0.013228371 -0.0058943643 -0.006246862 -0.02569233 -0.05479394 -0.00900744 -0.026848407
-0.02846852 -0.014214027 -0.050578713 -0.04728108 -0.007226394 -0.014161003 0.0040161842 -0.0121669425
-0.0070244675 -0.013395835 0.0061238226 -0.03831638 1.416544e-06 5.596242e-07 -0.007242645 -0.014076922
-0.010683301 -0.046366848 -0.06766198 0.0072537954 -0.011515888 -0.015860785 0.033570033 0.0076169255
-2.1675569e-06 -4.827421e-07 -0.011683888 -0.011043177 -0.032111574 -0.0065111667 -0.0007451619 -0.017158464
1.8197336e-07 6.644218e-07 0.00043672766 -0.026839599 0.020701997 0.00550851 0.0060441685 -0.010546082
-0.0062871063 -0.012643204 -0.014426831 -0.021672728 -0.008462717 -0.01847078 0.046026137 -0.0024715096
0.015353959 0.0019598682 0.0016249304 0.013475767 -0.042338427 -0.035657227 -0.005435003 -0.0040994836
0.014527174 0.015968064 -0.018166168 -0.06021634 0.015099893 0.0072667245 -0.043111518 0.026991814
-0.0072867014 -0.013726061 0.025438335 0.00022055466 -0.0139087485 -0.01654966 -8.155924e-06 -8.823306e-07
-0.007098395 -0.013520367 0.001308719 -0.02030001 0.01250192 0.063277535 0.0018934235 -0.025239784
0.048011467 -0.007895623 -0.011845915 0.011280342 0.0008161268 -0.01644599 0.026609672 0.05156665
0.007886727 -0.02478906 0.013454943 -0.016607393 0.04527523 0.024346584 0.0031117857 -0.0014863162
0.037833277 0.011135621 0.013104384 -0.0037805433 -0.019931274 -0.08556117 0.012882665 -0.019751424
0.011520373 0.002750188 -0.0029463714 -0.012243998 0.19156855 0.044647764 -0.0054949652 -0.013060861
-0.012369823 -0.008796621 -0.004672316 -0.009882824 0.0044869175 0.0063209194 -0.0067839497 -0.013488067
-0.0004251727 0.005234546 0.0071052923 -0.006198154 0.012517723 -0.019779522 0.009533085 0.001108706
0.005949157 -0.008335779 6.0807184e-07 -2.5094703e-06 0.0004490245 0.003156392 -0.027758092 -0.073843226
0.0144451205 0.06686196 0.0003735809 -0.0044218195 -0.013934172 -0.06940638 0.016493935 -0.016895957
0.012006551 0.018920677 -0.022490874 0.028820178 0.014538679 0.056888804 -0.0061661764 0.07765786
0.0075983983 0.005615028 0.070080906 0.007555383 5.922944e-06 1.4409909e-06 0.0074581583 -0.060067285
-0.00744847 -0.08633581 -0.016692407 -0.036467023 0.000909185 -0.0017000291 0.0056296717 -0.0040199384
-0.020341193 0.029396653 0.026770048 -0.009157523 0.01131785 -0.029959943 -0.059969876 -0.010219914
0.04830954 -0.0055800094 0.018744566 0.033080216 -7.2991874e-08 7.504152e-07 0.005467919 -0.0039971294
0.0055885767 -0.0038958318 -0.012536036 -0.039691143 0.048713103 0.055672847 -0.0038545302 -0.05218015
0.0016197208 0.01036744 0.03386874 -0.055292122 0.005349262 -0.0043208497 0.01728214 0.0034296666

rios_f.RIOS_H.rnn_cell1.weight_hh f4 [384, 96]
00000000: 30ef 60b9 b8ee adbd 4c8e a7bb 218c 8b3c
00000010: 5fdf 703d 8791 163d e318 6a3d 19c6 febc
00000020: 639a 4abd 2cd3 033d c196 2fb8 1f5c 8ebb
00000030: 50a5 eb3c 63dc 333d 7375 91bc 968f 8fbd
00000040: 420f 353d 54b1 01bd 18d9 053d 58c1 a33c
00000050: c087 833d 0404 c5ba a284 5d38 f18d 8fbd
00000060: bd8b 8fbd fd86 0dbc 60d8 d7bc f985 623d
00000070: 6a8c 883d 1845 703d 1b92 8f3d 96d4 6fbd
00000080: b09b 8fbd baea 613d 0d4d ef37 c791 8f3d
00000090: ab05 69ba fdf1 273c e57a 823c 6df7 85bd
000000a0: eedf 8938 3258 6e3d daad 3f3c 14d7 3bbd
000000b0: 8c35 73b8 48e9 64bc 3978 fd3a da89 00bd
000000c0: 5b09 62bd a4cc e2bc db4e b63c 4462 7bbb
000000d0: cae0 20bd 9c4b 87bc 39a2 c93b afd3 3d3d
000000e0: 6db9 603d 6f8c dfbc 8412 08bc e28a 86ba
000000f0: ac9e 8fbd 545d 88bd ab07 023c 3609 beb8
00000100: 8394 8fbd 97aa 683c fe2b 673c c07f 36bc
00000110: d176 d63c f65b dd3c 2d61 a43c 043f 0ebd
00000120: 7ecf c23b 456a abbc 8cae 9d3c 3b6d c43b
00000130: fa81 5bbd fd9a 70bc 34d8 353b c24d 22bd
00000140: c0e2 1ebd f291 6fbc bba4 a73c 9885 8fbd
00000150: 62d2 2abd 25e0 b7bc e530 cebc 9594 8fbd
00000160: c7ac bfbc 3b10 0e3c 8d6f 203d f5a2 18bd
00000170: 41b0 75bd c7cd 6cb6 67a1 d2bc ca60 603d
00000180: e122 b6ba 9438 f5bc 1907 d0bb 08ee e23c
00000190: 4832 b43c db61 b03c a12f cb3c fab2 ffbc
000001a0: 40df 44bd b523 b7bb 0346 00b7 dc74 513c
000001b0: fc49 e43c 233a fc3c 9bc3 8eba 3075 57bd
000001c0: 6b78 f23b d6cc 2e3c d38a 8e3c 9be3 a43c
000001d0: 0403 1a3d 7b10 363b 43fb 49b6 3440 57bd
000001e0: 570e 57bd c7b9 d2bb 9cd5 a23b b6d8 4a3d
000001f0: f9ad 403d cc07 103d 3956 573d fe7e 21bd
00000200: 944e 57bd 4e35 9a3c 18aa 4b35 7154 573d
00000210: 1b48 5cbb 81b1 013c 1dd5 e63b f883 01bd
00000220: a33b 80b6 250a 1e3d 1077 7c3c f012 3bbc
00000230: 4fa5 ea36 5332 383c d4e4 35bc 41d2 fabb
00000240: f69b 07bd 756f 66bc fa40 5c3c 288d 2cbc
00000250: 79f5 bcbc a87a cdbc c365 c13c f4d3 4c3b
00000260: c9d2 263d 1226 8a3c 3c4d a5bc b90a 763c
00000270: 9f81 57bd 80c1 2fbd 0e60 cf3c e255 2fb7
00000280: c74a 57bd 367f 5a3b f53d 723c 682b 86bc
00000290: 6003 9639 9fa4 393c 8b65 843c fcf4 123d
000002a0: b4ec 833a 7635 d8bb fe26 29bc 9737 aabc
000002b0: aff5 afbc 1b47 e9bc 99fd 9ebb 2081 abbc
000002c0: bcbd 32bd ba78 fbbb 8dfd fa3c 25e0 56bd
000002d0: c6fa 20bd 7987 4cbc ca16 c9bb 324e 57bd
000002e0: f403 cd3b 2329 2c3c 2265 273d 2c5b c2bc
000002f0: a440 4dbd ef0b 9934 e336 b9bc 965a 1b3d
00000300: f05c 0abc 50f4 a2bd a19f c7bb 2e64 f73c
00000310: d1d4 753d 0022 1e3d 0575 043d 69d3 bdbc
00000320: c6bf 51bd 79ae eb3c e8f0 8238 4522 033d
00000330: 9cc7 cc3c bf38 6c3d 85d9 153c 3973 a0bd
00000340: 4bf2 253d f66f 51bd c465 543c 3129 fb3c
00000350: 0b44 f33c ba94 8b3c 6740 f637 615d a0bd
00000360: 0149 a0bd 9a2c 8a3c 6e2c 213b 5f9f 623d
00000370: 4355 673d e67e 993c 3868 a03d c9d4 8abd
00000380: ff6c a0bd 3382 5d3d 12c2 8ab8 e367 a03d
00000390: e88d 1f3c 45c8 473c e306 453c 726f a7bd
000003a0: 5773 8637 c01c 9d3d 2e27 0a3d 4b18 5fbd
000003b0: e227 0cb8 01e8 da3c 7095 5bbc 6054 c6bc
000003c0: 83be 98bd d277 34bc db8d 083d 18dd 973a
000003d0: f19f 36bd 3427 0fbd 0e22 603a 8ca2 d13c
000003e0: bf6a 833d 3d55 123b a999 e5bc 7620 813c
000003f0: c483 a0bd 4985 91bd 770a 9bbc fcab fbb8
-0.00021451409 -0.084927976 -0.0051133987 0.017034592 0.058806773 0.03675988 0.05715264 -0.03110032
-0.04946364 0.03218381 -4.1863652e-05 -0.004344478 0.02876535 0.04391135 -0.0177562 -0.07009809
0.044204004 -0.031663254 0.03267774 0.019989654 0.06422377 -0.0015031104 5.281403e-05 -0.07009495
-0.07009075 -0.008638141 -0.026348293 0.055303548 0.06667407 0.058659643 0.07010289 -0.058552347
-0.07012117 0.055155493 2.85269e-05 0.07010227 -0.0008889089 0.010250566 0.015927741 -0.06541333
6.574379e-05 0.05818958 0.011699164 -0.04585941 -5.7985584e-05 -0.013971634 0.0019338197 -0.031381465
-0.055184703 -0.02768547 0.022254398 -0.0038358131 -0.039276876 -0.016515546 0.0061533717 0.046344455
0.054864336 -0.027288644 -0.008305196 -0.0010264779 -0.07012686 -0.06658426 0.0079363985 -9.061622e-05
-0.07010748 0.014200828 0.01410961 -0.011138856 0.026179703 0.02702139 0.020065868 -0.034728065
0.005945145 -0.020924697 0.01924827 0.0059944666 -0.053590752 -0.01468539 0.0027747275 -0.039624937
-0.038790464 -0.014622198 0.020464292 -0.07007903 -0.041704543 -0.022445748 -0.0251698 -0.07010762
-0.023397816 0.008670862 0.039168883 -0.037264783 -0.059982542 -3.5286519e-06 -0.025711728 0.054779805
-0.0013895893 -0.029934205 -0.0063485024 0.027701393 0.021996632 0.021531036 0.024802985 -0.031213272
-0.04806447 -0.0055889734 -7.645695e-06 0.012784209 0.02786731 0.03078944 -0.0010892035 -0.052601993
0.007399609 0.010668954 0.01740018 0.020128062 0.037600532 0.002778082 -3.0097588e-06 -0.052551463
-0.05250391 -0.006430838 0.004969312 0.049523078 0.047040913 0.035163686 0.052572463 -0.03942775
-0.052565172 0.018824246 7.587091e-07 0.052570764 -0.0033612314 0.007915855 0.007044448 -0.031619996
-3.82164e-06 0.038583893 0.015409246 -0.011418089 6.992988e-06 0.011242467 -0.01110192 -0.0076544588
-0.03310772 -0.014064659 0.013443226 -0.010531701 -0.02306627 -0.025082901 0.023608094 0.0031254264
0.040728364 0.016863856 -0.02017843 0.015017205 -0.05261385 -0.042909145 0.025314357 -1.0450809e-05
-0.052561548 0.0033339984 0.0147852795 -0.01637812 0.00028612744 0.011330753 0.0161617 0.035878167
0.001006505 -0.00659817 -0.010324238 -0.02077846 -0.021479456 -0.028476289 -0.0048520085 -0.020935595
-0.043637976 -0.007674304 0.03063848 -0.052459855 -0.039301656 -0.012483471 -0.00613675 -0.052564807
0.0062565748 0.010507855 0.040867932 -0.023725115 -0.050110474 2.8507154e-07 -0.02260918 0.037928186
-0.00844501 -0.07956755 -0.0060920273 0.030199137 0.06001741 0.038606644 0.03233816 -0.023172097
-0.05120828 0.028769718 6.243755e-05 0.032015104 0.024997525 0.057671305 0.009146099 -0.07834477
0.04051427 -0.051132165 0.012963716 0.03065929 0.029695531 0.017038692 2.9355475e-05 -0.078303106
-0.078264244 0.01686697 0.0024593133 0.05532777 0.056477796 0.018737268 0.07832378 -0.06778867
-0.07833289 0.054079246 -6.616501e-05 0.07832315 0.009738423 0.012193744 0.012025568 -0.081755534
1.6027754e-05 0.07671499 0.03372877 -0.054466527 -3.3415745e-05 0.026721956 -0.013402328 -0.024210155
-0.07458212 -0.0110148955 0.03333841 0.0011586277 -0.044586126 -0.034949496 0.00085499964 0.025590204
0.064168446 0.0022328638 -0.028027372 0.015762549 -0.07837632 -0.071055 -0.018925888 -0.00012000647

rios_f.RIOS_H.rnn_cell1.bias_ih f4 [384]
00000000: 52f8 c83d 51d1 0c3e c1dc 273e 232c 023e
00000010: 1c0f 0b3e 5da8 903d 4dd5 193e e7cb 213e
00000020: f6b8 283e b85b 1a3e 7747 e5b6 b52f 803e
00000030: 2de9 683e fbde fc3d 4719 c43d d7c5 ef3d
00000040: f056 b33d eed5 c13d 9714 213e a72a e03d
00000050: 196d 1d3e 727b 393e c21b 4734 b646 ee3d
00000060: 84d4 ec3d 049c 2c3e e413 113e 7d76 193e
00000070: 0406 413e a63c 4e3e 3be0 ee3d 52df 1f3e
00000080: 29ba ee3d cf15 283e 9b70 07b7 64d0 ee3d
00000090: 5bac 073e bbfd 483e 2398 d53d 1a98 133e
000000a0: b483 90b5 4aca 283e bb3d 073e 0779 123e
000000b0: 20a3 e8b4 062a f03d 120b 113e 3d0b b73d
000000c0: 462a 053e 7b2b 283e 003a c33d 4466 8b3e
000000d0: 1e52 103e 20e1 153e e27d e03d bb01 793e
000000e0: f88b 223e 3e99 603e 7905 d13d df90 9e3e
000000f0: fc3c f03d fb17 f73d 1eb8 c13d da10 22b7
00000100: f78c ee3d bba6 b33d 9888 b13e a787 dc3d
00000110: 4042 703e 165b 0e3e 300a 093e 672e 383e
00000120: 6985 0e3e 2b9e 213e d358 df3d d2b8 d13d
00000130: d90e 003e 07c6 c73d 9d2c ce3e 66d1 073e
00000140: 0d97 d23d bef6 073e 27da 7d3e 2296 eb3d
00000150: 2add 073e a3a4 d13d f67c a63d 76c6 ee3d
00000160: 717d da3d ca3a fc3d 31c4 193e e25a d43d
00000170: c697 0a3e a53d 0536 80d7 163e 05be 343e
00000180: 3e95 1b3c da77 bb3d fe9e 123d f3c9 573d
00000190: 494b 9e3d f243 803d 313a 853d b9e1 1c3d
000001a0: 3d90 b53d 2b40 b63d 451c dab6 71e6 513d
000001b0: c489 f83c db13 9b3d 61c5 7e3d bbf8 993d
000001c0: f1d1 313d fc8d b83d 8aca 513d 3714 3a3d
000001d0: b68c 813d dc93 a43d 5824 0636 3305 9a3d
000001e0: e5dc 993d 2d5b 873d f3bd 693d a273 a73d
000001f0: 800c 883d 0b7b 5f3d 72f3 993d d6eb c93d
00000200: 6123 9a3d 9196 ae3d 476e c6b6 98f6 993d
00000210: 7172 823d e398 693d 54f5 7e3d 04c2 c53d
00000220: 6faa 8235 23bf b43d a994 8e3d 4b88 ad3d
00000230: 7201 9e35 caf1 ea3c 366d 963d 292a 923d
00000240: 7b63 873d 6a4b 1bba fda7 5f3d 4db1 d1bc
00000250: c884 a93d 8eef 973d 90bb a13d 734d 583d
00000260: accc 903d 8e88 163d 62c3 ad3d 9f6b a7bc
00000270: a922 9a3d 5aef be3d 911e 253d 42b4 14b7
00000280: 0805 9a3d bf65 8e3d fee4 8abd 6bf5 3d3d
00000290: 5abe 0b3d 1fdd df3c 5634 883d 93de e63d
000002a0: 8e2d 433d 0bfe 833d 8a56 bf3d 29e1 463d
000002b0: 9088 403d 2f65 953d 8472 733b 6896 6d3d
000002c0: 36e9 9f3d d130 393d 9e8a fdbd 7b7f 993d
000002d0: 0d5b c13d 2f11 6c3d 7b73 973d 35e7 993d
000002e0: 4e5f eb3c 62e0 873d 3435 a23d 3229 833d
000002f0: 25ca 913d 32de 1a36 99bc 843d 2f0d 9c3d
00000300: aace 6c3d b3b8 81be 69b0 80be baff f63d
00000310: 9ec7 693e c103 223c 85b3 3dbe e4b0 6dbe
00000320: 21b6 a2be 0ecd 663e cd4f 57b7 b561 3d3e
00000330: cf3f 1e3d 77b4 f33d fabe cf3d 0bff 86be
00000340: 0b6a 683b be1c 1ebe c501 6a3e fe7c cb3d
00000350: 0304 733e 70e3 a83e a5e4 4fb7 da46 86be
00000360: 1ac7 85be 3ef0 9c3e 5100 213e 4bd2 8c3e
00000370: 2a6d 963e 7f35 803e 2ba6 863e 078e 93be
00000380: aa8b 86be ae2f 983e 9fa9 ee37 4499 863e
00000390: ac19 5ebe b6b2 1f3e f917 253e 4724 8abe
000003a0: 8851 1d36 08cf 943e 7d62 403e e52f 69be
000003b0: 7fdc 8438 ec7c a73b 1081 67be 3cfb a5bd
000003c0: 6a36 53be 60c0 1ebe 2090 13bc 543c 8bbe
000003d0: b513 84be fba3 7dbe 9e79 7cbd 99b7 9ebd
000003e0: ec28 8d3e 9782 c23e 2423 3cbe 6e4c c33e
000003f0: ee41 87be e8d8 30be 09c0 083e 4c87 9ab7
0.09812988 0.13751723 0.16392805 0.1271215 0.13579983 0.07063363 0.15022774 0.15800439
0.16476807 0.1507405 -6.8330514e-06 0.25036398 0.227452 0.12347218 0.09575134 0.11707657
0.087568164 0.09464632 0.1573051 0.10945635 0.15373649 0.18113497 1.8543417e-07 0.11634581
0.11563972 0.1685639 0.14167744 0.14986606 0.18849951 0.20140323 0.11663862 0.15612534
0.11656601 0.1641457 -8.072845e-06 0.11660841 0.13249342 0.1962804 0.104294084 0.14413491
-1.0767167e-06 0.16483417 0.13207142 0.14303981 -4.3332057e-07 0.11726765 0.14164379 0.089376904
0.13004407 0.16422836 0.09532547 0.2722646 0.14093825 0.1463666 0.1096151 0.24317066
0.15873706 0.21933457 0.10206122 0.30969903 0.11730382 0.12065121 0.09458946 -9.659876e-06
0.11647981 0.08772036 0.34674525 0.10768061 0.23462772 0.13901934 0.13382792 0.17986451
0.1391808 0.15782993 0.10905614 0.1024033 0.12505664 0.097545676 0.40268412 0.13263473
0.10282717 0.13277718 0.2479025 0.11503245 0.13267961 0.1023648 0.08129303 0.11658947
0.10668457 0.123159006 0.15016247 0.10368897 0.1353446 1.9854426e-06 0.14730644 0.17650612
0.009496031 0.09153719 0.035796158 0.05268283 0.07729203 0.062629595 0.0650524 0.038301203
0.08865402 0.08898958 -6.5001973e-06 0.051245157 0.03033913 0.075721465 0.062199954 0.07518145
0.043413106 0.09011456 0.051218547 0.045429435 0.063256666 0.080360144 1.998871e-06 0.07520523
0.075128354 0.06609187 0.057065915 0.08176352 0.06643009 0.054560702 0.07517137 0.09859435
0.07526279 0.08524812 -5.913698e-06 0.07517737 0.06369484 0.05703057 0.062245682 0.09656146
9.735357e-07 0.08825519 0.069619484 0.084732614 1.1772338e-06 0.028679747 0.07345049 0.07136948
0.06610771 -0.00059240183 0.054603565 -0.025597239 0.08277279 0.07418738 0.07897103 0.052808236
0.07070288 0.036751322 0.08484532 -0.02043706 0.07526142 0.093229964 0.040312354 -8.863457e-06
0.07520491 0.06953 -0.06781958 0.046376627 0.03411708 0.027327118 0.06650607 0.112729214
0.047650866 0.06444939 0.09342678 0.048554573 0.047005236 0.0729469 0.0037147114 0.058004767
0.07808153 0.04521257 -0.12379955 0.07495018 0.09441195 0.057633575 0.07395073 0.07514802
0.028731968 0.066345945 0.07920304 0.06404342 0.07118634 2.3077123e-06 0.06481285 0.07619702
0.057814278 -0.25336227 -0.2513459 0.12060495 0.22830054 0.00988859 -0.18525513 -0.2321201
-0.31779578 0.2253916 -1.2833579e-05 0.18494304 0.03863507 0.11899655 0.10143848 -0.26366457
0.0035463597 -0.15440652 0.22852238 0.0993595 0.23731999 0.3298602 -1.2391397e-05 -0.2622593
-0.26128465 0.3065204 0.15722777 0.2750419 0.2938016 0.25040814 0.2629865 -0.28819296
-0.2627843 0.29723877 2.8450797e-05 0.26288807 -0.2168948 0.15595517 0.16122426 -0.26980802
2.344228e-06 0.29064202 0.1878757 -0.22772177 6.335321e-05 0.0051113274 -0.22607827 -0.0810456
-0.20626226 -0.15503073 -0.00900653 -0.27194464 -0.25796285 -0.24769585 -0.06163942 -0.07749862
0.27570283 0.37990257 -0.1837278 0.3814425 -0.26417488 -0.17270243 0.13354506 -1.8421233e-05
