BRIOS/models/model_file/train_largedata/brios_base_extreme.pt (torch, 628322 bytes, 26 tensors)

rios_f.RIOS_H.rnn_cell0.weight_ih f4 [384, 2]
00000000: 5c71 723d bc7b 523c 4582 6d3d d3c1 a2bd
00000010: 1d1a 88ae 7e5f f92d 309c 02b9 6413 9f3a
00000020: ed9d 80ae ad09 e12d dc0e 6a36 cd3b 1138
00000030: e3a8 ddba 642a b93a f2f2 4b33 231e 5e34
00000040: a70f 9933 b478 dc35 7736 0934 2028 c836
00000050: c76a 8537 0a50 8737 6ef7 cc37 10d7 a837
00000060: e35c 45b5 dacc f435 6038 b937 ef7a b838
00000070: 2461 2137 a681 b037 154d a832 edae 9c34
00000080: 5861 5eae 9e6f a52d 19ea d3af dd6b 75ae
00000090: 211f 083c 6ac7 28bc 1ed4 1c3e a383 553e
000000a0: f23e 8831 358d 9d35 a8c8 0d38 8e85 e337
000000b0: 48e3 9c3d 220c 913d 63e3 2f37 6e62 fa37
000000c0: 1b26 5ab2 c22f f1b0 791a 6d31 1ce6 68ad
000000d0: f83f 46ae f0c6 812d 4a29 b234 594b 9035
000000e0: 645c dfaf 4874 67ae 7666 deaf b7c1 68ae
000000f0: eab1 38bb 733c 253b cc56 deaf fcd8 68ae
00000100: f1ac dfaf f423 67ae 3a41 e0af 5159 66ae
00000110: 5c56 19b4 9dd1 e634 caa3 b237 9c6e 0a39
00000120: 0389 8239 7e9c 8b39 6f5c 513a b601 9f39
00000130: 85f7 ff39 b07f f038 5e32 deaf e50c 69ae
00000140: aef9 07be 794a 393e 4467 54ae 1fff 962d
00000150: 5911 b9af 4e15 89ae cc2f dfaf bba5 67ae
00000160: ab7f f134 a04d e634 6643 e932 3a8d 9b32
00000170: d10f 82b5 bb36 9835 d9b3 df37 3630 2a37
00000180: e76b 68ae 2664 b62d 7933 e0af 3f6b 66ae
00000190: c0f5 dfaf 94be 66ae 658c 30b7 3311 3a38
000001a0: d577 64b7 fa86 5fb6 6835 b9b6 b5ad 1c37
000001b0: 20f0 e3af b5d1 60ae 8984 27bb 56a4 3b39
000001c0: 317b cb39 849b d038 a738 943c 3c5b b23c
000001d0: ca8b efba 2792 ec3c 3b49 942e 8541 922e
000001e0: 9eea 2d31 2a55 1531 a137 3635 8fc1 3e35
000001f0: 25b8 0b35 dd2e 7735 ca91 f434 ebd8 5235
00000200: 0e30 9837 3fb5 5f37 4ffb e736 bf0b f036
00000210: 480d b2ae 66e9 4b2e dcde 8439 9a46 bd37
00000220: 5e0b 16b6 ade6 db35 4e95 e2af d1e2 62ae
00000230: ca00 46b1 aa24 5431 468d 3730 98a0 6731
00000240: 942d dc37 b5fe 7c36 767c 96bd 2ed6 cc3d
00000250: 7087 4335 d74c 1635 38aa dfaf 7d20 67ae
00000260: 9119 07ae 44c8 b82c faa9 93b6 f856 1639
00000270: 0ba0 dfaf 9a27 67ae 2642 0934 88fe 9f33
00000280: 5b9c 87b9 ac9f 1639 1e30 143c 7579 a23c
00000290: de16 5838 698c 0038 9e9b e1af 7d59 64ae
000002a0: 0721 c734 424e f034 3b95 b638 5fff e438
000002b0: 4695 a132 5b42 3133 9cb6 e2af 5eaf 62ae
000002c0: d07d dfaf 2b4e 67ae c554 e1af 4fc3 64ae
000002d0: 64f2 3ebd 8c84 e4bd 1783 73ae ee99 c82d
000002e0: 4351 633a a83f 6138 d886 dfaf 8e3c 67ae
000002f0: 1da8 7b35 5dec 6635 c73d 95b6 6b95 c136
00000300: 6d95 863c cf0b 3abe 0d12 b93c 066b 5e3c
00000310: 7460 b6b6 1b32 a335 6363 6fbb 06b9 163c
00000320: 65d6 afb6 d19e 9d35 71cf aa3a 96e0 4d3a
00000330: 231b a53b 4770 1bbc 1bdb c938 8470 3cb8
00000340: c357 b938 5dcb 6d39 e88b a1b9 4941 4db9
00000350: b9c0 3a3a a5a9 f339 adb0 8cba c5a4 83b9
00000360: 9238 023a f8e2 533a c3f2 313b 105d f4ba
00000370: 4819 f7ba e394 133a 4064 76b9 b7ef d039
00000380: 68eb 9fb6 f172 8e35 c2a9 3f36 986d 8c35
00000390: 34ca 00bb 07cd 9d3d 21ef fbbe ef28 92bd
000003a0: 4fb8 4c39 6e7d fcb9 29e7 41ba 8ba4 013a
000003b0: c998 cebb 3f09 4dbe b992 72ba 3021 0b3b
000003c0: 6f55 3e37 764e 63b7 b4f3 5cb7 fbc5 a7b5
000003d0: 7b61 94b6 b54a 8435 4f0a d639 039b bc38
000003e0: 43fc 4b36 f517 9535 7939 4b36 6189 9435
000003f0: 776e c93b d8f8 373d c134 4b36 0385 9435
0.05919014 0.012846883 0.057985563 -0.07947125 -6.1892026e-11 2.835043e-11 -0.0001245595 0.0012136516
-5.848819e-11 2.5583835e-11 3.4877366e-06 3.4626388e-05 -0.0016911294 0.0014127013 4.7485578e-08 2.0686325e-07
7.127465e-08 1.6426407e-06 1.2778933e-07 5.9651356e-06 1.5904558e-05 1.6130525e-05 2.4433913e-05 2.0127307e-05
-7.3523387e-07 1.8239036e-06 2.207997e-05 8.796702e-05 9.618965e-06 2.1041207e-05 1.9592827e-08 2.918454e-07
-5.0563415e-11 1.8807896e-11 -3.8547013e-10 -5.5802352e-11 0.008308203 -0.01030145 0.15315291 0.20850997
3.965277e-09 1.1738508e-06 3.3803895e-05 2.71227e-05 0.07660538 0.07082392 1.0483755e-05 2.9848157e-05
-1.2697934e-08 -1.7548631e-09 3.4503087e-09 -1.3238768e-11 -4.5076803e-11 1.4753948e-11 3.3185125e-07 1.0750765e-06
-4.062911e-10 -5.2626598e-11 -4.0454368e-10 -5.2922746e-11 -0.0028182217 0.0025213032 -4.0443238e-10 -5.2943414e-11
-4.0686346e-10 -5.2555252e-11 -4.079171e-10 -5.2375274e-11 -1.4280653e-07 4.2993352e-07 2.1295524e-05 0.00013201911
0.00024897614 0.00026628742 0.0007986491 0.00030328118 0.00048821807 0.000114678754 -4.0417353e-10 -5.298952e-11
-0.13278839 0.18094815 -4.8294937e-11 1.7166322e-11 -3.366363e-10 -6.233823e-11 -4.0597425e-10 -5.2670517e-11
4.498264e-07 4.2897318e-07 2.715542e-08 1.8108597e-08 -9.690358e-07 1.1340811e-06 2.666742e-05 1.0144015e-05
-5.284653e-11 2.073548e-11 -4.0781936e-10 -5.23912e-11 -4.073808e-10 -5.2465213e-11 -1.0523106e-05 4.4361874e-05
-1.361776e-05 -3.3308156e-06 -5.519647e-06 9.338769e-06 -4.1461679e-10 -5.111796e-11 -0.0025561175 0.0001789493
0.00038810962 9.94718e-05 0.01809342 0.02177202 -0.0018275913 0.028878285 6.743269e-11 6.65095e-11
2.5308178e-09 2.1730764e-09 6.7881234e-07 7.106218e-07 5.20495e-07 9.2082865e-07 4.5554617e-07 7.8546753e-07
1.814219e-05 1.3334035e-05 6.9135926e-06 7.153925e-06 -8.096862e-11 4.6364156e-11 0.00025343045 2.2563432e-05
-2.2358358e-06 1.6383907e-06 -4.1215248e-10 -5.1587904e-11 -2.881324e-09 3.0870901e-09 6.6775774e-10 3.3706211e-09
2.6247268e-05 3.7699185e-06 -0.07347958 0.10001789 7.284025e-07 5.599117e-07 -4.0684411e-10 -5.2552174e-11
-3.0718154e-11 5.2518285e-12 -4.4007293e-06 0.00014337513 -4.067718e-10 -5.2558492e-11 1.2783184e-07 7.4503134e-08
-0.000258657 0.00014364597 0.009044675 0.019833306 5.151971e-05 3.0648345e-05 -4.1037834e-10 -5.192068e-11
3.709067e-07 4.4760424e-07 8.7062326e-05 0.00010919454 1.8810749e-08 4.1271374e-08 -4.1238912e-10 -5.1542208e-11
-4.065286e-10 -5.2592746e-11 -4.0987494e-10 -5.2014667e-11 -0.04661788 -0.11158094 -5.5368234e-11 2.2805726e-11
0.0008671472 5.3703465e-05 -4.0659276e-10 -5.2577102e-11 9.3749424e-07 8.602563e-07 -4.447738e-06 5.7692428e-06
0.016428674 -0.18168567 0.022591615 0.013575321 -5.4352513e-06 1.2159029e-06 -0.0036527745 0.009199386
-5.240365e-06 1.1743633e-06 0.0013031793 0.00078535953 0.0050386353 -0.009487218 9.6252385e-05 -4.492748e-05
8.837834e-05 0.0002267784 -0.0003081255 -0.00019574644 0.0007124055 0.00046474967 -0.0010733806 -0.0002510903
0.0004967536 0.0008082832 0.0027152754 -0.0018643457 -0.0018852139 0.0005629791 -0.00023497734 0.00039851453
-4.765974e-06 1.0613277e-06 2.856003e-06 1.0462709e-06 -0.0019651772 0.077051215 -0.49205878 -0.07136714
0.00019523616 -0.00048158638 -0.0007396811 0.0004945478 -0.0063048345 -0.20023058 -0.0009253431 0.0021229498
1.1344774e-05 -1.35485225e-05 -1.3169763e-05 -1.250009e-06 -4.422092e-06 9.856509e-07 0.0004082494 8.993412e-05
3.0396193e-06 1.1108338e-06 3.028281e-06 1.1066842e-06 0.0061472016 0.04491505 3.0280064e-06 1.1065571e-06

rios_f.RIOS_H.rnn_cell0.weight_hh f4 [384, 96]
00000000: 5bbc 5e3d 0d22 83bd 3b49 a7bd 86f7 9f3d
00000010: 8347 a73d 283c 7b3c 52c3 dd3c f8e8 38bd
00000020: df9c da3a 39dd 3ebc 43ac 82bb 3068 80bd
00000030: ae21 893d 445a ba3d 3c5b 943c 13e6 34bd
00000040: 2837 a73d 8c2b 913a 7a66 e43c c272 b03d
00000050: 5a36 05bd efaa 31bd 1b58 11bd f913 1abd
00000060: fbce 8f3c 6244 bd3d 0839 a73d b98b 4b3d
00000070: dde3 953a 0db8 953a 6ea3 f83a 6aba 953a
00000080: a830 96ba 1050 963a 3cca b4bc 0419 1d3c
00000090: 1e9c 8abc cb15 4d3d 7a55 dd3b 12b9 95ba
000000a0: aeb5 b23c e33b a7bd fa0d 863a 65c4 95ba
000000b0: 3b38 aebd ab82 093e 3c31 a4bd abec a2bc
000000c0: 7b3c a73d ee4a 963a 283d 96ba bae6 d43c
000000d0: 9a57 a63c 39cb 993d fc09 963a bc45 393c
000000e0: e780 d3bc 0856 66bd a9a8 233d 67a8 31bc
000000f0: 48b6 aabc c319 d2bc 24d5 4e3d bdc7 a63c
00000100: c6d2 cbbd 72db 433d 1f5a a73d d0d2 053d
00000110: ce0f 63bd bb2e 96ba ed58 733c 5f72 2dbc
00000120: def5 7b3d 8f9a 11bd 3f19 1f3d a71f 963a
00000130: 1e1e a7bd d838 03bd b211 963a e348 ff3c
00000140: 05b1 bb3d 7031 e93b f140 36bd 1f42 96ba
00000150: 1414 babc 4d99 5a3d 02d7 4ebd a12b 96ba
00000160: f7f9 953a e844 96ba bf76 0b3c 5944 a73d
00000170: fac2 92bc 14f2 95ba 063a 24bd 21ee 403d
00000180: d3cd 05bc b47d 9c3b a84a d2bd b690 11bb
00000190: 2c61 d23d 022a 06bd 7f9e 5dba a7d8 cebd
000001a0: c324 e2bd bb96 84bd d80b 433c dd03 bbbd
000001b0: 7034 d43d 73f6 593d 7695 433c 1e1f 8dbd
000001c0: 0c59 d23d ac14 e33a 5b13 37bd 92b7 dc3d
000001d0: ae77 01bd d72c 62bd 4906 71bc da95 90bd
000001e0: 64a8 1abd 0e90 ca3d a97d d23d 1b26 b73d
000001f0: f97b ea3a e13e ea3a 0325 a23b 7743 ea3a
00000200: 52f7 eaba 7726 eb3a 5ddd d83d ddcd 4bbc
00000210: cfcf ab39 84b3 5abd aee6 02bc 7b42 eaba
00000220: fd22 113d d26f d2bd 2493 d13a f949 eaba
00000230: 9770 853c 8e10 863d f1b2 88bd d900 f6bc
00000240: 1e5e d23d b01d eb3a 4d0a ebba c1a7 cc3b
00000250: 2990 973d 8719 a63b f794 ea3a ca17 173d
00000260: 2f4b aabd 432c 51bd 843b e83d 241e 47bd
00000270: f9d4 b2bd c056 e4bb d4b7 8a3d e407 843d
00000280: 9f64 273b 5de0 4a3c 8e25 d23d 5b95 333d
00000290: 2fee abbd 41dc eaba 0509 2abd dd30 a2bd
000002a0: 855e 583c fee4 1c3d fd31 663d 96db ea3a
000002b0: dd9c d2bd db86 73bc 27c5 ea3a 54c9 743d
000002c0: c2e9 163e 1a11 6cbd 6fab 84bd 6104 ebba
000002d0: 2416 153d 09b8 053e 0276 e9bd 05d6 eaba
000002e0: 349f ea3a 380b ebba dec2 b13c cd5e d23d
000002f0: bd71 6b3d 4e92 eaba 52ad b9bd 3d2f 81bd
00000300: ef5e 91ad f202 baad 22d6 9ead 5d91 0c2e
00000310: 7a7a 9e2d 402f 4d2d be45 292e 8e08 9bad
00000320: ad11 c62d 0c71 9a2d 38fa 1d2e 4786 3aae
00000330: 94c3 3c2e 0937 952d 2af5 222e 6f8c 25ad
00000340: 311f 9e2d 5250 9a29 f461 052e 4539 c62d
00000350: 61fe 22ad 443f 49ad 8599 a82d f1be d42d
00000360: eb08 86ad 5d21 0b2e 2196 9d2d d56a 102e
00000370: 67c4 b029 95e5 af29 b062 882d 95f7 af29
00000380: 685e b2a9 3128 b329 a90a 55ae 4d34 d3ad
00000390: 89d7 232e 29f7 9bad 0702 95ab 40f7 afa9
000003a0: c30a 18ac dcd7 9dad 5f0f 5229 ca2c b0a9
000003b0: beb1 90ad de17 b32e 7f5b 7bae 0086 5a2c
000003c0: 722f 9e2d f417 b329 fec2 b2a9 756f 292e
000003d0: 4879 f12d f0ff ba2d 1e6c b129 fe0c dcad
000003e0: 57af 3f2d 0156 c02d 823e 9a2d 950e 0dac
000003f0: d5c4 602e f1ec 182e e602 912c 8e1d af2e
0.05437885 -0.06402979 -0.081682645 0.07810883 0.08167937 0.015334167 0.027070675 -0.04514405
0.0016678831 -0.011649423 -0.0039878204 -0.06269872 0.06695877 0.09099248 0.01810991 -0.04416473
0.08164817 0.00110756 0.027880896 0.08615638 -0.032522537 -0.043375906 -0.035484415 -0.037616704
0.01755475 0.092415586 0.08165175 0.049693797 0.0011435706 0.0011422649 0.0018969604 0.0011423354
-0.0011458592 0.0011467952 -0.02206909 0.009588484 -0.016920146 0.05006961 0.0067545744 -0.0011422953
0.021815147 -0.08165719 0.0010227554 -0.0011426328 -0.08506819 0.13428752 -0.08017203 -0.019888243
0.081658326 0.0011466423 -0.0011462318 0.025988925 0.020305444 0.07509465 0.0011447067 0.01130813
-0.025818301 -0.05623439 0.03995577 -0.010843373 -0.020838872 -0.02564705 0.050496235 0.020358915
-0.09952311 0.0478167 0.08171486 0.03267175 -0.055434994 -0.0011458019 0.0148527445 -0.01058635
0.061513774 -0.03554779 0.038842436 0.0011453525 -0.08160041 -0.032036632 0.0011449365 0.031162685
0.09164623 0.007116489 -0.044495527 -0.0011463797 -0.022714652 0.053368855 -0.050498016 -0.0011457094
0.0011442293 -0.0011464627 0.008512198 0.08167333 -0.017915238 -0.0011439943 -0.040094398 0.047102097
-0.008166748 0.004775727 -0.10268146 -0.0022211499 0.1027244 -0.032754906 -0.0008454099 -0.10099917
-0.11042168 -0.06474062 0.011904679 -0.09131596 0.10361564 0.053213548 0.01193749 -0.06890701
0.102708906 0.0017324886 -0.044696193 0.10777201 -0.031608276 -0.055218544 -0.014710971 -0.07059832
-0.037758246 0.098907575 0.10277874 0.08942815 0.001788973 0.0017871523 0.00494826 0.0017872889
-0.001792649 0.001794054 0.10589097 -0.012439218 0.0003277049 -0.053393856 -0.007989569 -0.0017872596
0.035433758 -0.10275234 0.0015989286 -0.0017874829 0.016289039 0.06546126 -0.06674755 -0.030029701
0.10271858 0.0017937925 -0.0017932147 0.0062455838 0.07400543 0.005068961 0.0017897178 0.03688792
-0.083151214 -0.051067602 0.11339477 -0.04861273 -0.087320276 -0.006968349 0.06773344 0.064468175
0.0025542153 0.012382594 0.10261069 0.04384361 -0.08395039 -0.0017918424 -0.041512508 -0.07919476
0.013206129 0.03830432 0.056200016 0.0017918225 -0.102838255 -0.014863695 0.0017911539 0.059762314
0.14737609 -0.057633497 -0.06478011 -0.0017930382 0.036398068 0.13058485 -0.11399461 -0.0017916566
0.001790023 -0.0017932421 0.021699365 0.10271988 0.057481516 -0.0017896385 -0.09066261 -0.06307838
-1.652675e-11 -2.114706e-11 -1.8057614e-11 3.1961423e-11 1.8016911e-11 1.16633925e-11 3.8488095e-11 -1.7625259e-11
2.2517843e-11 1.7557976e-11 3.5919906e-11 -4.2410766e-11 4.291996e-11 1.696378e-11 3.7052285e-11 -9.410347e-12
1.7976372e-11 6.852907e-14 3.03277e-11 2.2535427e-11 -9.265117e-12 -1.1439575e-11 1.9167565e-11 2.4186405e-11
-1.5237997e-11 3.1634573e-11 1.7915504e-11 3.2836695e-11 7.8500405e-14 7.811387e-14 1.5505236e-11 7.81451e-14
-7.921165e-14 7.956169e-14 -4.844006e-11 -2.4011149e-11 3.7253343e-11 -1.7731221e-11 -1.058765e-12 -7.814452e-14
-2.1606473e-12 -1.7944694e-11 4.66427e-14 -7.82374e-14 -1.6449838e-11 8.144217e-11 -5.7152057e-11 3.1054048e-12
1.798359e-11 7.953352e-14 -7.938614e-14 3.8525145e-11 2.7452388e-11 2.1259411e-11 7.8791344e-14 -2.5016874e-11
1.0896026e-11 2.1866066e-11 1.7535532e-11 -2.00454e-12 5.1106525e-11 3.4771245e-11 4.1214697e-12 7.9633286e-11

rios_f.RIOS_H.rnn_cell0.bias_ih f4 [384]
00000000: 1d30 cc3d 62a8 043e dfbe 462e 9f07 d13a
00000010: 0c1b 292e ba24 8b38 e88a 2c3b f4ce c534
00000020: 2697 3e36 c835 c237 14df 1438 2bdd 2d38
00000030: 5405 4137 72aa fb38 e1a5 4638 36f1 8c35
00000040: 22a3 c72d 2767 bc2e 345c 683d d876 413e
00000050: 2e1d 0b36 1b71 4938 bda0 323e 9b46 e038
00000060: c23d 2233 b2ba 9a32 61ca 6a2d a91a f535
00000070: 4a04 ee2e 2d01 ea2e 79b9 533c 2cc4 e92e
00000080: 1b97 ef2e 6509 f22e 2bf8 3f35 b56e 8739
00000090: 59d2 8339 5e19 413a 1e3c 3c3a 3e30 e92e
000000a0: d221 533e c270 a52d d68c 202e 7d33 ed2e
000000b0: 98d6 c834 e3c1 8d34 7d14 e135 8fdd 5638
000000c0: 5a5c ee2d f4cb f12e d5c6 f02e 47cd 0b39
000000d0: ec4e c238 8369 3e37 905b 002f 597a 183c
000000e0: 8caf d139 0708 a83d 16c9 083d f8a7 772f
000000f0: 4a42 cb31 ecfc cf35 5781 9036 b720 8a36
00000100: f611 cc37 27c2 a037 d531 c42e a34a 8339
00000110: 8856 9336 3255 fb2e 01bc 4331 50cd 7b31
00000120: 9e36 7d38 9062 213e ec85 6f35 737a ef2e
00000130: a6e6 f0ac 28ca a639 6e43 ef2e 9454 6834
00000140: 404a 5f3a aca0 093d d1db 0239 9273 f72e
00000150: 0022 6f35 ef53 4939 80c3 6d33 65d9 fb2e
00000160: a4a2 ee2e 5d56 f62e a814 123e 7a93 0c2e
00000170: 35e0 343a 51bd ee2e cbe1 0636 4995 ea36
00000180: bd85 3dbd 6fcf 99bd 0177 4135 8a93 d73b
00000190: 9046 3a35 251a 263a 2bbe b13b 461e 75b8
000001a0: 2378 b4b8 da90 dd38 9234 8439 ed96 933a
000001b0: 2e7e 3636 8930 d139 cfe0 753a 0b5a 3938
000001c0: 35f5 2935 6163 1a33 6463 133d 9f3b a7bc
000001d0: a73a b6b8 306b 023a 3a14 9bbd 5ca1 0fba
000001e0: b5e2 d3b6 8fdf 4936 20a1 1d35 0397 9b37
000001f0: ffb4 4733 645c 4433 75f3 833c 1e31 4433
00000200: a654 4933 035c 4b33 bf29 ddb7 37f9 583b
00000210: c1d7 353a 0bbe 113b 038e 543b 4abf 4333
00000220: d85b cebc 6aba 2435 c4c7 3632 3ee2 4633
00000230: 5675 9137 3337 7bb7 7b9b 6f38 6e23 00b9
00000240: 36a1 2e35 b224 4b33 924c 4a33 6ac0 a939
00000250: 51a8 17ba 711d 7338 f5f6 5533 437a 2e3c
00000260: 2933 37ba e138 47bd b330 083c 4b87 e0b5
00000270: c06d 70b7 57cb 3d37 4872 1238 164a 67b8
00000280: 81ca fc39 b8b9 80b8 7c9a 6635 4fea a13a
00000290: 4483 feb8 122b 5233 5cd4 a5b5 42f9 8a36
000002a0: 1dc7 d239 1256 a03c 846a b7b5 6a28 4933
000002b0: bc24 f834 134e 2f3a 30e9 4833 9ffc 9037
000002c0: 291f 243b d7dc 983c 1d9b 7038 a85c 4f33
000002d0: 05d2 c0b7 e8b0 47b9 4e7f e536 9e89 5233
000002e0: f34d 4833 4d8b 4e33 fc04 99bd e0e7 3335
000002f0: 9f5d 343b 3458 4833 e143 a037 09d3 f738
00000300: c3b7 6bbc 725d c1bd 9110 5036 ffdb 603b
00000310: 9053 48b6 6b84 01ba 40d8 eb39 5509 3438
00000320: 6b8b 9539 9114 043a 39f9 1dba e949 cc3a
00000330: 97e9 02b9 5281 0aba c8a2 22ba 235a 1e38
00000340: 3aa9 35b6 90a3 9536 b0d0 803c 18d9 9b3e
00000350: f060 5ab8 3249 693a ba3b a3bc ea07 f439
00000360: 83a8 5fb7 aa30 e637 e128 28b6 cc40 c938
00000370: 66ee 9a36 527a 9a36 de86 1fbc a272 9a36
00000380: ff0f 9bb6 ca54 9b36 dfdd 8737 012a daba
00000390: 69c0 6c3b 9f18 e03b ce2d 573b 4861 9ab6
000003a0: 3800 163e 872e 3036 438c 8836 8fda 9ab6
000003b0: 6712 10b9 a4c9 d936 5946 92b7 bc6c b03a
000003c0: 6728 3bb6 8b4e 9b36 4a32 9bb6 2b90 863a
000003d0: 6016 7aba 4038 8ab9 bb17 9d36 9d78 883b
000003e0: ec24 97bb 1cc1 693d 5b46 23bd 1337 e235
000003f0: 3113 aa37 c757 76b9 65e2 0238 8b8c 6f39
0.099701144 0.12954858 4.5189515e-11 0.0015947706 3.8450174e-11 6.634877e-05 0.0026327912 3.6844688e-07
2.8400186e-06 2.3151646e-05 3.5493707e-05 4.1452393e-05 1.1504937e-05 0.000120003606 4.7361365e-05 1.0501014e-06
2.2696126e-11 8.567574e-11 0.056728557 0.18892992 2.07296e-06 4.8027472e-05 0.1744413 0.00010694304
3.7774733e-08 1.8012859e-08 1.3346297e-11 1.8261682e-06 1.0823749e-10 1.0641297e-10 0.012922638 1.06304604e-10
1.08953034e-10 1.1006555e-10 7.1514177e-07 0.0002583169 0.00025142988 0.0007366146 0.0007180589 1.0604183e-10
0.2061837 1.8808403e-11 3.6504876e-11 1.07866584e-10 3.740904e-07 2.6404368e-07 1.6769769e-06 5.122792e-05
2.709848e-11 1.09956405e-10 1.0949256e-10 0.00013332545 9.265341e-05 1.1349449e-05 1.1674062e-10 0.009306514
0.0003999438 0.08204656 0.033394895 2.2524194e-10 5.9156138e-09 1.5496312e-06 4.3065916e-06 4.116529e-06
2.4327059e-05 1.9163896e-05 8.9219e-11 0.00025041876 4.391015e-06 1.1429292e-10 2.8483103e-09 3.6642014e-09
6.0370767e-05 0.15760255 8.922932e-07 1.0890213e-10 -6.8468174e-12 0.00031812605 1.08804396e-10 2.1637453e-07
0.0008517839 0.033600494 0.00012479654 1.1252789e-10 8.9083915e-07 0.00019200121 5.535867e-08 1.14527755e-10
1.0851878e-10 1.1202126e-10 0.14265692 3.19633e-11 0.00068998645 1.0856616e-10 2.0098985e-06 6.9911225e-06
-0.04627012 -0.07510268 7.2071276e-07 0.0065788673 6.939308e-07 0.00063362933 0.005424281 -5.8440746e-05
-8.605446e-05 0.00010565082 0.0002521617 0.0011260189 2.719356e-06 0.00039899748 0.00093795074 4.4191296e-05
6.331423e-07 3.5946304e-08 0.03598346 -0.020414172 -8.689361e-05 0.00049750786 -0.07572217 -0.00054790615
-6.314682e-06 3.0081462e-06 5.8721525e-07 1.854776e-05 4.6497913e-08 4.5718835e-08 0.0161073 4.5679478e-08
4.6875947e-08 4.7348305e-08 -2.6364693e-05 0.0033107528 0.0006936752 0.0022238519 0.0032433278 4.5575952e-08
-0.025190279 6.136603e-07 1.0639216e-08 4.6306234e-08 1.7339986e-05 -1.4973618e-05 5.7126843e-05 -0.0001222023
6.5054644e-07 4.7297995e-08 4.710143e-08 0.00032377552 -0.0005785274 5.7963134e-05 4.9817533e-08 0.010649267
-0.00069885195 -0.04863823 0.008312392 -1.6728676e-06 -1.4330668e-05 1.1312622e-05 3.4915545e-05 -5.514369e-05
0.00048216063 -6.1381084e-05 8.590648e-07 0.0012353155 -0.00012136114 4.8933607e-08 -1.2355263e-06 4.141738e-06
0.00040202672 0.019572292 -1.3665563e-06 4.6835716e-08 4.6220327e-07 0.0006687354 4.677821e-08 1.7283774e-05
0.0025042987 0.018659992 5.736492e-05 4.8280214e-08 -2.2985982e-05 -0.00019044022 6.839552e-06 4.9019597e-08
4.6637023e-08 4.8089806e-08 -0.07471654 6.702012e-07 0.0027521623 4.664635e-08 1.9105095e-05 0.00011817186
-0.014387074 -0.094416514 3.1004058e-06 0.0034310815 -2.9850962e-06 -0.0004940691 0.00044983812 4.2924035e-05
0.0002852337 0.0005038465 -0.0006026212 0.0015585992 -0.00012484785 -0.00052835525 -0.0006204066 3.7754082e-05
-2.7069605e-06 4.459587e-06 0.01572451 0.30439067 -5.206553e-05 0.00088991516 -0.01992594 0.00046545203
-1.33310705e-05 2.7440798e-05 -2.5057745e-06 9.596496e-05 4.617311e-06 4.6037976e-06 -0.009736745 4.6029027e-06
-4.621222e-06 4.6292307e-06 1.619657e-05 -0.0016644598 0.0036125428 0.0068388726 0.0032833698 -4.6008827e-06
0.14648521 2.6253126e-06 4.0694445e-06 -4.615001e-06 -0.00013739766 6.490578e-06 -1.7437314e-05 0.001346014
-2.7888689e-06 4.6285036e-06 -4.6252144e-06 0.0010266354 -0.00095400773 -0.0002636332 4.681727e-06 0.004164769
-0.0046125557 0.05706893 -0.039862018 1.6854341e-06 2.0274516e-05 -0.00023493088 3.120526e-05 0.00022845172

rios_f.RIOS_H.rnn_cell0.bias_hh f4 [384]
00000000: 1d30 cc3d 62a8 043e dfbe 462e 9f07 d13a
00000010: 0c1b 292e ba24 8b38 e88a 2c3b f4ce c534
00000020: 2697 3e36 c835 c237 14df 1438 2bdd 2d38
00000030: 5405 4137 72aa fb38 e1a5 4638 36f1 8c35
00000040: 22a3 c72d 2767 bc2e 345c 683d d876 413e
00000050: 2e1d 0b36 1b71 4938 bda0 323e 9b46 e038
00000060: c23d 2233 b2ba 9a32 61ca 6a2d a91a f535
00000070: 4a04 ee2e 2d01 ea2e 79b9 533c 2cc4 e92e
00000080: 1b97 ef2e 6509 f22e 2bf8 3f35 b56e 8739
00000090: 59d2 8339 5e19 413a 1e3c 3c3a 3e30 e92e
000000a0: d221 533e c270 a52d d68c 202e 7d33 ed2e
000000b0: 98d6 c834 e3c1 8d34 7d14 e135 8fdd 5638
000000c0: 5a5c ee2d f4cb f12e d5c6 f02e 47cd 0b39
000000d0: ec4e c238 8369 3e37 905b 002f 597a 183c
000000e0: 8caf d139 0708 a83d 16c9 083d f8a7 772f
000000f0: 4a42 cb31 ecfc cf35 5781 9036 b720 8a36
00000100: f611 cc37 27c2 a037 d531 c42e a34a 8339
00000110: 8856 9336 3255 fb2e 01bc 4331 50cd 7b31
00000120: 9e36 7d38 9062 213e ec85 6f35 737a ef2e
00000130: a6e6 f0ac 28ca a639 6e43 ef2e 9454 6834
00000140: 404a 5f3a aca0 093d d1db 0239 9273 f72e
00000150: 0022 6f35 ef53 4939 80c3 6d33 65d9 fb2e
00000160: a4a2 ee2e 5d56 f62e a814 123e 7a93 0c2e
00000170: 35e0 343a 51bd ee2e cbe1 0636 4995 ea36
00000180: bd85 3dbd 6fcf 99bd 0177 4135 8a93 d73b
00000190: 9046 3a35 251a 263a 2bbe b13b 461e 75b8
000001a0: 2378 b4b8 da90 dd38 9234 8439 ed96 933a
000001b0: 2e7e 3636 8930 d139 cfe0 753a 0b5a 3938
000001c0: 35f5 2935 6163 1a33 6463 133d 2a3b a7bc
000001d0: a73a b6b8 306b 023a 3a14 9bbd 5ca1 0fba
000001e0: b5e2 d3b6 8fdf 4936 20a1 1d35 0397 9b37
000001f0: ffb4 4733 645c 4433 75f3 833c 1e31 4433
00000200: a654 4933 035c 4b33 bf29 ddb7 37f9 583b
00000210: c1d7 353a 0bbe 113b 038e 543b 4abf 4333
00000220: d85b cebc 6aba 2435 c4c7 3632 3ee2 4633
00000230: 5675 9137 3337 7bb7 7b9b 6f38 6e23 00b9
00000240: 36a1 2e35 b224 4b33 924c 4a33 6ac0 a939
00000250: 51a8 17ba 711d 7338 f5f6 5533 437a 2e3c
00000260: 2933 37ba e138 47bd b330 083c 4b87 e0b5
00000270: c06d 70b7 57cb 3d37 4872 1238 164a 67b8
00000280: 81ca fc39 b8b9 80b8 7c9a 6635 4fea a13a
00000290: 4483 feb8 122b 5233 5cd4 a5b5 42f9 8a36
000002a0: 1dc7 d239 1256 a03c 846a b7b5 6a28 4933
000002b0: bc24 f834 134e 2f3a 30e9 4833 9ffc 9037
000002c0: 291f 243b d7dc 983c 1d9b 7038 a85c 4f33
000002d0: 05d2 c0b7 e8b0 47b9 4e7f e536 9e89 5233
000002e0: f34d 4833 4d8b 4e33 fc04 99bd e0e7 3335
000002f0: 9f5d 343b 3458 4833 e143 a037 09d3 f738
00000300: c542 6bbc 290f c3bd 9110 5036 ffdb 603b
00000310: 9053 48b6 6b84 01ba 40d8 eb39 5509 3438
00000320: 6b8b 9539 9114 043a 39f9 1dba e949 cc3a
00000330: 97e9 02b9 5281 0aba c8a2 22ba 235a 1e38
00000340: 3aa9 35b6 90a3 9536 e1d1 803c 62dd 9b3e
00000350: f060 5ab8 3249 693a 6f24 9abc ea07 f439
00000360: 83a8 5fb7 aa30 e637 e128 28b6 cc40 c938
00000370: 66ee 9a36 527a 9a36 de86 1fbc a272 9a36
00000380: ff0f 9bb6 ca54 9b36 dfdd 8737 012a daba
00000390: 69c0 6c3b 9f18 e03b ce2d 573b 4861 9ab6
000003a0: 46bc 293e 872e 3036 438c 8836 8fda 9ab6
000003b0: 6712 10b9 a4c9 d936 5946 92b7 bc6c b03a
000003c0: 6728 3bb6 8b4e 9b36 4a32 9bb6 2b90 863a
000003d0: 6016 7aba 4038 8ab9 bb17 9d36 9d78 883b
000003e0: ec24 97bb 59c3 693d 5b46 23bd 1337 e235
000003f0: 3113 aa37 c757 76b9 65e2 0238 8b8c 6f39
0.099701144 0.12954858 4.5189515e-11 0.0015947706 3.8450174e-11 6.634877e-05 0.0026327912 3.6844688e-07
2.8400186e-06 2.3151646e-05 3.5493707e-05 4.1452393e-05 1.1504937e-05 0.000120003606 4.7361365e-05 1.0501014e-06
2.2696126e-11 8.567574e-11 0.056728557 0.18892992 2.07296e-06 4.8027472e-05 0.1744413 0.00010694304
3.7774733e-08 1.8012859e-08 1.3346297e-11 1.8261682e-06 1.0823749e-10 1.0641297e-10 0.012922638 1.06304604e-10
1.08953034e-10 1.1006555e-10 7.1514177e-07 0.0002583169 0.00025142988 0.0007366146 0.0007180589 1.0604183e-10
0.2061837 1.8808403e-11 3.6504876e-11 1.07866584e-10 3.740904e-07 2.6404368e-07 1.6769769e-06 5.122792e-05
2.709848e-11 1.09956405e-10 1.0949256e-10 0.00013332545 9.265341e-05 1.1349449e-05 1.1674062e-10 0.009306514
0.0003999438 0.08204656 0.033394895 2.2524194e-10 5.9156138e-09 1.5496312e-06 4.3065916e-06 4.116529e-06
2.4327059e-05 1.9163896e-05 8.9219e-11 0.00025041876 4.391015e-06 1.1429292e-10 2.8483103e-09 3.6642014e-09
6.0370767e-05 0.15760255 8.922932e-07 1.0890213e-10 -6.8468174e-12 0.00031812605 1.08804396e-10 2.1637453e-07
0.0008517839 0.033600494 0.00012479654 1.1252789e-10 8.9083915e-07 0.00019200121 5.535867e-08 1.14527755e-10
1.0851878e-10 1.1202126e-10 0.14265692 3.19633e-11 0.00068998645 1.0856616e-10 2.0098985e-06 6.9911225e-06
-0.04627012 -0.07510268 7.2071276e-07 0.0065788673 6.939308e-07 0.00063362933 0.005424281 -5.8440746e-05
-8.605446e-05 0.00010565082 0.0002521617 0.0011260189 2.719356e-06 0.00039899748 0.00093795074 4.4191296e-05
6.331423e-07 3.5946304e-08 0.03598346 -0.020413954 -8.689361e-05 0.00049750786 -0.07572217 -0.00054790615
-6.314682e-06 3.0081462e-06 5.8721525e-07 1.854776e-05 4.6497913e-08 4.5718835e-08 0.0161073 4.5679478e-08
4.6875947e-08 4.7348305e-08 -2.6364693e-05 0.0033107528 0.0006936752 0.0022238519 0.0032433278 4.5575952e-08
-0.025190279 6.136603e-07 1.0639216e-08 4.6306234e-08 1.7339986e-05 -1.4973618e-05 5.7126843e-05 -0.0001222023
6.5054644e-07 4.7297995e-08 4.710143e-08 0.00032377552 -0.0005785274 5.7963134e-05 4.9817533e-08 0.010649267
-0.00069885195 -0.04863823 0.008312392 -1.6728676e-06 -1.4330668e-05 1.1312622e-05 3.4915545e-05 -5.514369e-05
0.00048216063 -6.1381084e-05 8.590648e-07 0.0012353155 -0.00012136114 4.8933607e-08 -1.2355263e-06 4.141738e-06
0.00040202672 0.019572292 -1.3665563e-06 4.6835716e-08 4.6220327e-07 0.0006687354 4.677821e-08 1.7283774e-05
0.0025042987 0.018659992 5.736492e-05 4.8280214e-08 -2.2985982e-05 -0.00019044022 6.839552e-06 4.9019597e-08
4.6637023e-08 4.8089806e-08 -0.07471654 6.702012e-07 0.0027521623 4.664635e-08 1.9105095e-05 0.00011817186
-0.014359181 -0.09524376 3.1004058e-06 0.0034310815 -2.9850962e-06 -0.0004940691 0.00044983812 4.2924035e-05
0.0002852337 0.0005038465 -0.0006026212 0.0015585992 -0.00012484785 -0.00052835525 -0.0006204066 3.7754082e-05
-2.7069605e-06 4.459587e-06 0.015725078 0.3044234 -5.206553e-05 0.00088991516 -0.018816201 0.00046545203
-1.33310705e-05 2.7440798e-05 -2.5057745e-06 9.596496e-05 4.617311e-06 4.6037976e-06 -0.009736745 4.6029027e-06
-4.621222e-06 4.6292307e-06 1.619657e-05 -0.0016644598 0.0036125428 0.0068388726 0.0032833698 -4.6008827e-06
0.16575727 2.6253126e-06 4.0694445e-06 -4.615001e-06 -0.00013739766 6.490578e-06 -1.7437314e-05 0.001346014
-2.7888689e-06 4.6285036e-06 -4.6252144e-06 0.0010266354 -0.00095400773 -0.0002636332 4.681727e-06 0.004164769
-0.0046125557 0.057071064 -0.039862018 1.6854341e-06 2.0274516e-05 -0.00023493088 3.120526e-05 0.00022845172

rios_f.RIOS_H.rnn_cell1.weight_ih f4 [384, 2]
00000000: f1e7 bdbd 7b75 dbbd 3855 783d 6787 c63b
00000010: 03db aa3c e2c9 babc f95b 773c 2ab7 39bc
00000020: 54a4 a83c fd22 bdbc 6ea2 803d 00f5 6dbd
00000030: 2c30 c7bc c86b 76bc 35b2 08bd 830d 87bd
00000040: b26a 153a 45ad 00bd 3da2 af39 8347 69bd
00000050: 1bb9 993c 70fa b9bc 9f4a 813d ae90 0b3c
00000060: 7efb 553b 1072 fcbb 5617 2aba 4a33 be3c
00000070: 872d a0bc ab82 bfbc 60d8 3a3d a35e ea3a
00000080: 3594 a43c bd5e bdbc fb0d de39 184e 3aba
00000090: 0092 bd3c 1097 99bb f903 f0bc e9d6 77bd
000000a0: b3c7 6c3d 06d3 48bc bf36 083c 35aa 933c
000000b0: 82fb b93d fee3 e23c a892 88bb d0f6 96bc
000000c0: ef7e 84bc 57ee 23bd 6e15 e93c acbc 9ebc
000000d0: e074 a03c 7e6a c0bc 4076 353d 6a07 4ebc
000000e0: d53f e939 82a7 44ba d1d0 e839 974e 44ba
000000f0: 3fcc a7bc 2ec2 3dbe dfd8 e839 5957 44ba
00000100: ef01 ea39 6f5e 45ba a94a ea39 ec98 45ba
00000110: b91a a9bb 39fe f7bc 3b17 5f3d 6baf 933d
00000120: 5f71 343c 258d 0d3b 0955 e4bc fec2 7ebc
00000130: ad56 ea3c 8cd5 17bd 4fd6 e839 d857 44ba
00000140: 79cd b2bc 57b0 13bd ba6e a23c 07e0 bebc
00000150: 0b94 c339 1083 22ba 32f3 e839 ca58 44ba
00000160: bedc 9fbc 6273 ffbc 5212 abbc 96b5 88bc
00000170: ceac 4cbc 133b 7dbc 22ca 0c3d 7938 a8bd
00000180: 75a2 a53c 6b79 bdbc 3044 ea39 b68a 45ba
00000190: 271b ea39 f977 45ba e728 0e3d cba5 a8bb
000001a0: 6da8 b5bc 3a8a b3bc 1aa3 2f3c 4859 8a3c
000001b0: 2788 e939 fd81 44ba 9c00 433d 7ddc 89bc
000001c0: 0fb3 64ba 43b7 803a 3ed5 a3bb ac36 2ebd
000001d0: 1bec 363d 4f59 89bb 5500 ce3c 8b17 d5bb
000001e0: cc30 64bc fe18 3bbd 628a e33c a20a ddbb
000001f0: 38cd 08bc eb4c 3cbb 4caf 0fbc 7300 b2bc
00000200: 2400 a03c dcf2 10bc 03c0 bd3b d3ff 80bc
00000210: 5bfe b33c dee0 b5bc 0491 c7ba 540a 6abd
00000220: 2cdc 30bb bce3 42bd 4aec e939 a904 45ba
00000230: 8e61 52bb 2ccb 84bd 8307 5bbb 4451 c93a
00000240: 835f 683b dccd f8bb 88a2 be3b e328 223d
00000250: 92ec 70bc 993e 54bd 6ad7 e939 5036 45ba
00000260: 8004 963c 7609 c5bc 65ad 023d 2ef3 e83c
00000270: 96b5 e939 1615 45ba bf1c 86b9 8103 ddbb
00000280: 970b a8bc 4d1e 22bd 2a58 723d 7406 253d
00000290: 1d53 e539 1302 29bd 3421 ea39 b14f 45ba
000002a0: 4267 a23b 542a f6bc 946c 003c e21f 78bd
000002b0: 906c f1bb 45b2 1ebd b3e3 e939 3bf9 44ba
000002c0: 5579 e939 bbdc 44ba b72b ea39 6e5d 45ba
000002d0: ddf0 033d 7ad2 42bd 810e a73c d6f0 bcbc
000002e0: 26ba 35bc 5de8 aebb ee61 e939 97c9 44ba
000002f0: 60cb 2cbc 621e 4a3a f3bb 113d 5433 043d
00000300: 0c9a e9bd 2d1a 0bbc e1b8 1f3d 168a ec3d
00000310: 7ae6 493b 5356 81bc 447f aa3c 2109 483d
00000320: bf53 4b3b 7a94 81bc 5e51 c4bd dfa3 16bb
00000330: c270 0dbd 3cdb 14bd 441d 783d ba9b 2d3d
00000340: eb9f 93bc a894 bbbc 67a4 e43b 2d8c 9d3c
00000350: 95f5 a8bc 6110 33bc c1c7 563a 73b8 58bc
00000360: 6902 acbc f9a1 8ebc 3480 60bc 6c71 a4bb
00000370: 5a12 01bd 0579 7cba 20e0 053d 1943 93bb
00000380: edbf 4e3b 5f25 7ebc 0691 cd39 bcdb 14ba
00000390: eb5d a0bd 7690 82bd 7638 11bd 1bcc 1ebd
000003a0: 68a9 cabb 4e19 52bd e8e9 0a3d e305 ef3c
000003b0: f294 433d 67a5 c33b b519 16bb 2d72 34bd
000003c0: 82f0 65bb badd e43a 29d4 3bbd 05bd c6bc
000003d0: 9415 543b 4fd3 7bbc 1cdb 68bd 2e3f 69bd
000003e0: 17aa d839 e78b 1dba 263d d839 bc41 1dba
000003f0: 46ab f2bc 542d 67bd f245 d839 0349 1dba
-0.09272755 -0.10715767 0.060628146 0.0060586217 0.020856386 -0.022801343 0.015097612 -0.011335174
0.02058617 -0.023087973 0.06280981 -0.05809498 -0.024314962 -0.0150403455 -0.033373076 -0.06594374
0.0005699798 -0.031415243 0.00033499478 -0.056952965 0.018765023 -0.022702426 0.06313061 0.008518381
0.0032651122 -0.007704027 -0.00064884627 0.023217816 -0.01955296 -0.023377737 0.045616508 0.0017880987
0.020090202 -0.023116464 0.00042353556 -0.0007106974 0.023140907 -0.0046871975 -0.02929877 -0.06050769
0.057807636 -0.012257343 0.008313834 0.018025497 0.090811744 0.027696606 -0.0041678734 -0.018428236
-0.016173808 -0.04002222 0.028452601 -0.019377075 0.01958698 -0.02348828 0.044302225 -0.01257501
0.00044488782 -0.0007501767 0.0004440607 -0.00074885174 -0.020483134 -0.18531105 0.0004441207 -0.00074898225
0.000446334 -0.00075290253 0.00044687584 -0.0007537741 -0.0051606563 -0.03027259 0.054465514 0.07211193
0.011013358 0.0021599021 -0.02787258 -0.015549419 0.028605783 -0.03706889 0.0004441016 -0.00074898964
-0.021826493 -0.036056843 0.01982819 -0.023300184 0.000373036 -0.00061993394 0.00044431683 -0.0007490037
-0.019514438 -0.031182948 -0.02088276 -0.01668815 -0.012492372 -0.015455979 0.034372456 -0.08213896
0.020219067 -0.023129186 0.00044682762 -0.0007535623 0.00044652188 -0.0007532831 0.034706976 -0.005146717
-0.022175038 -0.021916497 0.010720039 0.016888276 0.00044542665 -0.00074961764 0.047608003 -0.01682877
-0.00087241916 0.0009820241 -0.0049997857 -0.042532608 0.04465876 -0.0041915546 0.025146643 -0.0065030507
-0.01392765 -0.04567813 0.027775947 -0.0067456523 -0.008349709 -0.002873237 -0.008769821 -0.02172873
0.019531317 -0.008846965 0.005790712 -0.015746986 0.021971872 -0.022201952 -0.0015225713 -0.057138756
-0.0026986701 -0.047580466 0.00044617272 -0.0007515648 -0.0032101604 -0.064840645 -0.0033421225 0.0015359302
0.003545732 -0.0075928997 0.005817715 0.039589774 -0.01470484 -0.05181751 0.0004460172 -0.0007523047
0.018312693 -0.024052363 0.031903643 0.02843627 0.00044576515 -0.00075180957 -0.0002557989 -0.0067448025
-0.020513339 -0.03957968 0.05916611 0.040289357 0.00043740208 -0.041261744 0.00044656696 -0.00075268286
0.004956157 -0.03004948 0.007838387 -0.06057728 -0.007367678 -0.03874423 0.00044610872 -0.0007513945
0.00044531623 -0.0007509698 0.00044664528 -0.0007528876 0.032212127 -0.047564007 0.020392658 -0.023064058
-0.0110917445 -0.0053377585 0.00044514186 -0.0007506846 -0.010546535 0.0007710216 0.035579633 0.032275513
-0.11406335 -0.0084901275 0.038994674 0.11549775 0.003080754 -0.015788233 0.020812638 0.04883683
0.0031025258 -0.01581787 -0.09585832 -0.0022985858 -0.034531362 -0.03634189 0.060574785 0.04238484
-0.01802059 -0.022898033 0.006977606 0.01923188 -0.020624915 -0.010929198 0.0008193218 -0.01322757
-0.020997243 -0.017411219 -0.013702441 -0.0050184038 -0.031511642 -0.00096310704 0.032684445 -0.0044940826
0.0031547502 -0.01551184 0.00039208698 -0.0005678495 -0.078304134 -0.0637521 -0.035454236 -0.03876887
-0.0061847456 -0.051293664 0.033914477 0.029177612 0.047749467 0.005970645 -0.0022903506 -0.0440542
-0.003508598 0.0017461099 -0.04585663 -0.024260053 0.0032361494 -0.015370204 -0.056849584 -0.05694502
0.00041325457 -0.0006009922 0.0004124429 -0.000599887 -0.029622685 -0.056439713 0.00041250844 -0.00059999543

rios_f.RIOS_H.rnn_cell1.weight_hh f4 [384, 96]
00000000: d569 6d3d d4c7 2839 ab58 0ebe ff79 cd3b
00000010: 2b7b 0e3e 2644 08bd ee2f 9f3b 242a b7bd
00000020: e43d a6bd 6c34 63bd 8920 bebc 42f5 96bd
00000030: a1d6 e73d bae5 223d 9e8c 523d e29f 49bd
00000040: 7a7c 0e3e 99ed 453c 34ed be3c ded0 0a3e
00000050: d2f8 59bd 9344 d4bd abf7 3abd 289f 40bd
00000060: b93b dfbb 6414 043e e2ab 0e3e 1182 c33d
00000070: 7b72 4c3c ad3d 4c3c 59a2 c93c 9c43 4c3c
00000080: eae3 4cbc f000 4d3c 2866 f23c 8cf7 073d
00000090: ace6 d33b 6a7e 70bd b7b2 10bc 7344 4cbc
000000a0: fdad ab3c b39a 0ebe 8998 363c fc40 4cbc
000000b0: c4c6 54bc 9bbe 863d 6062 a8bd 886e 14be
000000c0: 3181 0e3e adf9 4c3c 8aee 4cbc 790a 0b3d
000000d0: 9fb1 af3d f292 cfba d742 4c3c d1f0 be3c
000000e0: 6e4e aabc d50d 2bbe 9565 733d cdf5 1abd
000000f0: f058 cfbd 8704 cb3c 2fb4 df3d 35b1 783d
00000100: 8637 c83a a41f 12bc 151b 0e3e ff94 08bd
00000110: cfca 87bd 169a 4cbc 998f 30bd 201a 86bd
00000120: 1044 4f3c 239b e9bc a68b 313c 23cb 4c3c
00000130: 99ef 0ebe e1ed 853c b2b6 4c3c 65e4 f03c
00000140: 1c8a cf3d f5c0 bd3b 4f49 87bd 31cd 4cbc
00000150: 065d 4e3d 0a2e ee3d cb6a 9ebd 6692 4cbc
00000160: 0594 4c3c 1ad7 4cbc c4a0 083d f376 0e3e
00000170: 0530 c93c 8686 4cbc c4be 543d a426 f13b
00000180: 04b5 0dbb b551 76bc 44a0 c0bd b5a9 813c
00000190: 0194 c03d 17f5 92bc 56f6 3fbb bfe3 bdbd
000001a0: 7f66 47bd c57e 11bd 8a84 84bd 7675 b0bd
000001b0: 02c2 b43d ae96 043d 1af6 893c 13e4 07bd
000001c0: b3a0 c03d bdc3 c23b a4cf a03d 2e1c c63d
000001d0: fb13 a63c 5b0f 6abd 84a2 54bd c586 c1bc
000001e0: 6b10 a73c 2ec2 ca3d b198 c03d 64ae 463d
000001f0: 7127 c93b 1cf2 c83b 8654 cabc 63f7 c83b
00000200: 9995 c9bb 20b6 c93b 8295 a13b 8970 edbb
00000210: a3ac a1bb 9125 7dbd a3a8 eebc 92f7 c8bb
00000220: d011 01bc e499 c0bd 85ac b33b 9df8 c8bb
00000230: fb1f dabc c58a f43c a598 53bd 737d a5bd
00000240: fc9a c03d 31af c93b 18a2 c9bb 7da6 1a3d
00000250: 8f4d 693d a823 57bc 0a0e c93b e4b0 3c3d
00000260: dfa9 6e3c b5ae b6bd 2ba1 1cbb 781b d5bc
00000270: b727 a8bd 77ac b53b 6f86 b23d 66b9 083d
00000280: 3a2b 1cbc 5051 85bb 97a0 c03d 93f9 cabc
00000290: 1be8 10bd ca5c c9bb ea89 05bd f5f0 01bd
000002a0: 6359 633c c589 c13c da5e a9bc 767d c93b
000002b0: 1f96 c0bd 07d8 2e3c 8d69 c93b acb5 c83c
000002c0: a85e 443d 0207 1bbc a073 f7bc 558a c9bb
000002d0: b5c6 253d 64f6 7d3d 19a4 32bd ed55 c9bb
000002e0: c647 c93b 1893 c9bb 0807 8e3b 309e c03d
000002f0: 9cd6 1f3d 223b c9bb ff51 3f3d 4221 2bbd
00000300: 2263 1cbc 78b9 a4bc 3b3a 1bbd 3751 663c
00000310: ad27 1b3d e389 8f3c 1f17 063c 9483 03bd
00000320: 1d2c c9bc 75c7 b1bc 6d55 01bc 8a81 ccbc
00000330: 1cb4 093d 6990 ce3c bf78 973c 31b1 8abc
00000340: 752b 1b3d 3fe5 7d3b c744 cebb 7194 263d
00000350: 0f10 d1bc 1056 79bc 828e b7bc 57dc 48bc
00000360: eab2 e83b 5d20 063d d91c 1b3d dbb2 d33c
00000370: b9f8 823b 02d6 823b 70dc 7bbc 4dd9 823b
00000380: 003f 83bb b055 833b c09a 32bc b7b0 7ebc
00000390: baac d33b 3bed ed3b 2f62 99bc 61d9 82bb
000003a0: 1736 093c 3e21 1bbd 30b7 6a3b 57db 82bb
000003b0: 60b4 96bc 6081 783c 8835 2dbc 415a c0bb
000003c0: 6327 1b3d 5151 833b 3d48 83bb 0f6a 733c
000003d0: 37f1 f93c e898 06bb 90ee 823b 4693 643c
000003e0: 2dd1 2bbc 1163 57bc 1edb 9f3c 55ce 2c3b
000003f0: f31b efbc 4691 29bc 694b a63c da29 923c
0.057962257 0.0001609617 -0.13901012 0.0062706466 0.13914172 -0.033268116 0.0048580086 -0.089435846
-0.081172734 -0.055469915 -0.023208873 -0.07370998 0.11320234 0.039769866 0.051403634 -0.04922474
0.13914672 0.0120805735 0.023306467 0.13556239 -0.05321581 -0.10364642 -0.04564635 -0.047026783
-0.0068125394 0.12898403 0.13932756 0.095462926 0.012478466 0.0124658765 0.024613546 0.012467291
-0.012505511 0.012512431 0.029589728 0.033195063 0.006466707 -0.058714308 -0.008831671 -0.012467491
0.020956988 -0.139262 0.011144766 -0.012466665 -0.012986843 0.06579324 -0.082218885 -0.1449529
0.1391647 0.012510699 -0.012508044 0.033945534 0.085788004 -0.001583664 0.012467108 0.02330819
-0.020789351 -0.16704495 0.059423048 -0.03783207 -0.10124385 0.024782432 0.10923039 0.060715873
0.0015275336 -0.0089186765 0.13877518 -0.03334522 -0.066304795 -0.012487909 -0.043105695 -0.06547952
0.012650505 -0.028516358 0.010836517 0.012499603 -0.13958587 0.016348781 0.01249473 0.029405782
0.10133764 0.0057908245 -0.066057794 -0.012500093 0.050381683 0.11629875 -0.07735213 -0.012486076
0.0124864625 -0.012502456 0.033356443 0.13912563 0.02455903 -0.012483245 0.05193974 0.0073593426
-0.0021622786 -0.015034129 -0.09405568 0.015827993 0.094032295 -0.017939134 -0.0029291115 -0.09271955
-0.048681732 -0.035521287 -0.06470592 -0.08616154 0.088260666 0.03237026 0.016840983 -0.033176493
0.09405651 0.005943744 0.07852104 0.096733436 0.0202732 -0.05714355 -0.0519128 -0.023623833
0.02039357 0.09900318 0.094041236 0.048506156 0.006138735 0.0061323773 -0.024698507 0.0061330064
-0.0061518666 0.006155744 0.004931153 -0.0072460813 -0.00493391 -0.061803404 -0.029133147 -0.0061330283
-0.007877782 -0.09404352 0.0054832124 -0.0061331526 -0.026626578 0.029851327 -0.051659245 -0.08080568
0.09404561 0.0061549176 -0.0061533563 0.03775643 0.05695873 -0.01313106 0.006135707 0.046067134
0.014566868 -0.089200415 -0.0023899775 -0.026014075 -0.082107 0.005544241 0.087170474 0.033379935
-0.00953179 -0.004068531 0.0940563 -0.02477721 -0.035377603 -0.0061450945 -0.03260223 -0.031723935
0.013876292 0.023625264 -0.020675112 0.0061489893 -0.09403633 0.010671622 0.006146616 0.02450069
0.047941834 -0.00946212 -0.030206501 -0.0061505237 0.040472705 0.062002555 -0.043613527 -0.0061442764
0.0061425893 -0.006151568 0.0043343343 0.09405172 0.039023027 -0.0061410824 0.046709057 -0.041779764
-0.0095451195 -0.02010797 -0.03789733 0.014057449 0.037879635 0.017521804 0.008184223 -0.032107905
-0.024557168 -0.021701554 -0.007893902 -0.024964113 0.03361903 0.025215345 0.018490193 -0.016930195
0.03788324 0.0038741378 -0.00629482 0.04066891 -0.025520353 -0.015218273 -0.02240682 -0.012259564
0.0071014063 0.032745708 0.03786931 0.02584212 0.003996935 0.003992797 -0.015372381 0.0039931894
-0.004005313 0.0040080175 -0.010901153 -0.015545062 0.0064597996 0.007260946 -0.018723575 -0.0039931987
0.008374712 -0.0378735 0.0035814755 -0.0039934325 -0.018396556 0.015167564 -0.010571845 -0.005870134
0.03787936 0.0040074964 -0.004006414 0.014856829 0.030510528 -0.0020537917 0.003995724 0.013951128
-0.010486883 -0.013146178 0.019513663 0.00263681 -0.029188132 -0.010349577 0.02029963 0.017842222

rios_f.RIOS_H.rnn_cell1.bias_ih f4 [384]
00000000: b844 2d3e 0b48 1f3e 92ce 0b3e e2d9 c43d
00000010: f294 0b3e 209c 533e bdb0 c93d 2b8d 333e
00000020: aea6 133e 4966 703e 7737 ed3d d103 2d3e
00000030: 49aa 2b3e 2c23 193e 5ae7 143e 7801 f43d
00000040: 53a1 0b3e 8244 b13b b82a 1e3e acda 3a3e
00000050: 5322 1f3e 593b 213e f22d 593e 89a1 f93d
00000060: 51b4 3f3e 7484 243e 1371 0b3e a762 0f3e
00000070: 6c91 ba3b 5c41 ba3b 1f23 0e3f 2f49 ba3b
00000080: 0134 bb3b a866 bb3b d5fd 163e 6dcd 383e
00000090: 0159 cf3d 3686 023e a402 1c3e 7f49 ba3b
000000a0: 6fc0 253e ca80 0b3e ffa7 9b3b 7f4c ba3b
000000b0: 59da 363e 4357 e03d 01d4 bd3d 60cf 2c3e
000000c0: f993 0b3e 5f5c bb3b 1348 bb3b 2f20 163e
000000d0: f6a3 1e3e 0ddc cd3d 6577 ba3b 042c 193e
000000e0: 510b 2b3e a5eb 233e eee0 263e 9693 ea3d
000000f0: 4b51 193e e9c2 043e 338e 1a3e d461 d93d
00000100: 0095 033e 2773 d83d d014 0c3e 0ab1 453e
00000110: dd99 283e 06e8 ba3b c7de 113e c445 373e
00000120: 4c2b 133e 086f b73e cc9c 263e 6f10 bb3b
00000130: 4d1b 0b3e c38c a73d 4df3 ba3b 83bd 253e
00000140: 41e7 e43d b16d 633e 6b32 1e3e 0f29 bb3b
00000150: 325e 1f3e 7e31 2a3e 46dd 063e 1bde ba3b
00000160: 3fc1 ba3b 5635 bb3b ce82 1d3e 31af 0b3e
00000170: 3a99 c93d b5ae ba3b 5d93 183e 3209 433e
00000180: fe38 e2bd f5d0 493c 0ae2 ba3d fe9b 8d3d
00000190: 9108 bb3d 15e7 d23d de19 793d 21a1 f63d
000001a0: 8bed b93d 92b5 c83d f9c3 513d 0a81 b43d
000001b0: 1cc4 c73d 329b da3d 3baf 903d 94e4 ae3d
000001c0: 5caa ba3d a5f0 9c3b 80c7 363d 26e3 c63d
000001d0: a5ec 623d 0a5a c53d 2e6d c1ba d735 a93d
000001e0: 9c9f c03d 3a3b c33d c3d1 ba3d 554d ce3d
000001f0: b09a a53b 954f a53b 7b50 1cbe e956 a53b
00000200: 8732 a63b 0762 a63b 8a9c 843d 63b2 653d
00000210: b457 833d f482 9b3d 470e a43d 4457 a53b
00000220: fb85 163d 64d1 ba3d c3f4 883b 475a a53b
00000230: c6cf af3d cd94 8b3d 84ae 423d 1b30 be3d
00000240: 03d0 ba3d 6658 a63b 3545 a63b 516d ea3c
00000250: f648 db3d 2f4f b03d ba83 a53b ad3b 87bb
00000260: fcd6 b43d a135 e83d e1fc c73d 2e21 863d
00000270: 016e 653d d325 9f3d ef58 a93d 76af ac3d
00000280: 290c 983d 62f8 ab3d 2613 bb3d 6b2e 223d
00000290: 75a1 a23d 96ec a53b a77b 4b3d 5b4f b33d
000002a0: ee05 ad3d 28a0 493d 1915 ae3d 4211 a63b
000002b0: c290 ba3d 838c 743d ddf5 a53b 049a 883d
000002c0: 6534 953d 96f8 7f3d f2d6 a03d e128 a63b
000002d0: 0d7a 003e 7aeb f13d 7915 953d 6ce3 a53b
000002e0: 48c7 a53b 4634 a63b 7ad2 e23b 15de ba3d
000002f0: d03b ec3c 03b6 a53b 2a19 673d 0723 bf3c
00000300: ee14 a0be c357 31be 2627 8fbe 7aca f83d
00000310: 6bd2 8e3e 7c19 b93e 6574 f23d cb5e 8abe
00000320: 6a71 5bbe db64 cbbd aedd 0cbe a34b fabd
00000330: 2613 963e 0c4f 6c3e a5c2 5b3e a70d ebbd
00000340: 722f 8f3e d82c d93c d1e8 32be fa83 a53e
00000350: 9dc8 4ebe c7a2 c3bd 45f6 d1bd 77a7 c1bd
00000360: 6aaf 223d 9943 833e 01ec 8e3e 4bff 4c3e
00000370: c49f df3c 7b63 df3c 0015 903d a267 df3c
00000380: 2b0f e0bc b83d e03c 5224 40be 10f6 9cbe
00000390: 1ad2 063e 1e45 1a3e 4653 57be 8766 dfbc
000003a0: 07ef 023e 8dfa 8ebe ba7d c93c ce73 dfbc
000003b0: f946 82be 8bee 0b3e 236d 63bd 2f01 ed3d
000003c0: b705 8f3e 5937 e03c 1723 e0bc be21 803e
000003d0: 29c1 8b3e 3d55 9fbd 29c3 df3c 25ea 26bc
000003e0: 291d 0fbe b5e8 6d3d fcb2 3d3e 372b 803d
000003f0: 9305 63be b2f2 62be 2c46 123e cd52 243e
0.16920745 0.15554826 0.13653019 0.0961187 0.13631037 0.20665026 0.09848163 0.1753432
0.14419052 0.23476519 0.11582845 0.16895987 0.16764177 0.14954823 0.14541379 0.11914343
0.13635759 0.005409778 0.15445983 0.18247479 0.15540437 0.15745296 0.21208933 0.121890135
0.18721129 0.16066152 0.13617353 0.14002477 0.005693605 0.005684061 0.5552234 0.0056849937
0.0057129865 0.0057190247 0.14745267 0.18047114 0.10124398 0.1274651 0.15235382 0.005685031
0.16186689 0.13623348 0.0047502513 0.0056853886 0.1785673 0.10954144 0.09268952 0.16875982
0.13630666 0.0057177986 0.005715379 0.14660715 0.15492234 0.10051737 0.0056905025 0.14958197
0.16703536 0.1600786 0.16296741 0.11453931 0.14972417 0.12964977 0.15093307 0.10614362
0.12849808 0.105688386 0.13679814 0.19305816 0.16464944 0.005703929 0.14245139 0.17897707
0.14371985 0.35826898 0.16270751 0.005708746 0.13584633 0.08181145 0.0057052732 0.16185574
0.11176921 0.22209813 0.1544892 0.0057116817 0.15563276 0.16620442 0.13170347 0.0057027466
0.0056993063 0.0057131452 0.1538193 0.13641049 0.09843679 0.005697096 0.14899965 0.19046476
-0.11046027 0.012317886 0.09125145 0.06914519 0.09132493 0.10297982 0.060815684 0.12042452
0.09078511 0.09800257 0.051212285 0.08813675 0.09754202 0.106741324 0.070646726 0.085396916
0.09114525 0.0047894293 0.04462385 0.09711294 0.055401463 0.09636314 -0.001475727 0.08262222
0.09405443 0.09532781 0.0912204 0.10073344 0.0050538406 0.0050448873 -0.15265076 0.005045761
0.0050719413 0.0050776037 0.0647517 0.056078326 0.064132124 0.07593337 0.08010536 0.0050458033
0.036748867 0.09121969 0.0041795685 0.0050461623 0.085845515 0.06815491 0.047529712 0.09286519
0.09121706 0.005076456 0.005074168 0.02861658 0.107072756 0.08608853 0.0050511034 -0.004126987
0.088300675 0.11338354 0.0976503 0.06549297 0.05601311 0.07770886 0.08268916 0.08431904
0.07424194 0.08396985 0.09134512 0.03959505 0.07940952 0.0050636036 0.04967847 0.0875537
0.084483966 0.049225003 0.08500118 0.0050679753 0.091096416 0.059704315 0.0050647096 0.06670001
0.07285384 0.06249293 0.078534976 0.005070791 0.12546559 0.11812492 0.07279486 0.005062511
0.0050591566 0.0050721494 0.0069220634 0.0912439 0.028837115 0.005057098 0.056420483 0.023332132
-0.31265968 -0.17318635 -0.27959555 0.12147994 0.2789491 0.36152256 0.11838607 -0.27025446
-0.21429983 -0.09931346 -0.13756439 -0.12221458 0.29311484 0.23077029 0.2146097 -0.11477213
0.27965885 0.026510641 -0.17471625 0.32327253 -0.20193715 -0.09552532 -0.1025205 -0.094557695
0.03971807 0.2563751 0.27914432 0.20019262 0.027297862 0.027269116 0.070352554 0.027271096
-0.027350983 0.02737318 -0.18763855 -0.3065648 0.13166085 0.15065429 -0.2102786 -0.027270569
0.12786494 -0.2792553 0.024596084 -0.0272769 -0.25444773 0.13665216 -0.055524003 0.115724914
0.27934048 0.027370142 -0.027360482 0.25025743 0.27295807 -0.0777993 0.02731474 -0.01018766
-0.13975967 0.058083255 0.18525308 0.062582426 -0.22170095 -0.22162893 0.14284581 0.16047211
