BRIOS/models/model_file/train_largedata/brios_base_extreme_32_46.pt (torch, 628642 bytes, 26 tensors)

rios_f.RIOS_H.rnn_cell0.weight_ih f4 [384, 2]
000000 c6 98 a8 3c b4 8c 6b 3c c8 11 29 31 c3 19 92 30
       0.02058066 0.014376808 2.4602844e-09 1.063022e-09
000010 6c ca 4a b7 e8 aa 31 37 8a 58 0f 34 df 61 53 33
       -1.2087268e-05 1.0589814e-05 1.3350123e-07 4.921628e-08
000020 84 27 12 31 73 a6 7d 30 df 34 e8 bb df 69 c3 3c
       2.1268258e-09 9.22774e-10 -0.007086381 0.023854194
000030 14 40 1d a9 35 c3 3b a9 82 76 20 31 97 4a 8b 30
       -3.4916582e-14 -4.1691656e-14 2.3350428e-09 1.0134781e-09
000040 36 2f af 3d 4f 87 36 3d 20 a8 11 b3 f5 cd 60 32
       0.08553927 0.044562634 -3.3913352e-08 1.3085345e-08
000050 1c 3f 11 35 58 bc b0 34 20 7b 27 bd 63 6e ae bd
       5.4108546e-07 3.2919593e-07 -0.040888906 -0.08517148
000060 8e bd 23 a9 a4 87 47 a9 40 17 a1 b1 e5 11 b8 32
       -3.6357683e-14 -4.4304526e-14 -4.68836e-09 2.1428557e-08
000070 9b 3c aa b6 f9 2f a1 34 42 49 e0 b2 41 1e 0a 33
       -5.07345e-06 3.0023492e-07 -2.6110346e-08 3.2158145e-08
000080 ce ae 1f a9 33 90 3d a9 9d c1 17 a9 f5 c9 37 a9
       -3.545671e-14 -4.2091503e-14 -3.3696668e-14 -4.0809333e-14
000090 a6 33 fc 30 0f f4 52 30 01 d0 33 b7 b3 dc 3a 37
       1.8350093e-09 7.6744383e-10 -1.0717661e-05 1.11378495e-05
0000a0 82 8e 13 b8 cd a1 29 37 3c 49 91 3b d2 26 fe 3c
       -3.5180252e-05 1.0110857e-05 0.004433779 0.03102437
0000b0 a8 cc 1d 31 3b 9f 88 30 b4 92 40 31 ae 54 c8 32
       2.296284e-09 9.940558e-10 2.8023068e-09 2.3321572e-08
0000c0 4b 64 44 39 c0 6b d4 38 2d 6e 29 a9 f9 97 47 a9
       0.00018729379 0.00010129018 -3.76211e-14 -4.431869e-14
0000d0 8e a8 1e 31 92 fe 89 30 2d d9 04 35 90 0b 86 34
       2.3087838e-09 1.0040415e-09 4.9489864e-07 2.4967858e-07
0000e0 35 38 e0 b6 36 f4 3f 35 ef 23 42 37 29 6f 4c 37
       -6.6822636e-06 7.150842e-07 1.15716675e-05 1.2185229e-05
0000f0 b2 a5 6c 37 23 02 75 36 d0 c9 5f 3b 65 3d c7 3b
       1.4105275e-05 3.6509089e-06 0.003414739 0.006080317
000100 b2 5b 29 a9 b7 56 48 a9 dd 58 29 a9 b3 5a 48 a9
       -3.760507e-14 -4.4484134e-14 -3.7602615e-14 -4.448759e-14
000110 b7 3d 65 bd 75 aa 0e 3e cf 33 01 36 a8 b6 c5 35
       -0.05596706 0.13932212 1.9252655e-06 1.4730804e-06
000120 c8 28 17 a9 f6 59 37 a9 36 53 29 a9 9a 60 48 a9
       -3.3564107e-14 -4.071219e-14 -3.7597712e-14 -4.449271e-14
000130 09 74 28 3e 2b 1e 47 3e 61 34 3c 31 91 3e a3 30
       0.16450514 0.19445102 2.7387375e-09 1.1877593e-09
000140 67 52 64 33 7b 61 3a 33 50 00 28 a9 ae 7e 48 a9
       5.316033e-08 4.3395158e-08 -3.7303765e-14 -4.4518798e-14
000150 bd a7 02 3a fe 78 8f 39 fe 79 29 a9 5b d1 47 a9
       0.00049841014 0.00027365232 -3.763135e-14 -4.4368463e-14
000160 8e 5d 9b b9 5d 4c 97 39 a6 d1 82 39 12 6f 22 39
       -0.00029633607 0.0002885786 0.00024951732 0.00015490901
000170 af 89 42 31 b1 ff a7 30 72 ba 35 31 55 7e 9e 30
       2.830898e-09 1.2223521e-09 2.6444948e-09 1.1531919e-09
000180 18 e7 4e 37 bb b9 19 37 66 79 29 a9 47 cb 47 a9
       1.23323625e-05 9.162754e-06 -3.7630835e-14 -4.436319e-14
000190 06 d1 4a 35 4e 07 84 35 e8 8b 8a 3d b5 8e a0 bc
       7.5555033e-07 9.836892e-07 0.06764966 -0.019599298
0001a0 87 a2 06 39 9b bf d9 38 43 d7 d8 37 6b 19 33 37
       0.00012839782 0.000103830556 2.5849446e-05 1.06751495e-05
0001b0 9a 99 81 3b 8b c6 0a 3c 1a 79 be 36 c9 fc ae 36
       0.0039550783 0.008470188 5.6765393e-06 5.215032e-06
0001c0 65 dc 1d 3d 67 4e 55 3c 73 c4 27 31 93 c6 91 30
       0.038540263 0.013019181 2.4413367e-09 1.0606577e-09
0001d0 73 69 95 37 61 9e 57 37 97 50 a8 37 6f c8 0d 37
       1.7811288e-05 1.2851874e-05 2.0064688e-05 8.450922e-06
0001e0 7c 7c 38 b2 a3 d9 ee 30 72 40 4b 33 ab c3 56 32
       -1.0738514e-08 1.7378635e-09 4.7323233e-08 1.2500929e-08
0001f0 67 9b b9 39 b6 be 19 39 56 5e 1a 31 78 ec 84 30
       0.00035401733 0.00014662262 2.2463573e-09 9.671473e-10
000200 7e da 1b 31 69 db 86 30 03 ef 25 a9 b2 12 43 a9
       2.2679667e-09 9.812143e-10 -3.684467e-14 -4.3314914e-14
000210 c1 42 10 3c ad 20 a2 3c 1e b4 8f 3d 84 ba 40 3e
       0.008804978 0.019790972 0.070167765 0.1882115
000220 7a ef 22 31 63 aa 8d 30 0b c9 86 3c 4c 0b 9e 3d
       2.371023e-09 1.0307527e-09 0.016453287 0.077169985
000230 0c b6 4b 31 09 ce b0 30 ac 24 d2 b5 a0 08 d7 35
       2.964387e-09 1.2864244e-09 -1.5656892e-06 1.6021258e-06
000240 fc ef b6 36 9a e6 83 36 95 8b d5 37 97 b4 ca 37
       5.4519605e-06 3.93095e-06 2.5456577e-05 2.416437e-05
000250 26 cb 7f 3b a0 5c 8b 3c 21 b0 24 31 32 b2 8e 30
       0.0039030998 0.01701194 2.3965259e-09 1.0382506e-09
000260 8a 7a 29 a9 f3 d4 47 a9 12 fc 34 31 c4 92 9c 30
       -3.7631824e-14 -4.437158e-14 2.6336733e-09 1.1392207e-09
000270 27 56 1d 31 1f 08 88 30 68 82 2d 35 ad 24 52 34
       2.2895479e-09 9.89761e-10 6.463729e-07 1.9571117e-07
000280 5c 0b 2c b3 a2 98 70 b1 4c 44 67 3c 98 23 9f 3b
       -4.0057202e-08 -3.5011358e-09 0.014115404 0.004856538
000290 be 92 b2 b7 3c 32 88 37 96 db 14 31 d5 cf 82 30
       -2.1287586e-05 1.6235856e-05 2.1661655e-09 9.517814e-10
0002a0 3a 55 29 a9 b4 5e 48 a9 3f 60 29 a9 a3 50 48 a9
       -3.759946e-14 -4.4491063e-14 -3.760902e-14 -4.4478862e-14
0002b0 c9 9c 25 a9 40 c0 42 a9 f3 ba d5 3c 76 11 da bc
       -3.677335e-14 -4.3243404e-14 0.02609012 -0.026619654
0002c0 bb bb 26 a9 b3 69 48 a9 a1 3c 76 33 25 50 a8 34
       -3.7022235e-14 -4.45006e-14 5.733148e-08 3.135075e-07
0002d0 60 47 00 2f 01 a3 55 2e 4d d4 05 3a 71 4c 3b 3a
       1.166689e-10 4.857537e-11 0.00051051826 0.00071448745
0002e0 54 17 97 b8 3b 41 d0 37 7c 61 20 31 07 86 8b 30
       -7.204586e-05 2.4825908e-05 2.3338478e-09 1.0151674e-09
0002f0 3d ea 4c 3b 87 05 20 3a 3f ba 02 31 46 8f a5 30
       0.0031267547 0.0006104339 1.9023358e-09 1.2046051e-09
000300 45 ad e9 bc e8 ea 28 3d d9 82 31 38 90 5b 87 37
       -0.028525004 0.04123965 4.232195e-05 1.6135891e-05
000310 43 cc 02 3a 0f 07 b1 ba 6e 7b 65 36 89 72 7f b8
       0.0004989544 -0.0013506132 3.4195505e-06 -6.0903407e-05
000320 03 48 26 38 8f f6 7a 37 4b d3 10 3b 98 ac 94 3d
       3.964455e-05 1.4958568e-05 0.0022098597 0.07259482
000330 ea d5 d6 aa 29 03 83 aa c3 9b 2d 38 8b 99 83 37
       -3.816247e-13 -2.3272467e-13 4.139148e-05 1.5687916e-05
000340 62 9d 59 bd c0 d2 21 be 68 87 1e b7 5e ec 5b b8
       -0.053128608 -0.15803051 -9.449061e-06 -5.2433803e-05
000350 3e 5e 65 38 ee 6e 00 b9 0b 77 25 bd 2b 89 ca 3c
       5.4685624e-05 -0.00012248356 -0.04039673 0.02472361
000360 74 5a ed aa 77 fc 96 aa a7 f0 85 b8 36 89 0b b5
       -4.2162422e-13 -2.6820535e-13 -6.386759e-05 -5.1981203e-07
000370 c5 89 c8 b9 a4 fb 72 39 14 54 c7 38 0e d4 a1 38
       -0.0003824962 0.00023172662 9.50472e-05 7.7165765e-05
000380 26 4c d8 aa 4e b2 83 aa f3 64 d3 aa 77 3f 81 aa
       -3.8422146e-13 -2.3393998e-13 -3.7551177e-13 -2.295904e-13
000390 6d c2 18 38 09 a2 72 37 0a e8 52 39 e6 d5 8f 39
       3.6420697e-05 1.4462051e-05 0.00020113602 0.00027434452
0003a0 87 0c e5 3a 06 3c 6f ba 1e b2 b1 3c 1e 4f c2 3c
       0.0017475047 -0.00091260707 0.021691378 0.023719367
0003b0 c0 b6 2b 38 9a 40 82 37 5c 5a 08 b8 87 2e 3c b8
       4.0939776e-05 1.552729e-05 -3.250908e-05 -4.4866025e-05
0003c0 bd 22 fc 39 94 91 83 3a c2 da e2 aa ef 9a 8a aa
       0.00048091068 0.0010037892 -4.0297458e-13 -2.462123e-13
0003d0 fd be 2c 38 32 a5 82 37 9c 0d c5 37 ae 97 75 37
       4.1185867e-05 1.5574133e-05 2.3490567e-05 1.4638454e-05
0003e0 b5 c6 f6 39 69 32 e8 39 31 5b a9 39 e3 64 c6 3a
       0.00047068825 0.00044288047 0.00032302135 0.0015136268
0003f0 9c 80 26 3a 0f a4 5e 3a 09 04 84 3c fc 01 60 3a
       0.0006351562 0.00084930746 0.016115205 0.00085452176

rios_f.RIOS_H.rnn_cell0.weight_hh f4 [384, 96]
000000 80 8c 8a 3c 4c a9 22 bd 0d f9 12 3c 7e 41 cd 3c
       0.016912699 -0.039712235 0.008970511 0.025055643
000010 58 97 22 3d 31 45 90 bc 35 1c b2 b2 1d a1 22 bd
       0.039695114 -0.017611118 -2.0734754e-08 -0.03970443
000020 37 65 7a bc be 44 98 bc 6e 49 ae bb 0b 3f 95 bb
       -0.015282921 -0.018587466 -0.005318812 -0.0045546344
000030 df 18 da 32 ab e5 0d bd fa 5c 82 bb 08 be e7 3c
       2.538985e-08 -0.034642857 -0.003978369 0.028288856
000040 38 59 b4 b2 0a f7 ac b2 38 e8 25 3d b9 3e 2b bc
       -2.099533e-08 -2.0135776e-08 0.040504664 -0.010451966
000050 c9 98 af bb 93 ee 0e 3b ae 99 22 3d 25 bf 07 ba
       -0.0053587896 0.0021809682 0.03969734 -0.0005178324
000060 5e 6f de bc d2 6a c8 b2 b6 a1 22 bd 1d e3 6a 3b
       -0.027152713 -2.333164e-08 -0.039705 0.0035840936
000070 f7 0a 4d 3c 11 b3 8a 3c ea 9f a0 3c 44 75 03 3d
       0.012514821 0.016931089 0.019607503 0.032094255
000080 3b c8 ca b2 df d7 ca 32 66 cb 1b 3b 2f 6a dc 3c
       -2.360695e-08 2.3614062e-08 0.0023772358 0.026906101
000090 6d 5e ac b2 12 f0 ca 32 d5 d6 51 3d 2c b6 22 bd
       -2.0066375e-08 2.3625066e-08 0.05123027 -0.039724514
0000a0 c8 f2 eb 3c 69 b5 cc 32 f4 4d 4d bc ef 0d c9 b2
       0.02880229 2.3831221e-08 -0.0125307925 -2.3405816e-08
0000b0 3e 2d b3 bb ed ef ea 3b f7 b1 22 bd fa b1 22 bd
       -0.00546804 0.0071697147 -0.0397205 -0.039720513
0000c0 da bb 10 3d af fb c8 b2 1c d7 57 3c 0d 7b 09 bb
       0.0353354 -2.3397517e-08 0.013173845 -0.0020977885
0000d0 70 c4 de 3b 78 f2 f0 3b 7c e1 bc bc 70 30 eb 3c
       0.0067983195 0.0073531233 -0.023056738 0.02870962
0000e0 43 f9 61 39 37 a6 22 3d 69 84 ad bc 96 e0 8b 3c
       0.0002155053 0.039709296 -0.021181302 0.017074864
0000f0 e0 97 93 bc 00 75 f7 3c be e5 d2 3c 23 93 22 3d
       -0.018016756 0.030207157 0.025744315 0.0396911
000100 9c 9e 22 3d d6 2e be 32 36 3f f0 3c 97 e6 ea 3b
       0.039702043 2.214021e-08 0.029327016 0.0071686017
000110 b9 a7 22 bd 26 99 7f bc f8 bd 22 bd 41 2b 77 bc
       -0.039710734 -0.015600478 -0.03973195 -0.015085996
000120 18 aa 0e 3d 2d 4e 6b bb 62 78 e7 bb 9e a2 22 bd
       0.034830183 -0.003590475 -0.0070639113 -0.039705865
000130 29 18 c9 32 cc aa 22 bd fa 9e 22 3d 33 81 20 3b
       2.3410466e-08 -0.039713666 0.039702393 0.0024491071
000140 50 9c aa 3c ff f3 0e 38 c2 0b 08 bb 8c a5 22 bd
       0.020826489 3.4082677e-05 -0.0020758961 -0.03970866
000150 45 e8 ca 32 c8 b0 ca b2 ad 87 bd b2 4d b5 34 bc
       2.3621519e-08 -2.3596286e-08 -2.2064194e-08 -0.011029554
000160 fd 01 ce 32 b2 f7 84 bb ec de 06 3d c5 1d ad bc
       2.398246e-08 -0.004057848 0.03292744 -0.02113236
000170 ad d0 a3 bc d2 9f 22 3d 20 8c 65 3c ea f6 5b 3b
       -0.019996965 0.039703198 0.014010459 0.003356392
000180 3e 1b 5c 31 24 0c 73 b1 dc e3 19 b1 e4 d4 97 ae
       3.20297e-09 -3.5368055e-09 -2.2393953e-09 -6.904502e-11
000190 82 b8 72 31 ac 86 02 b1 79 fc 90 27 f5 e6 72 b1
       3.5320515e-09 -1.8994042e-09 4.024176e-15 -3.5346919e-09
0001a0 5c 0a 9a b0 ab c1 c4 af e6 2a f9 ad b0 de c2 b0
       -1.1207919e-09 -3.5789802e-10 -2.8327073e-11 -1.4178649e-09
0001b0 01 82 a9 a7 77 10 0d b1 dc e2 50 af 17 e2 06 31
       -4.7047873e-15 -2.052756e-09 -1.8998086e-10 1.9628084e-09
0001c0 eb 75 91 27 f8 78 8f 27 ff 74 73 31 df e7 69 30
       4.037343e-15 3.9821628e-15 3.5427659e-09 8.5094415e-10
0001d0 10 ad 57 af 95 eb 03 b0 82 a7 72 31 b6 14 b7 30
       -1.961562e-10 -4.7992305e-10 3.5310852e-09 1.3320889e-09
0001e0 7e b6 90 af b8 91 98 27 ab cd 72 b1 06 94 1c 30
       -2.6323116e-10 4.2346464e-15 -3.5332544e-09 5.6962823e-10
0001f0 e9 32 01 30 93 42 2c b1 44 ce 2a 31 b0 9a cd 2f
       4.7002274e-10 -2.5067137e-09 2.4855504e-09 3.7399195e-10
000200 5a 3a 99 27 60 3e 99 a7 21 e5 50 2f 73 8b 53 30
       4.2529296e-15 -4.2533658e-15 1.8998893e-10 7.695952e-10
000210 27 49 8f 27 27 44 99 a7 b3 2c 58 31 57 15 73 b1
       3.9769785e-15 -4.253992e-15 3.1457545e-09 -3.5373284e-09
000220 74 c0 c1 30 71 6a 99 a7 d6 bb 83 30 76 c2 98 27
       1.4097297e-09 -4.2581435e-15 9.584891e-10 4.239931e-15
000230 5c a8 60 b0 12 e8 22 b1 86 17 73 b1 bd ef 72 b1
       -8.172998e-10 -2.370602e-09 -3.5374526e-09 -3.535191e-09
000240 57 7c 14 31 10 bd 98 27 53 a7 6d b0 da bf 99 b0
       2.1607514e-09 4.2393457e-15 -8.645788e-10 -1.1186743e-09
000250 3e f0 cf af 1b 97 a8 30 51 1f 55 31 da 9b 17 b1
       -3.7823783e-10 1.2266556e-09 3.101338e-09 -2.2061983e-09
000260 32 b6 4b b0 e2 d7 72 31 52 15 cb b0 3a 9f 05 b1
       -7.4109885e-10 3.533835e-09 -1.4776254e-09 -1.9444557e-09
000270 10 1a 5a b1 09 10 3d b0 e8 11 70 b0 ac c9 72 31
       -3.173799e-09 -6.8780587e-10 -8.733694e-10 3.5330272e-09
000280 ad f6 72 31 db f3 94 a7 96 cc 0c 30 ae 1b 6d b0
       3.5355854e-09 -4.134264e-15 5.122244e-10 -8.6259433e-10
000290 c8 e4 72 b1 1d c9 78 2f 6b 0b 73 b1 6d a9 8d 2f
       -3.5345682e-09 2.2626918e-10 -3.5367644e-09 2.5768135e-10
0002a0 7d f5 4a 31 cf 60 45 b1 97 84 3d 30 92 ca 72 b1
       2.9534413e-09 -2.8722302e-09 6.894622e-10 -3.5330783e-09
0002b0 55 c5 98 a7 b4 f4 72 b1 a7 f5 72 31 36 51 6d 30
       -4.2402423e-15 -3.5354732e-09 3.5355272e-09 8.6335505e-10
0002c0 c1 bf e1 30 fc 8e b7 ae 01 c0 5a 31 c3 9f 72 b1
       1.6425404e-09 -8.3472756e-11 3.1832317e-09 -3.5306449e-09
0002d0 4f 42 99 a7 af 34 99 27 f8 b4 94 27 52 16 1b 31
       -4.2537923e-15 4.252315e-15 4.127446e-15 2.2568156e-09
0002e0 7c 94 99 a7 9b 56 4d 31 c0 d6 0c 31 a3 a3 5f b1
       -4.2627018e-15 2.9880656e-09 2.0494753e-09 -3.2543788e-09
0002f0 c9 48 80 b1 ab dd 72 31 22 4d 35 b1 eb aa b7 2f
       -3.733565e-09 3.5341639e-09 -2.6382811e-09 3.340895e-10
000300 b5 8e 9c b6 6f e0 4f b7 4d 09 da 36 48 86 00 b7
       -4.6657756e-06 -1.23904165e-05 6.497989e-06 -7.660659e-06
000310 f4 17 50 37 f0 2d 4a b7 33 8c f0 2d 7e fa 4f b7
       1.2403343e-05 -1.2050834e-05 2.7347102e-11 -1.2396484e-05
000320 35 1b 35 36 cd f0 c9 b6 8c dd 3b 37 b7 da 54 b6
       2.6986938e-06 -6.0182997e-06 1.11976515e-05 -3.171777e-06
000330 92 ad 12 ae 32 8b 06 b7 b7 a9 b6 36 18 70 0f 37
       -3.3350718e-11 -8.019431e-06 5.44378e-06 8.549563e-06
000340 fa d5 ef 2d df 77 f2 2d 50 42 52 37 42 26 56 b5
       2.7266179e-11 2.7565448e-11 1.2532415e-05 -7.9776885e-07
000350 b5 72 58 35 6a c8 63 35 d9 fc 4f 37 52 5a 01 b6
       8.063319e-07 8.485573e-07 1.2397032e-05 -1.9275071e-06
000360 9a 24 6d b6 e1 ee fe 2d 9a 0a 50 b7 e0 5e 18 b7
       -3.5337057e-06 2.898254e-11 -1.24002345e-05 -9.081996e-06
000370 3e d9 e2 b5 db 96 39 37 c9 2a 36 36 34 51 2e b6
       -1.6901538e-06 1.1061983e-05 2.7145018e-06 -2.5975287e-06
000380 2f 54 01 2e 1c 62 01 ae 40 90 38 b6 c7 43 e9 36
       2.9405974e-11 -2.9418343e-11 -2.7502101e-06 6.9518314e-06
000390 f5 a2 f2 2d 8c 78 01 ae b2 dd 43 37 b0 ca 4f b7
       2.7584582e-11 -2.943827e-11 1.1674523e-05 -1.2385353e-05
0003a0 21 dd 73 37 9e bb 03 ae 1c 60 1b b6 de d7 ff 2d
       1.4535414e-05 -2.995259e-11 -2.3152743e-06 2.9086008e-11
0003b0 57 28 e1 b6 1e 6b db 36 82 a3 4f b7 b1 e7 4f b7
       -6.7102187e-06 6.5391787e-06 -1.2376231e-05 -1.2392106e-05
0003c0 02 c0 a5 b5 54 bd ff 2d 82 50 97 b6 98 05 b7 36
       -1.234934e-06 2.9074222e-11 -4.509523e-06 5.454476e-06
0003d0 58 7c d8 36 c3 d0 47 34 97 6a 48 b7 e8 67 52 37
       6.451777e-06 1.8609266e-07 -1.1945746e-05 1.2541168e-05
0003e0 99 69 22 37 e6 f6 4f 37 db e9 2f b6 fc 9e cf 35
       9.680539e-06 1.2395647e-05 -2.6213154e-06 1.5468972e-06
0003f0 d1 9f 62 36 ec 20 0a b6 04 0e dd 36 e9 e3 4f 37
       3.376965e-06 -2.0582766e-06 6.587945e-06 1.2391226e-05

rios_f.RIOS_H.rnn_cell0.bias_ih f4 [384]
000000 1a 8c 5e 3d 26 c8 c1 31 58 df 75 37 97 c9 0f 34
       0.05433283 5.6397935e-09 1.4655139e-05 1.3391251e-07
000010 66 09 a9 31 15 da 5f 3d 85 5c 9c a9 29 cc b8 31
       4.919616e-09 0.05465134 -6.943841e-14 5.378315e-09
000020 a0 d3 69 3e 1b 3f 08 33 f2 f2 ea 34 6c f5 2e 3e
       0.22834635 3.172236e-08 4.3762662e-07 0.17085809
000030 50 28 ae a9 51 b3 4c 33 09 2b 09 38 13 e8 f4 32
       -7.7341454e-14 4.766054e-08 3.2703425e-05 2.8510874e-08
000040 10 1a 9e a9 65 5f 98 a9 d5 22 90 31 05 57 36 37
       -7.0211306e-14 -6.766704e-14 4.1949115e-09 1.0868306e-05
000050 c9 b7 07 38 8f f1 0d 3d 04 55 b5 31 84 1d 1e 33
       3.235767e-05 0.034654196 5.2774585e-09 3.6814086e-08
000060 6f d9 f3 38 bd d9 a8 a9 04 e9 b6 31 8c 3d e9 34
       0.00011627643 -7.49847e-14 5.323388e-09 4.3444413e-07
000070 49 43 3e 37 3c 47 66 37 8d e3 28 37 10 aa f2 3b
       1.1340549e-05 1.3725654e-05 1.0066561e-05 0.007405527
000080 a1 9f a9 a9 b3 a3 a9 a9 38 83 12 3e a8 8b 0e 36
       -7.532799e-14 -7.533505e-14 0.14307868 2.124094e-06
000090 fe ec 97 a9 58 a9 a9 a9 01 f2 34 3e 13 be d6 31
       -6.7468587e-14 -7.534484e-14 0.17670442 6.2498287e-09
0000a0 76 fb a7 33 91 a4 a9 a9 c3 ef 9b 39 94 16 a9 a9
       7.822284e-08 -7.5336554e-14 0.0002974254 -7.509024e-14
0000b0 08 4c 3c 3a d7 fd 54 39 4b 2b dc 31 35 52 d0 31
       0.00071829604 0.00020312458 6.4077645e-09 6.0629426e-09
0000c0 a3 13 45 37 27 10 a9 a9 b8 ca 9a 35 91 f2 9b 3d
       1.1746687e-05 -7.5079096e-14 1.1532893e-06 0.07614625
0000d0 a7 2f d5 38 3d e3 cf 37 a0 f8 0e 3c 12 f7 a0 37
       0.000101655074 2.4782139e-05 0.008726269 1.9188537e-05
0000e0 3a 79 6b 3d ff ae c0 31 3e 18 8a 37 82 71 a3 37
       0.057488658 5.60783e-09 1.646217e-05 1.948397e-05
0000f0 a3 45 ec 31 7b 52 80 33 fa 86 82 39 e9 e9 b0 31
       6.8764208e-09 5.9754676e-08 0.00024896098 5.1488667e-09
000100 6a 8d b3 31 0c ed a3 a9 aa 56 ca 3c 56 1d f5 3d
       5.2256626e-09 -7.279775e-14 0.024699528 0.11968486
000110 7d b6 bb 31 2d 08 88 3d 33 48 e7 31 f6 dc c0 36
       5.463163e-09 0.066421844 6.731193e-09 5.747769e-06
000120 1e d1 99 36 c4 0a cf 37 e4 a1 a5 3d 95 16 bd 31
       4.5840998e-06 2.4681336e-05 0.08087519 5.5031912e-09
000130 42 1a a9 a9 fd 63 ce 31 86 2e b5 31 78 b0 00 35
       -7.5096627e-14 6.0067564e-09 5.2730824e-09 4.794051e-07
000140 17 4f 9c 31 f6 60 6a 3d b2 65 04 38 e8 d2 ac 31
       4.549189e-09 0.057221375 3.1565964e-05 5.029836e-09
000150 9c a7 a9 a9 ac 99 a9 a9 64 93 a3 a9 58 b6 99 3d
       -7.534183e-14 -7.5317655e-14 -7.264222e-14 0.075054824
000160 6e 77 a9 a9 9d 58 07 35 8d 1b 0b 2f 7a fd f4 39
       -7.5258254e-14 5.042037e-07 1.2651764e-10 0.0004672816
000170 ec 98 9a 38 16 c8 b8 31 f5 e8 fd 3a 44 ac 39 31
       7.371776e-05 5.377852e-09 0.0019371795 2.7018965e-09
000180 8f 53 a3 3c 6f 1f b9 35 60 59 3c b9 30 0d 25 b7
       0.019937305 1.3792722e-06 -0.00017962372 -9.837837e-06
000190 fb bb 9e 35 e8 cf 1d 3d 65 6c 0d ab 84 ac ac 35
       1.1826627e-06 0.038528353 -5.024369e-13 1.2865207e-06
0001a0 ed d2 58 3d 56 cf d6 36 eb b4 8e b7 fa fb 0b bd
       0.05293553 6.401834e-06 -1.7011966e-05 -0.03417585
0001b0 b5 76 24 ab fc 4d 43 b7 b3 d4 23 b9 a8 d0 f3 b6
       -5.8429243e-13 -1.1641063e-05 -0.00015624128 -7.266255e-06
0001c0 1d e3 0d ab db 23 0c ab 9e d5 bc 35 9c f1 dd b8
       -5.0408446e-13 -4.978775e-13 1.4069262e-06 -0.000105831044
0001d0 71 36 3c 39 ef f0 5b 3c 09 ef ac 35 93 84 9d 37
       0.00017949358 0.013424142 1.2884567e-06 1.8777593e-05
0001e0 e4 05 d7 39 9f ef 14 ab eb b4 a8 35 7f ec cd b7
       0.00041012384 -5.2912704e-13 1.256963e-06 -2.4548031e-05
0001f0 a2 ec f1 39 86 76 02 38 31 d4 03 b7 a3 16 de 3b
       0.00046143407 3.11048e-05 -7.857613e-06 0.006777601
000200 df a6 15 ab 71 ab 15 ab e3 90 38 bc cf 1c b9 38
       -5.3167014e-13 -5.3173357e-13 -0.011265012 8.8268534e-05
000210 99 fd 0b ab 08 b2 15 ab 68 3f ad bc 5c 73 ca 35
       -4.973466e-13 -5.31825e-13 -0.021148399 1.5083747e-06
000220 dd 57 a4 35 ac f9 15 ab ef 19 f8 b9 44 23 15 ab
       1.2244524e-06 -5.3281923e-13 -0.00047321568 -5.2984375e-13
000230 8f 53 f5 3a a7 00 ca 39 f4 7f da 35 23 80 bd 35
       0.0018716919 0.00038528928 1.6279505e-06 1.411889e-06
000240 00 a8 8d 38 94 1d 15 ab a5 3f 9d 38 9a 04 d9 bc
       6.7546964e-05 -5.297648e-13 7.498198e-05 -0.026491452
000250 b0 33 b4 39 45 21 d4 39 51 37 34 3c e8 d0 92 39
       0.00034370786 0.0004046058 0.010999517 0.00028002937
000260 8c 67 7f 3c 8c 64 b3 35 0d c2 9e 39 70 ea 2c 39
       0.015588652 1.3365802e-06 0.00030280687 0.00016490533
000270 5c 8d aa b5 40 48 95 37 84 05 0e 3b 06 29 b1 35
       -1.2707128e-06 1.7795828e-05 0.0021670768 1.3199467e-06
000280 ac 78 aa 35 47 4b 11 ab f1 00 53 3c ed 99 6d bd
       1.2701107e-06 -5.1618817e-13 0.012878642 -0.058008123
000290 23 b9 ad 35 d3 1a b8 bc bc c3 d9 35 ef be 95 b7
       1.2943386e-06 -0.022473728 1.6224726e-06 -1.7851095e-05
0002a0 84 43 12 39 50 3c 70 b9 b7 59 09 3c 59 91 b2 35
       0.00013948797 -0.00022910652 0.008383206 1.3304335e-06
0002b0 68 26 15 ab ce 21 c7 35 b8 6d ac 35 6e 5d 96 37
       -5.2988733e-13 1.4836494e-06 1.2846931e-06 1.79249e-05
0002c0 d2 23 ef 37 19 ee 13 bc 4b dd 14 3a 76 45 97 35
       2.85077e-05 -0.009028935 0.0005678727 1.1270592e-06
0002d0 eb af 15 ab 5a a0 15 ab 4c 0d 11 ab 13 39 be 3c
       -5.317957e-13 -5.3157966e-13 -5.15328e-13 0.023220574
0002e0 3a 42 16 ab a9 1c 4a b6 62 85 d6 34 57 06 bd b9
       -5.3382613e-13 -3.0117028e-06 3.9957655e-07 -0.00036053613
0002f0 76 37 0d ba df 9a ab 35 e0 20 2c 3a f1 34 08 b5
       -0.00053869875 1.2785566e-06 0.0006566178 -5.074099e-07
000300 b0 7a a4 bd 6c 63 b4 b7 64 2a ca b8 0d d1 a2 b8
       -0.08031213 -2.1503969e-05 -9.6400065e-05 -7.763701e-05
000310 1e 1e a9 37 5a cd 8c 3d 1c fd ac 32 2a 62 b0 b7
       2.0160394e-05 0.06875105 2.0138536e-08 -2.1026546e-05
000320 d0 79 fb 3d 7c 69 b3 b7 21 66 08 39 1b b3 3f 3c
       0.12279093 -2.1387583e-05 0.00013008017 0.011700417
000330 70 9a 1c b3 d5 37 07 38 cb 1a d3 39 b2 dc 90 37
       -3.646204e-08 3.2238506e-05 0.00040265018 1.7268907e-05
000340 cc f6 ac 32 7f 1d aa 32 cf 1a 9d 37 96 34 5c b9
       2.0135666e-08 1.9804018e-08 1.8728342e-05 -0.00021000425
000350 c1 0d 88 b8 91 ca 81 3d 96 ba ae 37 b3 d0 dd b7
       -6.487547e-05 0.063374646 2.0829302e-05 -2.6442436e-05
000360 3a d1 32 bb a2 a9 cb 32 e0 8d af b7 ca ae 14 b9
       -0.0027285353 2.370945e-08 -2.0927691e-05 -0.00014179494
000370 da b2 13 35 06 5c 2a ba ff 88 1f 3a af fc 87 3c
       5.502203e-07 -0.0006498698 0.00060857827 0.016599981
000380 1b a7 cf 32 16 c2 cf b2 38 1a 69 bd 14 35 77 39
       2.4173962e-08 -2.4186232e-08 -0.05690977 0.00023575529
000390 9e af a9 32 a1 ea cf b2 b5 d8 5e 3e 4d 57 bd b7
       1.975405e-08 -2.4204668e-08 0.21762355 -2.2571208e-05
0003a0 67 30 6c 38 37 61 d2 b2 a4 4b 97 3b 5d bc cc 32
       5.6311863e-05 -2.4491426e-08 0.0046171714 2.3834383e-08
0003b0 ae b8 bf ba 87 07 24 bb f6 56 bf b7 b7 ad ba b7
       -0.0014627182 -0.00250289 -2.2809469e-05 -2.225382e-05
0003c0 a8 84 73 ba 28 9e cc 32 9f e8 07 39 b2 9a 51 3e
       -0.00092894817 2.3820647e-08 0.00012961261 0.20469168
0003d0 ad 4f e9 ba 78 7b 5c ba 13 21 ba 3c ce 78 be b9
       -0.0017800234 -0.0008410732 0.02272085 -0.0003632963
0003e0 d1 65 89 3d 8b e6 b3 37 70 2b 56 ba 42 a0 8f ba
       0.06708873 2.1445818e-05 -0.0008169925 -0.0010957795
0003f0 15 a5 9e 35 95 c2 4f 38 81 ac 3e bb fb 93 ac 37
       1.1819963e-06 4.9533865e-05 -0.002909452 2.0572907e-05

rios_f.RIOS_H.rnn_cell0.bias_hh f4 [384]
000000 1a 8c 5e 3d 26 c8 c1 31 58 df 75 37 97 c9 0f 34
       0.05433283 5.6397935e-09 1.4655139e-05 1.3391251e-07
000010 66 09 a9 31 15 da 5f 3d 85 5c 9c a9 29 cc b8 31
       4.919616e-09 0.05465134 -6.943841e-14 5.378315e-09
000020 a0 d3 69 3e 1b 3f 08 33 f2 f2 ea 34 6c f5 2e 3e
       0.22834635 3.172236e-08 4.3762662e-07 0.17085809
000030 50 28 ae a9 51 b3 4c 33 09 2b 09 38 13 e8 f4 32
       -7.7341454e-14 4.766054e-08 3.2703425e-05 2.8510874e-08
000040 10 1a 9e a9 65 5f 98 a9 d5 22 90 31 05 57 36 37
       -7.0211306e-14 -6.766704e-14 4.1949115e-09 1.0868306e-05
000050 c9 b7 07 38 8f f1 0d 3d 04 55 b5 31 84 1d 1e 33
       3.235767e-05 0.034654196 5.2774585e-09 3.6814086e-08
000060 6f d9 f3 38 bd d9 a8 a9 04 e9 b6 31 8c 3d e9 34
       0.00011627643 -7.49847e-14 5.323388e-09 4.3444413e-07
000070 49 43 3e 37 3c 47 66 37 8d e3 28 37 10 aa f2 3b
       1.1340549e-05 1.3725654e-05 1.0066561e-05 0.007405527
000080 a1 9f a9 a9 b3 a3 a9 a9 38 83 12 3e a8 8b 0e 36
       -7.532799e-14 -7.533505e-14 0.14307868 2.124094e-06
000090 fe ec 97 a9 58 a9 a9 a9 01 f2 34 3e 13 be d6 31
       -6.7468587e-14 -7.534484e-14 0.17670442 6.2498287e-09
0000a0 76 fb a7 33 91 a4 a9 a9 c3 ef 9b 39 94 16 a9 a9
       7.822284e-08 -7.5336554e-14 0.0002974254 -7.509024e-14
0000b0 08 4c 3c 3a d7 fd 54 39 4b 2b dc 31 35 52 d0 31
       0.00071829604 0.00020312458 6.4077645e-09 6.0629426e-09
0000c0 a3 13 45 37 27 10 a9 a9 b8 ca 9a 35 91 f2 9b 3d
       1.1746687e-05 -7.5079096e-14 1.1532893e-06 0.07614625
0000d0 a7 2f d5 38 3d e3 cf 37 a0 f8 0e 3c 12 f7 a0 37
       0.000101655074 2.4782139e-05 0.008726269 1.9188537e-05
0000e0 3a 79 6b 3d ff ae c0 31 3e 18 8a 37 82 71 a3 37
       0.057488658 5.60783e-09 1.646217e-05 1.948397e-05
0000f0 a3 45 ec 31 7b 52 80 33 fa 86 82 39 e9 e9 b0 31
       6.8764208e-09 5.9754676e-08 0.00024896098 5.1488667e-09
000100 6a 8d b3 31 0c ed a3 a9 aa 56 ca 3c 56 1d f5 3d
       5.2256626e-09 -7.279775e-14 0.024699528 0.11968486
000110 7d b6 bb 31 2d 08 88 3d 33 48 e7 31 f6 dc c0 36
       5.463163e-09 0.066421844 6.731193e-09 5.747769e-06
000120 1e d1 99 36 c4 0a cf 37 e4 a1 a5 3d 95 16 bd 31
       4.5840998e-06 2.4681336e-05 0.08087519 5.5031912e-09
000130 42 1a a9 a9 fd 63 ce 31 86 2e b5 31 78 b0 00 35
       -7.5096627e-14 6.0067564e-09 5.2730824e-09 4.794051e-07
000140 17 4f 9c 31 f6 60 6a 3d b2 65 04 38 e8 d2 ac 31
       4.549189e-09 0.057221375 3.1565964e-05 5.029836e-09
000150 9c a7 a9 a9 ac 99 a9 a9 64 93 a3 a9 58 b6 99 3d
       -7.534183e-14 -7.5317655e-14 -7.264222e-14 0.075054824
000160 6e 77 a9 a9 9d 58 07 35 8d 1b 0b 2f 7a fd f4 39
       -7.5258254e-14 5.042037e-07 1.2651764e-10 0.0004672816
000170 ec 98 9a 38 16 c8 b8 31 f5 e8 fd 3a 44 ac 39 31
       7.371776e-05 5.377852e-09 0.0019371795 2.7018965e-09
000180 8f 53 a3 3c 6f 1f b9 35 60 59 3c b9 30 0d 25 b7
       0.019937305 1.3792722e-06 -0.00017962372 -9.837837e-06
000190 fb bb 9e 35 e8 cf 1d 3d 65 6c 0d ab 84 ac ac 35
       1.1826627e-06 0.038528353 -5.024369e-13 1.2865207e-06
0001a0 ed d2 58 3d 56 cf d6 36 eb b4 8e b7 fa fb 0b bd
       0.05293553 6.401834e-06 -1.7011966e-05 -0.03417585
0001b0 b5 76 24 ab fc 4d 43 b7 b3 d4 23 b9 a8 d0 f3 b6
       -5.8429243e-13 -1.1641063e-05 -0.00015624128 -7.266255e-06
0001c0 1d e3 0d ab db 23 0c ab 9e d5 bc 35 9c f1 dd b8
       -5.0408446e-13 -4.978775e-13 1.4069262e-06 -0.000105831044
0001d0 71 36 3c 39 ef f0 5b 3c 09 ef ac 35 93 84 9d 37
       0.00017949358 0.013424142 1.2884567e-06 1.8777593e-05
0001e0 e4 05 d7 39 9f ef 14 ab eb b4 a8 35 7f ec cd b7
       0.00041012384 -5.2912704e-13 1.256963e-06 -2.4548031e-05
0001f0 a2 ec f1 39 86 76 02 38 31 d4 03 b7 a3 16 de 3b
       0.00046143407 3.11048e-05 -7.857613e-06 0.006777601
000200 df a6 15 ab 71 ab 15 ab e3 90 38 bc cf 1c b9 38
       -5.3167014e-13 -5.3173357e-13 -0.011265012 8.8268534e-05
000210 99 fd 0b ab 08 b2 15 ab 7a 3e b3 bc 5c 73 ca 35
       -4.973466e-13 -5.31825e-13 -0.021880377 1.5083747e-06
000220 dd 57 a4 35 ac f9 15 ab ef 19 f8 b9 44 23 15 ab
       1.2244524e-06 -5.3281923e-13 -0.00047321568 -5.2984375e-13
000230 8f 53 f5 3a a7 00 ca 39 f4 7f da 35 23 80 bd 35
       0.0018716919 0.00038528928 1.6279505e-06 1.411889e-06
000240 00 a8 8d 38 94 1d 15 ab a5 3f 9d 38 9a 04 d9 bc
       6.7546964e-05 -5.297648e-13 7.498198e-05 -0.026491452
000250 b0 33 b4 39 45 21 d4 39 51 37 34 3c e8 d0 92 39
       0.00034370786 0.0004046058 0.010999517 0.00028002937
000260 8c 67 7f 3c 8c 64 b3 35 0d c2 9e 39 70 ea 2c 39
       0.015588652 1.3365802e-06 0.00030280687 0.00016490533
000270 5c 8d aa b5 40 48 95 37 84 05 0e 3b 06 29 b1 35
       -1.2707128e-06 1.7795828e-05 0.0021670768 1.3199467e-06
000280 ac 78 aa 35 47 4b 11 ab f1 00 53 3c ed 99 6d bd
       1.2701107e-06 -5.1618817e-13 0.012878642 -0.058008123
000290 23 b9 ad 35 d3 1a b8 bc bc c3 d9 35 ef be 95 b7
       1.2943386e-06 -0.022473728 1.6224726e-06 -1.7851095e-05
0002a0 84 43 12 39 50 3c 70 b9 b7 59 09 3c 59 91 b2 35
       0.00013948797 -0.00022910652 0.008383206 1.3304335e-06
0002b0 68 26 15 ab ce 21 c7 35 b8 6d ac 35 6e 5d 96 37
       -5.2988733e-13 1.4836494e-06 1.2846931e-06 1.79249e-05
0002c0 d2 23 ef 37 19 ee 13 bc 4b dd 14 3a 76 45 97 35
       2.85077e-05 -0.009028935 0.0005678727 1.1270592e-06
0002d0 eb af 15 ab 5a a0 15 ab 4c 0d 11 ab 13 39 be 3c
       -5.317957e-13 -5.3157966e-13 -5.15328e-13 0.023220574
0002e0 3a 42 16 ab a9 1c 4a b6 62 85 d6 34 57 06 bd b9
       -5.3382613e-13 -3.0117028e-06 3.9957655e-07 -0.00036053613
0002f0 76 37 0d ba df 9a ab 35 e0 20 2c 3a f1 34 08 b5
       -0.00053869875 1.2785566e-06 0.0006566178 -5.074099e-07
000300 13 7e a4 bd 6c 63 b4 b7 64 2a ca b8 0d d1 a2 b8
       -0.08031859 -2.1503969e-05 -9.6400065e-05 -7.763701e-05
000310 1e 1e a9 37 61 f6 8c 3d 1c fd ac 32 2a 62 b0 b7
       2.0160394e-05 0.068829305 2.0138536e-08 -2.1026546e-05
000320 22 89 e8 3d 7c 69 b3 b7 21 66 08 39 ef 9b fe 3c
       0.11354281 -2.1387583e-05 0.00013008017 0.031080214
000330 70 9a 1c b3 d5 37 07 38 cb 1a d3 39 b2 dc 90 37
       -3.646204e-08 3.2238506e-05 0.00040265018 1.7268907e-05
000340 cc f6 ac 32 7f 1d aa 32 cf 1a 9d 37 96 34 5c b9
       2.0135666e-08 1.9804018e-08 1.8728342e-05 -0.00021000425
000350 c1 0d 88 b8 35 2f 82 3d 96 ba ae 37 b3 d0 dd b7
       -6.487547e-05 0.0635666 2.0829302e-05 -2.6442436e-05
000360 3a d1 32 bb a2 a9 cb 32 e0 8d af b7 ca ae 14 b9
       -0.0027285353 2.370945e-08 -2.0927691e-05 -0.00014179494
000370 da b2 13 35 06 5c 2a ba ff 88 1f 3a 9a fb 87 3c
       5.502203e-07 -0.0006498698 0.00060857827 0.016599465
000380 1b a7 cf 32 16 c2 cf b2 f9 5b 99 bd 14 35 77 39
       2.4173962e-08 -2.4186232e-08 -0.074882455 0.00023575529
000390 9e af a9 32 a1 ea cf b2 09 ab 63 3e 4d 57 bd b7
       1.975405e-08 -2.4204668e-08 0.22233213 -2.2571208e-05
0003a0 67 30 6c 38 37 61 d2 b2 a4 4b 97 3b 5d bc cc 32
       5.6311863e-05 -2.4491426e-08 0.0046171714 2.3834383e-08
0003b0 ae b8 bf ba 87 07 24 bb f6 56 bf b7 b7 ad ba b7
       -0.0014627182 -0.00250289 -2.2809469e-05 -2.225382e-05
0003c0 a8 84 73 ba 28 9e cc 32 9f e8 07 39 68 7e 42 3e
       -0.00092894817 2.3820647e-08 0.00012961261 0.18993533
0003d0 ad 4f e9 ba 78 7b 5c ba 41 21 ba 3c ce 78 be b9
       -0.0017800234 -0.0008410732 0.022720935 -0.0003632963
0003e0 c3 d3 8a 3d 8b e6 b3 37 70 2b 56 ba 42 a0 8f ba
       0.067786716 2.1445818e-05 -0.0008169925 -0.0010957795
0003f0 15 a5 9e 35 95 c2 4f 38 81 ac 3e bb fb 93 ac 37
       1.1819963e-06 4.9533865e-05 -0.002909452 2.0572907e-05

rios_f.RIOS_H.rnn_cell1.weight_ih f4 [384, 2]
000000 09 f9 b7 3d 2d b8 d8 3d 3a f1 7f 3b 42 3d b4 bb
       0.089830466 0.10582004 0.0039053694 -0.0055004666
000010 06 65 8e 3a 6b 9b 36 bc a8 ad db bb 6d 2a 03 bd
       0.0010863848 -0.011145453 -0.006704051 -0.032022882
000020 8b 3e cf 3a 81 c8 f6 bb ee 9d 9d 3c e2 25 fe bb
       0.0015811486 -0.007531226 0.019240346 -0.007755981
000030 b2 5c 7f a9 e2 a5 c3 29 36 73 27 3b d7 1a e1 bb
       -5.6701775e-14 8.688516e-14 0.0025550849 -0.0068696546
000040 24 13 33 3c ed 21 aa 3b 99 69 60 bb 22 aa 61 3a
       0.010929856 0.0051920325 -0.0034242629 0.00086084206
000050 de e5 11 3c 73 cb 0d bc dd d7 af 3b bc a3 a2 bc
       0.008904902 -0.008654463 0.005366309 -0.019853465
000060 8c 45 0f ab 0d 32 b8 aa e0 e3 f5 bc d8 04 6e bd
       -5.090032e-13 -3.2719696e-13 -0.030015886 -0.058110088
000070 eb 2f e7 3c 2e b5 ab 3c bd 75 fd 3c f7 d6 b5 3c
       0.028221091 0.020960417 0.030939931 0.02219723
000080 a7 1d 91 a9 c0 d1 cd 29 78 47 39 a9 b6 12 9d 29
       -6.4444374e-14 9.1402146e-14 -4.114024e-14 6.9754464e-14
000090 af 53 db 3b fa 32 55 bb f1 af f3 3a 6c 65 17 3c
       0.0066933255 -0.0032531605 0.0018591863 0.009240489
0000a0 57 30 aa bc a1 c3 bf 3c 33 4d 4d bc 07 b1 82 bc
       -0.020775003 0.023408713 -0.012530613 -0.015953554
0000b0 cb 30 3d 3b 74 de d1 bb 54 50 2f 3d 7f 20 3b 3d
       0.0028868194 -0.0064046923 0.042801216 0.045685288
0000c0 d4 b4 f7 ba 87 6a 01 bb f2 e4 84 aa 49 09 39 a9
       -0.0018898495 -0.0019747333 -2.3606773e-13 -4.1086306e-14
0000d0 34 11 14 3b c2 24 f6 bb ea ea 5c ba bc c5 6d bc
       0.0022593262 -0.007511706 -0.0008427339 -0.014512476
0000e0 2b ca 18 bd 66 35 23 bd a5 f3 e7 bb e4 c9 b7 bc
       -0.037302177 -0.039845847 -0.0070786052 -0.022435136
0000f0 63 68 a0 3c 77 8b 88 bc 43 15 69 3c 9a 63 be bb
       0.019581025 -0.016668065 0.014226261 -0.0058102133
000100 84 bd 99 aa c6 33 bc a9 c2 56 9a aa 00 14 bf a9
       -2.7309763e-13 -8.3578584e-14 -2.7416096e-13 -8.4855734e-14
000110 a9 26 57 3c 33 64 8c bc a1 d1 2d bc ff 8b 13 bd
       0.013131776 -0.017137622 -0.010609061 -0.036022183
000120 9c ff 2e a9 8e c3 9a 29 55 4e 9b aa ee c9 c3 a9
       -3.8857467e-14 6.872897e-14 -2.7587885e-13 -8.694769e-14
000130 b3 32 2a 3d ae 8d 08 bd ac 8b a3 3b 65 f4 a8 bb
       0.041552257 -0.03333824 0.0049910154 -0.005156087
000140 91 7a 74 3c a8 14 e6 bb 9d 00 b4 aa 76 2e 24 aa
       0.0149218 -0.0070215054 -3.197485e-13 -1.4582245e-13
000150 30 81 8e ba 1b f5 57 bc 20 0a 8a aa f8 56 66 a9
       -0.0010872241 -0.013180996 -2.452075e-13 -5.1145692e-14
000160 b1 19 96 3b 1f 29 19 3c 7a 22 a7 3c ec cc 0c bd
       0.0045806994 0.009348183 0.020402182 -0.034375116
000170 d9 79 d8 3b 4d 9b 46 bb 2b 19 6b 3b 42 56 e5 bb
       0.0066063222 -0.0030304969 0.0035873156 -0.006998808
000180 85 f7 88 bb 63 95 9a 3a 6c 74 89 aa a6 22 61 a9
       -0.0041798973 0.0011793788 -2.4416873e-13 -4.999009e-14
000190 2d c2 e0 bc 3a 82 87 3b ae 1d 14 3d eb 07 f2 b7
       -0.02743634 0.0041353973 0.036161117 -2.8852335e-05
0001a0 9f bb 30 3d 0d 9d 02 3d a9 67 88 3c 6a 76 2d 3c
       0.04314768 0.031888057 0.016650992 0.010587314
0001b0 43 99 a1 3c ec 01 f6 3c 6a cb 0d bc 60 ff be 39
       0.019726401 0.030030213 -0.008654455 0.00036429893
0001c0 ff e5 fc 3c ab 9d ef 3c 6d 8a 4f 3b d1 d9 da bb
       0.03087139 0.029249987 0.0031668202 -0.006678798
0001d0 2f ae 22 3c 16 d1 3e 3d 1e ce 2e bc d6 a9 88 bc
       0.009929224 0.04658612 -0.010669259 -0.016682547
0001e0 db 88 46 bb 00 ee 22 bc 99 bf 8a bc 13 57 1e bd
       -0.0030293975 -0.009944439 -0.016937064 -0.03865726
0001f0 aa ea 07 bc 59 33 08 bd de 12 62 3b 61 c9 9d bb
       -0.008295694 -0.033252094 0.003449611 -0.004815266
000200 e1 82 27 3b fc 9d d3 bb 16 d0 11 aa 44 52 80 29
       0.0025560188 -0.006458042 -1.2950781e-13 5.698613e-14
000210 a7 c0 c6 bc 16 09 18 bc 31 e1 01 bd 7d 75 2b bd
       -0.024261786 -0.00927951 -0.0317089 -0.041860092
000220 cd da 2e 3b 35 14 e9 bb f0 97 e7 3c d5 67 b4 bc
       0.0026680708 -0.0071130046 0.028270692 -0.022022167
000230 33 85 ca 3b ff 4d 98 bb ed b9 0b 3c 50 fc c1 bc
       0.0061804294 -0.0046479697 0.008528215 -0.023679882
000240 8c e9 25 3e 0c 9a a2 3b 07 28 97 bc 63 32 8e bc
       0.16202372 0.0049622115 -0.018451704 -0.01735801
000250 bb 10 30 3d 4f ae 5d 3d 3e fe 54 3b 48 d1 d1 bb
       0.042984705 0.05412131 0.0032500173 -0.006403122
000260 c8 5f 8a aa 2a 57 69 a9 6b ae 9f 3b 4f 13 9a bb
       -2.4580186e-13 -5.1811996e-14 0.004873087 -0.004702009
000270 a2 06 32 3b 1c a8 ce bb 2c 29 c8 bc 36 44 91 bd
       0.0027164598 -0.0063066613 -0.024433695 -0.07093088
000280 a3 b9 a8 ba b7 03 aa 3c 26 85 0c 3d c8 c2 e0 3c
       -0.0012872707 0.020753725 0.034306668 0.027436629
000290 ad 1c 78 3a be 9f f2 bb 63 eb 57 3a 15 55 26 bc
       0.0009464722 -0.0074042967 0.00082366745 -0.010152121
0002a0 18 fc 9a aa 35 38 c2 a9 4d d2 98 aa b4 c0 b7 a9
       -2.753082e-13 -8.625081e-14 -2.714655e-13 -8.160261e-14
0002b0 e7 de 0b aa 92 1e 89 29 cc a7 b3 3c f2 e8 60 3c
       -1.2423015e-13 6.089325e-14 0.021930598 0.0137274135
0002c0 e0 6e c6 aa 37 91 57 aa 18 c8 72 bc 0a 61 ab bc
       -3.52488e-13 -1.9146218e-13 -0.014818214 -0.020920295
0002d0 ae 52 bc bc f4 4c 59 bc 04 ae 89 3c 34 6a 20 bc
       -0.022988643 -0.013262976 0.01680661 -0.009790946
0002e0 7b 01 b2 bc 65 0a 50 bc bf fa 1a 3b 17 06 ec bb
       -0.021729222 -0.012697791 0.0023647991 -0.0072028744
0002f0 4f 80 10 bb 85 21 03 3d d4 03 93 3d 7b d9 8a 3d
       -0.0022049134 0.03201439 0.071784645 0.06779762
000300 c5 58 d5 3c d5 e5 c8 3d 7a a1 c2 3a 68 60 d4 bb
       0.026043305 0.09809462 0.0014849149 -0.006481219
000310 0a c6 19 3b ff 4e 97 bb 4c 6d 00 3c 97 2f b1 bd
       0.0023463988 -0.0046175714 0.007838558 -0.08651655
000320 d5 3b bc 3a 4d 86 e2 bb ac ed 46 3d 54 c9 09 3d
       0.0014361093 -0.0069129826 0.048566505 0.033639267
000330 33 86 b3 2a 09 55 54 2b f2 4b c1 3a c5 16 d4 bb
       3.1889907e-13 7.543554e-13 0.0014747365 -0.006472441
000340 67 c0 fb bd 1c 79 17 3d c4 bb 17 bd db 0c 25 bc
       -0.12292557 0.036980733 -0.0370443 -0.010073866
000350 00 29 64 3c 36 80 a4 3c 57 48 c9 3d 96 f7 8d 3a
       0.013925791 0.020080667 0.09828251 0.0010831233
000360 8a b7 29 a9 68 52 09 2b ad 61 28 3c fa e0 05 3b
       -3.7684733e-14 4.878654e-13 0.010277194 0.0020428286
000370 69 38 bd 3c 0d 56 25 bd 27 2f 55 3c d9 a9 28 3c
       0.023098188 -0.040365268 0.01301173 0.010294401
000380 5d 0c b1 2a aa 93 56 2b 90 8b b9 2a 1a b1 4d 2b
       3.1450095e-13 7.6233e-13 3.2959442e-13 7.307641e-13
000390 a7 c5 8a 39 5f 3c c1 bb 5d 8e e3 bc 43 4c f5 bb
       0.00026468674 -0.0058970894 -0.027777845 -0.0074858977
0003a0 c7 54 b4 3a 50 0e f0 bc ec 21 22 bc db 23 9d bc
       0.0013758176 -0.0293037 -0.009895783 -0.019182136
0003b0 43 c2 a7 3a 71 3a ea bb a0 2d 18 3d a9 5f 3d bc
       0.0012798983 -0.00714808 0.037152886 -0.011558452
0003c0 01 57 e5 bc b9 04 3c bc 68 23 5a 2a c3 ea 41 2b
       -0.027995588 -0.011475735 1.9374574e-13 6.889317e-13
0003d0 4c df cd 3a 92 c3 d8 bb 9e eb 32 3c a8 d9 14 3d
       0.0015706806 -0.0066151107 0.010920433 0.036340386
0003e0 cf 9e cd bc ed 23 3e bd 05 72 95 3c 45 1d 81 bc
       -0.02510014 -0.04642098 0.018242845 -0.015761027
0003f0 bd 79 21 3d 74 45 0b bc 75 c2 1b 3c a4 78 ea 3c
       0.03942274 -0.008500446 0.009506811 0.028621979

rios_f.RIOS_H.rnn_cell1.weight_hh f4 [384, 96]
000000 2f 5e 6a 3b bd f9 b1 bd aa 99 01 bd 53 3f 6c bc
       0.0035761704 -0.08690212 -0.031640686 -0.014419395
000010 85 7b b1 3d 20 24 b9 ba d9 92 c7 33 64 b6 b1 bd
       0.086661376 -0.0014125146 9.293371e-08 -0.086773664
000020 59 c6 8f bb 26 e7 62 bb 26 e2 a2 3c 24 9d e3 bc
       -0.0043876586 -0.0034622638 0.019883227 -0.027784891
000030 f4 68 e6 b3 11 06 6a bd e5 f6 8f 3b da 2e 8b 3d
       -1.07293005e-07 -0.05713469 0.004393446 0.067960456
000040 fc 1b c6 33 82 d6 c9 33 1e cb ad 3d a0 3f e9 bb
       9.225184e-08 9.3988106e-08 0.08486007 -0.0071181804
000050 21 b8 8d bc 3c 06 ab 3b f4 97 b1 3d e1 a9 a7 bb
       -0.017299714 0.005219249 0.08671561 -0.0051166867
000060 a3 7e cf bb 5d e1 c6 33 f6 9d b1 bd 1f 8f 94 bc
       -0.006332235 9.261087e-08 -0.08672707 -0.018134652
000070 1d 10 47 bc 01 24 3a 3c 6e 22 15 3d af 08 34 3d
       -0.012149838 0.011361123 0.036409788 0.043953594
000080 6c 37 c7 33 59 3a c7 b3 73 4f 91 3c 46 50 50 3d
       9.276741e-08 -9.277273e-08 0.01773808 0.050857805
000090 24 14 ca 33 90 3e c7 b3 03 dc bf 3d ae 12 b2 bd
       9.4100216e-08 -9.27804e-08 0.09368136 -0.08694969
0000a0 da 40 97 3d 3d 87 c7 b3 68 bb 04 bd bf f5 c6 33
       0.07385416 -9.291259e-08 -0.032405287 9.2647944e-08
0000b0 43 29 ee bc 9b d3 75 bc 02 39 b2 bd a8 d6 b1 bd
       -0.02907241 -0.015004064 -0.087022796 -0.086835206
0000c0 1e f7 82 3d 47 f3 c6 33 d9 e9 59 bc be 4d 16 3c
       0.0639479 9.2643454e-08 -0.0133003825 0.009173809
0000d0 b6 b6 8d bc 4c 9f f6 3c f8 e6 c7 bc bd 79 fb 3c
       -0.017299037 0.030105256 -0.024402127 0.030697698
0000e0 e6 82 f9 bb 10 ba b1 3d 58 17 08 bb 38 0d 18 3d
       -0.0076144813 0.08678067 -0.0020765867 0.03712198
0000f0 e5 d1 35 bd 39 8e a0 3c 7a 1f 15 3d 02 b9 b1 3d
       -0.044389624 0.019599067 0.03640697 0.086778656
000100 d7 c5 b1 3d 1b c9 c5 b3 28 5f 6b 3d 40 c0 62 bc
       0.08680313 -9.210108e-08 0.057463795 -0.013839781
000110 54 b4 b1 bd 1a d9 01 bd 96 2a b2 bd 2f 21 34 bc
       -0.08676973 -0.031701185 -0.08699529 -0.01099424
000120 69 02 95 3d 0a bd 26 bd fc bd 63 bd 49 bc b1 bd
       0.0727585 -0.040707625 -0.055601105 -0.08678491
000130 06 f7 c6 b3 e7 fa b1 bd 23 cc b1 3d cf b3 b8 bb
       -9.265027e-08 -0.08690434 0.08681514 -0.005636669
000140 c1 2c 9e 3d 74 b6 a0 ba 80 60 0d 3d c7 4e b1 bd
       0.0772338 -0.0012261407 0.034515858 -0.08657604
000150 40 3d c7 b3 7c 33 c7 33 09 ba c5 33 6b 4f 09 3d
       -9.277801e-08 9.2760246e-08 9.207367e-08 0.033523005
000160 c2 25 c8 b3 a1 5d a9 3c 3e 6d 02 3d 26 4e a6 bd
       -9.320094e-08 0.020674529 0.031842463 -0.081203744
000170 1f 70 78 bd a3 a2 b1 3d c6 77 e8 bb 62 fe c0 3c
       -0.060653802 0.086735986 -0.007094356 0.0235588
000180 6c 1e a8 3c 1d f3 ee bc 31 32 9b bc 1b 3d eb ba
       0.020522319 -0.02916866 -0.018944832 -0.0017947288
000190 8c ac ee 3c 7b 3a 3d bc 2b 41 d5 32 6f da ee bc
       0.029135011 -0.011549587 2.4826099e-08 -0.029156892
0001a0 b0 ef 49 bb 85 5f cd 38 cc 9b 79 3b ad 94 62 bc
       -0.003081303 9.792954e-05 0.0038087247 -0.013829392
0001b0 22 4b 00 b3 1d 45 4a bc 4f 51 ce 3a 7b b0 3a 3c
       -2.9870655e-08 -0.012345579 0.0015740785 0.011394615
0001c0 16 09 d4 32 68 c7 d6 32 ee 36 ec 3c 16 b5 03 3c
       2.468418e-08 2.5003558e-08 0.028834786 0.00803878
0001d0 cb b9 ef bb 50 05 80 ba a9 6a ee 3c c7 c1 ef 3b
       -0.0073158494 -0.0009767208 0.029103594 0.007316801
0001e0 ae 03 cd ba 83 83 d9 32 bb ca ee bc 7e e1 83 39
       -0.0015641355 2.532193e-08 -0.029149404 0.00025154272
0001f0 6d d3 0b bc 40 ea 21 bc fd 92 a6 3c 57 f9 03 3c
       -0.008534295 -0.00988251 0.020333761 0.008055053
000200 6b 96 da 32 74 9e da b2 3b e0 c9 bb bc 44 46 3c
       2.5446942e-08 -2.5450596e-08 -0.0061607636 0.0121013485
000210 52 eb d6 32 d1 aa da b2 30 2f f3 3c 98 e2 ee bc
       2.501989e-08 -2.5456218e-08 0.029685587 -0.029160783
000220 08 6b 88 3c 4c a3 db b2 ba 18 1d 3c cd c8 d9 32
       0.016652599 -2.5569214e-08 0.009588415 2.5353438e-08
000230 ac de 40 bc d3 be 97 bc 2f 8d ee bc 28 e3 ee bc
       -0.011771839 -0.01852361 -0.029120056 -0.02916105
000240 df fe 68 3c cc c0 d9 32 35 07 4b bc bb 9a 31 bb
       0.014220922 2.5349799e-08 -0.012391855 -0.0027100283
000250 a2 04 26 bb dc dc e0 3b 56 b0 42 3c 65 ff 31 bc
       -0.0025332351 0.006862266 0.011882862 -0.010864113
000260 12 57 0e bc 9c ba ee 3c e4 c1 3b 3b f6 01 c6 bb
       -0.008687751 0.029141717 0.0028649503 -0.006042714
000270 80 e4 a6 bc fb 25 c7 bb 3b f9 4f 3c 25 62 ee 3c
       -0.02037263 -0.0060775257 0.0126936985 0.029099533
000280 6e ec ee 3c b5 bf d5 b2 98 8a 09 3c 3d 56 53 bc
       0.029165473 -2.4883642e-08 0.00839486 -0.012898979
000290 ee e0 ee bc 91 56 d1 bb e2 bc ee bc 61 0b 0f bc
       -0.02915999 -0.0063884933 -0.0291428 -0.00873074
0002a0 1b 65 9f 3c f5 7c c9 bc 53 6c be bb c8 a6 ee bc
       0.01945739 -0.024595717 -0.005811253 -0.029132262
0002b0 29 cd d9 b2 9e 9b ee bc 82 e9 ee 3c 65 af 19 3b
       -2.535542e-08 -0.029126938 0.02916408 0.002345049
0002c0 76 06 75 3c 7a 13 a5 ba 57 34 bf 3c c3 e4 ee bc
       0.014955154 -0.0012594305 0.023340387 -0.029161816
0002d0 c2 a6 da b2 ad 8a da 32 53 89 d5 32 c9 b3 a1 3c
       -2.5454373e-08 2.5441603e-08 2.4858911e-08 0.019739049
0002e0 65 c3 dc b2 00 da 44 3c 23 a5 5e 3c f2 81 d1 bc
       -2.5700226e-08 0.012014866 0.013589176 -0.025574658
0002f0 30 25 db bc c9 ca ee 3c 56 37 78 bc c5 3b 8c 3b
       -0.02675113 0.02914943 -0.015149912 0.004279586
000300 76 54 1d 3c b3 3f 85 bd 9f 83 ad bc bc e3 20 bc
       0.009602657 -0.0650629 -0.021180926 -0.009819921
000310 c1 3b 85 3d 31 92 49 bc 1a 65 b0 33 e5 44 85 bd
       0.06505538 -0.012302921 8.214029e-08 -0.06507281
000320 67 ef 40 bc 15 43 f3 3c 0a c8 b8 bb c0 36 88 bc
       -0.011775828 0.029695073 -0.005639081 -0.01662767
000330 fa 97 d4 b3 8f b5 52 bd 39 14 7d 3c 52 37 04 3d
       -9.899664e-08 -0.05144268 0.015446716 0.03227932
000340 c3 bb af 33 e2 28 b1 33 a0 53 85 3d 6c 1c 11 bb
       8.183226e-08 8.249641e-08 0.06510091 -0.0022142185
000350 4d 03 52 bc 6c 16 31 bc 1d 1b 85 3d d6 2c 9a bc
       -0.01281817 -0.010808568 0.06499312 -0.018820208
000360 60 b4 52 bc 9b 2a b6 33 2b 43 85 bd 25 dc 27 bc
       -0.012860388 8.482785e-08 -0.06506952 -0.010245358
000370 01 6c 9d bc af db 33 3b d8 8d 1b 3d 50 b2 66 3c
       -0.01921654 0.0027444174 0.03797707 0.014080599
000380 46 55 b7 33 d3 5d b7 b3 1d 12 1f bc 71 f9 2c 3d
       8.537113e-08 -8.538668e-08 -0.009708908 0.042230073
000390 e0 39 b1 33 0f 6b b7 b3 c9 4d 5a 3d 63 34 85 bd
       8.252732e-08 -8.5410754e-08 0.053296838 -0.065041326
0003a0 58 96 41 3d 1b 7f b8 b3 46 5c b2 3a 5f 76 b6 33
       0.04726252 -8.591288e-08 0.0013607822 8.496567e-08
0003b0 b6 70 be bc 66 68 db ba 40 09 85 bd 3a 44 85 bd
       -0.023247104 -0.0016739487 -0.06495905 -0.06507154
0003c0 6d 39 f2 3c c0 6d b6 33 79 9c 2f bd 58 2e 11 bc
       0.029568398 8.494999e-08 -0.042873833 -0.008861147
0003d0 14 f8 88 bb ca 3c 01 3c 6c 20 ad bc 5a 21 e5 3b
       -0.004179964 0.007888028 -0.021133624 0.006992501
0003e0 bd 74 a7 3c e3 35 85 3d 92 d4 a2 bc ef d3 e6 3c
       0.020441407 0.06504419 -0.019876752 0.02817723
0003f0 a7 e5 3a bc 39 c0 b0 3b 2e db b8 3c 25 11 85 3d
       -0.011407292 0.0053940085 0.02256545 0.06497411
