BRIOS/models/model_file/train_largedata/brios_base_retrain.pt (torch, 628322 bytes, 26 tensors)

rios_f.RIOS_H.rnn_cell0.weight_ih f4 [384, 2]
00000000: d2e7 1cb2 4656 7632 08f1 e3b5 7477 2d37
00000010: 545f 1a39 7373 e23a bd42 e6b5 5399 8935
00000020: 882f 1cb2 1d62 7532 e5bd 763d 2c47 133d
00000030: 8921 bdb3 b94b 73b2 90ff 323d 4f8c 0f3d
00000040: 4cc1 e73a 3ce2 f53a 677c 2a39 06fd 0338
00000050: 2280 213a 6b13 ad38 cf16 443b c692 10bb
00000060: a5af 82b1 96c5 d033 6990 5338 6e1b f038
00000070: aa96 3eb5 a857 b834 28b4 373c 6ef9 6f3d
00000080: b446 1cb2 c97a 7532 69cb 65a9 a40c 50a9
00000090: 6d31 1cb2 005d 7532 3c09 ac37 69e2 9437
000000a0: 8a95 73a9 7eb7 3ea9 f20b d435 4536 4b37
000000b0: 5704 07bc f634 0a3b 97da 723a 191e db38
000000c0: 9de0 a931 8ad9 1833 f851 ea3d 6fae 5c3c
000000d0: 0c57 d133 6ea2 9733 8763 4837 3174 a338
000000e0: 6da1 a0a9 1a62 70a9 831f cb36 4fa4 c137
000000f0: 9055 1cb2 a892 7532 67b9 e439 52fc 7939
00000100: b755 1cb2 d68e 7532 02f8 c4a9 4764 c328
00000110: 9cb9 be3d 7f7f a8bd 9e64 cab3 381c 0d33
00000120: 6f75 84b5 5eda 0336 df6f 30b6 48e3 0d36
00000130: 29c4 7737 28d1 cdb5 f8a5 9036 fc32 4a35
00000140: 5d16 1537 68cc 3036 11cb 0d39 0e5e 1139
00000150: dd35 1cb2 f66a 7532 654d 1cb2 757e 7532
00000160: 8c6f 92a9 3b01 a2a9 99e8 443c b01a c13b
00000170: d385 0832 8951 f8b1 4c82 b3a9 8e78 93a9
00000180: f28f 34aa 7b44 44a8 cf0e b537 3af9 b236
00000190: a9ce 37b3 9376 1f33 cfe2 d235 b7d2 6e35
000001a0: 420b d1a9 c7d2 75a8 4235 1cb2 6c75 7532
000001b0: eb7f 0737 d7e0 f934 bd2c 8936 ff48 a5b4
000001c0: ebc0 fa35 e7e1 e434 75fa a4b2 34a3 5c32
000001d0: 4e4b 3a3b 9d64 2c3a 034d 1cb2 fc84 7532
000001e0: c495 1ca8 50eb f9a9 e30d 94b5 c8a4 a935
000001f0: 996a e8b9 9f88 0e3a 67a1 3a36 edf5 5e37
00000200: 512c e0b0 1405 6aae 3f07 c13d b02e 77bd
00000210: c829 123d 1e28 94bc 12ac 9535 49eb 61b4
00000220: cadb a83a dbf9 943a 4d82 8535 9452 1d35
00000230: e04f 6637 f21a 2837 648c 173a f425 2fbe
00000240: d8bf bfb7 b66b 5b38 367c 34ba 715d 7e3b
00000250: 34f9 cbb9 2399 f539 ba23 e1b4 b065 acb2
00000260: 0d77 722c a17f 85ad a25b 1cb2 b78f 7532
00000270: cfaa 9e33 f39a 1b33 23ef 8dbd ee65 d73d
00000280: 2c9d 1338 4b21 b137 af84 b33c 9105 1f3d
00000290: f13f 9933 c6ea dab2 5767 69b6 dd96 c8b5
000002a0: 5d49 f0b1 535c 08b1 f7e9 333e c2a0 ee3d
000002b0: 85a1 96af c58d 9cae 6995 2637 d7d0 9134
000002c0: c346 1cb2 5876 7532 5eca 47b8 2d95 3ab7
000002d0: 7f26 d4a9 d785 8928 8b30 7f3d 79de 9fbb
000002e0: f50a d239 2ea8 0939 bcfa 9bb1 4009 0c31
000002f0: a5ca 9e38 fd20 dcb8 1ef0 6c30 6313 df30
00000300: ec07 08b9 7fde 2e37 6750 bc39 ab6c b3b9
00000310: 1529 253c c2d1 2a3c 6c60 c739 8ada 033a
00000320: d9bc 07b9 80e3 2d37 442b 8bbc 3d04 62be
00000330: a5e3 2638 f363 c038 966b 643d a948 093d
00000340: 3fc2 0abc c38e 263b 0853 8f3b 56d4 a53b
00000350: 1232 343b 9c94 a6ba 65cf 36bb d5c3 113d
00000360: ab03 e938 3707 3cb6 43df cdbb 8f86 11ba
00000370: d9ea 44b8 671b 6eb9 af89 9b3d 3233 2d3e
00000380: 12c3 07b9 9cc4 2d37 f2c1 022c 38d7 7dab
00000390: 41bc 07b9 65cd 2d37 9f13 d2b8 d255 6d39
000003a0: 0ee7 002c c982 7dab 97bc 2538 14c0 6839
000003b0: bf3a a23d eb5d a23c 6663 0bbb a6e4 c93b
000003c0: 2418 27b9 434a 1f35 5902 c93b 761a 1bbe
000003d0: 7b1c e2b8 8829 a638 7a0e 34ba 29fa c537
000003e0: 2839 0a2c b649 79ab 029b ebba bfd1 27ba
000003f0: a0ca 07b9 3302 2e37 31e2 e3bb 389f 303b
-9.133105e-09 1.4338701e-08 -1.6982967e-06 1.0339416e-05 0.00014722097 0.0017276838 -1.7155759e-06 1.0251919e-06
-9.0912025e-09 1.4283185e-08 0.06023969 0.035956547 -8.807098e-08 -1.4161679e-08 0.043700755 0.035045918
0.0017681508 0.001875944 0.00016258807 3.146848e-05 0.0006160756 8.2529e-05 0.0029920822 -0.002206014
-3.8034664e-09 9.7216954e-08 5.0440813e-05 0.00011449201 -7.099976e-07 3.433645e-07 0.011212386 0.058587484
-9.096471e-09 1.4288795e-08 -5.1024645e-14 -4.6196242e-14 -9.091633e-09 1.4282023e-08 2.0508298e-05 1.7748405e-05
-5.4086543e-14 -4.234763e-14 1.5798707e-06 1.21123785e-05 -0.008240781 0.0021088696 0.000926414 0.0001044834
4.944083e-09 3.558811e-08 0.114414155 0.013469323 9.7481546e-08 7.061031e-08 1.1944102e-05 7.794088e-05
-7.13343e-14 -5.3375795e-14 6.05354e-06 2.3083905e-05 -9.09985e-09 1.4294223e-08 0.00043625684 0.00023840487
-9.099884e-09 1.4293354e-08 -8.747171e-14 2.1692837e-14 0.09312746 -0.08227443 -9.42466e-08 3.2854786e-08
-9.868944e-07 1.9647628e-06 -2.6291161e-06 2.1142932e-06 1.4768019e-05 -1.5334563e-06 4.3108557e-06 7.5325056e-07
8.886299e-06 2.6345024e-06 0.00013522456 0.00013863316 -9.092642e-09 1.4285197e-08 -9.097993e-09 1.428963e-08
-6.503053e-14 -7.1944587e-14 0.012018346 0.005893074 7.94667e-09 -7.2270194e-09 -7.9718e-14 -6.549024e-14
-1.6037153e-13 -1.0895035e-14 2.1583777e-05 5.333827e-06 -4.2795964e-08 3.7127915e-08 1.5712229e-06 8.896854e-07
-9.2834174e-14 -1.3645937e-14 -9.0925045e-09 1.4287576e-08 8.07641e-06 4.6543457e-07 4.0881264e-06 -3.0786757e-07
1.8682598e-06 4.2632675e-07 -1.9206007e-08 1.28427935e-08 0.0028426233 0.0006576272 -9.0979055e-09 1.4291114e-08
-8.692215e-15 -1.10986415e-13 -1.1030901e-06 1.2639439e-06 -0.0004432991 0.0005437228 2.7810108e-06 1.328949e-05
-1.631074e-09 -5.320995e-11 0.0942521 -0.06034726 0.035684377 -0.018085536 1.1151444e-06 -2.1040354e-07
0.0012882885 0.0011365967 9.947195e-07 5.8607225e-07 1.3727666e-05 1.0019854e-05 0.00057811127 -0.17104322
-2.2858309e-05 5.2313982e-05 -0.0006884964 0.003881302 -0.00038904848 0.00046844137 -4.193551e-07 -2.0069677e-08
3.4456355e-12 -1.5177028e-11 -9.10123e-09 1.4293554e-08 7.388518e-08 3.6229675e-08 -0.06930377 0.105174884
3.519391e-05 2.1115547e-05 0.021913854 0.038823668 7.1362486e-08 -2.5485303e-08 -3.4779857e-06 -1.4945068e-06
-6.9932597e-09 -1.9843085e-09 0.1756972 0.11651756 -2.7399608e-10 -7.119242e-11 9.929158e-06 2.7160306e-07
-9.0964845e-09 1.4287785e-08 -4.7633766e-05 -1.1121197e-05 -9.421369e-14 1.52681e-14 0.062302154 -0.0048788157
0.00040062485 0.0001312799 -4.539599e-09 2.037794e-09 7.5717726e-05 -0.00010496562 8.6197527e-10 1.6230896e-09
-0.00012972922 1.0423012e-05 0.0003591806 -0.00034222504 0.0100805955 0.010425987 0.00038028078 0.0005029818
-0.00012944955 1.03645725e-05 -0.016988404 -0.2207193 3.9789495e-05 9.1738904e-05 0.055766664 0.03351656
-0.008469163 0.0025414682 0.004373912 0.005060713 0.0027495665 -0.0012709084 -0.0027894613 0.03558715
0.00011110989 -2.8018383e-06 -0.0062827184 -0.0005551362 -4.694876e-05 -0.00022707657 0.075946204 0.1691406
-0.00012947273 1.035738e-05 1.8581772e-12 -9.018233e-13 -0.00012944733 1.0359426e-05 -0.00010017235 0.00022634052
1.8318155e-12 -9.0065157e-13 3.9514704e-05 0.00022196799 0.07921361 0.019820174 -0.0021268963 0.00616129
-0.00015935354 5.934018e-07 0.006134313 -0.15146813 -0.00010781825 7.9232326e-05 -0.0006868612 2.360072e-05
1.9642708e-12 -8.8564865e-13 -0.0017975273 -0.0006401799 -0.00012950087 1.037172e-05 -0.0069544544 0.002695037

rios_f.RIOS_H.rnn_cell0.weight_hh f4 [384, 96]
00000000: 8fdc 3232 1397 0631 2c0c e7b1 b975 89b1
00000010: d4ea 3232 47d1 8f31 bd36 43b1 aa7e 15b2
00000020: 1de5 4cb2 932d 9532 a6b6 5832 4966 7fb2
00000030: 3aea 6d32 4b9e 8132 39a7 ca31 cddf ad32
00000040: 64e5 3232 d3e8 4e29 83e6 3232 1016 cd31
00000050: 5d8c 4ba9 3aae d3b0 e101 b832 a572 3d32
00000060: 8fb0 ebb1 23ac 8c31 d99d bcb2 8914 2b32
00000070: e165 3029 c69c 1032 2dea 32b2 2995 98b2
00000080: cee4 32b2 eba9 3328 b28b 84b1 71d2 be32
00000090: b6aa 1232 850f f8b1 4e62 0db2 5e57 42b1
000000a0: d11d e230 3e44 0632 d6e9 32b2 d2e7 32b2
000000b0: 9380 6ea9 8a08 45b1 eaa2 5832 0a8e 3629
000000c0: 0392 29a9 8976 5732 2154 d0b0 b2cf 2ab2
000000d0: 908b eba8 15eb 3232 d85a 6bb1 aae2 03b1
000000e0: d897 8132 79eb 5732 b057 c2b1 8eeb 32b2
000000f0: f1ea 7ba9 0b5e 46b2 46e3 6db2 0b7b cb32
00000100: 3233 8c32 7e54 eeb1 036f 10b2 e610 2fb2
00000110: 992b d931 b202 82b2 61f0 6bb1 0572 3032
00000120: 7ad6 a331 764e 4032 6069 b2b1 bd2f 0c31
00000130: 770c e5b2 c4e7 3232 92b8 2332 11a8 aa32
00000140: 56ba 4b31 11a2 c0b2 fab5 8332 5af7 60b2
00000150: 4687 d432 f282 d0b1 910c f531 5273 9bb1
00000160: 09e8 3232 993c 09b1 edca a428 7757 3fb1
00000170: 157f 72b2 66cd 3132 6bb3 9931 1363 23b2
00000180: 80c7 5337 f5a6 1b37 d241 efb6 39b7 9bb5
00000190: 40c8 5337 3339 0c36 feaf a036 9999 c735
000001a0: b157 57b7 179b 25b7 8697 2037 ba4d 2fb7
000001b0: 9963 3837 be69 4c36 1a83 3036 604c 6036
000001c0: 96c7 5337 35f5 4b2d 01c8 5337 93b9 9e36
000001d0: e1d7 47ad e744 2835 2907 6736 1154 4db5
000001e0: e078 32b7 2184 94b6 3cee 59b6 60e8 42b6
000001f0: 91c1 6a2d 9a2f 04b7 30c8 53b7 d87c 56b7
00000200: cdc7 53b7 8a20 88ab 4097 0037 151b b3b6
00000210: 2905 ffb6 3b73 0fb7 4b28 c1b4 5abe e635
00000220: 3a39 53b5 f55b 2637 e0c7 53b7 b9c7 53b7
00000230: 255f c5ad 8431 bbb4 cb0f 97b5 8b60 a52d
00000240: 9317 a7ad c393 0636 e7ea 0636 3408 a3b6
00000250: 6c9c 03ad 53c8 5337 4b0c f236 6dd1 d1b6
00000260: 6f8b b136 1d9d d336 14e3 adb5 51c8 53b7
00000270: f776 f9ad 464b 51b7 26cf 8d34 9801 3a37
00000280: 0efc b231 31c0 4bb7 25f9 d6b4 9a00 8db6
00000290: cacb 2837 2908 96b5 6f0d 60b6 f34f b8b6
000002a0: adbb ce36 25a1 6c35 e429 2237 6fde ccb4
000002b0: d56c d5b6 9dc7 5337 9c78 18b6 aada 04b4
000002c0: 90d9 2b36 3a07 0236 d500 ff36 0930 29b6
000002d0: 22df 2db7 0621 0d37 df71 22b7 65aa 2db7
000002e0: afc7 5337 0410 10b7 679e ad2c 88e5 2a37
000002f0: d8ef 3237 6fbf d1b6 6923 1bb7 43f7 24b7
00000300: 0dd3 963b 1220 5d3b 8a58 b0b7 5441 45ba
00000310: b6d2 963b 466e 7d39 23e7 9c39 9e6a 51ba
00000320: 9bfd 51bb 7644 3dba 836d c03a c752 feba
00000330: 9f8a 923b ddf1 df3a 952b deba 96c2 cd39
00000340: 09d2 963b fe86 1d32 34d2 963b 6e94 45b9
00000350: 6754 1ab2 333b 8e3a 8e77 043b 0663 e2ba
00000360: 331b 8bbb 5659 00bb 2b34 09bb ed0f 05bb
00000370: bb71 1332 0865 253a c0d2 96bb ee8c 63bb
00000380: 38d2 96bb 2cb6 d031 d6a1 543a e5db 3a38
00000390: f10f 4abb 574a 74bb 9beb db3a ab99 bb3a
000003a0: efe6 55b9 fd35 623b 77d2 96bb 2fd2 96bb
000003b0: 9776 41b2 36d5 843a 3226 22ba 4bba 2432
000003c0: 3108 1db2 41e0 003b 8ded 353b 8446 6b3a
000003d0: 0344 e2b1 c0d2 963b b3ee 1b3b ee7f 38bb
000003e0: 4a3d 66b9 7f86 723b cc57 faba b4d2 96bb
000003f0: 12fa 4eb2 ffda aebb bdfd 1939 5f8e 6e3b
1.0411113e-08 1.9585442e-09 -6.7243686e-09 -4.0006083e-09 1.0414357e-08 4.18564e-09 -2.840735e-09 -8.7017415e-09
-1.1926457e-08 1.7366608e-08 1.2614384e-08 -1.48662105e-08 1.3848473e-08 1.508956e-08 5.8979848e-09 2.0241623e-08
1.0413121e-08 4.594313e-14 1.0413376e-08 5.9687935e-09 -4.51968e-14 -1.5401789e-09 2.1421274e-08 1.1027315e-08
-6.8594725e-09 4.094106e-09 -2.1957861e-08 9.958179e-09 3.9168216e-14 8.417549e-09 -1.0414209e-08 -1.7762959e-08
-1.0412988e-08 9.973341e-15 -3.857587e-09 2.2214609e-08 8.537134e-09 -7.2195143e-09 -8.229632e-09 -2.8280378e-09
1.6452139e-09 7.815343e-09 -1.0414132e-08 -1.04136735e-08 -5.2958136e-14 -2.8672127e-09 1.2609897e-08 4.0535317e-14
-3.7652183e-14 1.2541599e-08 -1.5157903e-09 -9.942527e-09 -2.6150767e-14 1.0414415e-08 -3.424864e-09 -1.9191853e-09
1.5086627e-08 1.2568187e-08 -5.656112e-09 -1.0414523e-08 -5.5936975e-14 -1.15465e-08 -1.3846892e-08 2.3688264e-08
1.6321426e-08 -6.9363173e-09 -8.407144e-09 -1.0190183e-08 6.3204877e-09 -1.5135218e-08 -3.433364e-09 1.0270473e-08
4.7683075e-09 1.1193711e-08 -5.1924616e-09 2.0399817e-09 -2.6664777e-08 1.0413661e-08 9.529815e-09 1.9867032e-08
2.9646308e-09 -2.2425441e-08 1.533316e-08 -1.3094757e-08 2.4741563e-08 -6.0684835e-09 7.131867e-09 -4.524204e-09
1.0413722e-08 -1.997057e-09 1.8295663e-14 -2.7843876e-09 -1.4115149e-08 1.0349458e-08 4.4732835e-09 -9.510376e-09
1.262303e-05 9.277593e-06 -7.1304175e-06 -1.1601725e-06 1.2623204e-05 2.089492e-06 4.7888598e-06 1.4871358e-06
-1.2835416e-05 -9.870876e-06 9.5720225e-06 -1.044891e-05 1.0990444e-05 3.045992e-06 2.6302355e-06 3.3423057e-06
1.262305e-05 1.1593661e-11 1.2623147e-05 4.7303706e-06 -1.1359775e-11 6.2685143e-07 3.442585e-06 -7.6490784e-07
-1.063777e-05 -4.4261255e-06 -3.247419e-06 -2.9043513e-06 1.334434e-11 -7.878896e-06 -1.262319e-05 -1.2784461e-05
-1.26231e-05 -9.672413e-13 7.66461e-06 -5.3377685e-06 -7.600193e-06 -8.550293e-06 -3.5978368e-07 1.7191735e-06
-7.86869e-07 9.915781e-06 -1.2623117e-05 -1.2623082e-05 -2.243856e-11 -3.4867492e-07 -1.1254973e-06 1.8801202e-11
-1.8996171e-11 2.0053565e-06 2.0104287e-06 -4.8587335e-06 -7.4812205e-12 1.2623222e-05 7.213593e-06 -6.2530657e-06
5.2912433e-06 6.3065804e-06 -1.2955593e-06 -1.262322e-05 -2.8360854e-11 -1.2474897e-05 2.6414017e-07 1.1086835e-05
5.209137e-09 -1.2144491e-05 -4.0041883e-07 -4.2021975e-06 1.0061029e-05 -1.1178246e-06 -3.338642e-06 -5.4929346e-06
6.1611267e-06 8.815135e-07 9.665706e-06 -3.8159803e-07 -6.3605644e-06 1.2623056e-05 -2.271997e-06 -1.2373008e-07
2.5607624e-06 1.9375716e-06 7.599689e-06 -2.5210923e-06 -1.0363556e-05 8.411944e-06 -9.682465e-06 -1.0351277e-05
1.26230725e-05 -8.586798e-06 4.934542e-12 1.01862315e-05 1.066547e-05 -6.250971e-06 -9.2469645e-06 -9.832732e-06
0.004602796 0.003374104 -2.1022064e-05 -0.0007524688 0.0046027554 0.0002416904 0.0002992685 -0.00079886045
-0.003204203 -0.00072199793 0.0014681075 -0.0019403332 0.0044720913 0.0017085631 -0.0016950244 0.00039245625
0.004602675 9.169296e-09 0.004602695 -0.00018842678 -8.983171e-09 0.0010851383 0.0020212862 -0.0017271943
-0.0042451858 -0.0019584498 -0.0020935636 -0.0020303682 8.5823855e-09 0.00063093053 -0.00460276 -0.0034721452
-0.0046026967 6.0743073e-09 0.00081112736 4.455065e-05 -0.0030832256 -0.0037275755 0.001677859 0.0014312764
-0.00020399292 0.0034517043 -0.004602726 -0.0046026926 -1.1261043e-08 0.0010134343 -0.0006185501 9.5884145e-09
-9.140465e-09 0.0019664916 0.002776 0.0008975046 -6.5851977e-09 0.00460276 0.00237934 -0.0028152424
-0.00021957341 0.0037006435 -0.0019099652 -0.0046027545 -1.20476376e-08 -0.005336165 0.00014685742 0.0036400778

rios_f.RIOS_H.rnn_cell0.bias_ih f4 [384]
00000000: f0a2 3933 07e9 7b37 f651 aa3b b49d 8436
00000010: 37c4 3833 830b b93d f177 f9b2 a753 633e
00000020: a09e bf3a 3d19 d53a 8e4d 283a c8f5 383b
00000030: e3d1 0534 4a03 ff38 cb92 8235 4f20 bc3d
00000040: 29d6 3833 e3ac 00ab 96c1 3833 7abf 0238
00000050: 5def fcaa b393 5b37 ec20 9b3d eb7e 083a
00000060: aab8 1934 ae20 d03d 226a ae33 8a4f 7439
00000070: af1d 0aab cd25 ca37 6fec 3833 7772 253a
00000080: 68eb 3833 f038 26aa 5a27 1c3e 9350 c630
00000090: 039e 7b36 2d57 c736 1550 a137 db22 7a36
000000a0: a8ff ad36 c87d 2c39 93c9 3833 e7db 3833
000000b0: 8526 23ab 038c 6c3c 399f c834 b23d 15ab
000000c0: bbaf f1aa 2b21 6a37 d746 e433 4473 be35
000000d0: 9288 c9aa 09d4 3833 2ed4 a736 df88 5d36
000000e0: 90d7 2a36 e1ab 2cb2 13d4 bf3a 6de3 3833
000000f0: 6d24 32ab 6e56 4036 8483 863a 1d1e 9437
00000100: 691c 1930 a5d3 8d3e 2519 5b3d b6f2 8836
00000110: 8ac0 e53a 2922 b135 ff87 9838 c485 2f3d
00000120: aea0 ae38 e8ee ec3b 6fde a23a 473b 9f33
00000130: 5d86 cb2c 46ea 3833 0cc0 f433 1a3c 313e
00000140: 6079 0338 1ea6 043d 3f9b b633 9a71 2d37
00000150: 22fe 1731 2592 183e e03e 4a2e 74f3 0c37
00000160: 1fd3 3833 163e 4239 b58f 81aa 3863 b73d
00000170: 987f 973a 4c0c bd30 82aa be39 0a8d 1f31
00000180: aae1 0137 b0af 6d38 73ba 143c f950 57b8
00000190: b26e 0137 5ee5 d8bc 1a4e 6637 208e aebd
000001a0: d51a bbb8 bd80 ac3a 6a87 04ba 06fd b43b
000001b0: b022 c5b6 cf41 33ba 646b f6b8 8a0e babc
000001c0: 9763 0137 588b bea9 c563 0137 4031 11b8
000001d0: 5647 e5a9 50aa c239 adbc 75bc c49d 3f39
000001e0: 059f 06b8 206d 87bd 6dcc 0fb7 bae4 af3a
000001f0: 5956 c8a8 355e 80b8 787f 0137 22b9 a739
00000200: 8e75 0137 fdbb 39ab 9c06 78bc 8dae 1d37
00000210: 1086 e237 1a4e 5339 4320 1339 89ab b335
00000220: 1f1f a4b8 623a 02ba bc6a 0137 7570 0137
00000230: c542 eb2a e1a6 963c 479f 9a35 b504 332a
00000240: 410c a72a 5999 f138 29cc d837 9b31 5638
00000250: 6d5e d2aa 1c75 0137 d830 beb8 1d26 0038
00000260: 46fb a838 25ad bf35 f269 123b c780 0137
00000270: 5611 2e2b 7a4a e438 0fd9 503a fe83 27b8
00000280: 7950 0bb6 c602 e0bd cfb2 1d3b 986a 3939
00000290: 5670 9f3b 3cfa ce38 49d4 713a 6718 96bc
000002a0: 03e5 5c39 2f8a 3e3c 77fe 1139 b7d6 1038
000002b0: 6156 fa34 1476 0137 1c16 be36 014c 633a
000002c0: 34bf c539 8851 b53c 9668 e336 87ce 2339
000002d0: 8388 cb36 b3be 39bc 8d56 a134 e7a9 9e36
000002e0: 4d6a 0137 883d cb3a 8f78 20ab b571 fbbc
000002f0: e5cb 16bb 9666 2eb5 fd19 b73a b127 d0b5
00000300: 71c4 a437 f42f 61ba d2eb 9d3b da07 d039
00000310: 097a a437 fa68 06bd a4e6 5438 e761 723e
00000320: 96c6 c33b eef5 79bb 85f4 fdb9 d03c cb3a
00000330: 1ed7 44b8 3ccc 30b9 74a3 41b9 ffb2 913d
00000340: 608b a437 3a2d ae33 017d a437 4370 703a
00000350: 8c41 b2b3 7d52 763a 3b62 6a3b 6e37 583b
00000360: fb40 dfb7 4fb6 36bd 8969 f4b6 6048 9c3a
00000370: e7ef bd33 76da e339 9c8c a4b7 7d47 a7ba
00000380: d88d a4b7 7b87 0234 049b a0bd 72d1 70b8
00000390: 3c64 cf39 3319 61b9 6de7 b438 73ac 35b9
000003a0: 62f1 2eb9 24db a3b9 7880 a4b7 218b a4b7
000003b0: df58 beb3 c0ab 96bb 03b2 23b8 d1bf c633
000003c0: c3df 1eb4 f09a e0b7 d5b5 1838 41e4 52b7
000003d0: 60d9 dcb3 f17d a437 8b7e 9039 5bf2 3d37
000003e0: d027 dab7 5077 27b8 eefa 893b db85 a4b7
000003f0: 8787 83b3 8e1a 2bb9 4206 c9bb 7853 273a
4.322186e-08 1.5015022e-05 0.005197759 3.9522656e-06 4.3019295e-08 0.09035399 -2.9041958e-08 0.2219988
0.0014619417 0.0016258132 0.0006420248 0.002822267 1.2462947e-07 0.0001215996 9.728477e-07 0.0918585
4.3035616e-08 -4.5714664e-13 4.3016904e-08 3.117274e-05 -4.4930284e-13 1.3087806e-05 0.07574639 0.00052069005
1.4316416e-07 0.10162483 8.121812e-08 0.00023299284 -4.9068643e-13 2.4097879e-05 4.3055874e-08 0.0006311307
4.305494e-08 -1.4763516e-13 0.15249386 1.4429297e-09 3.749389e-06 5.9408108e-06 1.9229987e-05 3.7273192e-06
5.185564e-06 0.00016450055 4.302417e-08 4.304084e-08 -5.796269e-13 0.014437678 3.7368753e-07 -5.3021053e-13
-4.2932137e-13 1.3955209e-05 1.0629963e-07 1.418965e-06 -3.5799537e-13 4.3033683e-08 5.001689e-06 3.3011236e-06
2.5457448e-06 -1.0050798e-08 0.0014635347 4.304768e-08 -6.3288854e-13 2.8660538e-06 0.0010262583 1.7656997e-05
5.570145e-10 0.27700534 0.053490777 4.081371e-06 0.0017528695 1.319747e-06 7.273256e-05 0.04285218
8.3268955e-05 0.0072306283 0.001242591 7.414797e-08 5.7845243e-12 4.305391e-08 1.13970685e-07 0.17308083
3.1345873e-05 0.032384984 8.5032745e-08 1.03380535e-05 2.211785e-09 0.148995 4.5985327e-11 8.401334e-06
4.3032852e-08 0.0001852441 -2.301472e-13 0.08954471 0.0011558412 1.3755055e-09 0.00036366662 2.3217717e-09
7.741541e-06 5.6668825e-05 0.009077656 -5.1335406e-05 7.714772e-06 -0.026476558 1.3727253e-05 -0.08523202
-8.921853e-05 0.0013160926 -0.00050555787 0.005523327 -5.8750957e-06 -0.00068381144 -0.00011750197 -0.02271201
7.712187e-06 -8.461867e-14 7.712229e-06 -3.461656e-05 -1.0182018e-13 0.00037129456 -0.014998597 0.00018273952
-3.2096188e-05 -0.06612611 -8.571061e-06 0.0013419606 -2.2241908e-14 -6.121063e-05 7.718678e-06 0.00031990657
7.7163695e-06 -6.598609e-13 -0.015138295 9.39857e-06 2.7003727e-05 0.00020151623 0.00014031031 1.3386463e-06
-7.825926e-05 -0.0004967806 7.71385e-06 7.715183e-06 4.1790716e-13 0.018390121 1.152025e-06 1.5900027e-13
2.9673662e-13 0.00011520339 2.5844276e-05 5.1067775e-05 -3.7369015e-13 7.716266e-06 -9.069004e-05 3.0553074e-05
8.0576676e-05 1.4281001e-06 0.002234098 7.7189825e-06 6.1841276e-13 0.000108857595 0.00079669146 -3.993883e-05
-2.0759455e-06 -0.10938029 0.0024062877 0.00017682684 0.0048656864 9.869455e-05 0.00092250534 -0.018322183
0.00021066148 0.011629625 0.00013923073 3.4532244e-05 4.6628978e-07 7.716491e-06 5.665015e-06 0.0008670688
0.00037717225 0.022133604 6.7773026e-06 0.00015621829 6.0657635e-06 -0.01133697 3.005156e-07 4.728546e-06
7.713749e-06 0.0015506009 -5.701073e-13 -0.030693868 -0.0023009714 -6.4969333e-07 0.0013969537 -1.5508759e-06
1.9641799e-05 -0.00085902144 0.0048193717 0.000396787 1.960715e-05 -0.032814957 5.075954e-05 0.2367016
0.005974601 -0.003814097 -0.00048438102 0.0015505794 -4.6930385e-05 -0.00016860751 -0.00018466805 0.07114219
1.9615225e-05 8.110733e-08 1.9608533e-05 0.0009172002 -8.300694e-08 0.0009396447 0.0035764116 0.0032992023
-2.661393e-05 -0.044607457 -7.2840526e-06 0.0011923425 8.844636e-08 0.0004345958 -1.96158e-05 -0.0012762394
-1.9616375e-05 1.2156481e-07 -0.07842067 -5.741552e-05 0.00039556797 -0.0002146706 8.626175e-05 -0.00017325747
-0.00016683855 -0.00031253055 -1.9610146e-05 -1.961511e-05 -8.86373e-08 -0.004598111 -3.9028015e-05 9.254985e-08
-1.4796301e-07 -2.677503e-05 3.640897e-05 -1.257012e-05 -1.02840886e-07 1.960897e-05 0.00027560102 1.1321706e-05
-2.6006164e-05 -3.992702e-05 0.0042108214 -1.9612655e-05 -6.124815e-08 -0.00016317723 -0.006134779 0.0006382982

rios_f.RIOS_H.rnn_cell0.bias_hh f4 [384]
00000000: f0a2 3933 07e9 7b37 f651 aa3b b49d 8436
00000010: 37c4 3833 830b b93d f177 f9b2 a753 633e
00000020: a09e bf3a 3d19 d53a 8e4d 283a c8f5 383b
00000030: e3d1 0534 4a03 ff38 cb92 8235 4f20 bc3d
00000040: 29d6 3833 e3ac 00ab 96c1 3833 7abf 0238
00000050: 5def fcaa b393 5b37 ec20 9b3d eb7e 083a
00000060: aab8 1934 ae20 d03d 226a ae33 8a4f 7439
00000070: af1d 0aab cd25 ca37 6fec 3833 7772 253a
00000080: 68eb 3833 f038 26aa 5a27 1c3e 9350 c630
00000090: 039e 7b36 2d57 c736 1550 a137 db22 7a36
000000a0: a8ff ad36 c87d 2c39 93c9 3833 e7db 3833
000000b0: 8526 23ab 038c 6c3c 399f c834 b23d 15ab
000000c0: bbaf f1aa 2b21 6a37 d746 e433 4473 be35
000000d0: 9288 c9aa 09d4 3833 2ed4 a736 df88 5d36
000000e0: 90d7 2a36 e1ab 2cb2 13d4 bf3a 6de3 3833
000000f0: 6d24 32ab 6e56 4036 8483 863a 1d1e 9437
00000100: 691c 1930 a5d3 8d3e 2519 5b3d b6f2 8836
00000110: 8ac0 e53a 2922 b135 ff87 9838 c485 2f3d
00000120: aea0 ae38 e8ee ec3b 6fde a23a 473b 9f33
00000130: 5d86 cb2c 46ea 3833 0cc0 f433 1a3c 313e
00000140: 6079 0338 1ea6 043d 3f9b b633 9a71 2d37
00000150: 22fe 1731 2592 183e e03e 4a2e 74f3 0c37
00000160: 1fd3 3833 163e 4239 b58f 81aa 3863 b73d
00000170: 987f 973a 4c0c bd30 82aa be39 0a8d 1f31
00000180: aae1 0137 b0af 6d38 73ba 143c f950 57b8
00000190: b26e 0137 5ee5 d8bc 1a4e 6637 208e aebd
000001a0: d51a bbb8 bd80 ac3a 6a87 04ba 06fd b43b
000001b0: b022 c5b6 cf41 33ba 646b f6b8 8a0e babc
000001c0: 9763 0137 588b bea9 c563 0137 4031 11b8
000001d0: 5647 e5a9 50aa c239 adbc 75bc c49d 3f39
000001e0: 059f 06b8 206d 87bd 6dcc 0fb7 bae4 af3a
000001f0: 5956 c8a8 355e 80b8 787f 0137 22b9 a739
00000200: 8e75 0137 fdbb 39ab 9c06 78bc 8dae 1d37
00000210: 1086 e237 1a4e 5339 4320 1339 89ab b335
00000220: 1f1f a4b8 623a 02ba bc6a 0137 7570 0137
00000230: c542 eb2a e1a6 963c 479f 9a35 b504 332a
00000240: 410c a72a 5999 f138 29cc d837 9b31 5638
00000250: 6d5e d2aa 1c75 0137 d830 beb8 1d26 0038
00000260: 46fb a838 25ad bf35 f269 123b c780 0137
00000270: 5611 2e2b 7a4a e438 0fd9 503a fe83 27b8
00000280: 7950 0bb6 b502 e0bd cfb2 1d3b 986a 3939
00000290: 5670 9f3b 3cfa ce38 49d4 713a 6718 96bc
000002a0: 03e5 5c39 2f8a 3e3c 77fe 1139 b7d6 1038
000002b0: 6156 fa34 1476 0137 1c16 be36 014c 633a
000002c0: 34bf c539 8851 b53c 9668 e336 87ce 2339
000002d0: 8388 cb36 b3be 39bc 8d56 a134 e7a9 9e36
000002e0: 4d6a 0137 883d cb3a 8f78 20ab b571 fbbc
000002f0: e5cb 16bb 9666 2eb5 fd19 b73a b127 d0b5
00000300: 71c4 a437 f42f 61ba d2eb 9d3b da07 d039
00000310: 097a a437 3be8 05bd a4e6 5438 da61 723e
00000320: 96c6 c33b eef5 79bb 85f4 fdb9 d03c cb3a
00000330: 1ed7 44b8 3ccc 30b9 74a3 41b9 3697 903d
00000340: 608b a437 3a2d ae33 017d a437 4370 703a
00000350: 8c41 b2b3 7d52 763a b586 6a3b 6e37 583b
00000360: fb40 dfb7 1977 36bd 8969 f4b6 6048 9c3a
00000370: e7ef bd33 76da e339 9c8c a4b7 7d47 a7ba
00000380: d88d a4b7 7b87 0234 13d1 a0bd 72d1 70b8
00000390: 3c64 cf39 3319 61b9 6de7 b438 73ac 35b9
000003a0: 62f1 2eb9 24db a3b9 7880 a4b7 218b a4b7
000003b0: df58 beb3 c0ab 96bb 03b2 23b8 d1bf c633
000003c0: c3df 1eb4 f09a e0b7 d5b5 1838 41e4 52b7
000003d0: 60d9 dcb3 f17d a437 8b7e 9039 5bf2 3d37
000003e0: d027 dab7 5077 27b8 eefa 893b db85 a4b7
000003f0: 8787 83b3 8e1a 2bb9 4206 c9bb 7853 273a
4.322186e-08 1.5015022e-05 0.005197759 3.9522656e-06 4.3019295e-08 0.09035399 -2.9041958e-08 0.2219988
0.0014619417 0.0016258132 0.0006420248 0.002822267 1.2462947e-07 0.0001215996 9.728477e-07 0.0918585
4.3035616e-08 -4.5714664e-13 4.3016904e-08 3.117274e-05 -4.4930284e-13 1.3087806e-05 0.07574639 0.00052069005
1.4316416e-07 0.10162483 8.121812e-08 0.00023299284 -4.9068643e-13 2.4097879e-05 4.3055874e-08 0.0006311307
4.305494e-08 -1.4763516e-13 0.15249386 1.4429297e-09 3.749389e-06 5.9408108e-06 1.9229987e-05 3.7273192e-06
5.185564e-06 0.00016450055 4.302417e-08 4.304084e-08 -5.796269e-13 0.014437678 3.7368753e-07 -5.3021053e-13
-4.2932137e-13 1.3955209e-05 1.0629963e-07 1.418965e-06 -3.5799537e-13 4.3033683e-08 5.001689e-06 3.3011236e-06
2.5457448e-06 -1.0050798e-08 0.0014635347 4.304768e-08 -6.3288854e-13 2.8660538e-06 0.0010262583 1.7656997e-05
5.570145e-10 0.27700534 0.053490777 4.081371e-06 0.0017528695 1.319747e-06 7.273256e-05 0.04285218
8.3268955e-05 0.0072306283 0.001242591 7.414797e-08 5.7845243e-12 4.305391e-08 1.13970685e-07 0.17308083
3.1345873e-05 0.032384984 8.5032745e-08 1.03380535e-05 2.211785e-09 0.148995 4.5985327e-11 8.401334e-06
4.3032852e-08 0.0001852441 -2.301472e-13 0.08954471 0.0011558412 1.3755055e-09 0.00036366662 2.3217717e-09
7.741541e-06 5.6668825e-05 0.009077656 -5.1335406e-05 7.714772e-06 -0.026476558 1.3727253e-05 -0.08523202
-8.921853e-05 0.0013160926 -0.00050555787 0.005523327 -5.8750957e-06 -0.00068381144 -0.00011750197 -0.02271201
7.712187e-06 -8.461867e-14 7.712229e-06 -3.461656e-05 -1.0182018e-13 0.00037129456 -0.014998597 0.00018273952
-3.2096188e-05 -0.06612611 -8.571061e-06 0.0013419606 -2.2241908e-14 -6.121063e-05 7.718678e-06 0.00031990657
7.7163695e-06 -6.598609e-13 -0.015138295 9.39857e-06 2.7003727e-05 0.00020151623 0.00014031031 1.3386463e-06
-7.825926e-05 -0.0004967806 7.71385e-06 7.715183e-06 4.1790716e-13 0.018390121 1.152025e-06 1.5900027e-13
2.9673662e-13 0.00011520339 2.5844276e-05 5.1067775e-05 -3.7369015e-13 7.716266e-06 -9.069004e-05 3.0553074e-05
8.0576676e-05 1.4281001e-06 0.002234098 7.7189825e-06 6.1841276e-13 0.000108857595 0.00079669146 -3.993883e-05
-2.0759455e-06 -0.10938016 0.0024062877 0.00017682684 0.0048656864 9.869455e-05 0.00092250534 -0.018322183
0.00021066148 0.011629625 0.00013923073 3.4532244e-05 4.6628978e-07 7.716491e-06 5.665015e-06 0.0008670688
0.00037717225 0.022133604 6.7773026e-06 0.00015621829 6.0657635e-06 -0.01133697 3.005156e-07 4.728546e-06
7.713749e-06 0.0015506009 -5.701073e-13 -0.030693868 -0.0023009714 -6.4969333e-07 0.0013969537 -1.5508759e-06
1.9641799e-05 -0.00085902144 0.0048193717 0.000396787 1.960715e-05 -0.032692175 5.075954e-05 0.2367014
0.005974601 -0.003814097 -0.00048438102 0.0015505794 -4.6930385e-05 -0.00016860751 -0.00018466805 0.07060091
1.9615225e-05 8.110733e-08 1.9608533e-05 0.0009172002 -8.300694e-08 0.0009396447 0.0035785858 0.0032992023
-2.661393e-05 -0.044547174 -7.2840526e-06 0.0011923425 8.844636e-08 0.0004345958 -1.96158e-05 -0.0012762394
-1.9616375e-05 1.2156481e-07 -0.07852378 -5.741552e-05 0.00039556797 -0.0002146706 8.626175e-05 -0.00017325747
-0.00016683855 -0.00031253055 -1.9610146e-05 -1.961511e-05 -8.86373e-08 -0.004598111 -3.9028015e-05 9.254985e-08
-1.4796301e-07 -2.677503e-05 3.640897e-05 -1.257012e-05 -1.02840886e-07 1.960897e-05 0.00027560102 1.1321706e-05
-2.6006164e-05 -3.992702e-05 0.0042108214 -1.9612655e-05 -6.124815e-08 -0.00016317723 -0.006134779 0.0006382982

rios_f.RIOS_H.rnn_cell1.weight_ih f4 [384, 2]
00000000: e952 7fbb 9f4b 13bc adcd 05bc c62f 1abd
00000010: 759a 18bd 83da d5bc f162 993b 1f7a 81bc
00000020: b8a7 82bb 60bf 14bc b793 0dbe f03f 8cbd
00000030: ef29 16bd ed46 a1bc 7297 4fbd 74ef 7c3d
00000040: 7281 01bc bbcb fabc adf2 1a3d 45e2 c53c
00000050: ae9c d23c f940 4abb 6c35 003d 49cd b23c
00000060: 3b0b 11bb 0455 0ebd 5e3c 38bb 3b71 0cbd
00000070: 223b 3dbc 9518 8ebc d05a 953c 00a9 a7ba
00000080: e8e1 82bb 081a 15bc ffd6 c42c 0b4c 73ad
00000090: 75a2 82bb 85fe 14bc cafd 893c 63ac 203c
000000a0: 3935 c82c b5a3 72ad 7d86 a63c 511c a83c
000000b0: 8b06 bcbb d058 fb3c 189a 9e3c e17b 173c
000000c0: 3828 ed3c 4374 05bb b663 1c3c 658d 1ebc
000000d0: c8d4 b6bc 2f2e 28bd c2ac 753d 26be b2bc
000000e0: 54a6 8c2c 0abf 87ad 26e1 ddbc fb0e ffbb
000000f0: c893 82bb 42a3 14bc a1db e2bc c879 dbbc
00000100: 085b 82bb 4acb 14bc 34a9 b22b 952b 1aad
00000110: f2a4 783d 054e 163d 52d0 be3c ef7e 1c3b
00000120: dbbf 5e3d 1739 bc3b a71d 153d 70c9 0c3c
00000130: 8362 6fbd 9e18 9a3c 6f40 223d 5a63 013d
00000140: 4a36 57bc aa0e 4dbb ac48 433c 1f0d 343c
00000150: 8bf1 82bb 9ddb 14bc 18bb 82bb 41f4 14bc
00000160: d7b7 832c e82c a3ad 5cfb ca3c c651 cc3c
00000170: d753 35bc 179e 16bc e836 282c ad18 94ad
00000180: 6d01 c02b e36e 83ad 8740 843c 6861 90bb
00000190: ced4 cdbc 76b3 613b 5241 9f3c 7c60 e13b
000001a0: fa48 832c 9aee 59ad 28ad 82bb 659d 14bc
000001b0: c005 263b e211 dbbc b392 953c fe22 acbb
000001c0: fb14 b53b 1fc0 e8ba 9cbf 4fbc c0c6 24bc
000001d0: 6a9c 023d 6c06 1dbc 1e74 82bb 5298 14bc
000001e0: 56a2 362c 2037 a5ad 676b 063c 10d5 293c
000001f0: a197 063c 3fe3 1d3b e88b adbc 5f8b 0abd
00000200: 3673 8dbc 7e54 39bc e213 433c f37d bebb
00000210: 90a5 fd3c 8b2d 85bd 8248 e9bb a8e4 cdbc
00000220: f4e5 eabb 9ed7 edbb a16c 86bc 9480 9bbc
00000230: 6826 48bc 70e4 183c a145 ebbc e6d4 f8bc
00000240: 3501 573d ce6e 763d fac2 eabb 69bd 2bbd
00000250: 09f4 33bc e545 52bc 5cb1 e93c 2106 7dbd
00000260: 8d20 cab9 5fa4 1fbd a1ad 82bb f9df 14bc
00000270: 05ab 073d 3815 a5bc e058 833c b1ab 813d
00000280: ca95 b53c 9bd4 7c3c 5644 3bbd 4cbc 61bd
00000290: 58d5 8cbb e956 3b3d f115 dc3c 9ce8 01bc
000002a0: e625 19bc 7737 91bd 0623 793c 4250 343c
000002b0: 7123 aabc c63b 19bd eed7 693c f4b4 c7ba
000002c0: b2f3 82bb ad05 15bc 207d 353d 9b2e e13c
000002d0: 8fd4 4b2c 5caa 31ad 5415 903d 49d1 59bd
000002e0: 58a8 bdbb 1a4d c7bc f7c1 ddbc 5e36 88bd
000002f0: f726 19bb dc7b 443b a732 bc3c 9aa5 3fbd
00000300: 5853 793a de13 c6bb 27e3 cb3c 3c04 abbc
00000310: c12d fdbb f2ae ddbb c9d4 2b3c fad5 28bd
00000320: ead0 7f3a dba8 c5bb 2d30 123c ed55 36bc
00000330: 096d bb3c dcd7 923c 28bb df3d 55b0 9abd
00000340: 2bee 853b 053b 543c bb4b 1f3d f3e4 103d
00000350: fe8e f0bc 141f 2c3d 1e6f 54bb 9b5f 413d
00000360: 3c1d 5e3b 5d09 b0bc 4240 f63a 5859 7cbc
00000370: b906 803c a771 3abb 37d9 5ebd 0e7c 81bd
00000380: 5070 803a b0d4 c5bb 0329 d52c 8a9e 4aad
00000390: 6464 803a d0cb c5bb 5ea7 a2bc 503d ad3c
000003a0: 8a7f d62c 7c7e 49ad 8ddb 25bd c4c9 7bbb
000003b0: abf5 b03c 5246 65bd 058a 2e3d 8afd 6abc
000003c0: 3318 833b 8570 c7ba 32b5 82bc a9e5 193d
000003d0: c952 abbc a799 16bc e285 2b3d 43fa 7a3c
000003e0: 9a54 ab2c 6d77 66ad 9caa 0ebd e4b4 91bc
000003f0: 0205 803a bacf c5bb 83b2 a4bc 465e 14bb
-0.003895933 -0.008990197 -0.008166713 -0.037643217 -0.037256677 -0.026105171 0.004680984 -0.015805302
-0.003987279 -0.0090788305 -0.1382588 -0.068481326 -0.036661085 -0.01968714 -0.05068154 0.061751798
-0.007904397 -0.030614724 0.03782909 0.024155745 0.025709476 -0.003086148 0.031300947 0.021826403
-0.0022131938 -0.034749046 -0.0028112154 -0.034287672 -0.011549743 -0.017345706 0.01823178 -0.0012791455
-0.0039942153 -0.009100445 5.5945244e-12 -1.3829836e-11 -0.0039866515 -0.009093885 0.016844649 0.009806725
5.690251e-12 -1.3792458e-11 0.0203278 0.020521315 -0.0057380847 0.030681998 0.019360587 0.009245844
0.028949842 -0.0020363487 0.009545257 -0.009677266 -0.022318259 -0.04105967 0.059979208 -0.021819185
3.9975055e-12 -1.5432561e-11 -0.027084898 -0.0077837682 -0.003984902 -0.009072127 -0.027692618 -0.026791468
-0.003978137 -0.009081671 1.2694624e-12 -8.763564e-12 0.06070418 0.0366955 0.023292694 0.002387937
0.054382186 0.0057441103 0.03640523 0.008592948 -0.058443557 0.018810567 0.03961223 0.03158889
-0.013135502 -0.0031289258 0.011919182 0.010989456 -0.0039960793 -0.009085563 -0.0039895885 -0.009091438
3.7436543e-12 -1.8550897e-11 0.02477806 0.024941336 -0.011067352 -0.009192965 2.3904715e-12 -1.683661e-11
1.3642816e-12 -1.494222e-11 0.01614405 -0.004406143 -0.025125887 0.0034439242 0.019440327 0.006877957
3.731346e-12 -1.2388002e-11 -0.003987927 -0.009070729 0.0025333017 -0.026741926 0.018258428 -0.005253195
0.0055261827 -0.0017757452 -0.012679961 -0.010057151 0.03188745 -0.009584051 -0.0039811274 -0.009069519
2.595387e-12 -1.8782809e-11 0.008204318 0.010365739 0.008214862 0.0024091748 -0.021184877 -0.03382432
-0.01726685 -0.011311648 0.011906596 -0.005813354 0.030962735 -0.06502827 -0.0071192393 -0.025133446
-0.007168526 -0.0072583696 -0.01640922 -0.01898221 -0.012216188 0.0093318075 -0.028719725 -0.030374955
0.052491385 0.060164265 -0.0071643563 -0.041928682 -0.0109834755 -0.012834047 0.028526954 -0.061773423
-0.00038552695 -0.038975116 -0.0039879833 -0.009086602 0.03312208 -0.02015172 0.01603359 0.06331576
0.022166152 0.0154315485 -0.045719467 -0.055111215 -0.0042978935 0.04573718 0.026865931 -0.007928994
-0.009347415 -0.07090657 0.015206104 0.011005463 -0.020768853 -0.03741052 0.014272673 -0.0015236423
-0.003996336 -0.0090955915 0.04430878 0.027488044 2.8966029e-12 -1.00991125e-11 0.07035318 -0.053178106
-0.0057878904 -0.024328757 -0.027070029 -0.06650995 -0.0023369172 0.0029981053 0.022973372 -0.04678879
0.00095110154 -0.006044849 0.024888588 -0.020876043 -0.0077264016 -0.00676524 0.010487744 -0.04121969
0.00097586086 -0.006032092 0.008922619 -0.011128885 0.02287914 0.017925195 0.10924369 -0.07553164
0.0040872297 0.0129535245 0.03889058 0.035374593 -0.029365059 0.042021826 -0.0032414864 0.047210317
0.0033891937 -0.02148884 0.0018787461 -0.015402161 0.015628206 -0.002844909 -0.05440637 -0.0632249
0.0009799097 -0.006037317 6.0583773e-12 -1.1517573e-11 0.0009795544 -0.0060362592 -0.019855198 0.0211474
6.0964055e-12 -1.1453612e-11 -0.040492583 -0.0038419822 0.021601519 -0.055975266 0.042612094 -0.014342675
0.0040006875 -0.0015216029 -0.015955541 0.037572537 -0.020913498 -0.009191907 0.041875727 0.015318456
4.869505e-12 -1.3100504e-11 -0.034830675 -0.01778645 0.0009767117 -0.006036726 -0.020104652 -0.00226392

rios_f.RIOS_H.rnn_cell1.weight_hh f4 [384, 96]
00000000: f76b 033d 0750 be3c dee8 b6bb e7de 58bc
00000010: c776 033d e46c e93b 6945 e8ba 3a3b b1bc
00000020: 360d edbc bffb ac3b c93c 833c deee 413a
00000030: 5fd7 ee3c 61b5 e43c 6f7d 203a 8f18 523c
00000040: bb76 033d 643f d9b3 8d76 033d 5edb 8a3c
00000050: c5b3 da33 9995 533b 6c37 853c 61ed df3b
00000060: d67d e9bc 0545 3ebb 2616 d2bc ba23 13bb
00000070: 5192 f0b3 29fc 9e3c 2f76 03bd 124b e1bc
00000080: 3075 03bd d31d b4b3 dfbb 8b3c 4fcb 5e3c
00000090: 863e 9a3b 1561 9ebc a40a 8abc 5124 853c
000000a0: 6bcb ca3b 8243 e03c 3377 03bd b576 03bd
000000b0: 4396 f833 b9c6 233b ad21 b83c 0b27 fab3
000000c0: b2c0 f933 1b55 413c 13a8 f23c 94fb 4eba
000000d0: 4179 e033 8c76 033d 1fb9 14bc fa14 a3bb
000000e0: e577 343c ead9 273c 4247 4fbb 6d76 03bd
000000f0: a17e f633 6817 f6bc 78a8 553b 9382 a23c
00000100: 6367 143c bccf f2bc a5ac 36bc b306 71bc
00000110: 980c 9e3c d5cc 86bc 77e8 1d3b bb19 f43b
00000120: 175b b73c 03b4 343c 27af 683b 6ab6 b1ba
00000130: 64a0 b3bc 6576 033d 2f91 323c 08bd 973c
00000140: 7fea 82ba e662 5bbc bed4 4d3c bb2c c3bc
00000150: f168 273b 4da7 623b 77bd 46bc 1c92 94bc
00000160: 2977 033d a9cc 74bc 9510 c8b3 9788 973b
00000170: b3bf 34bc 816d 763c d734 243c 496b bbbc
00000180: 9359 8e3d dc96 fe3c 15c5 3dbc b441 04bc
00000190: 6b5e 8e3d 3c68 883b 5f4b ce3b 76b1 9bbc
000001a0: dd2b 4dbd 2a3d f7bb 1356 f13c e078 02bd
000001b0: fea4 7f3d e3b4 853d 294f cfba 0b11 e83c
000001c0: aa5e 8e3d 2085 c4b4 705e 8e3d 5c10 df3c
000001d0: b1dc c434 e9a2 8c3c 06e6 393c e3c1 483b
000001e0: 156f 79bd 070d 01bb 9fd9 55bd 4694 b73c
000001f0: 9fba d1b4 b271 e53c 365e 8ebd 673a 6dbd
00000200: e15d 8ebd 62a2 91b4 20f1 813c 31b9 9a3b
00000210: 121a 5bbc 240b 50bc 10e7 2e3c a726 663c
00000220: f813 273c 0cc0 813d ac5e 8ebd 7f5e 8ebd
00000230: 9053 e034 e3ff cc3b 97bb b63c 50e2 dbb4
00000240: 44e5 da34 f73d 513c 3b36 763d 7c43 e23c
00000250: ce42 c134 455e 8e3d cda5 8cbc ff9e a7bc
00000260: 64b4 083c ea21 463d c037 21bc 305e 8ebd
00000270: 4ba9 de34 b69f 82bd 381c c83c f7ac 3e3d
00000280: 9586 b43b 3c9a 90bd c206 63bc 9e9a 2ebd
00000290: c043 4f3d 0366 98bb dd86 a4bc 03a9 65bc
000002a0: 6aa8 7e3d 237d 383c af8a 4cb7 4e78 1b3b
000002b0: cc7a 3dbd 4c5e 8e3d afb4 ba3c f4d4 143d
000002c0: 16e7 b1bb 1a2a b93b 0b77 1f3d abcb 24bd
000002d0: 3b6e d5bc 5bb8 a83c ddf7 22bd f09b 48bd
000002e0: b85e 8e3d bea9 6bbb 54d6 a9b4 a16c d1bb
000002f0: cb54 cd3c b0dd 5e3c 5938 c03c 020f 30bd
00000300: 8d28 7c3d 04ee 873d 048a 8b3c d64a e1bc
00000310: 432e 7c3d 9745 d53b c3b4 183b aa7d 01bb
00000320: 65cc fbbc 9e9d 8bbc 6a42 883b 02f0 14bc
00000330: f229 2d3d 9572 353d f285 673b d072 88bc
00000340: b22e 7c3d 2b5a 9db4 622e 7c3d 06dd b4bc
00000350: 67d9 9d34 8112 84bc 2ece f8ba 7510 023b
00000360: bc7d 5ebd dc0f 073b 333e dcbc c4b1 1b3d
00000370: a051 a2b4 fcf9 a9bb e22d 7cbd bc44 fdbc
00000380: d32d 7cbd e0bf 3ab4 55b1 103d 9d16 e83b
00000390: 6ed7 1cbd 89ac 56bc be86 ec3b 85d8 423d
000003a0: dd48 8b3c 0a7d 1f3d f82e 7cbd 5d2e 7cbd
000003b0: 65c0 af34 bfb6 4cbc d760 373d 5694 a2b4
000003c0: bc65 a634 94a8 9f3c c1d4 b13c 9266 c23c
000003d0: e954 9034 532e 7c3d 44f4 ac3b ee41 30bc
000003e0: 643d 4a3c 1326 bb3c 87d6 13bc ef2d 7cbd
000003f0: 0c23 af34 8b57 4cbd 998a 2b3d 664d 0b3c
0.032085385 0.02323152 -0.005581959 -0.013236738 0.032095697 0.0071235765 -0.0017720881 -0.021634687
-0.028936964 0.005279034 0.016020196 0.00073979597 0.029155431 0.02791852 0.00061222067 0.012823238
0.032095652 -1.01163806e-07 0.03209548 0.016950306 1.0184116e-07 0.0032285212 0.016261779 0.0068337177
-0.028502386 -0.0029032838 -0.025645327 -0.0022451715 -1.1202486e-07 0.019407349 -0.03209513 -0.027501617
-0.03209418 -8.387328e-08 0.017057357 0.013598277 0.0047071604 -0.019333402 -0.016850777 0.016252669
0.0061888 0.02737594 -0.0320961 -0.03209563 1.15757324e-07 0.0024990274 0.022476995 -1.1648634e-07
1.1630017e-07 0.011800076 0.02962116 -0.00078957644 1.0452869e-07 0.032095477 -0.009077339 -0.004976866
0.011014913 0.010244826 -0.0031628166 -0.03209536 1.1478301e-07 -0.030040458 0.0032601636 0.019837653
0.009057852 -0.029640071 -0.01114956 -0.01471107 0.019293115 -0.016455093 0.0024094859 0.0074493564
0.022382302 0.011029246 0.003550479 -0.0013558392 -0.021927066 0.03209533 0.010898872 0.018522754
-0.0009988098 -0.013390278 0.012562929 -0.02382504 0.0025544728 0.0034584582 -0.012130133 -0.018136077
0.03209606 -0.014941373 -9.316242e-08 0.004624437 -0.011032033 0.015040756 0.010022364 -0.022878306
0.06950679 0.031077795 -0.011582633 -0.0080723055 0.069516025 0.0041628163 0.006295606 -0.019005518
-0.05009066 -0.007545133 0.029459989 -0.031853557 0.06241321 0.06528642 -0.0015816438 0.02832844
0.069516495 -3.6604706e-07 0.06951606 0.02722948 3.666842e-07 0.017167525 0.011346346 0.0030633144
-0.06089695 -0.0019691603 -0.052209493 0.02240957 -3.9065068e-07 0.028008316 -0.06951563 -0.057917025
-0.069515 -2.7126504e-07 0.015862048 0.0047217836 -0.013372915 -0.012697969 0.010675207 0.014047301
0.010197632 0.06335458 -0.06951651 -0.069516174 4.178405e-07 0.00625609 0.022306247 -4.0956593e-07
4.0772477e-07 0.012771121 0.060110312 0.02762007 3.5997658e-07 0.06951574 -0.017168904 -0.020461557
0.00834379 0.048372187 -0.009839952 -0.069515586 4.14739e-07 -0.06378119 0.024427518 0.04655167
0.0055092075 -0.07060668 -0.013856592 -0.042627923 0.05060172 -0.0046508326 -0.02008384 -0.014017346
0.06217233 0.011260304 -1.2191637e-05 0.002372283 -0.046259686 0.069515795 0.022791235 0.0363359
-0.005429159 0.005650771 0.038931888 -0.040233295 -0.026053539 0.02059572 -0.039787162 -0.04897684
0.0695166 -0.0035959329 -3.1634647e-07 -0.0063911234 0.025064847 0.013602659 0.023464369 -0.042983063
0.06156211 0.06637195 0.017033584 -0.027501505 0.061567556 0.00650854 0.0023301102 -0.001975874
-0.030737111 -0.017042931 0.004158308 -0.009090425 0.04227633 0.044298727 0.003532764 -0.01665631
0.06156797 -2.9309135e-07 0.06156767 -0.022078048 2.940171e-07 -0.016122105 -0.0018982345 0.0019846235
-0.05431913 0.0020608818 -0.026885128 0.038011327 -3.0234241e-07 -0.005187271 -0.061567195 -0.030916564
-0.06156714 -1.7392404e-07 0.035325367 0.007082774 -0.038291387 -0.013102659 0.007218211 0.04756977
0.017002517 0.038937606 -0.06156823 -0.061567653 3.2736276e-07 -0.012494742 0.044770088 -3.028278e-07
3.099393e-07 0.019489564 0.021707894 0.02373055 2.688387e-07 0.061567616 0.005278142 -0.010757906
0.012343738 0.022845304 -0.009023315 -0.061567243 3.262179e-07 -0.049888175 0.041880224 0.00850234

rios_f.RIOS_H.rnn_cell1.bias_ih f4 [384]
00000000: 1231 f23d dbd9 023e 07b8 c53d 1c19 073e
00000010: 4f68 f23d de57 613e 4882 813d cc86 a43e
00000020: f0fe 2f3e ec83 eb3d 2a4e 0a3e 9371 a13e
00000030: ce2b 1e3e 846e 1e3e c9d3 b13d 0bce 043e
00000040: c867 f23d a38e b3ae d966 f23d ee4a 043e
00000050: a790 b2ae bdf8 e23d 35d4 2f3e edea dd3d
00000060: b351 f83d f420 c13d 5bf7 253e 8c69 8e3e
00000070: f9b5 bfae 05a8 263e d265 f23d 8426 1d3e
00000080: c65f f23d a11f 6eae 6e30 523e aef3 f23d
00000090: 2f2c d53d 145d 193e 4c24 603e c164 953e
000000a0: 6ea4 943d c06c 1b3e 816a f23d 7468 f23d
000000b0: 779b b9ae 8e64 d33d d72d 293e df33 c4ae
000000c0: 7607 a1ae 551f ed3d ebb9 443e e14d 073e
000000d0: c362 adae df67 f23d 819d 063e a37b f43d
000000e0: 7694 d73d 0053 e03d 0c1e de3d 0b67 f23d
000000f0: 00a5 ccae 0996 ff3d e0eb 993d 0977 0e3e
00000100: dc49 d83d 1d35 ee3d ac9a 323e 01d7 3e3e
00000110: 121a ea3d 98d2 123e 8dc5 f03d 86bb 5a3e
00000120: cd55 443e aa69 e03d d565 ba3d f02d bf3e
00000130: a64c 363e 2567 f23d 93ca 163e 1a84 503e
00000140: 9f84 ac3d b8e8 413e b076 923e cd24 0b3e
00000150: bc72 233e bec1 c93d db0d 173e a435 0b3e
00000160: a56a f23d 1c75 3d3e 0269 90ae 4f8c 903e
00000170: f6ad 5a3e 6ff5 053e 9546 a63d eb7d 143e
00000180: 09bc 9d3d 6093 943d 004f 573d 4570 863d
00000190: bcc7 9d3d b8c4 943c 80d3 923d 569e 033d
000001a0: e73b a73d ae58 753d f6f3 313d b6b2 cd3d
000001b0: 9dbb bf3d 4ea9 a63d d4a2 673d 9bb2 343d
000001c0: 9dc6 9d3d 9e40 55ae f6c5 9d3d 9388 613d
000001d0: 46b8 53ae 892c 8a3d 27ee 32bc a425 633d
000001e0: 4ef6 a43d 9b04 3a3d a931 963d c74f d1bc
000001f0: 2d98 69ae f451 c13d 5ac7 9d3d 4d6e b03d
00000200: 9bc4 9d3d 0c72 14ae b6be b23b 272f 913d
00000210: 6125 2f3d 96d3 453d b42d c83d 2d86 a83d
00000220: 1eac 873d e9c4 ab3d 27c7 9d3d 0ec6 9d3d
00000230: 8c48 58ae 8e8e 333d 04a7 8c3d 34a8 71ae
00000240: e4d3 4cae c0a3 663d 7358 c53d bedd 7c3d
00000250: 9c20 58ae 3ac7 9d3d 28cb 0c3d dbd4 133d
00000260: 0f76 6e3d ff11 923d b75c fc3c acc6 9d3d
00000270: e3e8 76ae fa5e 9e3d 0d94 633d 0feb 9d3d
00000280: 8248 4b3d 34a7 1d3e 4ab5 c03c 4b9a aa3d
00000290: 1230 ad3d 283d 7a3d c6ae 393d 6490 91bd
000002a0: e801 e03d e606 893d 0b2a 5c3d 71ce 72bb
000002b0: 41df 873d 5fc6 9d3d 642b ad3d 569f d83c
000002c0: 28fc 4f3d 894f 253d f092 643d d949 9e3d
000002d0: 211b c03d 2d2a 5f3d cefb 9a3d 2638 a03d
000002e0: cfc6 9d3d fefa 5c3d da4f 35ae 7f75 17be
000002f0: 3d6d b43d 41dc 5a3d e567 8d3d 0c14 843d
00000300: 3834 873e d32a 2e3e b31b 91bd 5cfd 51be
00000310: ce48 873e 4979 963e 9261 8c3d 32f1 02bf
00000320: d320 98be 98ed 463d 813f 593e 3ee2 bb3c
00000330: fbd7 8d3e 9e9c 883e 17ae ffbb 76bd 713e
00000340: 6248 873e 2a64 aeb4 e248 873e a35b 463e
00000350: 4a9e b934 7252 21bd 5069 2a3e 68a3 023e
00000360: ca2e 6bbe 08b3 d03c 50ed 92be f7f7 68bd
00000370: 624f f6b4 b6a8 913e 4547 87be 5f73 87be
00000380: cd45 87be 77cd 9bb4 9c43 633e b541 253e
00000390: 75c7 2b3e 3e63 4cbe 9e19 b0be 1b74 6f3d
000003a0: 55a6 2c3d 6167 5f3e 9249 87be 4c49 87be
000003b0: f528 1335 4bca eb3c d4c1 873e c9b0 02b5
000003c0: f9c9 e134 dfed 093e a470 af3e 43f0 03be
000003d0: 17ed bc34 ec48 873e d978 2bbe 45f9 8b3c
000003e0: 9e96 343e b066 d73c 4029 5ebd 0349 87be
000003f0: 1f75 0f35 9662 88be 66c6 10bd 09ea 613e
0.11825766 0.12778418 0.09654241 0.13193172 0.118363015 0.22006175 0.06323677 0.32134092
0.17187095 0.114997715 0.1350638 0.31531963 0.15446398 0.15471846 0.08682973 0.12969224
0.11836201 -8.165315e-11 0.11836023 0.12919208 -8.120198e-11 0.11082599 0.17170794 0.10835824
0.12124958 0.094301134 0.1620764 0.278149 -8.717999e-11 0.16275032 0.11835827 0.15346724
0.118346736 -5.4143027e-11 0.20526287 0.118628845 0.10408818 0.14976913 0.21888846 0.29178432
0.07257925 0.15178204 0.1183672 0.11836329 -8.440442e-11 0.10321914 0.16521393 -8.922262e-11
-7.322758e-11 0.11578242 0.19211547 0.13213302 -7.884673e-11 0.11836218 0.1314602 0.11937644
0.105263636 0.10953331 0.10845575 0.1183606 -9.306156e-11 0.12479789 0.07515693 0.13912596
0.105609626 0.11631224 0.17441815 0.18636705 0.11430754 0.14338148 0.1175643 0.21360597
0.19173355 0.10957654 0.09101454 0.37339735 0.17802677 0.118360795 0.14725713 0.20362893
0.08423733 0.18936431 0.28606176 0.13588257 0.15961736 0.098514065 0.14751379 0.13594681
0.11836747 0.18501705 -6.567015e-11 0.28232047 0.21355423 0.13081907 0.08118931 0.14501159
0.077018805 0.07254672 0.052565575 0.065643825 0.07704112 0.018160209 0.07169247 0.032133423
0.08165722 0.059899025 0.04344555 0.10043852 0.09361956 0.08137761 0.05655177 0.044115644
0.07703898 -4.8487984e-11 0.07703774 0.055061888 -4.8139513e-11 0.06746776 -0.010921038 0.05545582
0.080547914 0.04541455 0.07333691 -0.025550736 -5.3113226e-11 0.094394594 0.07704039 0.08614788
0.07703515 -3.3752598e-11 0.0054548634 0.07089072 0.042760257 0.048297487 0.09774342 0.08228717
0.066246256 0.08387167 0.07704001 0.077037916 -4.917715e-11 0.043837123 0.06867793 -5.494645e-11
-4.6572426e-11 0.056308508 0.09636011 0.061734907 -4.9141677e-11 0.07704015 0.034373432 0.036091667
0.05821806 0.07132339 0.030805929 0.07703909 -5.614077e-11 0.07732959 0.055561114 0.077108495
0.049629696 0.15395814 0.023523945 0.0833021 0.08456434 0.06109348 0.045332693 -0.071076185
0.109378636 0.06690769 0.053751033 -0.0037049318 0.06634379 0.07703852 0.08455542 0.026443165
0.050777584 0.040359054 0.055804193 0.07728929 0.093801744 0.05448358 0.07567559 0.078232095
0.07703935 0.053950302 -4.1225558e-11 -0.14790915 0.08809898 0.053432707 0.06904582 0.06449136
0.26407027 0.17008524 -0.07085361 -0.20506805 0.26422733 0.29389408 0.068545476 -0.51149285
-0.29712543 0.04856643 0.21215631 0.02293503 0.27703843 0.2668199 -0.0078027355 0.2360743
0.2642241 -3.2482905e-07 0.26422793 0.19370894 3.4574106e-07 -0.039385267 0.16641736 0.12757647
-0.22967067 0.025475994 -0.2869668 -0.056877103 -4.587883e-07 0.2844903 -0.26421562 -0.2645521
-0.2642044 -2.9020495e-07 0.2219376 0.16138346 0.16775306 -0.19959733 -0.34394544 0.058460336
0.042150814 0.2181678 -0.26423317 -0.2642311 5.482137e-07 0.028782984 0.26515067 -4.868603e-07
4.205647e-07 0.13469647 0.34265625 -0.12884621 3.5190234e-07 0.26422822 -0.16745318 0.017086634
0.17635581 0.026294082 -0.054238558 -0.2642289 5.3442085e-07 -0.26637715 -0.035345457 0.22061934
