BRIOS/models/model_file/train_largedata/brios_attention.pt (torch, 857022 bytes, 38 tensors)

rios_f.RIOS_H.rnn_cell0.weight_ih f4 [384, 2]
00000000: 5dec 6e3d db1d 8a3d 1f3f 123d e21c cd3b
00000010: 0002 3d3d 6433 4f3d 9974 3d3d b9af 4d3d
00000020: 01d2 673d af60 3f3d bd9c 403d 8ffd 483d
00000030: 6aa3 a63d cb1b 5b3d e76f a23c b4a7 183d
00000040: 2df2 3c3d 5bca d73d a341 333d a8b2 713d
00000050: 2e77 283d 708b c63d 152c c6aa cf29 31ab
00000060: b344 a93c 97ff 8e3e 2e1c 08bc 5cc8 6f3d
00000070: 1945 cdaa 65ac 2dab 07e7 363d 2d7c 3a3d
00000080: 0edb 7c3d 5e27 a53d 8cfe 833d 56c6 a93d
00000090: bc78 b13d 63ed 483d 45db 333d 3136 753d
000000a0: bab0 c13d 4431 b33d 01e7 323d 57dc bd3d
000000b0: 20cb e23c 9e1c 503d b135 383e 56b1 2f3e
000000c0: 9d6c 3c3d 600f 4c3d 79a0 293d eb5d 093e
000000d0: 2228 3c3d dd09 483d cb63 8b3d 3436 713d
000000e0: ba42 533d 2ff2 bb3d 061b 743d 75d9 943d
000000f0: 2d6a 3c3d a301 273d 3df2 e63d 327a 7a3d
00000100: 0b39 a33d 18fa 593c acb2 e03d a89c ec3d
00000110: 38dc 203d 0123 273d edaa e03d cff7 1f3e
00000120: ee78 513d 1b1b c73d 1499 963d e0c1 243d
00000130: f912 dc3c aca3 3f3d f57c 9d3d 2c6a 8d3d
00000140: 3a8c 2abc 24de cb3d 79bc 273d c75b 513d
00000150: 30e0 423d d0ad 5d3d fa77 df3b 43d6 343c
00000160: 0247 e83c 9eb7 283e f8fc 953d 6ca7 463d
00000170: 0744 953d 49cf 5c3d 1909 403d 0d58 6e3d
00000180: e8a2 bc3d 2bc8 3e3e 7f32 0e3d aedb 943d
00000190: af1c 303d 1148 593d ed52 363d 6eca 4f3d
000001a0: 424d 063d c1cb 283d df7e 313e 6c42 0c3e
000001b0: 9777 423d cb37 763d 0d32 193d 8516 423d
000001c0: 3c53 253d 8942 7b3d 3de4 803d cef0 1d3e
000001d0: 29dd 203d 9327 273d 8457 3b3d 909f 5e3d
000001e0: 3079 8a3d 74db b03d 0a64 d23c 0217 463d
000001f0: c8ac 19bc 15dc dc3d 449e 26bc 5e88 12be
00000200: f9a7 c6aa d025 30ab 4006 2d3e d85d a73d
00000210: 77e4 493d c838 a73d ea1e 7bbb 0bf4 10bd
00000220: 82df 953d 2df4 7b3d 8720 d93c 1bf7 f63c
00000230: 8c6f cb3d 8ac8 613d f5d7 b13c 9515 dc3d
00000240: a016 833d f6d3 0a3c 0236 423d 4843 c03d
00000250: f67f 0a3d cd82 733d d352 013d f4ad 1e3d
00000260: 7652 2e3d 47d7 7039 11a7 c73d f33e ad3d
00000270: 2cf0 733d 27ab cf3d 591b 883d 9174 623b
00000280: 3aef 3b3d 5a16 453d 2b8d 3f3d dd2e 543d
00000290: be49 413d 616b 0b3d aa12 333c 9dd8 3b3c
000002a0: 8ef7 a73c eb43 bb3d d3c2 b33c 7aaa 923d
000002b0: d80b 6e3d 6a30 823d 32be eabc e8d1 0e3e
000002c0: 5e75 fe3c 60f2 df3d b47e 3b3d 05df 403d
000002d0: 6781 703c 607a 343c ccbd 813d d7f8 7e3d
000002e0: 0616 ab3d c7aa 123e e015 a63d b239 6b3d
000002f0: 227c 273e 81e2 e73d 8462 3a3d 8bb3 513d
00000300: 5d1c 9ebc 08d0 27bc f208 1bbd 7d45 45bd
00000310: d3fe 953c 9e1c e43c 4865 a33c e36a f43c
00000320: ed82 fc3b 7c14 ed3a 95ba 973c 55c1 f23c
00000330: 0f05 733c fa63 b4bc aafa 123c f94b bcbc
00000340: 80ce e53b ef57 36bd 5b73 a03c 59c1 ce3c
00000350: a4cb 923d 292b 8cbc 9f04 40ab c157 73ab
00000360: 23c6 23bd 9751 26bf 72eb cdbb d80f d5bd
00000370: 3ba3 40ab 9f07 6fab 2f88 8e3c 2b01 db3c
00000380: 58b4 443b 1b4a c3bc ff34 01bd 2ba6 d6bc
00000390: 6b07 183d b5f8 93bd 71ce c13c 9449 d73c
000003a0: 8fb2 e7bc 20dc 9dbc b775 333c 0b31 eb3c
000003b0: 6263 acbc 62ea dbbc 9354 193d 8762 443d
000003c0: a9da 983c 31a3 ea3c 4e5a 793c 4a19 1d3d
000003d0: e8f4 953c ce28 e63c e4b8 583d 856f a83d
000003e0: 0f3a cc3b 4ebe c0bb db1d 4dbc d2b8 10bd
000003f0: c422 99bc a06f 15bd 3584 b1bb f6e9 d63a
0.058330882 0.06743976 0.03570473 0.0062595466 0.046144485 0.05058612 0.046253774 0.05021641
0.05659676 0.046723064 0.047024477 0.049069937 0.081366375 0.053493302 0.01982875 0.03726931
0.046129394 0.10536643 0.043763768 0.05900827 0.041129284 0.09694564 -3.5202453e-13 -6.2941053e-13
0.020662641 0.27929375 -0.0083075 0.058540687 -3.646326e-13 -6.170119e-13 0.04465392 0.04552858
0.061732344 0.08064149 0.06445035 0.08289783 0.086656064 0.049054515 0.043910284 0.059866134
0.09457536 0.08749631 0.043677334 0.09270542 0.027684748 0.05080854 0.17989232 0.17157492
0.04600202 0.04981935 0.041412804 0.13414733 0.04593671 0.04883753 0.068061434 0.058889583
0.051577307 0.09177052 0.059596084 0.07268039 0.045999695 0.040773045 0.11276672 0.06115169
0.079698645 0.013304256 0.10971579 0.11553317 0.039272517 0.040804867 0.109701015 0.15621875
0.05114072 0.09721967 0.07353416 0.040223956 0.026864516 0.04678695 0.07689849 0.06905016
-0.010409409 0.09954479 0.040951226 0.051112916 0.047577083 0.05412084 0.0068197222 0.011037412
0.028354172 0.16476294 0.073236406 0.04849951 0.07288366 0.05390862 0.046883676 0.05818944
0.092107594 0.18631046 0.034716126 0.07268463 0.042996105 0.053047244 0.044512678 0.05073016
0.032788523 0.04120994 0.17333554 0.13697213 0.04747733 0.060111802 0.037401248 0.047384758
0.04036258 0.06134275 0.06293533 0.15423891 0.039273415 0.040809225 0.04573776 0.05435139
0.06761396 0.08635607 0.025682468 0.048361786 -0.009379573 0.10784165 -0.010169569 -0.14309832
-3.528842e-13 -6.2580236e-13 0.16896915 0.08172196 0.049290147 0.08165127 -0.0038317987 -0.035388988
0.07318021 0.06151216 0.026504768 0.030147126 0.09933385 0.05512289 0.021709422 0.10746304
0.064008 0.008473387 0.047414787 0.09387833 0.03381344 0.059450913 0.031573128 0.038740113
0.04255911 0.0002296838 0.09748662 0.08459272 0.059555218 0.101400666 0.06645841 0.0034554342
0.04588244 0.04811702 0.046765488 0.051802505 0.047189467 0.03403795 0.010929743 0.011465219
0.020503785 0.09143814 0.021943485 0.07161422 0.058116764 0.063568905 -0.028655145 0.1394726
0.031061824 0.10934901 0.04577513 0.047087688 0.014679289 0.011015505 0.06335029 0.06224903
0.0835381 0.14322959 0.08109641 0.05742807 0.16355947 0.11322499 0.045504108 0.051196616
-0.019300634 -0.01024247 -0.037850328 -0.048161972 0.018309986 0.027845677 0.019945756 0.029836124
0.0077060373 0.001808777 0.018521586 0.029633204 0.014832749 -0.022020329 0.008970896 -0.022985445
0.007013142 -0.044517454 0.019586256 0.02523868 0.071677476 -0.017110424 -6.8218516e-13 -8.6452725e-13
-0.03998388 -0.64968246 -0.006284171 -0.104034126 -6.843863e-13 -8.4920433e-13 0.017398922 0.026733955
0.003001472 -0.023839047 -0.03154468 -0.026202282 0.03711645 -0.072251715 0.02365801 0.026280202
-0.028283386 -0.019270003 0.010953358 0.028709909 -0.021043483 -0.02684516 0.037434172 0.047945525
0.018658953 0.028642269 0.015219284 0.038354196 0.018305257 0.028095629 0.0529107 0.08224396
0.006232507 -0.005882061 -0.012519325 -0.03533251 -0.018693335 -0.036483407 -0.0054173716 0.001639663

rios_f.RIOS_H.rnn_cell0.weight_hh f4 [384, 96]
00000000: 79af 5bbd 1947 ad3c d39a 91bd 8247 8abd
00000010: 23a9 93bc 9f75 903d d000 b23c 9863 af3c
00000020: 1bfe e33c 3c8b 93bd f63b acbc 6db8 1fb2
00000030: 88eb 1dbb 78f6 0e3a 24a6 15b2 166b 91bd
00000040: 446e bd3b aeab c7bb d2c6 113b 25bb 84bd
00000050: c924 06bd 0b91 383b d1dc bfbc 13a9 c0bc
00000060: 4958 91bd 14cb b43b f04a 91bd d9c9 4fbb
00000070: 0d1e 4b3b 15e5 863c 1b4d bb3c 9be2 d63c
00000080: f9e5 08bd 1c31 0bbd 503b 8dbd b63d 0dbc
00000090: 2891 28bd a275 343d 5d2d 343d 06bd cf3c
000000a0: b757 0ebc b7d2 90bd 1ecb 913d a21c aabc
000000b0: 355b 6b3b fff0 7e3c 3fe6 27bc d0dc 903d
000000c0: 7b96 65bd 017b b7bc 1610 26ba 6322 913d
000000d0: 21f9 283d 7078 9d3d c67c 913d e36f 823d
000000e0: a215 1ebd 626e 323d b33b 8dbd 5131 91bd
000000f0: 9a55 d1b9 b04b 18bd 759d 71bb 11c9 36bb
00000100: 33a4 1db2 0cf4 41bd 79ac 1abb bc75 76ba
00000110: ce9d 68bc 9f54 323d aad1 f6bc 250e 943c
00000120: 80ae 513c 9b7e 9a3b d3d0 36bc 6fb3 79bd
00000130: 89ac 2b3c ac3b 203d fcb7 db3b 639a 7abc
00000140: 9c1b 913d a98b 91bd 0d4a a53a 3dc0 c93b
00000150: a225 9a3c 2e0b ac3b c101 e8bb ed59 5ebc
00000160: 2e1c 55bc 7976 91bd 4370 b13c 0d9d f73b
00000170: 7221 823b c831 fd3b 3911 803c a54d 913d
00000180: 0ae5 86bd 96ea 7bba 5744 bcbd 7fe3 c7bd
00000190: efa8 b0bc 40be ba3d bbc6 093d 5226 603c
000001a0: 8605 8a3c ea99 b4bd 3145 603b 883e 1fb1
000001b0: 32f5 36ba 14c0 033d e4ba 44b1 212c bcbd
000001c0: bd5d 483b fc35 c0bc 3174 57bb deaf b6bd
000001d0: acc9 7fbc 8446 ccb9 66ad d8bc d9c0 7bbc
000001e0: 2018 bcbd ab38 263d 37fd bbbd 23f4 503c
000001f0: a6bd 0f3c 57c6 6f3c c26f 27bc 17ff 95bb
00000200: 52ae dabc 02bb 59bd d14f b6bd ac80 ccbc
00000210: d37b bbbc d22c 0a3d 76d5 be3d aa1a 853c
00000220: 80e3 c0bc 4ba9 bbbd 7ebc bc3d ae02 2ebc
00000230: c9f1 bdbb ed67 3a3d d976 203d bda7 bb3d
00000240: 9293 56bd 515f 37bd 9951 f63b 13f9 bb3d
00000250: 6456 543d 14e6 c23d e76b bc3d 8852 db3d
00000260: 84b0 1fbd 390c 823d 7550 b6bd 760b bcbd
00000270: 5aa2 c5ba ffaa 84bd aa6e 6ebc 8430 88bb
00000280: 79bc 2cb1 023b bdbc 503e 973b 0b5b 543c
00000290: 5180 42bd 6f20 b63d 1bcc 83bc 2d09 733d
000002a0: 3347 02bb 086a 4ebd 6d8d 2abd fc01 b3bd
000002b0: 3b41 f73b 7fb0 873d 206d 343c 6a8a 8dbd
000002c0: 9c84 bb3d 7e82 bcbd c90e 21ba 474e 903a
000002d0: f066 afbc d845 043c 8f46 91ba b774 fe3b
000002e0: 119c 8a3c 4c32 bcbd 2b16 363d 5a09 173d
000002f0: b522 6d3c 705b 3c3c a51b db3b bc1f bc3d
00000300: c8b6 22bd 3385 bb3b 2105 4ebd ece9 42bd
00000310: c82c 0fbc 7d9b 4c3d 2ac2 ca3c 0294 623c
00000320: d68b 403c 8545 48bd cc93 13bc 9096 22b1
00000330: 042a 303b f51f 423b 1e85 0cb1 0f37 4dbd
00000340: 968e a8bb 90ad edb8 0919 9fbb d14d 44bd
00000350: 1446 88bc 64b9 8e3b b026 ebbb a30d a3bb
00000360: 75b3 4dbd 2949 013c e084 4dbd 02d1 553a
00000370: 072f dc39 5b82 d03b 8ce1 243c e724 073c
00000380: b423 56bc 8217 84bc accf 46bd 55d3 debb
00000390: 3de0 e8bc fc61 fb3c 0fd0 043d 30bb 4a3c
000003a0: efa4 08bc 8747 4bbd 1eb2 4e3d c142 8ebc
000003b0: 8d30 adbb 9584 c23c a94d 97bb d1af 4d3d
000003c0: a3bf 03bd 19f6 afbc ce64 f63b b3d0 4c3d
000003d0: 269c d83c 32ca 323d c276 4e3d f6a3 3f3d
000003e0: e06d c9bc f16a 0f3d 54d0 46bd bf61 4dbd
000003f0: 93ae 443c 1056 05bd 73cd 6bbc 8a9c 61bb
-0.05363414 0.021152066 -0.071096085 -0.0675192 -0.018024987 0.070536844 0.021728903 0.021409795
0.027831128 -0.07204291 -0.021024685 -9.296952e-09 -0.0024096686 0.0005453597 -8.7107175e-09 -0.07100503
0.005780967 -0.006093464 0.002224375 -0.064810075 -0.032749925 0.0028162624 -0.023420723 -0.02351812
-0.07096917 0.005517373 -0.07094371 -0.0031706004 0.0030993253 0.016466657 0.022863915 0.0262311
-0.033422444 -0.03398238 -0.068960786 -0.00862067 -0.041154057 0.044057496 0.043988574 0.025358688
-0.008687905 -0.07071441 0.0711882 -0.020765606 0.0035912518 0.015560388 -0.010247766 0.07073367
-0.056051712 -0.02239752 -0.00063347945 0.07086637 0.041253213 0.07688987 0.07103877 0.06368997
-0.03859485 0.0435623 -0.06896152 -0.070894845 -0.00039927365 -0.037181556 -0.0036867533 -0.002789084
-9.175937e-09 -0.04735188 -0.0023601337 -0.0009401699 -0.01419778 0.043537732 -0.030129272 0.01807315
0.012797952 0.0047147996 -0.011158186 -0.060962137 0.010478147 0.039119408 0.0067052823 -0.015295598
0.07085344 -0.07106716 0.001261057 0.00615695 0.018816773 0.005250356 -0.007080287 -0.013571245
-0.013007207 -0.07102675 0.021659976 0.0075565637 0.003971272 0.0077268817 0.015633212 0.07094888
-0.065866545 -0.0009609846 -0.09192722 -0.09760188 -0.021564929 0.091183186 0.03363679 0.013681011
0.016848337 -0.08818419 0.0034220929 -2.317309e-09 -0.0006979286 0.0321656 -2.8627989e-09 -0.091881044
0.003057345 -0.023463242 -0.0032875652 -0.08920263 -0.015612047 -0.0003896245 -0.02644987 -0.015365803
-0.09184289 0.040581387 -0.09179156 0.012753519 0.008773243 0.01463469 -0.010219516 -0.004577528
-0.02669445 -0.05315686 -0.089019425 -0.0249637 -0.022886192 0.03373415 0.09318058 0.016248066
-0.02354598 -0.091631494 0.092156395 -0.010620756 -0.0057966453 0.045509268 0.039175842 0.09162853
-0.052386828 -0.044768635 0.0075170514 0.091783665 0.0518402 0.0951654 0.09200268 0.10709101
-0.038986698 0.063499875 -0.08902065 -0.091818735 -0.0015078292 -0.064779274 -0.014552752 -0.004156174
-2.5136428e-09 -0.023099426 0.0046155825 0.012961159 -0.047485653 0.08892905 -0.016088536 0.059334923
-0.0019878864 -0.050394088 -0.04163878 -0.08740613 0.007545618 0.06625461 0.011012346 -0.06911166
0.091561526 -0.09204577 -0.0006143866 0.0011009657 -0.02141139 0.008073293 -0.001108365 0.0077653783
0.016920121 -0.09189281 0.044454735 0.036874153 0.014473607 0.01149641 0.006686645 0.0918574
-0.039725095 0.0057226657 -0.05029786 -0.047586367 -0.008738704 0.049952973 0.024750788 0.013829233
0.0117520895 -0.048894424 -0.0090074055 -2.3659688e-09 0.0026880512 0.0029621099 -2.044835e-09 -0.050101336
-0.0051439507 -0.00011333369 -0.0048552793 -0.047925774 -0.016634978 0.0043555964 -0.007176243 -0.004975991
-0.05021997 0.007890978 -0.050175548 0.000815645 0.00041996708 0.006363196 0.01006354 0.008248544
-0.013070036 -0.01612449 -0.048537895 -0.006800095 -0.028427238 0.030686371 0.032424983 0.012373731
-0.0083401045 -0.04962876 0.050462835 -0.017365815 -0.0052853287 0.02374486 -0.004617412 0.0502165
-0.03216518 -0.021479653 0.007519341 0.05000372 0.026441645 0.04364986 0.050406225 0.046787225
-0.024588525 0.035014097 -0.04853852 -0.050142046 0.012004512 -0.03255278 -0.014392245 -0.003442558

rios_f.RIOS_H.rnn_cell0.bias_ih f4 [384]
00000000: d4db 0f3e 4116 163e dacc fc3d 527c e43d
00000010: 5fb8 e63d 2d11 f83d 1e9d 2c3e 05f0 7e3d
00000020: 240a 153e 1a60 003e 65d2 2b3e 69a4 d8ab
00000030: 8507 163e 7ef0 eb3d fee0 d8ab c889 f63d
00000040: f3af 013e 8b2d f43d 5ff2 7a3e 715d f83d
00000050: 3c8e 5c3e 1f94 6f3e fa20 2f3e 6a01 e33e
00000060: 8458 fa3d 0339 193e 234d fa3d f85e 0e3e
00000070: 6dce fa3d c573 d33d 4973 093e c86a 983e
00000080: bcd1 373e d5ec 303e 01b6 d83d da3f 9c3e
00000090: 9ad2 2d3e 9e7e 1c3e 06b6 a83d b434 083e
000000a0: a4ce 153e 08e4 e13d f8d4 ff3d 1c01 a13c
000000b0: f836 263e 8972 103e 2d9e 0f3e f6a6 fb3d
000000c0: 81e2 4c3e e113 ce3d fe07 043e 2e77 f03d
000000d0: 3fe7 a73d 0e62 ed3e 66fe fd3d c2c6 e63d
000000e0: c204 033e 138d 643e 73b8 d83d e1c3 f43d
000000f0: 507b 0a3e bfa7 8e3d b334 0f3e 660d 4a3e
00000100: 07fe d7ab 0724 973e 67d1 403e f144 2d3e
00000110: df80 013e 976b 893d 7274 203e cc1c 563e
00000120: 0519 f63d 9456 323e 46fe fa3d d20c d13d
00000130: dc1b c43d 0514 273e 1f65 d73d eb54 023e
00000140: 391f fd3d aa8e fa3d 3904 2b3e 0651 d13c
00000150: 15a9 3e3e 427e 0e3e 154e 793e 828e 053e
00000160: b32b 163e 5994 fa3d 3604 f13c 3670 2f3e
00000170: 3277 043e c576 533e 3ad2 523e f9b6 f63d
00000180: 4635 8c3c 34ee c9bc 0e56 783d fbaa 763d
00000190: ddea 533c 4e7b 703d 246e 15bd c4a3 0f3d
000001a0: 157b 993c 3fc6 7e3d 5cbe 0cbb 468e c2ab
000001b0: 402e 373c f5a3 95bc c126 c1ab 13b7 7b3d
000001c0: 4c19 583b 1a99 febc fd7a bf3c b08e 7a3d
000001d0: 1812 7b3b 3fa1 dd3c 674e c4bc 19c2 463d
000001e0: 7da2 773d 6da9 2c3c ed92 763d 6dc2 b63c
000001f0: 1f08 d53b 3f7b 55bb bb57 11bd 66f2 0b3c
00000200: 4aef fb3b e2d2 dbbc c175 783d e13d 39bd
00000210: ab66 05bd 9c64 64bb d840 d73c a31a f2bc
00000220: c721 a2bc b46d 7b3d 4c46 783d 44ac 063d
00000230: 2982 853c e7e4 993c 5411 063d 989a 6d3d
00000240: b284 9b3b c62e f73b afc2 a33c 6fca 773d
00000250: 93f8 fc3c 91f6 713d 90ef 713d ce64 783d
00000260: ed22 d6bc b175 013d 8c74 783d 1b0f 753d
00000270: eda7 b03c ddc5 063d 92be 13bd 200a 873e
00000280: 9575 c1ab a205 c93c c358 6e3b 17ed ffbc
00000290: 47be 963c 5f5d 253d 42dc 64bc 3e6f 05bc
000002a0: 474f 313c ccd8 e9bc 4055 8c3c d106 5c3d
000002b0: a42c 8c3c c746 12bc d390 343c ff6a 8b3c
000002c0: ccc1 743d e1b8 783d 56c2 11bc 0bf1 1b3d
000002d0: 1e42 793c 71f9 a4bc 7a02 173d f1db 8f3c
000002e0: bbec 82bc ebcb 793d c697 123d 93b5 9ebc
000002f0: 9880 91bc 6297 7c3c 2c1e d13c f8ab 773d
00000300: 98db 4cbe cd22 723c c9ad 67be 398c 4bbe
00000310: e770 da3c dd56 683e 4ad8 803e 3fee a03c
00000320: 9510 b03d 46b1 68be e6eb 14be fb69 ddb3
00000330: 3986 183e ea82 5c3d e97f c6b3 b433 5dbe
00000340: 0333 3bbc 4bca 363d 9dc1 183d 36e8 6dbe
00000350: 0592 07be 0d22 913e e1ca 22bd 4ade 923e
00000360: 5553 66be 44e7 153d 4f91 66be 20c7 a13c
00000370: 8f36 52bc 4dea 5fbd 4dcb d23d c35b 7e3e
00000380: 72da 8e3e bf57 0cbd 4e27 48be c8e1 73be
00000390: cdae 83be 7f29 5b3e fb88 163e f465 923d
000003a0: ad96 aabd 8e3d 42be a52f 6b3e 8f9b 12bd
000003b0: ce36 44be 5d9d 763e 8194 e1bc d084 6e3e
000003c0: 157d 9ebe cb26 49bd f85e c43d 7318 593e
000003d0: 2acb 3d3e 3cbc b2be 2910 6d3e 3881 583e
000003e0: 4e36 6c3b b58e a6bd 0f29 48be eb25 61be
000003f0: d8cd 403e 4f3e f9bd fb6a a1bd 7d2c e13d
0.14048702 0.14656927 0.1234376 0.11156525 0.11265635 0.12112651 0.1685681 0.06224062
0.1455465 0.1253666 0.16779478 -1.5393356e-12 0.14651306 0.115204796 -1.5410171e-12 0.120379984
0.12664776 0.11922749 0.2450652 0.121271975 0.21538633 0.23396347 0.17102423 0.44337016
0.12223914 0.14963154 0.12221744 0.13903415 0.12246404 0.10324816 0.13422884 0.29768968
0.17951101 0.17277844 0.105815895 0.30517465 0.1697487 0.15282676 0.08237843 0.13301355
0.14629608 0.11029822 0.124917924 0.01965385 0.16231906 0.14106192 0.14025183 0.12287705
0.2000828 0.10062385 0.12893674 0.11741482 0.081984036 0.46363872 0.12402038 0.11268379
0.12794784 0.2231944 0.10582056 0.119514234 0.13523602 0.06965589 0.13984947 0.19731674
-1.5347176e-12 0.29519674 0.1882988 0.1692083 0.12646817 0.06709974 0.1566942 0.20909423
0.12016491 0.1741584 0.1225553 0.102075234 0.09575626 0.1631623 0.10517334 0.12727706
0.12359471 0.12234242 0.1670083 0.02555133 0.18619187 0.13915351 0.24346192 0.13042644
0.14665107 0.12235326 0.029420953 0.17132649 0.12936094 0.20650776 0.20588008 0.12046618
0.017115247 -0.024649717 0.060628943 0.060221653 0.012934414 0.058711343 -0.03648199 0.03506829
0.018735448 0.06220078 -0.0021475768 -1.3824018e-12 0.01118046 -0.018266657 -1.3724231e-12 0.06145389
0.0032974062 -0.031078864 0.023374075 0.061171234 0.0038310345 0.027054427 -0.023963166 0.04852495
0.060457695 0.010538441 0.060198713 0.022309506 0.0065012123 -0.003257468 -0.035484057 0.008541679
0.0076884376 -0.026833955 0.060659174 -0.045225028 -0.032568615 -0.0034850007 0.026276037 -0.029553717
-0.019791497 0.061383918 0.060613915 0.03287913 0.016297417 0.018785907 0.03273137 0.05800876
0.004746043 0.0075434176 0.019990293 0.06049579 0.030880248 0.059073035 0.059066355 0.06064301
-0.0261397 0.03160638 0.060658023 0.05982886 0.021564448 0.03290354 -0.036070414 0.26374912
-1.374611e-12 0.024538819 0.0036368824 -0.031240983 0.018401278 0.04037225 -0.013968529 -0.008144198
0.010822124 -0.02854576 0.017130494 0.053717438 0.01711113 -0.008928007 0.011020857 0.017018793
0.05975513 0.06072319 -0.008896431 0.038071673 0.0152135175 -0.020138474 0.036867596 0.01756093
-0.015982023 0.060985487 0.035789274 -0.01937369 -0.017761514 0.015416952 0.025527082 0.060466737
-0.20005643 0.014778805 -0.22624888 -0.1987771 0.026665164 0.22689386 0.25165015 0.019644855
0.08596913 -0.22723874 -0.14543113 -1.0310392e-07 0.14894952 0.053835787 -9.24336e-08 -0.21601754
-0.011425736 0.044626515 0.03729402 -0.23233113 -0.13239296 0.2834629 -0.03974426 0.28685218
-0.22492726 0.036597505 -0.22516368 0.01974827 -0.012830391 -0.054666806 0.10292683 0.24839692
0.27901036 -0.03426337 -0.19546244 -0.23816597 -0.257193 0.21402548 0.14700691 0.07148352
-0.083295204 -0.18968794 0.22967394 -0.035792883 -0.19161531 0.24083467 -0.027536632 0.23292851
-0.30954805 -0.04910926 0.09588426 0.21200733 0.18534532 -0.34909236 0.23150696 0.21143043
0.003604311 -0.08132688 -0.19546913 -0.21987121 0.18828523 -0.121700875 -0.07881733 0.109948136

rios_f.RIOS_H.rnn_cell0.bias_hh f4 [384]
00000000: d4db 0f3e 4116 163e dacc fc3d 527c e43d
00000010: 5fb8 e63d 2d11 f83d 1e9d 2c3e 05f0 7e3d
00000020: 240a 153e 1a60 003e 65d2 2b3e 69a4 d8ab
00000030: 8507 163e 7ef0 eb3d fee0 d8ab c889 f63d
00000040: f3af 013e 8b2d f43d 5ff2 7a3e 715d f83d
00000050: 3c8e 5c3e 1f94 6f3e fa20 2f3e 6a01 e33e
00000060: 8458 fa3d 0339 193e 234d fa3d f85e 0e3e
00000070: 6dce fa3d c573 d33d 4973 093e c86a 983e
00000080: bcd1 373e d5ec 303e 01b6 d83d da3f 9c3e
00000090: 9ad2 2d3e 9e7e 1c3e 06b6 a83d b434 083e
000000a0: a4ce 153e 08e4 e13d f8d4 ff3d 1c01 a13c
000000b0: f836 263e 8972 103e 2d9e 0f3e f6a6 fb3d
000000c0: 81e2 4c3e e113 ce3d fe07 043e 2e77 f03d
000000d0: 3fe7 a73d 0e62 ed3e 66fe fd3d c2c6 e63d
000000e0: c204 033e 138d 643e 73b8 d83d e1c3 f43d
000000f0: 507b 0a3e bfa7 8e3d b334 0f3e f9c1 493e
00000100: 07fe d7ab 0724 973e 23d1 403e f144 2d3e
00000110: df80 013e 976b 893d 7274 203e cd1c 563e
00000120: 0519 f63d 9456 323e 46fe fa3d d20c d13d
00000130: dc1b c43d 0514 273e 1f65 d73d eb54 023e
00000140: 391f fd3d aa8e fa3d 3904 2b3e 0651 d13c
00000150: 15a9 3e3e 427e 0e3e 154e 793e 828e 053e
00000160: b32b 163e 5994 fa3d 3604 f13c 3670 2f3e
00000170: 3277 043e c576 533e 3ad2 523e f9b6 f63d
00000180: 4635 8c3c 34ee c9bc 0e56 783d fbaa 763d
00000190: ddea 533c 4e7b 703d 246e 15bd c4a3 0f3d
000001a0: 157b 993c 3fc6 7e3d 5cbe 0cbb 468e c2ab
000001b0: 402e 373c f5a3 95bc c126 c1ab 13b7 7b3d
000001c0: 4c19 583b 1a99 febc fe7a bf3c b08e 7a3d
000001d0: 1812 7b3b 3fa1 dd3c 674e c4bc 19c2 463d
000001e0: 7da2 773d 6da9 2c3c ed92 763d 6dc2 b63c
000001f0: 1f08 d53b 357b 55bb bb57 11bd 66f2 0b3c
00000200: 4aef fb3b e2d2 dbbc c175 783d e13d 39bd
00000210: ab66 05bd 9c64 64bb d840 d73c a31a f2bc
00000220: c721 a2bc b46d 7b3d 4c46 783d 44ac 063d
00000230: 2982 853c e7e4 993c 5411 063d 989a 6d3d
00000240: b284 9b3b c62e f73b afc2 a33c 6fca 773d
00000250: 93f8 fc3c 91f6 713d 90ef 713d ce64 783d
00000260: ed22 d6bc b075 013d 8c74 783d 1b0f 753d
00000270: eda7 b03c ddc5 063d 92be 13bd 200a 873e
00000280: 9575 c1ab a205 c93c ab16 713b 3a07 00bd
00000290: 47be 963c 5f5d 253d 42dc 64bc 3e6f 05bc
000002a0: 474f 313c ccd8 e9bc 4055 8c3c d106 5c3d
000002b0: a42c 8c3c c746 12bc d390 343c ff6a 8b3c
000002c0: ccc1 743d e1b8 783d 56c2 11bc 0bf1 1b3d
000002d0: 1e42 793c 71f9 a4bc 7a02 173d f1db 8f3c
000002e0: bbec 82bc ebcb 793d c697 123d 93b5 9ebc
000002f0: 9880 91bc 6297 7c3c 2c1e d13c f8ab 773d
00000300: a9a7 4cbe 12e7 713c c9ad 67be 398c 4bbe
00000310: e376 da3c dd56 683e 4ad8 803e 3fee a03c
00000320: af10 af3d 46b1 68be 9eef 14be fb69 ddb3
00000330: a1cf 243e e9e6 643d e97f c6b3 b433 5dbe
00000340: 0333 3bbc b477 5a3d df44 7a3d 36e8 6dbe
00000350: f791 07be 4922 913e dcca 22bd 4ade 923e
00000360: 5553 66be 38ab 143d 4f91 66be f974 bc3c
00000370: 8f36 52bc ad7f 79bd f3dc d23d 1a5b 7e3e
00000380: 72da 8e3e 0993 0cbd 4e27 48be 89fb 62be
00000390: 25af 83be 3cf8 5a3e fb88 163e ad1f 943d
000003a0: 5174 8dbd 8e3d 42be a52f 6b3e 8f9b 12bd
000003b0: d236 44be ee98 763e 8590 e1bc d084 6e3e
000003c0: 157d 9ebe 2d7b 50bd 685d c43d 7318 593e
000003d0: 2acb 3d3e 3abc b2be 2910 6d3e 3881 583e
000003e0: 4e36 6c3b a579 b5bd 0f29 48be eb25 61be
000003f0: d8cd 403e 4f3e f9bd dbeb a6bd 31cb d23d
0.14048702 0.14656927 0.1234376 0.11156525 0.11265635 0.12112651 0.1685681 0.06224062
0.1455465 0.1253666 0.16779478 -1.5393356e-12 0.14651306 0.115204796 -1.5410171e-12 0.120379984
0.12664776 0.11922749 0.2450652 0.121271975 0.21538633 0.23396347 0.17102423 0.44337016
0.12223914 0.14963154 0.12221744 0.13903415 0.12246404 0.10324816 0.13422884 0.29768968
0.17951101 0.17277844 0.105815895 0.30517465 0.1697487 0.15282676 0.08237843 0.13301355
0.14629608 0.11029822 0.124917924 0.01965385 0.16231906 0.14106192 0.14025183 0.12287705
0.2000828 0.10062385 0.12893674 0.11741482 0.081984036 0.46363872 0.12402038 0.11268379
0.12794784 0.2231944 0.10582056 0.119514234 0.13523602 0.06965589 0.13984947 0.19702901
-1.5347176e-12 0.29519674 0.1882978 0.1692083 0.12646817 0.06709974 0.1566942 0.20909424
0.12016491 0.1741584 0.1225553 0.102075234 0.09575626 0.1631623 0.10517334 0.12727706
0.12359471 0.12234242 0.1670083 0.02555133 0.18619187 0.13915351 0.24346192 0.13042644
0.14665107 0.12235326 0.029420953 0.17132649 0.12936094 0.20650776 0.20588008 0.12046618
0.017115247 -0.024649717 0.060628943 0.060221653 0.012934414 0.058711343 -0.03648199 0.03506829
0.018735448 0.06220078 -0.0021475768 -1.3824018e-12 0.01118046 -0.018266657 -1.3724231e-12 0.06145389
0.0032974062 -0.031078864 0.023374077 0.061171234 0.0038310345 0.027054427 -0.023963166 0.04852495
0.060457695 0.010538441 0.060198713 0.022309506 0.0065012123 -0.0032574658 -0.035484057 0.008541679
0.0076884376 -0.026833955 0.060659174 -0.045225028 -0.032568615 -0.0034850007 0.026276037 -0.029553717
-0.019791497 0.061383918 0.060613915 0.03287913 0.016297417 0.018785907 0.03273137 0.05800876
0.004746043 0.0075434176 0.019990293 0.06049579 0.030880248 0.059073035 0.059066355 0.06064301
-0.0261397 0.031606376 0.060658023 0.05982886 0.021564448 0.03290354 -0.036070414 0.26374912
-1.374611e-12 0.024538819 0.0036787193 -0.03125689 0.018401278 0.04037225 -0.013968529 -0.008144198
0.010822124 -0.02854576 0.017130494 0.053717438 0.01711113 -0.008928007 0.011020857 0.017018793
0.05975513 0.06072319 -0.008896431 0.038071673 0.0152135175 -0.020138474 0.036867596 0.01756093
-0.015982023 0.060985487 0.035789274 -0.01937369 -0.017761514 0.015416952 0.025527082 0.060466737
-0.19985832 0.014764564 -0.22624888 -0.1987771 0.026668018 0.22689386 0.25165015 0.019644855
0.08548104 -0.22723874 -0.14544532 -1.0310392e-07 0.16094829 0.055884276 -9.24336e-08 -0.21601754
-0.011425736 0.053336814 0.061100837 -0.23233113 -0.13239275 0.2834647 -0.039744243 0.28685218
-0.22492726 0.0362961 -0.22516368 0.023004996 -0.012830391 -0.060912777 0.10296049 0.2483944
0.27901036 -0.03431991 -0.19546244 -0.22166266 -0.25719562 0.21383756 0.14700691 0.07232604
-0.06906951 -0.18968794 0.22967394 -0.035792883 -0.19161537 0.24081776 -0.027534733 0.23292851
-0.30954805 -0.05089872 0.09588128 0.21200733 0.18534532 -0.3490923 0.23150696 0.21143043
0.003604311 -0.088610925 -0.19546913 -0.21987121 0.18828523 -0.121700875 -0.081504546 0.10292662

rios_f.RIOS_H.rnn_cell1.weight_ih f4 [384, 2]
00000000: e77e a73b d8e4 33ba 3217 223b fc9b 2fbd
00000010: dc5c 863b 94ad 7cbb 4a10 30bc f819 76bc
00000020: 9545 303c f636 74bb 6f9a 0cb9 49c0 e1bb
00000030: 3d0f d23c d95a 92bc d5c7 e1bc 308e 49bd
00000040: 8882 bf38 8334 d0bb 75a1 f33c 8b02 9bbb
00000050: 61a7 4c3d d66d 7fbc 7543 4029 ae6e 622b
00000060: a438 543d b877 a9bd 00eb f03c 21e1 1a3c
00000070: e886 0429 1540 5c2b 0660 bb3b 1cf3 76bb
00000080: 4b23 a1ba 1684 ab3c 6621 9abc 18ea c5bc
00000090: 81a2 7d3d a7c2 2e3e c5ba 1e3c 1b7a 8d3b
000000a0: c3a8 e7bc cb6e 77bc 5a52 293c 8f92 34bb
000000b0: 045d 373d e443 6a3c 2c61 b7bb 55b9 8dbc
000000c0: e7b7 4e3b b339 73bb 8d91 1f3c f712 6cbc
000000d0: d0ec 5f3b 4224 90bb 28b1 7a3c 55ec 973c
000000e0: d89b 8eba de38 803b 66d2 1e3c 2889 cabc
000000f0: 53cb a33c a9a0 2cbb 3633 883b 6395 5d3a
00000100: 0ce4 2e3c 81a1 ab3c d2ed 823c 146a 79bb
00000110: 9383 a93b e51f 90bb afa6 5e3c 598d d1bd
00000120: 2fe2 eb3c f95c 023c d1e0 c13a ce34 d9bb
00000130: 22e1 7fbc cf9b 39bc 1474 443c f46f 8d3c
00000140: 92e0 39bb 5586 94bc 76db 993b a2a9 b5bb
00000150: 17b4 013b 5f50 99bb 9d34 86bc f423 a1bc
00000160: 29ef 91bc c11c 9cbc a2ff 55bd b123 d6bd
00000170: df66 ca3b c7d0 b8ba 4c71 04ba 1cf1 d1bb
00000180: 1b48 e43b 4703 103d 6060 983b 128f 763b
00000190: 19da 823c 4f44 793b bd89 623b 9c47 9fbb
000001a0: 24f9 7e3b 9ecd a7bc 10c8 dc3c c7c8 fdbd
000001b0: 6c1d 22ba 6cdc d8bb 9524 873b 3e97 18bc
000001c0: 772f 60bc 12bd 71ba 07b7 39bb c8d0 193d
000001d0: 6ff9 a93b c62f 90bb 66eb e33a 14b0 b0bb
000001e0: 42c5 103c c8f6 a2bc e35e 6a3c 7bb5 033c
000001f0: 0a48 5a3a bd43 0d3c 6f7e 253e c870 0dbe
00000200: c197 c328 5057 5d2b c7da 12bd 81a4 9dbc
00000210: 3eda a63c ba94 69bb 5690 e63c 5b3b e3bb
00000220: 41ad 893c e8b2 7d3c c863 d1bc 844d 08bd
00000230: d57e 5bbb 964b 42bd a1cb 463d 2e73 293d
00000240: 8913 743b 1b01 edbb 4b0f 12bd 9fd1 ebbb
00000250: cf7e ef3c 4a0b 17bb 4082 ea3b 998e 78bc
00000260: 7141 f1bc bd35 4f3d 105b 103c 65de 8bbc
00000270: 8136 813c a104 a2ba f78b 123d 1a67 93bb
00000280: 8c48 863b 56db 3abb c78d 303b f978 8bbb
00000290: 428c bb3c 0799 23bc 2763 3e3c b9c0 383b
000002a0: ae71 ed3b 8ef3 bb3b a4e6 733c baff b93b
000002b0: 28d1 403c e7c0 01bc efff 8d3b d2ed 933b
000002c0: ed96 db3b 6b18 99bc 2d47 a83b f1f3 81bb
000002d0: f3b6 4bbb 12b5 dcbc a741 993b 5791 c9bc
000002e0: ba63 00bc 97df c0bb 32c8 a2bc 0c9f 81bc
000002f0: bbc0 80bb 1279 7bbc 4274 1f3b 4724 99bb
00000300: c295 293c 67b1 953b 18c9 ef3b 2444 843c
00000310: 7fb8 803b c957 16ba 25c2 ba3b 8b79 fe3b
00000320: 0087 b63b 4415 56ba 04d8 5e3b cb89 4739
00000330: 890b 793c 8e8f 9ebc 73ea 19bd ae73 6d3c
00000340: 716d 41bc f6f6 95bc bf82 2b3c c497 013b
00000350: 3820 4eb9 0d7f 78bb febc d32a 36f4 652b
00000360: e87c 85bd 0bc4 e5bc a9e5 0b3d 53e9 02bd
00000370: 8466 ca2a bde0 642b 788f 8a3b 7be6 75ba
00000380: 8db2 a83c 404d 5b3d 6d43 a9bc dcf1 40bd
00000390: 02c6 de3b 6544 553c f878 3e3c 5113 fe3c
000003a0: ce91 17bd a240 cfbd ee1b 063c c604 03bc
000003b0: 2164 02bd 07f3 36bd 1ac6 fa3b d5c8 d43c
000003c0: 26ed 853b 821f cfb8 db46 573c 995f 34bc
000003d0: 0203 813b 49e1 e0b9 5a96 bb3b 679a 37bc
000003e0: 4567 933a 1cd2 f23b a6a7 263b 2f69 bebb
000003f0: 8eb0 1c3d c47b fd3c 4b07 e4ba 0ef3 2dbb
0.0051115635 -0.00068624085 0.0024733064 -0.042873368 0.004100425 -0.003855561 -0.010746071 -0.01502084
0.010758777 -0.0037264205 -0.00013408971 -0.0068893773 0.025642032 -0.017865585 -0.027561108 -0.049207866
9.131903e-05 -0.006353916 0.029740075 -0.0047305278 0.049964312 -0.015590152 4.2691074e-14 8.044493e-13
0.05181183 -0.08274788 0.029408932 0.009453089 2.94269e-14 7.824863e-13 0.005718234 -0.0037681526
-0.0012293843 0.020937007 -0.018814754 -0.024159476 0.061922554 0.17066441 0.009688084 0.0043175346
-0.028278714 -0.015102099 0.010334576 -0.0027553176 0.04476644 0.014298413 -0.0055963006 -0.017300287
0.003154272 -0.003711325 0.009739292 -0.014408818 0.003416825 -0.0043988535 0.015301026 0.01854531
-0.0010880185 0.003913029 0.009693718 -0.024723604 0.019994413 -0.0026340878 0.0041564954 0.00084527413
0.010674488 0.020951035 0.015982542 -0.0038057612 0.0051731556 -0.0043983334 0.013589545 -0.10232038
0.028794376 0.007956737 0.0014791732 -0.0066286093 -0.015617641 -0.011328652 0.011990566 0.017265297
-0.0028362614 -0.01813046 0.0046953512 -0.0055439034 0.001979118 -0.0046787704 -0.01638251 -0.019670464
-0.017814236 -0.01905668 -0.052245744 -0.10456026 0.006176814 -0.0014100306 -0.0005052283 -0.0064069163
0.0069666035 0.035159376 0.0046501607 0.0037621898 0.015973138 0.00380351 0.0034566962 -0.0048608314
0.0038905824 -0.020483788 0.026950866 -0.12391811 -0.0006184194 -0.006618073 0.004124234 -0.009313403
-0.0136831915 -0.0009221594 -0.0028337853 0.037552625 0.0051872055 -0.0044002263 0.001738888 -0.005392084
0.008836092 -0.019893065 0.014304849 0.008038874 0.00083267747 0.008622107 0.16161512 -0.13812554
2.1715162e-14 7.8636143e-13 -0.035853174 -0.01924348 0.020367738 -0.0035641626 0.028144997 -0.006934566
0.016806247 0.015484549 -0.025560275 -0.03327705 -0.0033492346 -0.047435366 0.04853404 0.04136961
0.003724309 -0.007232798 -0.035659116 -0.0071966196 0.029235272 -0.00230475 0.0071566403 -0.015170717
-0.02945015 0.05058836 0.0088107735 -0.01707382 0.01577306 -0.0012360999 0.035778012 -0.0044983746
0.0040980037 -0.0028512082 0.0026939975 -0.0042563644 0.022894029 -0.009985215 0.011620319 0.0028191044
0.0072462177 0.005735821 0.014886532 0.005676237 0.011768617 -0.007919527 0.004333488 0.0045144344
0.0067013414 -0.018688401 0.005135438 -0.0039658477 -0.0031084388 -0.02694181 0.004677016 -0.024605436
-0.007836277 -0.005886029 -0.019870851 -0.01582291 -0.0039292253 -0.01534869 0.002433077 -0.004673514
0.010350646 0.004568267 0.0073176734 0.016145773 0.0039282436 -0.0005735127 0.0056994134 0.007765954
0.0055702925 -0.0008166621 0.0034003267 0.00019029451 0.015200504 -0.019355562 -0.037577104 0.014492912
-0.011805878 -0.018306237 0.010468184 0.0019774297 -0.00019657693 -0.0037917525 3.761227e-13 8.1696054e-13
-0.065179646 -0.028047582 0.034154568 -0.031960797 3.5953543e-13 8.131376e-13 0.0042285286 -0.00093803526
0.020592952 0.05354047 -0.020662034 -0.047105655 0.0067985067 0.013016795 0.011625521 0.03101507
-0.037004285 -0.101197496 0.00818537 -0.007996744 -0.03183377 -0.044665363 0.00765301 0.02597467
0.004087108 -9.876398e-05 0.013139452 -0.01100912 0.003937126 -0.0004289246 0.0057247104 -0.011206246
0.0011245987 0.007410301 0.0025429516 -0.0058108787 0.038254313 0.030942805 -0.0017397193 -0.0026542577

rios_f.RIOS_H.rnn_cell1.weight_hh f4 [384, 96]
00000000: ef34 b5bc a0a8 893b ab76 c8bc 6fbb a4bc
00000010: 4cb9 12bb 2a17 c63c b380 183c 47e6 ab3b
00000020: 4c98 a93b 1e63 c0bc a712 a6bb 9bb4 1a31
00000030: 4edf 803b f165 ad3b 5f02 4331 38c3 c8bc
00000040: 2d1a b6ba 2084 3cba e577 e4bb 5a71 b7bc
00000050: 9036 013b 4b0a b4bb cfa4 b03a 4e82 6dbc
00000060: fb72 c8bc 8ae5 bbba 1af9 c7bc 82ad 783a
00000070: f188 8c3a ebdc 873c 03b9 37bc 158b c63b
00000080: f89f a4bc ef58 0ebc 70ae c2bc 21c1 893b
00000090: 25bd 18bb bfba 813c bb73 9d3a 469e a23c
000000a0: 1c0c 8cbb 7164 c9bc 6334 c93c ae6b 12bc
000000b0: 7345 ccba 57e2 de3b aa81 84bb 7ff2 c63c
000000c0: 42e8 7fbc 0e3d aabc 1aa8 7d3b 3f93 c83c
000000d0: 7ae1 26bc a59e b13c 9147 c83c 2d84 a83c
000000e0: 90e2 70ba 9d3f a93c a6ae c2bc 4068 c8bc
000000f0: 4e9b 873c b59c aabb fb92 08b9 d9e0 ecba
00000100: 9c74 2531 a1f1 e3bb f6fa 1cbc 0d38 9cbc
00000110: 6229 ecba 0dcf f13b 00ee 0dbb 150b 7eba
00000120: 7ad4 423a c185 44bc dd01 7eba 3bcf 8fbc
00000130: 449e 5dbc 260d b43c b0be 3eba 4b78 b3bb
00000140: ce35 c73c ff1c c9bc 473d 293c 3311 693a
00000150: 80c4 84ba 1f8b 183c 7e47 86bb 3ff7 9aba
00000160: fbf3 7d3b 5c6e c8bc d74b 21bc a116 543b
00000170: d094 0cbb c05b 413b 00bb f13b 5ea1 c83c
00000180: 3c25 7dbd c0cf 5a3c 9057 85bd 1cac 36bd
00000190: 7d27 40bc 9321 853d 077f 26bc 79e3 103d
000001a0: f4a2 b13b ceba 3ebd 145e 67bd b3d1 db33
000001b0: d036 d7bc ccfc b73b f016 e033 2568 85bd
000001c0: 6c42 08bc cd71 423b 7668 f2bc 93c8 7dbd
000001d0: b197 6ebd aca2 ba3a 4e79 87bc bd45 a7bc
000001e0: 5258 85bd b531 843a 836a 85bd f18c 82bc
000001f0: caf4 09ba 4d66 823d 3a9e ad3c f29a 2e3c
00000200: 6ef7 70bd 4bb9 9bbb 7488 85bd a90a 593b
00000210: 76bf 8e3c 7a5e 563d 33bc a7bb 1601 663d
00000220: 48b4 1abc 2380 85bd 765d 853d 38cb 3fbd
00000230: 2c8e 70bc 03ab f3bb bcce 84ba 4073 853d
00000240: ef23 40bd ffc7 78bd c3ab 9b3b ad6b 853d
00000250: 92f0 8fbc 921f 603d b374 853d 7cb5 983c
00000260: 1fda ccbc 9fe9 653d 5088 85bd 206b 85bd
00000270: 7e9d 803d 968c b73b eb08 813b d746 ff3b
00000280: 797f dc33 0a19 96bc c787 4bbd 4bf4 52bd
00000290: a19e 3a3c 47c2 4abc 510b 7cbc e892 853c
000002a0: 1c71 9a39 def7 e33c 1a81 7b3c 24e2 12bd
000002b0: f9ee 8bbd 668e 783d 4288 c6bb 973f bebc
000002c0: fa44 853d c95a 85bd 31a1 b03c 4225 553a
000002d0: fd92 d9bb 2e3c c93c 0cc7 0c3c 31fb 23bc
000002e0: 1233 d33c e364 85bd 678b 823c 4008 c6bc
000002f0: cd32 e43b d1bf 86bb 0825 8f3c f269 853d
00000300: f2e8 c6bc 037a c43b 1c02 ddbc 96d5 c1bc
00000310: 7fc7 13bb e399 da3c f289 233c cff8 9a3b
00000320: 0657 c13b e9cb c1bc f72b 88bb f874 f831
00000330: b090 443b 4f67 b43b 4666 0632 b947 ddbc
00000340: 227b 05bb bf91 b63a 683b 2bbc b4ed cbbc
00000350: 3193 9d3b e184 d2bb 4226 083b 121b 87bc
00000360: 310a ddbc 1e96 d5ba c479 dcbc 4a28 883a
00000370: 67e6 a53a 91be 923c d88f 3dbc ca9f e53b
00000380: 80d8 b0bc fc46 2ebc 9c17 d6bc 903d 923b
00000390: 3e8f 5dbb 4e8c 8c3c ac34 2d3b 7f24 b03c
000003a0: 14f9 aabb 0020 debc 9106 de3c 8487 fabb
000003b0: 8d81 aaba cadb 283c c685 88bb 2b85 db3c
000003c0: 2037 87bc f825 babc e8c0 553b 6c33 dd3c
000003d0: 071a 29bc b52a bf3c 471d dd3c 469e bd3c
000003e0: b874 a6ba e5b1 bb3c cb17 d6bc 6e1b ddbc
000003f0: 8e30 893c 4e47 ffbb d277 b739 927c 1f3b
-0.022119967 0.00420101 -0.024470648 -0.020108907 -0.0022388278 0.024180967 0.009308028 0.005245957
0.005175626 -0.023484763 -0.0050681415 2.2512612e-09 0.00393287 0.0052916934 2.8377583e-09 -0.02450715
-0.0013893299 -0.0007191319 -0.0069723004 -0.022392917 0.001971636 -0.005494391 0.0013476851 -0.014496399
-0.02446889 -0.0014335376 -0.024410773 0.0009486304 0.0010721964 0.016584834 -0.011213544 0.0060590603
-0.02009581 -0.008688196 -0.023764819 0.004203931 -0.0023306098 0.015836118 0.001201264 0.019850861
-0.0042739045 -0.024584027 0.024561113 -0.008936806 -0.0015584662 0.006801884 -0.0040437775 0.024285553
-0.015619339 -0.020781066 0.0038704933 0.024484275 -0.010185594 0.021682093 0.024448188 0.020570839
-0.0009189034 0.020660216 -0.02376492 -0.024463773 0.016553547 -0.005206669 -0.00013024725 -0.0018072381
2.4076945e-09 -0.0069562946 -0.009581318 -0.019069696 -0.0018017704 0.0073794187 -0.0021656752 -0.00096909824
0.0007432174 -0.01199478 -0.00096896087 -0.01755487 -0.013526503 0.021978926 -0.00072763395 -0.0054769865
0.024317648 -0.02454996 0.010329551 0.00088908075 -0.0010129362 0.009310513 -0.004097878 -0.0011822953
0.003875016 -0.024466686 -0.009844742 0.003236212 -0.0021451004 0.002950415 0.0073770285 0.024491008
-0.061803088 0.0133551955 -0.06510842 -0.04459773 -0.011728165 0.065005444 -0.010162122 0.035373185
0.005421037 -0.04656487 -0.056486204 1.0236126e-07 -0.026271254 0.0056148525 1.0434985e-07 -0.065140046
-0.008316617 0.0029669881 -0.029590826 -0.06195886 -0.058250133 0.0014239154 -0.016537335 -0.020418996
-0.065109864 0.0010085615 -0.06514456 -0.015936347 -0.00052626117 0.063671686 0.021193612 0.010657059
-0.058829717 -0.0047523133 -0.06520167 0.0033117926 0.01742528 0.052336194 -0.0051188706 0.05615338
-0.009442396 -0.06518581 0.06511967 -0.046824664 -0.014682334 -0.0074361577 -0.0010132412 0.06516123
-0.04690927 -0.060737606 0.0047507 0.06514678 -0.017570768 0.054717608 0.06516399 0.018641226
-0.025006352 0.056131 -0.0652014 -0.06514573 0.06280039 0.005601476 0.0039378307 0.007790427
1.02677355e-07 -0.018322486 -0.049690034 -0.051502507 0.011390359 -0.012375421 -0.015383557 0.016305402
0.00029457442 0.027828153 0.015350604 -0.035860196 -0.0683269 0.060682677 -0.0060587237 -0.023223681
0.06507297 -0.065114565 0.021561237 0.0008130857 -0.006639837 0.024564829 0.008592378 -0.010008619
0.025781188 -0.06513383 0.015935613 -0.024173856 0.0069640637 -0.0041122218 0.017473713 0.06514348
-0.024280999 0.0059959902 -0.026978545 -0.023661416 -0.002254933 0.026684707 0.009981619 0.0047293673
0.0059002666 -0.023656802 -0.0041556316 7.2310478e-09 0.0029993467 0.0055054794 7.823081e-09 -0.02701174
-0.0020367582 0.0013928934 -0.010451175 -0.02489362 0.0048088063 -0.006424532 0.0020774757 -0.0164924
-0.026982399 -0.0016295349 -0.026913531 0.0010387984 0.0012657166 0.017913135 -0.01156994 0.0070075737
-0.02158761 -0.010637041 -0.026134305 0.004462905 -0.0033807303 0.017156746 0.00264291 0.021501778
-0.0052176807 -0.027114868 0.02710274 -0.0076455493 -0.001300858 0.010306308 -0.0041663377 0.026796898
-0.016505778 -0.022723183 0.0032616202 0.027002059 -0.010321147 0.023335794 0.0269915 0.02314676
-0.001269958 0.022911975 -0.026134392 -0.026990619 0.016746785 -0.0077904826 0.00034993753 0.0024335724

rios_f.RIOS_H.rnn_cell1.bias_ih f4 [384]
00000000: 67a6 cd3d 367e b73d b768 ff3d 8a88 243e
00000010: ee82 883c d356 f93d d8ee b13d 8fcf 0b3e
00000020: c364 273d f6df 073e 92e7 af3d cc0f f9ac
00000030: 2822 543e 7f2a 963d fac6 faac cae9 ff3d
00000040: ccb4 613d 8dfc aa3d e9fe a23e 24a3 1b3e
00000050: 4f48 1b3e 9065 3c3d 3be6 0b3e 9c6e f23d
00000060: c5ab ff3d 2c14 823c fca0 fd3d 9a14 f83d
00000070: 9128 1d3c 645d 8f3d f54c fa3d f0d6 c73c
00000080: b178 a43d ce5a c13d 74e4 e63d 223e 953e
00000090: 20cc ba3d 079a 803d c9e5 8c3d 0d67 a83d
000000a0: e25f 893d d496 013e 98d7 013e 6a92 b43d
000000b0: 53ec f93c 972b d73e 6d4c 6d3d 3a88 fb3d
000000c0: 68ac 7b3d a757 ab3d 1a42 f83c 871c 003e
000000d0: 7860 9f3d 1237 a83e 849e 003e 424d 0d3e
000000e0: 4f21 d43d a696 ef3d d6e4 e63d b637 003e
000000f0: e6d4 bf3d bf31 d53d ab2d 9b3d 8062 ba3e
00000100: 788f f9ac bd55 ac3d cc52 163e 308d cb3d
00000110: 0a2a 0b3d 7dd6 e93d ea99 653d 12f9 f63d
00000120: 8814 613c 532d 233e 8477 433d 83b4 ea3d
00000130: 9803 973e 2b5c d93d 4568 ca3c 70c3 833d
00000140: 1002 fa3d 286f 013e 8dcc d63d 730d 633d
00000150: 455a c73c c280 bc3d a0a9 6e3d 93f9 bd3c
00000160: 977d 9a3d 7dce fe3d 39c8 e03d 2f1d c63d
00000170: eb3d bd3d 4578 1b3d 0bdc 483d 4f6f 003e
00000180: 7253 603d 8236 cb3c 538a 843d adba 873d
00000190: 69b4 703c 737d 803d 86b9 4d3d b0c5 243d
000001a0: 2f35 f63c 6e05 903d 57b7 313a d078 d9ac
000001b0: 10dd e6bc ea8e f73c 4950 dbac 1cf0 843d
000001c0: b6fd 453d deec 213d 9fe1 e33b 8933 ad3d
000001d0: 5ec8 563d b448 cd3c 0aff 233d 6ccc f03c
000001e0: 7872 843d 5fe9 a23b 0b29 843d 8832 ed3c
000001f0: f3ef ed3b 4f3e 4f3d eef7 433d 3c16 253c
00000200: a4c2 5e3d 8a53 373d 2503 813d f642 04bc
00000210: 04f4 883d c75b 4c3d 2a7e 653d 4123 463d
00000220: bf4f 1d3d 8d74 853d 139b 843d 5ad9 783d
00000230: 115f 873c 3c90 11bd 2277 cb3c d84a 833d
00000240: 1c4d 1c3d d5aa 4e3d 6444 e93c f3ab 843d
00000250: 73f4 883d b658 e93d b4ec 833d 49ed ba3d
00000260: 4f9d 933d f300 6d3d a104 813d aa4e 843d
00000270: 6040 813d dd05 3f3d 2325 863d 16f8 8bbe
00000280: a6fd d9ac 7e21 cb3b 7a59 783d 9c54 333d
00000290: 900f b43c 2097 813d cd3d 113d 47e8 083d
000002a0: bc9b b93b cdf1 243d b1b8 163d d974 863d
000002b0: 7327 bd3d a4a8 5b3d 9df0 433c 9443 0d3d
000002c0: 73d0 833d acbf 843d 6fe2 853d 3a82 813d
000002d0: 57f8 793c 7830 543d 5dba 943c 801e 4b3c
000002e0: 12bb 503d c2b1 843d fefb a13d 6f40 353d
000002f0: 9cbc 323d 273b 0d3d b6ad 4a3c 0570 843d
00000300: aa85 81be 07c9 813b f2bf 92be 2070 91be
00000310: 4b70 973b d14d 913e 7eb7 473e 6cc2 cb3d
00000320: 616f b93d 8c0a 93be c120 643c f2bc 2fb4
00000330: 51c0 c93d e0d2 753d 0c6c 23b4 b5d5 92be
00000340: bb65 07bc 759a d1ba 4d45 acbd 0275 96be
00000350: 19c4 3e3e 613e 12be 19e8 073e e6cc 93be
00000360: a4df 92be 157e 5dbd 6b1a 92be b235 d4bc
00000370: 3a4a bd3c 979e db3d b761 8fbe 3012 de3d
00000380: c1f0 41be b43e 14be 8b25 89be ea31 ff3d
00000390: 4c9c b2bd 5013 193e fc8a 5a3d 0144 593e
000003a0: 3663 c5bd 7bf4 93be 727b 943e 2864 1abd
000003b0: e02d 0e3d 6775 6d3e 7ed3 dcbd 694a 913e
000003c0: a5c1 02be c442 6bbe ca4b 553d 95fe 923e
000003d0: cff0 e1bd c2e8 083d 2589 933e d56f 943e
000003e0: 4a0a 213d 1c43 7a3e 1725 89be e626 93be
000003f0: b9a5 2a3e fabe d0bd b452 883c 8201 9c3e
0.10041504 0.0895962 0.12471145 0.1606771 0.016663995 0.121747635 0.08688134 0.13653396
0.04086758 0.13269028 0.085890904 -7.0787595e-12 0.20716155 0.07332324 -7.127518e-12 0.124957636
0.055104062 0.083489515 0.31835106 0.15198952 0.15164302 0.045995295 0.13662045 0.11837503
0.12483934 0.01587876 0.12384221 0.121133044 0.009592191 0.07000235 0.1222171 0.024394482
0.080308326 0.09441148 0.11274043 0.29148966 0.09120965 0.062793784 0.068797655 0.082227804
0.06707741 0.12655193 0.12679899 0.08816989 0.030508196 0.42025444 0.057934213 0.122818425
0.061443716 0.08366328 0.030304957 0.12510882 0.07782072 0.32854515 0.12560469 0.13799003
0.103579156 0.11698656 0.11274116 0.12521252 0.09366779 0.10409879 0.0757707 0.36403275
-7.092934e-12 0.08414791 0.14680022 0.09939039 0.03397564 0.114178635 0.056054987 0.12059225
0.013737805 0.15935259 0.0477214 0.11460211 0.2949493 0.10613283 0.024707923 0.06433761
0.12207425 0.12640059 0.10488234 0.055432748 0.024335036 0.09204246 0.058267236 0.023190295
0.075434856 0.12441728 0.109756894 0.09673535 0.092403255 0.037956495 0.049037974 0.12542461
0.05476708 0.024806265 0.06471696 0.066274025 0.014691451 0.062739275 0.050225757 0.040227592
0.030054657 0.07032286 0.0006779334 -6.180924e-12 -0.028181583 0.030219514 -6.233268e-12 0.0649111
0.04833766 0.039532535 0.0069543864 0.08457095 0.05243718 0.025059082 0.040038146 0.029394351
0.06467146 0.0049716677 0.06453141 0.02895476 0.00726127 0.05059653 0.047843866 0.010076102
0.054384843 0.044757403 0.06299428 -0.008072605 0.06687167 0.049892213 0.056028523 0.048373464
0.03840613 0.06516371 0.064748906 0.060754158 0.016524823 -0.035537943 0.02483708 0.0641076
0.038159475 0.050455887 0.028474994 0.06478109 0.0668725 0.113938734 0.06441632 0.0912729
0.072077386 0.057862233 0.06299711 0.064603165 0.06311107 0.04663645 0.06550052 -0.27337712
-6.1956716e-12 0.006199061 0.060632206 0.04378186 0.021980077 0.06327653 0.03545933 0.033424642
0.005664317 0.04026966 0.03679723 0.06565256 0.0923604 0.053627625 0.011959222 0.034488276
0.06436243 0.06481871 0.065373294 0.06323667 0.015256963 0.051804036 0.018155271 0.0123974085
0.050959654 0.06479217 0.07909392 0.0442509 0.043636903 0.03448024 0.0123705175 0.064666785
-0.2529729 0.003960732 -0.28662068 -0.28405857 0.0046215407 0.28379682 0.1950359 0.099491924
0.09054447 -0.28718984 0.013923825 -1.6366883e-07 0.098511346 0.06001556 -1.5219865e-07 -0.2867867
-0.0082640005 -0.0015991466 -0.084116556 -0.29386145 0.18629493 -0.14281608 0.13272132 -0.28867263
-0.2868625 -0.05407532 -0.2853578 -0.02590451 0.023106683 0.10723608 -0.28004238 0.10843313
-0.18939497 -0.14477044 -0.26786456 0.12460692 -0.087212175 0.14948773 0.053355202 0.21217348
-0.096380636 -0.2889746 0.2900043 -0.037693173 0.03471172 0.23189317 -0.107825264 0.28377083
-0.12769182 -0.22974688 0.05207423 0.28709856 -0.11032259 0.0334251 0.2881557 0.2899157
0.039316453 0.24439663 -0.2678611 -0.28740615 0.1666478 -0.10192676 0.016640998 0.304699
